Models/Kepler/Kepler_midpoint_50epoch_Sin()_ReLU()_batchsize_64_shape_torch.Size([1099000, 4])_L_coeff_0.001.pt (torch, 51649 bytes, 6 tensors)

weight f4 [100, 4]
000000 83 d6 e3 3d 5e c8 82 3d 46 39 9b 3a 06 36 54 3e
       0.11124899 0.06385873 0.001184263 0.20723733
000010 7e 27 2a be c3 ca 8d bd 49 8e b3 3d 27 3a 94 be
       -0.16616628 -0.06923439 0.08767373 -0.28950617
000020 5e 19 2c 40 e7 d9 6d c0 1d d6 2c 3f db a1 85 be
       2.6890483 -3.7164247 0.6751421 -0.26100048
000030 1f 04 af bf 15 7a 03 40 6f 19 b4 be 99 cc 94 be
       -1.3673133 2.0543263 -0.35175654 -0.29062346
000040 e0 72 de 3e 2b 4d f0 be f7 b7 83 bf 3a 8f 3b bf
       0.43447018 -0.46933874 -1.0290517 -0.7326542
000050 a2 60 be bd c0 10 f8 bc b0 28 20 bd 36 0b 86 be
       -0.09295775 -0.030281425 -0.039101303 -0.26180428
000060 49 a1 20 3d 84 f1 3c 3c 8e 10 8d be c1 92 11 3e
       0.039216314 0.011532191 -0.27551693 0.14216138
000070 ba c1 31 40 b3 af 7b c0 f5 88 25 3f 53 e3 b5 be
       2.7774491 -3.9325988 0.64662105 -0.35524997
000080 4f a3 9f 40 7a 88 87 bf 8b a9 ed 3e 92 5d 52 be
       4.988685 -1.0588524 0.46418414 -0.20543507
000090 27 14 85 c0 19 5b f6 3f 1e 2c 19 be 41 a6 aa be
       -4.15871 1.9246551 -0.14958236 -0.33329967
0000a0 54 ad f4 bd fb 36 e8 bd d5 eb 62 3e 2f 86 2a be
       -0.11947122 -0.11338612 0.22160275 -0.1665275
0000b0 9f a5 f5 3d 8d 68 e5 3c a2 42 43 3e fb 7d 8e 3e
       0.1199448 0.028003955 0.19068387 0.2783049
0000c0 94 20 4a 3e 2a a9 87 3e 17 07 4a be e5 37 f1 bd
       0.1973899 0.2649625 -0.19729267 -0.11778239
0000d0 3c ac c7 3e 68 4b 8a 40 3e 79 c0 3d c7 39 9c 3f
       0.38998592 4.321705 0.09398125 1.2205132
0000e0 7b 85 02 40 2a 70 81 40 30 b7 77 be 09 44 36 3e
       2.039397 4.044942 -0.24190974 0.17799391
0000f0 36 b2 29 3e e1 7f d1 3d 94 96 d2 3d 75 5e 97 3e
       0.16571888 0.10229469 0.10282627 0.29564252
000100 26 19 7b be b4 6d 99 be 57 d1 d6 3b a8 1a 31 3e
       -0.24521312 -0.2996651 0.006555717 0.17295325
000110 86 5e e2 bd f2 05 42 bd 6a f5 40 be 0d 04 51 be
       -0.11053185 -0.04736895 -0.18843618 -0.20411702
000120 32 3f 8b be 94 d6 d7 3a fb 55 06 3e 01 c6 be 3e
       -0.27196652 0.0016467148 0.13118736 0.3726044
000130 c0 47 73 40 b0 bf ed bf d6 72 11 3f 09 94 25 3f
       3.8012543 -1.8574123 0.5681585 0.6467901
000140 25 39 7e 3e 2e ae bd 3e ff 1c dc 3e 2c fa be be
       0.24826486 0.3704695 0.42990872 -0.3730024
000150 8e 6c fa be 04 0a ee 3e 4b e5 71 3e 6e 0b 99 3e
       -0.48910946 0.46492016 0.23622625 0.29891533
000160 4f 62 2c 40 c5 ff 4c bf 65 52 c0 be ce 26 ba bf
       2.6935003 -0.80077773 -0.37562862 -1.4543092
000170 a1 b0 ce bc be cc 9b 3c 71 fb b2 be 6a 7c bb bd
       -0.025230708 0.019018527 -0.3495746 -0.091545895
000180 6d e0 8e c0 9c a8 04 c0 e5 e8 0d 3f 0f 35 21 3e
       -4.4648957 -2.072791 0.55433494 0.15742896
000190 77 2d 88 c0 8a 69 03 40 27 fd 02 bf db 56 92 3e
       -4.25555 2.0533166 -0.5116753 0.2858189
0001a0 30 d0 97 c0 39 74 e6 bf 35 40 70 3f 5f 64 2d 3f
       -4.7441635 -1.8004218 0.9384797 0.6773128
0001b0 10 a8 00 c0 2b 31 4e 3f df 13 ac 3e 3a c4 57 3f
       -2.0102577 0.80543774 0.3360891 0.8428379
0001c0 0d d5 84 c0 37 94 09 c0 a5 cb 1f 3e ef 12 a8 be
       -4.151007 -2.1496713 0.15605028 -0.32826945
0001d0 81 f6 3a 3e a0 00 bf 3d 12 0e a4 3b d1 c4 cf 3e
       0.18258096 0.09326291 0.00500656 0.40579847
0001e0 c5 a2 79 c0 69 0a 13 c0 de 15 a9 3e 09 fd 67 bf
       -3.9005597 -2.2975104 0.33024496 -0.90620476
0001f0 ca a5 a4 40 3f 9c 0b bf cf 14 8b 3f fa 00 6f be
       5.145238 -0.5453529 1.0865725 -0.23340216
000200 d5 b4 e9 3f 8b 30 8e 40 49 99 ea 3e 6b f4 c4 3e
       1.825831 4.4434257 0.45820072 0.38467726
000210 56 c6 ed be e1 71 ca 3e fd c2 b8 be a3 85 47 bf
       -0.4644038 0.39540008 -0.36086264 -0.7793829
000220 51 e5 a9 3d 5f 17 87 3d 4d 63 15 be 4f 91 81 3e
       0.08295692 0.065962546 -0.14588661 0.25306174
000230 0e 90 93 c0 b8 5a cc 3f 1d 2a 54 bf af 5a 46 3f
       -4.611335 1.5965185 -0.8287676 0.7748212
000240 8b 23 96 3e e5 1d 73 3e a7 cf ad 3d eb 77 3f be
       0.29323992 0.23741873 0.08486872 -0.18698089
000250 86 e6 3f bf 3b 92 99 be 56 d3 b7 bd 05 a9 90 be
       -0.74961126 -0.29994377 -0.08975856 -0.28253952
000260 dd d2 7c 3f b8 7b 36 3f 58 09 20 bf e0 69 21 3f
       0.9875925 0.7128253 -0.6251426 0.6305218
000270 d5 aa 06 40 16 62 0c 40 73 38 48 3f e9 45 0f bf
       2.1041768 2.1934867 0.78211135 -0.5596605
000280 12 88 8d bd c2 8a 2a be 71 32 d5 3e f1 ad 16 bd
       -0.06910719 -0.16654494 0.41640046 -0.036786977
000290 cf 3f a6 bf d1 47 98 c0 56 21 88 bf 55 66 1a bf
       -1.2988223 -4.7587667 -1.0635173 -0.60312396
0002a0 82 09 4e 3f 19 e1 5d 3f 96 43 85 bd e3 30 98 be
       0.8048326 0.86671597 -0.065070316 -0.29724798
0002b0 c4 c9 87 40 a2 1c 21 40 31 39 1a be ec ff a8 3e
       4.2433796 2.5173726 -0.1506088 0.33007753
0002c0 72 c2 84 3e 3b f4 22 3e 99 36 1b be 7c 7a 11 3e
       0.259296 0.15913479 -0.15157546 0.1420688
0002d0 5e 4c 0b 40 1d 7e 10 c0 be 2e a3 bf 73 b8 52 bf
       2.176536 -2.2576973 -1.274864 -0.823127
0002e0 96 c0 8f c0 1e 2b 0b c0 c1 84 04 3f dc 3b 56 3e
       -4.492259 -2.1745067 0.51765066 0.20921272
0002f0 a4 ea 6f bf a3 f8 89 c0 0e 21 05 3a 59 1c 2e bf
       -0.9371741 -4.311601 0.0005078473 -0.68012005
000300 4b 04 09 bd bb 61 a7 bc 56 e0 93 3e 6c ff f4 bd
       -0.03345136 -0.020432344 0.28882092 -0.1196278
000310 b8 ed f4 3d 27 a2 dc 3d 0a 6a 0e 3e 23 15 7d 3e
       0.11959404 0.107731156 0.13907638 0.24715094
000320 f2 b6 84 c0 0c e0 32 c0 f9 ba bf be c2 75 e2 be
       -4.147332 -2.7949247 -0.37447336 -0.44230467
000330 99 6f f5 bc a8 cf 99 bc 30 6a 86 3d 9f c0 b3 bd
       -0.02996044 -0.018775776 0.065632224 -0.08776974
000340 40 f5 f8 bf 51 a8 bb 3f bb bb 81 3e c1 6a d1 3d
       -1.9449844 1.4660741 0.2533854 0.1022544
000350 7e 56 d5 bc 2d 04 90 3d 66 c8 ab 3e 9e c0 a4 bc
       -0.02604222 0.070320465 0.3355133 -0.020111378
000360 ea 1e df 3f 9f a0 df 3f 3c 74 01 3f 00 eb ad 3d
       1.7431309 1.7470893 0.50567985 0.08492088
000370 14 9b 22 c0 b4 c0 36 3f 46 af 15 be 03 1f 21 be
       -2.5407152 0.7138779 -0.14617643 -0.15734486
000380 51 54 82 3d 83 d7 75 3e b7 f5 c0 be bc 28 9d be
       0.06363738 0.24007992 -0.37687466 -0.3069514
000390 ad e5 c8 3f e5 bb 9b be 98 a9 dc 3e af 7d 60 3f
       1.5695091 -0.3041679 0.4309814 0.8769178
0003a0 92 41 d0 3e 9d 74 cd bf 3a 7b a7 be 28 fd 19 3c
       0.40675026 -1.6051213 -0.32711202 0.009398736
0003b0 51 16 90 40 ca d5 fc bf f2 6e 29 be 90 cf 85 3d
       4.502724 -1.9752743 -0.16546229 0.0653373
0003c0 07 69 c7 bd 74 7d 27 be 08 ce 37 be bf e7 98 bd
       -0.09736829 -0.1635645 -0.17949688 -0.07466077
0003d0 8a bc 18 40 50 27 7b 40 1c 26 b6 be 26 9f 92 bf
       2.3865075 3.9242744 -0.3557595 -1.1454818
0003e0 00 f0 8f c0 b3 9d c1 bf 23 31 84 3f a6 e1 42 3e
       -4.498047 -1.5126251 1.0327495 0.1903139
0003f0 d1 84 8d bd a7 f8 45 bd 5f 1e 18 be 75 44 47 be
       -0.06910098 -0.048332836 -0.14855336 -0.19459708

bias f4 [100]
000000 8e 8c a6 bf 74 e2 cb 3f c0 71 c1 3f 3c 8d c4 bf
       -1.3011644 1.5928483 1.5112839 -1.5355601
000010 b5 bc c6 bf 9d db a0 bf c6 b2 c4 3f b4 a3 25 bf
       -1.5526339 -1.2567021 1.5367057 -0.64702916
000020 4c 29 0c be 0a 8a cd bf 26 94 f2 3f 6e bf bf 3f
       -0.13687629 -1.6057751 1.8951461 1.4980295
000030 9f 8b bd 3f 98 a3 c7 bf ab 2a c9 3f f2 e1 de 3f
       1.4808234 -1.55968 1.5716146 1.7412703
000040 0b 52 e0 bf 05 97 b6 3f 72 93 a9 bf 6b e8 c7 3f
       -1.7525038 1.4264838 -1.3248122 1.5617803
000050 8f 0d e0 bf 1b 8c ce 3f 01 94 ca bf 9b f5 c2 3f
       -1.7504138 1.6136507 -1.5826417 1.5231203
000060 d1 a6 ae 3f 5b e3 c7 3f 64 38 c3 bf 52 63 c5 bf
       1.3644658 1.5616258 -1.5251584 -1.5420935
000070 96 a8 cd bf f6 1b 8c 3f df f4 ca bf 44 b0 0c be
       -1.6067073 1.0946033 -1.5855979 -0.13739115
000080 10 b7 c9 3f ae 9a 13 3e b8 66 ba 3f 66 3d c7 bf
       1.5758991 0.14414474 1.4562597 -1.5565612
000090 e2 30 ce 3f 63 71 c6 3f 73 ce c9 3f 32 07 ca 3f
       1.6108668 1.5503353 1.5766128 1.5783446
0000a0 7c a0 bf bf 80 1e c6 3f 1a d1 e7 bf 69 ba c8 3f
       -1.4970851 1.5478058 -1.8110688 1.5681888
0000b0 9e e6 af bf be 58 c4 3f 5d 45 ae bf f4 fa c7 3f
       -1.3742254 1.5339582 -1.3614918 1.562346
0000c0 db 0f ac bf 11 c9 bc bf 9f d3 c7 3f 38 5e da 3f
       -1.3442339 -1.4748861 1.5611457 1.7060003
0000d0 9a 73 cd 3f 2a e1 c7 3f f2 5c cf 3f 04 bf ca 3f
       1.6050904 1.561559 1.620024 1.5839543
0000e0 af d4 da 3f 4f 80 ca bf 25 79 ae 3f 2d 8c f7 3d
       1.7096156 -1.5820407 1.363072 0.12087283
0000f0 65 d3 d1 3f 77 c2 c9 bf 09 4f f6 3e 9c 5f 0f 40
       1.6392637 -1.5762471 0.48107174 2.2402105
000100 0e 3d cd 3f 94 14 bb 3f 06 fb c9 bf 3c 57 e5 bf
       1.6034257 1.4615655 -1.5779731 -1.7917247
000110 9c b8 bc 3f 23 95 c9 bf b8 4d c7 bf b6 9c c4 bf
       1.4743838 -1.5748638 -1.5570593 -1.5360324
000120 29 06 c9 3f b3 79 ba 3f 52 65 c9 3f 2a 85 c6 3f
       1.5705005 1.456839 1.5734046 1.5509388
000130 67 d8 cd bf 19 18 8d bf ed 38 cb bf d7 14 cf bf
       -1.6081666 -1.1022979 -1.5876747 -1.6178235
000140 1f 5e d7 3f 59 56 bb bf 51 69 c2 bf f8 3d c3 3f
       1.6825598 -1.4635726 -1.518839 1.5253286
000150 62 7c d9 3f ea 93 b9 bf 5b 93 cd bf 3f 2b c9 3f
       1.6991084 -1.4498265 -1.6060594 1.5716323
000160 76 03 5f 3f c8 46 ba 3f a0 76 c9 3f 36 ac c2 bf
       0.87114656 1.4552851 1.5739326 -1.5208805
000170 2f 41 b3 3f ad be c9 bf eb c5 c9 bf 21 f2 b1 3f
       1.4004267 -1.5761315 -1.5763525 1.3902017
000180 d3 d5 c4 3f c3 ef 9b bd 62 7e c8 bf 5e 58 c9 bf
       1.5377754 -0.0761409 -1.5663569 -1.5730093

weight f4 [100, 100]
000000 c1 dc bc 3e 5d aa 38 be 88 e5 a7 3d ba 63 29 3e
       0.36887172 -0.18033738 0.081980765 0.16541949
000010 67 7d 20 3d 86 00 a2 3e ad e7 a1 bd 2d 11 b4 3b
       0.039182093 0.31641024 -0.07905517 0.0054952116
000020 26 d6 07 bd c4 d2 a2 3d 58 5e 01 3f 09 6d 27 be
       -0.033163212 0.079503566 0.5053458 -0.16350187
000030 2d c7 c8 3e 2d 41 07 3e ed 61 79 3c 03 fa 46 3e
       0.3921446 0.13208456 0.015221101 0.1943131
000040 b5 99 56 3f d6 df c9 3e ca 31 99 3d d1 ac dd bd
       0.8382829 0.39428586 0.074802 -0.10823978
000050 5f 62 b3 bb d7 e2 9a bb 64 0b d9 bd 25 c6 4b bd
       -0.005474373 -0.0047267484 -0.10597876 -0.049749512
000060 c6 9f ac 3d 1f cb 1a 3e d7 c5 6e 3d b8 11 8d 3e
       0.08428912 0.15116547 0.058294144 0.2755258
000070 2c 4d 89 bd 36 4b e3 be 80 6d 67 3d 18 79 a4 3c
       -0.067041725 -0.4439332 0.05650091 0.020077273
000080 c2 ec 5b bd d6 04 f3 bd 76 05 0f bf 69 8e 9e 3d
       -0.053692587 -0.11866157 -0.5586771 0.07742006
000090 60 02 5a 3a 19 48 38 3e 23 48 32 3d 25 31 16 be
       0.0008316394 0.17996253 0.043525826 -0.14667185
0000a0 9e f6 f0 3e a0 84 9a 3d e4 dd 87 3e 83 0e 66 be
       0.47063154 0.075448275 0.26536477 -0.22466473
0000b0 7d 25 8b 3e 10 1e 85 3e a5 20 1a be 0e b9 d8 3e
       0.2717704 0.25999498 -0.15051515 0.42328686
0000c0 6b 8f 03 3d 27 c2 0c bf d2 34 0e 3c 64 a2 b1 3e
       0.032119196 -0.5498375 0.0086795855 0.34694207
0000d0 45 68 9c 3e ea 82 ba 3d bb 37 7b 3d 9b 9a 1e be
       0.305483 0.09107001 0.061332446 -0.15488665
0000e0 95 9c 3a 3f b5 30 7a 3d a2 01 51 3e b1 99 af 3c
       0.72895175 0.061081607 0.20410779 0.02143559
0000f0 8f 35 2b bf 8e c3 41 3d f1 29 ed 3b 65 6f af 3d
       -0.668786 0.047305636 0.007237666 0.08566169
000100 56 76 8e be 81 9b 84 bd ba 55 40 be 95 34 0a bd
       -0.27824658 -0.064749725 -0.18782702 -0.033741552
000110 39 a2 aa 3e cb 19 94 3c 4b bb 5f be 2d fb 17 3d
       0.3332689 0.018078705 -0.2184879 0.037104774
000120 3d 8c 69 3d b2 16 6c 3f 39 b8 2f be 04 a0 ab bd
       0.057018507 0.9222213 -0.17160119 -0.0838013
000130 75 c2 49 3d e8 f7 df be 9d f3 64 3d 32 92 bf be
       0.049257714 -0.43743825 0.05589639 -0.37416226
000140 41 1f f8 3e 7a ac 8c 3d 00 24 07 be 27 76 80 be
       0.48461345 0.06868835 -0.13197327 -0.25090143
000150 68 53 b8 3f 8b 65 a0 bd b0 79 1b 3e 05 e4 f2 be
       1.4400454 -0.07831868 0.15183139 -0.4743959
000160 92 be ee bb e3 0a 9a 3d 6c 19 61 be c8 70 93 3b
       -0.0072859013 0.07521608 -0.21982354 0.0044995286
000170 8f c6 66 be 2c 0d 59 bd 0a 14 21 bf 9c 85 19 bf
       -0.22536682 -0.052991077 -0.629212 -0.59969497
000180 f4 ab 0e 3d 0b 6b 8d 3c 24 6b 04 be b8 f1 c9 bd
       0.034831956 0.017262956 -0.12931496 -0.09860557
000190 ac 34 f5 3e 04 95 74 be 6c 43 14 bc e2 72 24 3f
       0.47891748 -0.2388497 -0.009049278 0.642378
0001a0 e0 b5 80 3e f2 01 3f 3e 6f f4 2f bf f4 ea c0 3e
       0.2513876 0.18653086 -0.6873235 0.37679255
0001b0 e5 01 3b 3e 1f 27 c9 3e 58 e4 8c be 9f 34 e7 be
       0.18262441 0.3928766 -0.27517962 -0.45157334
0001c0 43 41 1e bf d3 41 71 3f 02 4e 89 bd c4 c8 a3 3e
       -0.6181833 0.94241065 -0.06704332 0.3198911
0001d0 fe b2 0c 3e cd d7 1c bf b3 9a 9a 3d 5b 96 ef bd
       0.13740155 -0.61266786 0.07549038 -0.116986
0001e0 29 54 0a 3f 1e 6c 77 3b 2b 6f f3 be fd c9 03 bf
       0.5403467 0.0037753652 -0.47545752 -0.51480085
0001f0 3a bb 1a 3e 8b b9 13 bf f7 91 d6 be 0a 3f ef be
       0.15110484 -0.5770499 -0.41908237 -0.46727782
000200 74 93 43 3c b0 12 9c be a7 cf 1b bf f5 19 0b 3d
       0.011937011 -0.30483007 -0.6086373 0.0339603
000210 ca c4 57 3e 32 9f f5 be 49 18 3c bf cf 00 de be
       0.21071163 -0.4797302 -0.73474556 -0.43359992
000220 bc 1e e8 bd 4d f7 32 be 9e cb 88 bd ec a8 e5 be
       -0.11333987 -0.1747715 -0.06679462 -0.4485544
000230 e4 9b f2 3b 44 78 29 3e 5f 65 22 3e cb ec 68 be
       0.0074038375 0.16549784 0.15858983 -0.2274658
000240 6d 44 98 bd 2f 01 70 3f d3 af bb 3e 2f 8a 21 3f
       -0.07434926 0.93751806 0.3665758 0.63101476
000250 63 62 ab 3e a0 cc 19 3f db 2c 1a 3e 6f c4 1b bf
       0.334735 0.6007786 0.15056174 -0.6084661
000260 32 43 46 3f 7c b9 63 bf f1 22 58 3a 2e 56 9e be
       0.7744628 -0.889549 0.0008244953 -0.30925125
000270 03 17 0d bf 2f 19 76 bf 9d 28 87 3f 08 48 31 3f
       -0.5511324 -0.9613218 1.0559269 0.69250536
000280 88 30 d2 3e 6c 88 99 be e9 1b 69 bb eb df 48 3e
       0.4105265 -0.29986894 -0.0035569614 0.19616668
000290 9f cd 18 be a8 fd 75 bd 9d ef 33 bf ef 60 85 bd
       -0.14922188 -0.06005636 -0.70287496 -0.06512629
0002a0 36 b2 2b bf fd 4e 0d be 1b 6c 84 be ff 8a ea 3e
       -0.67068803 -0.13799663 -0.25863728 0.4580917
0002b0 7d 6a 6e bd 16 1c 79 bd 00 f4 00 bf 5b e4 37 3e
       -0.058207024 -0.0608178 -0.50372314 0.17958204
0002c0 fe 55 a5 be 22 ab 81 bf 43 96 3a be 48 3e bb 3e
       -0.3229217 -1.013035 -0.18221383 0.36570954
0002d0 17 e4 82 3e aa a1 a5 be ec ee ff bd 70 ac 2f bf
       0.25564644 -0.32349902 -0.124967426 -0.68622494
0002e0 dd b6 22 be f7 b1 7a 3f 84 a1 19 3f b9 72 4e be
       -0.1589007 0.979278 0.6001208 -0.2016095
0002f0 e8 69 c3 be f9 5b 44 be 7a bb 59 3e b1 a0 00 3f
       -0.38166738 -0.1917571 0.21262923 0.50245196
000300 1a a6 a0 bd d9 3c 9b 3e a4 3c 76 3e 3d 10 8c be
       -0.07844181 0.3031986 0.2404657 -0.2735614
000310 83 b0 3e bf 31 84 81 be 97 47 30 3f 59 40 dd be
       -0.74488086 -0.25296167 0.6885924 -0.43213156
000320 a0 4f 58 bf 3d fd c0 3e ca a0 7b bf 96 c9 a2 bf
       -0.844965 0.37693205 -0.9829222 -1.2717769
000330 89 07 18 3f c4 2e eb 3f ee c7 b9 3f 1d 21 73 be
       0.593865 1.8373647 1.4514139 -0.237431
000340 9e 26 9c bf c2 3b f1 be 3d c5 c0 bf b4 a3 f0 be
       -1.2199285 -0.47115904 -1.5060192 -0.46999896
000350 f0 93 93 bf 0b 53 ba bd 70 9c 0c 3f be fd d3 bf
       -1.1529522 -0.090978704 0.54926205 -1.6561811
000360 0d 62 ec bf 54 35 f7 be 4a 8f 87 3f ce 4d b2 be
       -1.8467423 -0.48282874 1.0590603 -0.34824985
000370 0b a7 1d bf d6 9c 8e 3f 80 a2 36 3e 8b ea b7 bb
       -0.6158301 1.1141613 0.17835426 -0.0056126765
000380 a0 fe d1 bf 7e 37 19 be 55 e7 17 bf c8 53 b8 bf
       -1.640583 -0.14962575 -0.5933736 -1.4400568
000390 13 c0 14 bf 89 2b b8 bd b5 35 08 3f af 00 95 3e
       -0.5810558 -0.08992679 0.5320695 0.29102084
0003a0 c8 f3 9d be a2 9c 1f 3e be 06 f4 bf 5d a4 aa be
       -0.30850053 0.15587094 -1.9064558 -0.33328524
0003b0 fe 08 14 3f d7 02 19 bf e6 c5 c6 3d 8c fa 6e 3f
       0.5782622 -0.5976996 0.09705715 0.93351054
0003c0 88 6c 4c bf 44 ef fd 3e bf 2b 30 bf 1e 19 80 3f
       -0.79853106 0.49596608 -0.6881675 1.0007665
0003d0 87 d5 c1 3e 04 c1 91 bf 5a e2 96 3e e5 07 6f bf
       0.3785822 -1.1387029 0.29469568 -0.9337142
0003e0 d5 54 00 40 9a 8e 31 3f fb 27 13 bf 2e c1 87 bf
       2.0051777 0.6935822 -0.5748288 -1.0605829
0003f0 b6 35 ba 3e 13 c5 37 bd 48 40 41 bf f7 7e 37 be
       0.36369103 -0.04486568 -0.7548871 -0.17919527

bias f4 [100]
000000 9a 61 ee ba cd a5 7f 3c 6b 28 be bd a7 fd 02 bd
       -0.0018187047 0.015603495 -0.09285053 -0.031980183
000010 cd 94 23 3c 1d 7f 28 3d 67 2b 96 3d 10 99 3d 3d
       0.009984207 0.04113685 0.07332497 0.04628855
000020 8a 0a 91 3d 58 4a c8 bd 77 c4 38 3d 13 41 9e 3c
       0.07082088 -0.09779805 0.04510924 0.01931814
000030 c3 76 46 bd f8 c5 cc bd 48 b6 bf 3d ed 3c 0a bd
       -0.048453104 -0.09998697 0.09360939 -0.03374951
000040 65 47 b6 bd 90 9c 93 bd e7 4c cb 3c aa db 7b 3d
       -0.08900336 -0.07207596 0.024816943 0.061488785
000050 da 11 29 3c da 96 7f 3c 8d 0c 64 bc 07 44 88 3c
       0.010319198 0.015599931 -0.013919008 0.016634
000060 1a 09 0b bc 82 e6 a3 3d e7 9c 19 3d 6a b1 2f bd
       -0.008486057 0.0800295 0.03750315 -0.042893805
000070 c3 7e 11 3d 27 ac 0f bd 4d 9a 82 bd c3 02 26 bd
       0.03552128 -0.035076287 -0.06377087 -0.040529978
000080 47 0e b2 3d 6a c2 59 3d 13 f8 bb bd 87 e2 b4 3d
       0.086941294 0.053163923 -0.09178176 0.08832269
000090 ca 31 9b bd 0a f5 89 3d 1a de 51 3c e7 82 eb bc
       -0.07577856 0.067361906 0.012809301 -0.028748943
0000a0 67 6c e1 ba 10 2d 6c bd bf b0 b8 3d 27 db 1d bd
       -0.0017198444 -0.057660162 0.09018087 -0.038539078
0000b0 07 3d fb bc 9d d7 a3 bd 05 22 85 3d 55 b0 a4 3d
       -0.030668749 -0.08000109 0.06500629 0.08041445
0000c0 d3 d9 83 3c 2d 6c 89 bc 10 b5 03 3d 2d 29 36 bd
       0.016095078 -0.016775215 0.032155097 -0.044472862
0000d0 bf 55 ca 3d e7 e5 fb bc 03 07 13 3d 37 92 a8 3d
       0.09879636 -0.030749274 0.03589536 0.08231013
0000e0 80 db da bc 02 1b a0 3d e3 67 67 3d 9a 23 f1 ba
       -0.026715994 0.07817651 0.05649556 -0.0018397451
0000f0 60 0e 15 bd 9b 28 9a 3d 03 ef 0c 3d 33 70 e1 3b
       -0.036390662 0.07527276 0.034407627 0.0068798303
000100 7d ae 02 bd 47 f6 bf bd f7 f7 af bd 9a 91 db b9
       -0.031904686 -0.093731456 -0.085922174 -0.00041879417
000110 9b 88 bb bd 75 66 c6 bd a0 b9 d1 bc 73 79 14 bc
       -0.09156915 -0.09687511 -0.025601208 -0.009062159
000120 65 96 99 3d 68 bf 85 bd 35 5a c6 bd 00 78 ca 39
       0.074993886 -0.065306485 -0.096851744 0.0003861785
000130 45 aa bd bd 4d 14 17 bc a8 a6 93 3d cb 8c a9 bd
       -0.09260992 -0.009221149 0.072095215 -0.08278807
000140 40 be bc 3c e0 7d db bc 6a 8d cc 3d 00 9e 22 3b
       0.023039937 -0.02679342 0.0998791 0.0024813414
000150 80 b7 2a bc 67 09 b8 bc 5a 39 48 bd b0 50 93 3d
       -0.010419726 -0.02246542 -0.04888282 0.07193124
000160 ba e0 52 bd 23 31 bb 3d 85 63 89 3d 50 0a ad bd
       -0.051483847 0.091402315 0.06708435 -0.084492326
000170 ad 67 a0 3d 67 32 ed ba 60 aa 7c 3d 10 17 41 bd
       0.078322746 -0.0018096686 0.06168592 -0.047141135
000180 47 4a 8e 3c cd 67 4f 3b b3 dd d2 3b 7a df 95 bc
       0.017369403 0.0031647563 0.00643512 -0.018295038

weight f4 [1, 100]
000000 78 01 c0 3a b2 92 26 3f 5d 90 0e be 4c ec a3 3e
       0.0014648875 0.6506759 -0.13922258 0.32016218
000010 47 f2 36 be 33 ec e6 3e c8 e9 1d 3f 2a f2 3b bb
       -0.17865859 0.4510208 0.61684847 -0.0028678277
000020 e5 64 8a bd 47 3c 67 3e fb 81 80 be 84 e2 1d bc
       -0.06757525 0.22581588 -0.25099167 -0.009636525
000030 71 5a 95 bd 30 87 c8 3d 40 84 b6 bd d8 43 22 be
       -0.07292641 0.0979141 -0.089119434 -0.15846193
000040 f8 d9 96 bf ae a9 a1 3e 16 c0 36 bb e2 98 eb 3a
       -1.1785269 0.31574768 -0.0027885488 0.001797464
000050 d2 e0 c6 ba fe d4 10 39 62 ef f5 bd 02 6e 52 bd
       -0.0015173203 0.00013812256 -0.12008549 -0.051374443
000060 ce 0e db bd e2 d8 c1 ba 7d 64 29 3f c0 28 62 3e
       -0.10696183 -0.0014789368 0.6616896 0.22085857
000070 7d 42 90 3e 74 a4 63 be 3a 02 b2 3e b1 b1 b5 bd
       0.28175727 -0.22230703 0.34767324 -0.088717826
000080 8f 81 9d ba 60 5e 1c be b2 cc 58 3f 29 56 18 be
       -0.0012016761 -0.15270376 0.8468734 -0.14876617
000090 78 35 e1 bd 6e b5 c8 39 ad 7c c3 3e 3f 92 8b 3d
       -0.109965265 0.00038282148 0.38181058 0.068150036
0000a0 32 0b 32 bd dd 95 36 bd bb a6 02 be f9 ec 3d bb
       -0.043467708 -0.044576515 -0.12758915 -0.0028980358
0000b0 34 78 7d 3d 89 9b ac bd 08 fc 6f ba 5d 89 62 be
       0.061882213 -0.084281035 -0.0009154682 -0.22122712
0000c0 c5 2d b2 3e 42 83 9d 3e 1a b6 95 3e 8a 21 fa 3e
       0.34800544 0.30764204 0.29240495 0.48853713
0000d0 e4 df 75 bb 8d bc 53 3e 4a fe b0 3b 8a d6 0e 3d
       -0.0037517482 0.20677395 0.0054014074 0.03487257
0000e0 65 2d cb 3e c6 22 65 bb 48 43 dd 39 cf 51 cc 3e
       0.3968307 -0.0034963354 0.00042202533 0.39906165
0000f0 d4 46 81 3e b7 64 ea 3b 1b 4d 29 3f 45 a0 f4 3e
       0.2524935 0.0071531194 0.6613328 0.47778526
000100 0a 88 ed bc e2 f9 5a 3d bf 97 91 3e b5 86 b8 3e
       -0.028995533 0.053460963 0.28436086 0.36040273
000110 f7 b5 c7 3d 1b c1 ec be cd b9 4f 3b 75 f5 17 3e
       0.09751504 -0.46241078 0.003169644 0.14839728
000120 d2 4e 14 3e 43 5f 06 be 07 67 7f 3b 9b 77 bb 3e
       0.14483193 -0.13122277 0.0038971321 0.3661469
000130 8e ec 6b ba 5e af 1a 3e f8 af 94 38 2c aa 1f 3e
       -0.0008999788 0.1510596 7.089967e-05 0.15592259
000140 95 65 0c ba 26 03 c0 3d bd 7d 39 bd e7 e4 ae ba
       -0.0005355713 0.093756005 -0.04528593 -0.0013343365
000150 0a 14 84 ba a4 40 df 3e 2d 0a 5b 3b 73 9c 0a ba
       -0.0010076773 0.43604004 0.0033422813 -0.0005287595
000160 6a 95 1c bb 2a 11 04 bb 61 f3 d1 3e 31 90 ad 3a
       -0.0023892769 -0.0020151832 0.41005996 0.0013241825
000170 29 a8 6d bf 00 ee 21 3f d1 e6 fd 3e 6b de cb bc
       -0.9283472 0.63253784 0.4959016 -0.02488633
000180 56 e2 bb 3d 63 b5 93 be 0b 46 2c 3e 7a 88 33 bf
       0.091740295 -0.28849325 0.16823594 -0.7013012

S f4 [4, 4]
000000 00 00 00 00 00 00 00 00 00 00 80 3f 00 00 00 00
       0.0 0.0 1.0 0.0
000010 00 00 00 00 00 00 00 00 00 00 00 00 00 00 80 3f
       0.0 0.0 0.0 1.0
000020 00 00 80 bf 00 00 00 00 00 00 00 00 00 00 00 00
       -1.0 0.0 0.0 0.0
000030 00 00 00 00 00 00 80 bf 00 00 00 00 00 00 00 00
       0.0 -1.0 0.0 0.0
