Models/Kepler/Kepler_symplectic midpoint_50epoch_PAU()_Softplus(beta=1.0, threshold=20.0)_batchsize_64_shape_torch.Size([1099000, 4])_L_coeff_0.001.pt (torch, 53666 bytes, 8 tensors)

numerator f4 [6]
00000000: 247b f13f 5270 f7bd 754a acc0 94e3 a63c
00000010: 9d10 30c0 d71c f03d
1.8865705 -0.1208197 -5.384089 0.02037219 -2.751014 0.11724251

denominator f4 [4]
00000000: 496a f23d 6bda 85be 6fe6 1fbe 6f82 d4bd
0.118366785 -0.26143202 -0.15615247 -0.10376441

weight f4 [100, 4]
00000000: 61b2 a23d 96be 1f3a 16a0 4d3d de9a 373e
00000010: c464 613c 1008 bbbd 0a5a 023e 77ea e53d
00000020: 412b 003e 68be d9be 31d4 24bb 071a 62bd
00000030: aebd 1dbd 4661 4c3c ca0e 4cbc 4da1 9fbc
00000040: 9984 cf3d bc1a 7cbe d7fe f1bc 7878 443c
00000050: cb01 7d3f 9e48 c03f 162d 093d 9e26 553d
00000060: 6ce7 f13b 15da 4bbd 79c8 32bc 960e beb9
00000070: a15c dcbc a07e e93e 59eb 24be 7e9a d7bc
00000080: 4995 923e 5dc3 66be 4c48 1bbe 20e1 29be
00000090: ccaf f8be a028 a5bf 192d d63d 706c 22bc
000000a0: 022d c9bd 9454 2b3e f1f0 febc 68da c03c
000000b0: e271 883d 1e50 213d d66f eb3d 7df8 ddbd
000000c0: 7088 953c 2d08 453b a679 0cbe 37ff c83d
000000d0: b4bc 433d b7c3 b6bd f459 df3a 8dfe 1bbe
000000e0: d4f8 503e 2de3 bcbc cd3b 363e 8ca9 ff3c
000000f0: b505 c7be 6c7f 05bf 97a3 01bc d628 06be
00000100: d213 a63c 5f73 3e3d e271 5bba 653c 2f3d
00000110: b188 803d b425 9bbd 334e 233e 9bc0 003e
00000120: a478 693e bd53 94be 5062 253c e59c 2f3e
00000130: 45ff e13e eabd 78bd 437a 753d 5b55 283e
00000140: 43d8 723d 24ba 6cba 9b41 34bc f613 59be
00000150: a4c5 5ebd 3b75 d53d 6fcc 823e dea3 09bb
00000160: ba0c 0fbc 1d53 513c 1d27 b63a bd99 deba
00000170: 5467 7abc 0c90 8dbb b6b0 b43b cb6e a3bb
00000180: dc33 07c0 4ffd d83f c9e7 503b f903 81bc
00000190: 9855 a5bf 85d5 25bf a3d6 00bd db84 41bd
000001a0: 64fa 243f 233a 73bf 50ec c638 27fc 373c
000001b0: 00f8 cabd 2ae9 cabe f742 3abe 47b5 fc3b
000001c0: b8a5 23bf 4008 9e3f 5b0b cabd 2d05 153c
000001d0: 17dc 423f da65 f83e 2d79 003e 5447 0ebe
000001e0: 7071 00bc c5ef 20be e318 6a3c b6e9 61be
000001f0: dea7 83be 5494 38bf 7d1d 24bd 11fb e23d
00000200: 1b59 f83c e148 fabc 5639 023d 97eb 9b3d
00000210: 314e 4b3d ce3d 52bc 1b38 b7bd b2ef 403e
00000220: 9783 a93d 0756 a43d ef51 a33d 1a7e cbbd
00000230: 639d 96bd 870d 6f3e a471 48bc 0d42 283e
00000240: 626a 4ebd 1882 193e 1b6a e63d aa8a 343e
00000250: cf6b f2bb 1219 37bc 21d5 71bd 9eda 8fbd
00000260: 8c0b c9be da9a 853e 3203 953b 590a 1dbc
00000270: 3cf7 10bd b7e6 efbc d351 563e 0656 1fbe
00000280: 9058 d7bf 7d98 9fbe 4860 7cbc 6a6b 313d
00000290: cf9e 31bd c4d2 fb3d 9631 523e e0b7 1f3d
000002a0: fb2e 3a3d d91b 6cbc adb8 febc 78b7 17b9
000002b0: 5cff 953f 0afe 843e f223 f53d e5ab 573d
000002c0: d507 94bd 7e2e 90bd 0941 46bd 02db 983a
000002d0: bceb 95bf 824e 9f3e 46ff 3fbe 85a6 33bc
000002e0: 0e1c fdbc e322 ea3d 7095 8c3c 78e6 ae3b
000002f0: 1a11 0d40 5bad c5bf 31d6 293c dc0c ba3c
00000300: 1c2c debe 8dd8 b43f 1386 c83c c9fd fc3b
00000310: eb74 9fbd 5ff1 c73d 6662 a93d 2d41 093e
00000320: 1221 12bf f3ac 67bf bd2e 143d 03f9 073d
00000330: 4778 ed3b 810f 13be ede7 5ebe 6c9d 243b
00000340: 88ac fa3b 6a36 9d3c 0499 c2bd 262c a13d
00000350: 6bf9 fc3b 90cb b1be 564b 293d 26d4 8dbc
00000360: 5e80 6bbf 97f5 603f 23e4 633c b42a 4c3c
00000370: 7bb2 5f3f 586e ec3d d051 dbbc dcd7 573c
00000380: 95b6 623f 8e44 ba3d a7ea 5c3d 32c4 ef3a
00000390: e204 ac3c 3c5b bd3d 01f9 233d 60a2 dfbc
000003a0: 3220 d63c 413a 063e fd8e 7f3d 97e2 b6bc
000003b0: e052 b63d 5f6c b13d 07e7 43bd a730 103e
000003c0: 9cf3 673f 364a 3a40 787c 293c 0af6 18bc
000003d0: a9c7 e3b8 71d0 65bc feff c7ba 698f 693a
000003e0: 732b 823f 8592 593f 1adc a8bc c16a 51bd
000003f0: 1224 b5bd 9be5 46bd aff5 b5bd f3b1 423e
0.07944179 0.0006093768 0.050201498 0.17930171 0.013756935 -0.09132397 0.1272966 0.11226361
0.125165 -0.4252808 -0.002515089 -0.055200603 -0.03851097 0.012474364 -0.012454698 -0.019486094
0.10132713 -0.24619573 -0.029540462 0.011991613 0.9883086 1.5022161 0.033490263 0.05203878
0.007382324 -0.049768526 -0.010912054 -0.0003625049 -0.026899638 0.4560442 -0.16105403 -0.026318785
0.2862952 -0.22535463 -0.15164298 -0.16589785 -0.48571622 -1.2903023 0.104578204 -0.009913549
-0.09823038 0.16731483 -0.03112075 0.023541644 0.066623464 0.039383046 0.114959404 -0.10838411
0.018253535 0.0030064688 -0.1371828 0.09814303 0.047787383 -0.089240484 0.0017040358 -0.15233822
0.2040742 -0.023057545 0.1779625 0.031208776 -0.38871542 -0.52147555 -0.007912538 -0.13101515
0.020273123 0.046496745 -0.0008371157 0.042782206 0.06276072 -0.07575551 0.159478 0.12573473
0.22799927 -0.28970137 0.01009424 0.17149694 0.44140068 -0.06072799 0.05993105 0.1643881
0.059288274 -0.00090304227 -0.01100197 -0.2119902 -0.054387704 0.104227506 0.25546595 -0.0021002213
-0.008731062 0.012776163 0.0013897155 -0.0016983073 -0.015283424 -0.0043201502 0.0055142296 -0.004987573
-2.1125402 1.6952304 0.0031876436 -0.015748965 -1.2916746 -0.6477893 -0.031454694 -0.04724584
0.64444566 -0.95010585 9.4853924e-05 0.011229551 -0.099105835 -0.39631015 -0.18189608 0.0077120396
-0.6392474 1.2346268 -0.09865447 0.009095472 0.7611708 0.48515207 0.12546225 -0.13894397
-0.007839546 -0.15716465 0.01428816 -0.2206181 -0.2571401 -0.7210133 -0.040067185 0.11083043
0.030315926 -0.03055233 0.03179296 0.076132946 0.049635116 -0.012832118 -0.08946248 0.18841437
0.08277052 0.08024221 0.07974612 -0.09936161 -0.07354238 0.23345004 -0.012234125 0.16431446
-0.050394423 0.14991033 0.11250707 0.17631021 -0.0073981057 -0.011175411 -0.059041146 -0.0702412
-0.39266622 0.26094705 0.0045475 -0.009584987 -0.03539203 -0.029284818 0.20929651 -0.15560159
-1.6823902 -0.31171027 -0.015403815 0.04331533 -0.043364342 0.1229606 0.20526728 0.038993716
0.04545496 -0.014410936 -0.03109392 -0.0001446883 1.1718554 0.25975066 0.11969747 0.052654166
-0.07228056 -0.07040118 -0.048401866 0.0011661949 -1.1712565 0.31114584 -0.18749723 -0.010964994
-0.030897167 0.11432435 0.017161101 0.0053375326 2.2041688 -1.5443529 0.010366009 0.02271121
-0.43393028 1.4128586 0.024477994 0.0077206832 -0.07785972 0.09762835 0.08270721 0.13403769
-0.5708171 -0.90498275 0.036177386 0.03319646 0.007247004 -0.14361383 -0.2176816 0.0025118245
0.007649962 0.019190986 -0.09501842 0.07869749 0.0077201626 -0.34725618 0.04133161 -0.017313074
-0.9199275 0.8787474 0.0139093725 0.012461353 0.87381715 0.11544484 -0.02677241 0.0131740235
0.8855985 0.09095107 0.05393472 0.0018292724 0.020998422 0.09245917 0.04003239 -0.027299106
0.026138399 0.1310816 0.062392224 -0.022324843 0.08902526 0.08663248 -0.047827747 0.1408106
0.90606093 2.9107795 0.010344617 -0.009336004 -0.00010861393 -0.014026747 -0.0015258787 0.00089096144
1.016951 0.84989196 -0.020612765 -0.0511272 -0.088447705 -0.048558813 -0.08884751 0.19013195

bias f4 [100]
00000000: 5e35 85bd de1e a7bd 0e88 913e febb 773e
00000010: 0e08 f1bd 131c 803e e408 b83c b8ec f33d
00000020: 7f9d 97bd de07 233d bd8f b13e 0d60 3fbe
00000030: fcb9 a33d a842 293e ad3e 41be d9f7 54be
00000040: e734 3f3e 5601 883d 5f2a acbe adba 1abb
00000050: 01a2 20be f000 393d 247f 973a bbaf f13b
00000060: 4b43 c23d 90bb b93e 8041 fa3e e01a 8abe
00000070: 5955 cdbe e41b d5be 4920 b1bd f6bf 81be
00000080: c805 aa3d a555 7fbd 22db 6ebe 9949 b5bd
00000090: 154c ebbd a676 863e 46b6 0ebf 09c4 22bc
000000a0: 2183 d43e ab6b cfbd 090c ad3d 3f9e 20bf
000000b0: 9de0 8e3e e664 0bbe 7633 123e 329d 353e
000000c0: 0a90 d13e 3295 a73d 0cac 813e effa 42be
000000d0: cb2d b13d cbb5 e0be da91 c83e 23f8 f23e
000000e0: 4127 0dbf 00b9 263e bf1b 0e3e 3cd8 06be
000000f0: 9b89 9d3d 33a8 ccba 4e93 3f3e f743 d0bd
00000100: e1a9 44be dce3 713e bf3f 0e3e 7f3a d8bd
00000110: dcfc d1bd 44b3 f2bb d509 d83e 2655 2ebb
00000120: 5706 d4bd 3bb7 acbb 444b 973e c769 fabd
00000130: 275a 573d 3876 19bf 221a 29be 1af0 c6be
00000140: dee3 473e 72cf 98be 6e42 c2be 0ae6 09bd
00000150: ed29 a83e ff54 63be 4568 cf3e 6175 4fbe
00000160: cce4 153f 6b87 923d b459 09bf 4902 163e
00000170: d7e2 08be 93c1 a83e 5f4e 843d 05d1 89bc
00000180: c251 983e 116e 4e3e 35f9 4fbe c4fb 46be
-0.065043196 -0.08160184 0.28424114 0.24192807 -0.117691144 0.2502142 0.022465177 0.11910385
-0.07403087 0.039802425 0.34679976 -0.18688984 0.07994458 0.16529334 -0.18871565 -0.20797671
0.18672524 0.0664088 -0.33626077 -0.0023609803 -0.156868 0.04516691 0.0011558277 0.007375685
0.09485491 0.3627591 0.48878098 -0.2697363 -0.40104178 -0.4162284 -0.08648736 -0.25341767
0.08301884 -0.062337536 -0.2332578 -0.08851928 -0.11489121 0.26262397 -0.5574688 -0.009934434
0.41506293 -0.10127958 0.08449561 -0.62741464 0.2790574 -0.13612708 0.14277443 0.17735747
0.40930206 0.081827536 0.25326574 -0.19041036 0.086513124 -0.43888697 0.39173776 0.47454938
-0.5513802 0.1628151 0.13877772 -0.13168424 0.07692262 -0.0015614092 0.18708536 -0.10169213
-0.19205429 0.23622078 0.13891505 -0.10558032 -0.10253307 -0.007406624 0.42195 -0.0026601045
-0.10352772 -0.005270866 0.2954961 -0.12227207 0.05257621 -0.5994601 -0.16513875 -0.38855058
0.19520518 -0.29845768 -0.37941307 -0.033666648 0.32844487 -0.22200392 0.4050924 -0.2025962
0.5855224 0.07154735 -0.536525 0.14649309 -0.13367783 0.32960185 0.064602606 -0.016823301
0.29749876 0.20159175 -0.20309909 -0.19431978

weight f4 [100, 100]
00000000: fbcd 81bb 7df0 6b3c 4c03 853d 5e07 c03d
00000010: 170f 3dbe b0c1 8a3d ca71 3bbe 0e8d 39be
00000020: dbce 8abe a6b2 b9bb 931a b1be 5233 633c
00000030: 8d63 dfbe 468a 69be de6c 88be a78f 0c3d
00000040: 11e7 1bbe 4f8a 1b3e 4999 2cbd df04 69be
00000050: 0a3e f6bd d103 083d 26d4 c0bd 0aea ddbd
00000060: 346a 7938 ecb1 f3bd 15b8 5ebd 1cf4 e63c
00000070: 8ff5 3cbd 1dc0 e2bc 1be2 a8bd 8c6c 0e3e
00000080: 90ed e336 06ba 0f3d 5cd7 ffbd d847 61be
00000090: 7458 05be 661b 9fbc 5324 08bd 5874 003e
000000a0: ff45 f63d c17a 85bd 57df 08be b205 94bd
000000b0: 41ac adbd ebbd 043d 51eb 3d3d 8db5 ebbd
000000c0: 78d6 483d f9c5 66be 9f9f 9cbd a4a7 90bd
000000d0: 7031 9bbe 0da0 d3bd 0f29 f4bd 62cb 2fbe
000000e0: cbdf 873d 8427 863d 74ef 68be bf61 6ebd
000000f0: 97b8 af3d 4e49 2ebe 9965 b83d 034e 25bd
00000100: a697 2e3d cb10 ddbd c4e0 ddbd f919 cc3c
00000110: 0a0b a23d 61e2 06bd 09c8 11bd ba50 a1bd
00000120: 80a2 643d 0d44 fdbd 651f 2ebe 0356 9f3c
00000130: 91da 68be ea73 973d b19a 2ebe b129 353d
00000140: 1138 03be 4d04 df3d bf51 cbbc c9ce e3bd
00000150: 4740 09be 898b 643e f3a4 a3bd 5f86 8cbe
00000160: 2bf5 04bb cc60 67bd b9e4 95bd c193 7c3b
00000170: 7aef adbc b353 9d3d 29d0 55be 46c1 27bd
00000180: e64e 7fbd ca13 4bbe 06fe 97bd 83e3 f43d
00000190: ea15 16be 2179 b6be 41e1 353e 094e e8bd
000001a0: eb5c 153e 5d3a 293e 6c6f 6bbe f072 a5be
000001b0: f3c4 583c 944d efbc 6ce8 323d 89a1 a63b
000001c0: bcac febd 3d1f 1cbe f234 4bbe 91e6 a7bc
000001d0: 7b82 1dba eaef e8bd 768f 5fbe dd16 48bd
000001e0: 9f90 62be 0974 b7bd 9c40 9dbd c9cf 79bd
000001f0: 7dd5 033e 9d1f ba3d 7f02 3c3e f99e f93d
00000200: 0d9f efbd 32cb 7c3d c1ef 903c 95dc da3c
00000210: e1b6 9bbd 59b5 cbbe c412 20bd 96ee 6e3e
00000220: 439f c3bc 9616 16be cab7 00bd 71a2 b4be
00000230: bc96 e3be 0203 1abd 2479 26bd 168e 01be
00000240: 6e0a 3dbe 6594 1ebd 1a22 80bd 367d 453e
00000250: c4a9 383d 1432 8bbe 7049 6ebe 0c0f ee3c
00000260: c711 77bc 5656 a0bd f5bd 06bd 18ec 0b3e
00000270: 85ea 52be f9a2 d2bd ab44 45be 123e 7ebe
00000280: 5de1 873e ce1a dabc cc7d 1abe dbe8 993d
00000290: d1ce 82bc 5dc5 23be 585d 1dbd 27ea e3bd
000002a0: c48e 7d3e e069 95be acbe ab3d cc02 35be
000002b0: ddee 623e 40f2 7abe ffa6 62bd abfe 42be
000002c0: 66fa 2dbe 60ee 85be 415d e6bc 9dda 75be
000002d0: 586c b0be 0a1e 9ebe 109e cbbc 1b55 95bd
000002e0: d70e 0c3e cc87 d9be 7340 2c3e 3c98 8dbd
000002f0: e4e4 9c3e 39d4 6dbc 1678 ce3d 856a 0f3c
00000300: 085b 99be 048f 6cbe f0f1 96be 5cae 49be
00000310: 92a5 3cbe a0ba cf3d ce68 9c3d 6dac 0ebd
00000320: a105 88bc a04b 78bc c6ca 3b3d 0065 acbd
00000330: 17a3 41bb e207 9e3d 1ec3 1cbe 3c70 b6bd
00000340: 021b b9be a305 4d3c e210 4fbe de0c 88be
00000350: 7641 64be eb1b 3abe daf1 ecbd 9abe c43d
00000360: 579c ee3d 8a48 8fbd 9179 4fbc 81f2 593e
00000370: 0bc5 b5be a21a 63bd 7a2c f93d 41ed 5e3e
00000380: 0bbc 0b3e 6d70 42bd ecb8 8c3e 84fb 893d
00000390: b037 873e d555 8fbd f267 5bbd 41eb a6bd
000003a0: 96bc 5abe 3fde 863d a34d e5bd 8d7a 153e
000003b0: 9b8e a53c 1a2b 6abd 665e dc3e c326 293d
000003c0: fe94 a3be 7d5c ff3d 375d 3fbd 1e32 db3d
000003d0: b03f 833c 1d17 f63d 15d5 1cbd 3cea ab3e
000003e0: 7827 81be b276 3dbe 8bc7 e03c 4d70 38be
000003f0: e36f 1bbe 4f9e 23bd 824f 8fbe 9988 3b3e
-0.0039613224 0.014400599 0.064947695 0.09376405 -0.18462788 0.06775224 -0.18305126 -0.18120214
-0.27110943 -0.0056670485 -0.34590587 0.013867216 -0.4363064 -0.22806653 -0.2664556 0.034316685
-0.15224864 0.1518948 -0.04213837 -0.22755764 -0.12023552 0.033206765 -0.09415464 -0.10835655
5.9465136e-05 -0.1189917 -0.054374773 0.028192572 -0.04613262 -0.027679497 -0.08246251 0.13908595
6.792783e-06 0.035089515 -0.124922484 -0.22000062 -0.13022023 -0.019422244 -0.033237766 0.12544382
0.120250694 -0.06517554 -0.13366447 -0.07227649 -0.084801205 0.032407682 0.046366993 -0.115092374
0.04903266 -0.22536458 -0.07647633 -0.07063225 -0.30311155 -0.10333262 -0.11921894 -0.17167428
0.06634482 0.06550506 -0.22747594 -0.058198687 0.085801296 -0.17020151 0.09003753 -0.0403576
0.042625092 -0.10794219 -0.10833886 0.024914728 0.07912262 -0.032930735 -0.03559116 -0.078767255
0.055819035 -0.12366495 -0.17004164 0.019450193 -0.22739626 0.07395156 -0.17051198 0.044229213
-0.12814356 0.10889492 -0.024819253 -0.111234255 -0.13403426 0.22318853 -0.07990446 -0.27446267
-0.0020287733 -0.056488797 -0.07319016 0.0038540217 -0.021232355 0.0768198 -0.20880188 -0.040955804
-0.062331103 -0.19831768 -0.07421498 0.11957457 -0.14656797 -0.3563929 0.17761709 -0.11343009
0.14586227 0.1652617 -0.22991723 -0.32314253 0.01323055 -0.029211797 0.043678686 0.0050851745
-0.1243529 -0.15246291 -0.19844416 -0.020495685 -0.0006008518 -0.11373885 -0.2183207 -0.04884993
-0.22125481 -0.08957679 -0.07678339 -0.060989175 0.12874408 0.09088061 0.18360327 0.12188525
-0.117002584 0.06171722 0.017692449 0.02671651 -0.07603241 -0.39786795 -0.039080396 0.23333201
-0.023879653 -0.14657053 -0.031425275 -0.35280183 -0.4445094 -0.037600525 -0.040642872 -0.12651858
-0.1846101 -0.03871574 -0.06256504 0.19286045 0.045083776 -0.27186644 -0.23270202 0.02905991
-0.015079922 -0.07828967 -0.032896 0.13664281 -0.20597275 -0.10284991 -0.19264476 -0.24828365
0.26539126 -0.02662411 -0.1508705 0.07515117 -0.015967758 -0.15993257 -0.038419098 -0.111286454
0.24761492 -0.2918234 0.08385977 -0.17676848 0.22161432 -0.24506474 -0.05533504 -0.1904246
-0.1699005 -0.26158428 -0.028120639 -0.24009176 -0.3445766 -0.30882293 -0.024855644 -0.07291623
0.13677536 -0.42486417 0.1682146 -0.06913802 0.3064338 -0.01451593 0.10081498 0.008753424
-0.29952264 -0.23101431 -0.2948146 -0.19695419 -0.18422535 0.10143018 0.076371774 -0.034832407
-0.016604247 -0.015154749 0.045847677 -0.08417702 -0.0029546672 0.07716347 -0.15308806 -0.08908126
-0.36153418 0.012513551 -0.20221284 -0.26572317 -0.22290596 -0.18174712 -0.11569567 0.09606667
0.11650913 -0.069962576 -0.012663261 0.21283914 -0.35501894 -0.05544532 0.12166686 0.21770193
0.13645951 -0.0474705 0.27484834 0.06737426 0.26409674 -0.06998793 -0.053565927 -0.0815034
-0.21361002 0.06585359 -0.11196449 0.1459753 0.020209601 -0.05717001 0.4304077 0.04129673
-0.3194961 0.124688126 -0.046719756 0.107029185 0.01602158 0.12016127 -0.03828915 0.33577144
-0.25225425 -0.1850231 0.0274389 -0.1801159 -0.151794 -0.039945897 -0.27990347 0.18313827

bias f4 [100]
00000000: 2492 16be 4e11 bfbd 2cda dcbc f6b8 c63c
00000010: 1901 b6bb 70b7 71be 23e6 dbbd 2f84 22be
00000020: f50a fb3a 5b7f 2abe 5ec7 debd 22d0 3d3e
00000030: f44c 49be 9d9f 2fbd 0340 ed3d 21ec d43d
00000040: 274e 723e ac29 273e 02df eebd 2e66 88be
00000050: 4668 85be ce02 2abd 5b63 c33d 3f37 843d
00000060: 6858 3cbe e192 85bc 365e 27be 6f28 193d
00000070: 0e35 ad3d 0d91 64be b0fb 78be a4fd 30be
00000080: 1f3e 24be 5118 a1be 16c3 ecbd bd4f 03bd
00000090: 4c55 9c3d 1ddb 713d 118d c13d b3b7 233d
000000a0: 7cc3 53bd 304d 51be 9891 74be 6c6e ddbd
000000b0: e828 033e 4dcf 37bd 199a 273e 95d3 2dbe
000000c0: cc83 ea3d 527a 6e3d 5d30 d5bd ea25 1b3e
000000d0: b825 c83d 04ef a3bd d846 423d b330 623c
000000e0: 09d9 c3bd d39f 01be 8b35 2dbd 9521 0dbe
000000f0: b3ab 833c 07bb d1bd f8ef 573d a175 31be
00000100: d42f 6cbd e197 cb3d 47fe 63bd 4eb6 4bbd
00000110: 8e61 5abe 1341 333c 528d 62bd 1fe0 913c
00000120: 5806 a2bc 6206 37bd 4494 a6bd b2da d13c
00000130: 518d b33d c6d5 38ba a0da b33e b77c 88be
00000140: 6da6 6d3c dd37 e0bd b556 83bc a354 d0bd
00000150: 2056 b1bd c906 a8bd 5412 0e3e 76d4 0bbe
00000160: 2d3c cabd 214f fbbd f817 8ebc 8063 083e
00000170: fbe6 88bd 81d8 5dbc a875 9bbd 400e 4a3b
00000180: d187 5abe d96b ac3d ae32 adbd 8468 8dbd
-0.14704186 -0.093294725 -0.026959501 0.024258118 -0.00555433 -0.23605132 -0.107372545 -0.15870737
0.0019153046 -0.16650145 -0.1087787 0.18536428 -0.19658262 -0.04287683 0.11584475 0.103966005
0.23662625 0.1632449 -0.11663629 -0.26640457 -0.26056117 -0.04150658 0.09540435 0.0645585
-0.183931 -0.016305389 -0.16344532 0.037392076 0.08457385 -0.22320957 -0.24314761 -0.17284256
-0.16039322 -0.31463864 -0.11560647 -0.032058466 0.076334566 0.059046853 0.094507344 0.03997011
-0.0517001 -0.20439601 -0.23883665 -0.10812077 0.12808573 -0.04487543 0.16367377 -0.16975243
0.114509195 0.058222122 -0.10409615 0.15151182 0.09772819 -0.08004573 0.047430843 0.013805556
-0.095628805 -0.12658624 -0.04228739 -0.13782342 0.016073084 -0.10240751 0.052719086 -0.17330028
-0.0576628 0.09941078 -0.05566242 -0.049734406 -0.21326277 0.010940808 -0.055310555 0.017807065
-0.019778416 -0.04468382 -0.08133748 0.025616977 0.08767188 -0.00070508977 0.35127735 -0.2665765
0.014505011 -0.10948155 -0.016032556 -0.10172393 -0.08659005 -0.08204419 0.13874179 -0.13655266
-0.09874759 -0.12270952 -0.017345414 0.13319206 -0.06684681 -0.013540388 -0.075908005 0.0030831248
-0.21340872 0.08419008 -0.08456932 -0.069047004

weight f4 [1, 100]
00000000: d183 24bd e318 c63e d960 323e 5a48 3e3e
00000010: c41e 593e feaa bdbc a22d 0bbe faef d1be
00000020: 1e5b 4c3e 6c2e a43e 8f06 733c 5938 943c
00000030: c3b7 19bf c05a 173d e8d3 ad3c ee8c e73c
00000040: e23f 923d ee26 b93c 1bed 013d 6af6 f43c
00000050: b518 89be 3af7 1d3d 9860 023f 7a17 873d
00000060: d6d4 50bd f33d 71be 7a2c cdbe fbc0 123e
00000070: f571 403d 9ed1 debd 154a 19be c5aa bc3c
00000080: 4796 89be 8a05 2fbe 6e9f 553e 3886 42bf
00000090: efb4 043d dece 9f3d 8383 0cbe 6d80 53be
000000a0: ba97 86be 2d8e 7e3d 4972 0cbd a70f 88be
000000b0: 3c66 343c 7da3 26bf 3b27 1fbe fb98 adbe
000000c0: 0089 a4bd f5c4 913e 36fc eabe 4426 19be
000000d0: bb43 3d3d 3080 953e 0ebc dbbd 1475 4ebd
000000e0: 6ee8 463d 723d bdbe ad0e 0fbe 83eb 0bbd
000000f0: 38fe 8bbd 11c6 523d a79f 47be bb49 0d3e
00000100: 6fd0 363e 6233 563e f58c 923d 1324 ae3d
00000110: 2afb 73be 459b cb3d 9d6e 653d e27a 05be
00000120: 9354 e5bd 52e4 283e 4825 02bf 28ae ad3e
00000130: d345 c23d 9078 913e 8be1 a23c d150 72be
00000140: c68d 323d e058 ac3e 15b0 d83e 2df8 bfbe
00000150: 3da4 d8be 5e11 dabe 294d c63d a7a1 3cbd
00000160: 21a1 c93e 1401 6c3e 5289 93bc 7f3c b93d
00000170: 3876 1ebd c806 36bd dd2f be3c 463d b3bd
00000180: e448 12be a796 b83c ab0e 2fbe 2a81 debe
-0.040164772 0.38690862 0.17419757 0.18582287 0.21203142 -0.023152824 -0.13591626 -0.410034
0.19956633 0.32066667 0.014833107 0.018093275 -0.60046023 0.03695178 0.021219209 0.028265443
0.07141091 0.022601571 0.031720262 0.029902656 -0.26776662 0.03856585 0.5092864 0.06596275
-0.050984226 -0.23558788 -0.40072995 0.14331429 0.046983678 -0.10879825 -0.14969666 0.023030648
-0.26872465 -0.17091957 0.20861599 -0.7598605 0.032399114 0.07803129 -0.13722043 -0.2065446
-0.26287633 0.06214731 -0.03428868 -0.26574442 0.011010703 -0.65093213 -0.15542309 -0.33905777
-0.08033943 0.2847058 -0.45895547 -0.14956003 0.04620717 0.29199362 -0.10729228 -0.050404623
0.048561506 -0.36960942 -0.13970442 -0.03416015 -0.06835598 0.051458422 -0.19494496 0.13797657
0.17852949 0.20918038 0.07155792 0.08502974 -0.2382628 0.09941725 0.056013692 -0.13035157
-0.11197772 0.16493347 -0.50838137 0.33921933 0.09485974 0.28412294 0.019882938 -0.23663642
0.043592237 0.33661556 0.4232184 -0.3749403 -0.42312804 -0.42591375 0.09682686 -0.0460526
0.39380744 0.23047286 -0.018009815 0.09044742 -0.03868696 -0.04444006 0.023216182 -0.08751921
-0.14285618 0.022532774 -0.17095439 -0.4345792

S f4 [4, 4]
00000000: 0000 0000 0000 0000 0000 803f 0000 0000
00000010: 0000 0000 0000 0000 0000 0000 0000 803f
00000020: 0000 80bf 0000 0000 0000 0000 0000 0000
00000030: 0000 0000 0000 80bf 0000 0000 0000 0000
0.0 0.0 1.0 0.0 0.0 0.0 0.0 1.0
-1.0 0.0 0.0 0.0 0.0 -1.0 0.0 0.0
