Models/Kepler/Kepler_symplectic euler_50epoch_Tanh()_ReLU()_batchsize_64_shape_torch.Size([1099000, 4])_L_coeff_0.001.pt (torch, 51748 bytes, 6 tensors)

weight f4 [100, 4]
00000000: 25e7 9abe 3b1b 75bf 6e31 04bf f6cd a93e
00000010: dc49 933f 6b79 103f e17d bb3b b9b0 f53d
00000020: 0456 a43e 5271 b63e 30f1 9cbd 31c0 a73d
00000030: 386d 343e 9061 483d c733 5fbe 26c5 19bf
00000040: b747 41bf 8e45 14bf 9975 83be c640 833e
00000050: 8982 433f 13b2 113f a676 37bd 1feb e4be
00000060: d333 563e 9d46 713e 2ed2 c83d 8bc0 3a3c
00000070: 0cb8 933f 7f04 3ebf 1e37 25be 006a 3e3e
00000080: e288 14bf b740 01bf 25ca bd3e 3e32 0cbd
00000090: 2dd6 a43e ebf9 8fbf 636b 173d 56c6 873e
000000a0: acda cf3e 9493 4f3d 6f03 92bd 4a96 313e
000000b0: a803 ed3e 6926 0e3f 8224 90bd bce7 cd3d
000000c0: d5ee ee3e bebf 4fbf e1d0 613c f7f3 01bf
000000d0: 1dad 09bf ea6e fabe bdb6 09be 2bb4 88bc
000000e0: 7402 b0be ee39 fdbe 0c46 cb3e 247f ccbd
000000f0: a324 acbe f601 e23e d187 033e 8f93 3d3d
00000100: ed93 f5bd 0791 f13d 1259 75be 4879 6cbc
00000110: 526d 2c3f 4e68 85be 0f05 ea3e 0773 203e
00000120: 57d2 4b3f bc87 56bf dd37 6bbe 3ae1 6ebe
00000130: c710 82bf 5581 b63d c7d0 5e3d 98b3 dc3e
00000140: e597 b63d fa98 29bf 428b b7bd 8793 e0bc
00000150: e9c7 893e d27a 37bf d99c b53e 5c61 56be
00000160: eaf4 5b3e ec6d 47be 74e6 8d3e bc7d 963d
00000170: ba58 293f f4c0 033f 76e5 f1be 2723 8bbe
00000180: e5de 4f3e 259c c8be 6222 053e 8128 a03c
00000190: b9a0 a2be 7d67 64be 897c b53d d7e2 3abe
000001a0: 6893 d4be f952 0abf 980e 0bbe b533 a63c
000001b0: 60d9 8cbe 7211 183e 985b 603e 49f7 1abe
000001c0: 5d64 45be fa77 853d b1d6 583e aad1 353e
000001d0: 9589 a13f 10aa fabe a6b6 6e3e a17a c6bc
000001e0: d5f6 163e cb98 a83e 492c eabc dc44 233e
000001f0: effa 363e 70bc ec3d 831f c03d 2d2a e7be
00000200: caf2 e5be 1e52 693f 6e13 c03d fbaf 50be
00000210: 0b15 343f b169 893e 6bcb 8fbc 5e79 1ebe
00000220: 7c20 ee3e 1790 53bf 9a6e cf3d 0913 873d
00000230: e5f2 303e baa9 f4be e4cd fdbd 0f74 03bd
00000240: ffbb 6cbf f062 abbf f693 e23d 02b8 d8bb
00000250: 5ba0 8ebe 7c0f 00bf d384 9f3d 0d1a f5bd
00000260: f726 fc3e 4703 f1bd 55c9 aebd 4703 c93e
00000270: bad7 863e ab12 e93e cfa3 efbd 13f4 fd3c
00000280: ad38 713e 81a7 3f3d 8b74 683d d73d b1be
00000290: 64a9 c13e 769f 8cbc 4018 e43c 7ffc 023e
000002a0: 0c61 103f 8511 d6be c328 183e e17d 963d
000002b0: 174d afbd 989b f73e 9383 0bbe b412 243a
000002c0: 76dc ed3e d441 7c3e aff5 8fbb d909 02be
000002d0: 95dd 90bd 6bdf 8dbe 731e 353e 97f2 603c
000002e0: f6d2 2abe cd88 edbe 2a34 423e 8926 9fbe
000002f0: d938 d13e 39df 57be fa8f f23d 989b b53c
00000300: e6ce 92be 5bd1 e4be 2636 98bd a287 ce3d
00000310: 7281 67bf e5c7 35bd 36d2 16be caae b53e
00000320: ed01 c2be 00cb 1e3e a5cb 43be 143b d1bd
00000330: ffb3 b83f e21a 0f3e 3292 50be f570 64bb
00000340: ee4d f1bd 0e14 9bb9 3509 143f 20d6 963e
00000350: c99c 62be f383 1bbf f5a8 213d 9bae cbbe
00000360: c0e9 b93e 57d3 af3f efbf 973d 87be 8e3e
00000370: 62be 8d3f 493e 173f 7d5c 363e ed91 df3d
00000380: 4fb9 cd3e 1825 4ebf d1e4 423e 6926 3bbe
00000390: e265 853e 703c 22bf 00f6 f6be b708 d3bd
000003a0: cde7 4ebf 8562 bb3e d15a 80bd ce76 dcbd
000003b0: bd14 213f f3c1 bdbe 88b7 09be 8a54 6dbd
000003c0: 16a5 8abe b35d 95bf 781c 0c3e fabe 613e
000003d0: 8682 483f faab 89be 8069 4cbe 39d9 18bf
000003e0: ea07 0b3e 2b31 223f ea14 713e 53a1 f13e
000003f0: 2a40 cf3e 7252 be3e de90 e63d 479f 18bd
-0.30254474 -0.95744675 -0.51637924 0.33164948 1.1506915 0.5643527 0.005721793 0.11996598
0.32096875 0.35633332 -0.0766319 0.081909545 0.17619789 0.048921168 -0.21797095 -0.6006645
-0.75500053 -0.5791863 -0.25675657 0.25635356 0.76371056 0.56912345 -0.044790886 -0.44710633
0.20918207 0.23562093 0.098057136 0.011398445 1.1540542 -0.7422561 -0.16134307 0.18595123
-0.58021367 -0.5048937 0.37068287 -0.034227602 0.32194653 -1.1248144 0.036967646 0.26518506
0.4059652 0.05067785 -0.07129561 0.17342487 0.46291852 0.5552736 -0.07038213 0.100539654
0.4666659 -0.8115195 0.013782711 -0.50762886 -0.53779775 -0.48912746 -0.13448615 -0.016687473
-0.34376872 -0.4945826 0.3970188 -0.09985188 -0.33621702 0.4414212 0.12844779 0.0462833
-0.11991105 0.1179524 -0.23959759 -0.014433213 0.6735431 -0.2605614 0.45706984 0.1566888
0.7961783 -0.83800864 -0.22970529 -0.23328105 -1.016137 0.08911387 0.054398324 0.4310577
0.0891569 -0.6624905 -0.08962108 -0.027414097 0.26910332 -0.71671784 0.35471228 -0.20935577
0.21480146 -0.19475526 0.27714884 0.07348201 0.6615101 0.514663 -0.47245377 -0.27175257
0.20299871 -0.3918163 0.13001397 0.019550564 -0.31763247 -0.22305103 0.08861644 -0.18250595
-0.41518712 -0.54032856 -0.13579786 0.020288328 -0.27509594 0.14850405 0.2190994 -0.15133394
-0.19276567 0.06517024 0.21175648 0.17755762 1.2620112 -0.48957872 0.23311862 -0.024228396
0.14742596 0.32929072 -0.02858557 0.15944237 0.17869161 0.11559379 0.093810104 -0.45149365
-0.44911796 0.91140926 0.09378706 -0.20379631 0.7034461 0.2683845 -0.017553052 -0.15475985
0.4650916 -0.8264174 0.101285174 0.065954275 0.17280157 -0.4778574 -0.12392786 -0.032093104
-0.9247436 -1.3389568 0.110633776 -0.0066137323 -0.27856717 -0.5002363 0.07789006 -0.119678594
0.49248478 -0.11768203 -0.08534495 0.39260313 0.2633646 0.45522055 -0.11701166 0.031000173
0.23556776 0.046790604 0.05675177 -0.34617493 0.37824547 -0.01716588 0.027843595 0.12791632
0.5639808 -0.4181024 0.148593 0.07348228 -0.085596256 0.48360896 -0.1362441 0.00062588905
0.4645726 0.24634486 -0.0043933014 -0.12699069 -0.070735134 -0.27709517 0.17687397 0.013729713
-0.16682038 -0.46393433 0.18965212 -0.31084087 0.40863684 -0.21081246 0.118438676 0.02216892
-0.28673476 -0.44690976 -0.07432203 0.10084464 -0.9043189 -0.044380087 -0.14728627 0.35484916
-0.37892094 0.15507126 -0.19120653 -0.102163464 1.442993 0.13975099 -0.20368269 -0.0034857367
-0.11782442 -0.00029578846 0.5782655 0.2946024 -0.22130121 -0.60748214 0.03946777 -0.3978165
0.3631115 1.3736371 0.07409655 0.27879736 1.1073725 0.59079415 0.17808719 0.10916505
0.40180442 -0.8052535 0.19032599 -0.18276371 0.26054293 -0.6337347 -0.48234558 -0.103043966
-0.8082245 0.36598602 -0.06267322 -0.10764848 0.6292227 -0.37062034 -0.13448918 -0.05794195
-0.27079076 -1.166922 0.13682735 0.22045508 0.7832416 -0.2688902 -0.1996212 -0.59706455
0.13577238 0.63356274 0.23543134 0.47193393 0.4047864 0.37172276 0.112581 -0.037261274

bias f4 [100]
00000000: 98ef e93e 1443 f6be 2b2c 423f b66f c5be
00000010: 47e7 3fbf ec2b 20bf 5e56 dfbe f5d9 ee3e
00000020: d9ed 5e3f d2cd e63e 03f5 7fbf bfad b63e
00000030: b36e 09bf b83c fcbe 253b 8abf 0579 483f
00000040: bce4 4e3f f46b a73f d9df 2e3f e37d 65bf
00000050: 625d 223f f548 053f 5d89 883f 8235 fabe
00000060: 786f 11bf e12a 87be 0824 2c3f 091b 7bbf
00000070: e7fa e5be 24af e53e 8256 d73e 5a77 aa3e
00000080: 29f6 d43e 74cf 24bf f354 d8be 9c5f 36bf
00000090: 3d8f eb3e c577 5a3f d4f2 523f 45e7 0dbf
000000a0: 9d7d 7e3e 56c6 4bbf fb9f 743f 3b8b 443f
000000b0: 41f9 263f fd85 c13e 159d 533f 913b 16bf
000000c0: 3caa 3dbf 04ce 4f3f 3caa 6dbf 9559 eebe
000000d0: 35b9 013f 257a 89bf d585 eb3e 23cd e2be
000000e0: b788 04bf fb8c 9bbf ecdf 20bf 05f4 113f
000000f0: e75f c3be a72e e4be 936a 52bf bcf7 103f
00000100: f1df 7f3e 8ef0 a23f b41c 2d3f b02c 463f
00000110: 43e0 04bf 8573 c7be f43c 38bf e84e 43bf
00000120: c3e0 113f a88f 38bf 8a0d 1f3f 05fb 3fbf
00000130: 9486 ef3e f09b 0a3f d553 42bf 7bec d43e
00000140: 8e7b 353f 0c2a de3e 9718 bcbf 0b44 03bf
00000150: c88c 023f b9e5 053f d3bd 3a3f 7300 6d3f
00000160: 3207 3abf 1247 0b3f 7910 b53e f6e7 573f
00000170: e11f 6abf e784 f23e 7394 403f 6e9e f8be
00000180: 13e3 75bf 0727 28bf b6f1 073e bdd0 6ebf
0.45690608 -0.48098052 0.75848645 -0.3856179 -0.74962276 -0.6256702 -0.4362058 0.46650663
0.87081677 0.45078903 -0.99983233 0.35679433 -0.5368454 -0.49265075 -1.07993 0.7830966
0.8081777 1.307982 0.68310314 -0.8964521 0.6342374 0.5206445 1.066692 -0.48868948
-0.5681071 -0.26399902 0.6724248 -0.9808813 -0.44917986 0.44860184 0.42058188 0.33294183
0.41594055 -0.6437905 -0.4225231 -0.7123964 0.4600772 0.85339004 0.82401776 -0.55431014
0.24852605 -0.7959951 0.9555661 0.7677495 0.6522408 0.37797537 0.82661563 -0.5868464
-0.7408788 0.8117373 -0.9283788 -0.4655272 0.5067323 -1.07404 0.46000543 -0.44297132
-0.5177111 -1.2152399 -0.6284168 0.5701297 -0.38159105 -0.44566843 -0.8219387 0.5662801
0.2498777 1.2729661 0.6762192 0.7741194 -0.51904696 -0.38955322 -0.7196801 -0.76292276
0.56983584 -0.720942 0.62130034 -0.749924 0.46782362 0.5414419 -0.7590917 0.4158667
0.70891654 0.43391454 -1.4695004 -0.512757 0.50996065 0.52303654 0.729459 0.9257881
-0.7266723 0.5440532 0.3536413 0.8433832 -0.91454893 0.4736702 0.75226516 -0.48558372
-0.9604961 -0.6568455 0.13275799 -0.9328726

weight f4 [100, 100]
00000000: 28b4 103d c0bd b1be 8393 573e ec4b 49be
00000010: 8e90 fabe 02f6 293d c8de f83d 3714 3fbe
00000020: dfb8 ccbe 0765 0abe cdf6 a7be ba5d 513e
00000030: cc82 84be e34c fbbc 0849 cc3d 1b57 17be
00000040: 0c89 9a3e 1afd 1bbf 0ccc 823e a187 6bbe
00000050: 118e babe 3b26 013e 366d 9f3e 3595 debd
00000060: eb49 bbbe db47 c3bd 0a8e 8ebe 0e9c 443e
00000070: 7953 3a3e e03e 06bf 18da db3c a8da 0e3d
00000080: 6df5 afbe cd4d 833e a1d5 15bf 517d 193e
00000090: c4ab be3e c285 ce3e 1fcc 34be abae 9b3c
000000a0: 8a77 043d a696 abbe e7de d03e 7dd0 d33e
000000b0: f186 7bbe 6d57 833d 7ef5 58be e0e7 b9be
000000c0: 79a8 523e 6ccf b73d d151 8bbe 4ad8 8b3e
000000d0: e147 bebd 9c1c 48bd d294 3d3d 2267 b53e
000000e0: fe66 cd3e 7aee dcbe cad0 52be 9652 b5be
000000f0: 8c50 023e 7098 873d a9ba e3bd 41cf 06be
00000100: 7c7b 163e 94e3 61be b1f7 d6be 131a 463e
00000110: 9a38 bfbd 0960 fdbe 9e63 c43e 61db 52be
00000120: fcfb 3cbe 944c 883e 6c97 2f3e 5c32 6d3e
00000130: 09b2 0d3f 1cd9 853c cc24 90be 73b2 8dbe
00000140: fde2 d63e e681 d4be 3596 38be 0f55 b93e
00000150: 3166 0f3f 42e1 c63d 9271 823e f10b bb3e
00000160: 5de9 c53e e95a cf3d 1d47 bfbe 9720 053e
00000170: a07a 0b3e 0a1a 8f3e b0bb e7be 7c34 ce3d
00000180: dc38 b63e 0c5e 03bf bdca 133e 064f c0be
00000190: 8283 03be f172 d8be 1d8f 7b3e 5829 07bd
000001a0: 4c0a 66bd 7cb3 17be 3b6a f73c 2baf abbe
000001b0: 9e50 29be 4b61 34be b44b 2c3d 5902 8d3e
000001c0: e63e 1cbe f370 e83d 0535 903e f199 5bbe
000001d0: 13ef de3d 8dc9 4abe 7f0e 04bd 2eaa e4bc
000001e0: 4e3c c1be da80 6ebd 72a4 9f3e dd02 8abd
000001f0: a660 17be 4fa8 2ebe e0d2 8ebe f65c b3bc
00000200: ee67 49bd 0039 c9be be30 643e 458d c03e
00000210: 73fb 5f3c c0c8 d83e 4a99 7cbe e8c7 433e
00000220: e258 623e 2da7 1a3e 3fc9 afbe 26d1 833d
00000230: b1a6 1a3e 5d3d 8dbd ce8d a73e d43e 933e
00000240: 298d a0bd 0c3a 96be ae8c cdbd d955 b0bd
00000250: 64e7 a03d dad8 4d3e 9d0c 80bd 422b 063e
00000260: d3e9 c339 a7f9 413e eeb4 c3be 741b 773e
00000270: 64ec a63d b435 5bbe 1582 a7be 05b5 4ebd
00000280: 67b8 663d 824e a3bd 0e54 05be 1b4e 65bd
00000290: 03f4 063e 6652 90be 4028 5fbe 2476 b03e
000002a0: f5bd cfbd bbc7 46be ef06 153e 0a61 30be
000002b0: d345 f13d 9865 3c3d 126b 2f3e c913 863e
000002c0: f9d2 0a3f 5b5e b3bd 72cd cbbe d544 fdbe
000002d0: d22a 173e 0728 acbe 238d 38bd 9adb 903c
000002e0: f0c4 893e aef7 1c3e 2514 b93d 2d61 813e
000002f0: c4be 1dbd f207 ecbd 1a37 cdbd 66e2 523d
00000300: 828a 8b3e 6f82 a93d 74af aabd c2a3 af3e
00000310: ee02 7e3d 2401 5abe 5400 ea3d d4da a3be
00000320: 788a f4be cfad 963e 9f03 39be 9992 01be
00000330: 7bf5 a33e b0ff 9a3d 86cf 3e3e 731e d93e
00000340: a713 003e d0a6 973e 5b6f 053e 7c5c 07bc
00000350: f0fc 1d3f 8a82 153d 6af4 56bd 3054 cf3e
00000360: 1114 c1be 6f0a 97be 423f b1bd 30a2 3ebe
00000370: e478 a23e 2ab2 04bf c331 92be 25aa 103d
00000380: 908f a73d e3b6 7d3e 6e77 093e e001 103e
00000390: 1cf1 a83d c619 483e 4f06 cd3d 094f 98bd
000003a0: 6ebc 89bd 52d7 5ebe 7995 273e c8c6 15be
000003b0: 1760 9cbe 4d43 ff3c b8c7 37be 78ed 873d
000003c0: 75cb c73d be44 193e d67e dcbe d1da 64be
000003d0: 5472 c93d cdb2 12be d8fb d83e 4f43 1e3e
000003e0: 70c1 4fbe 766c e2bd 74c5 8a3e 2adc 60be
000003f0: 1117 c6be 5838 8bbd a75f 7f3e 2252 b8be
0.03532806 -0.3471508 0.21052365 -0.19657868 -0.4893841 0.041494377 0.12151867 -0.18660055
-0.39984795 -0.13515101 -0.32805482 0.2044591 -0.2588104 -0.03067631 0.09974867 -0.14779322
0.30182683 -0.6093308 0.255463 -0.23000957 -0.36436513 0.1261224 0.3113801 -0.10868303
-0.36579832 -0.0953519 -0.27842742 0.19200155 0.18195905 -0.5243969 0.026837394 0.034876496
-0.34366933 0.25645295 -0.58529097 0.1498921 0.37240422 0.40336424 -0.17655991 0.019004187
0.032340564 -0.33513373 0.4079506 0.4137 -0.24563195 0.064131595 -0.21187398 -0.3630972
0.2057208 0.089751095 -0.27210858 0.27313453 -0.092910536 -0.04885541 0.046284504 0.35430247
0.4011764 -0.43150693 -0.20587459 -0.3541457 0.12726039 0.06620872 -0.11119587 -0.13164999
0.14695543 -0.2205947 -0.4198585 0.19345884 -0.09336968 -0.49487332 0.38357252 -0.20591499
-0.184555 0.26620924 0.17147607 0.23163742 0.55349785 0.016338877 -0.28153074 -0.27675208
0.41970053 -0.41505355 -0.1802605 0.36197707 0.56015307 0.09710933 0.25477272 0.36532548
0.38654605 0.101247616 -0.37358943 0.13000713 0.13620996 0.27949554 -0.45260382 0.10068604
0.35590255 -0.5131538 0.14432807 -0.3756029 -0.12843135 -0.42275193 0.24566312 -0.032998413
-0.056162164 -0.14814562 0.030202022 -0.3353208 -0.1653466 -0.1761524 0.042064384 0.27540854
-0.15258369 0.11349668 0.2816545 -0.21445443 0.108854435 -0.19803448 -0.032240387 -0.02791318
-0.3774132 -0.05822835 0.3118015 -0.067388274 -0.14782962 -0.17056392 -0.2789526 -0.021894913
-0.04917138 -0.393013 0.22284219 0.3760778 0.01367079 0.4234066 -0.2466785 0.19119227
0.22104219 0.15102835 -0.34333226 0.06436376 0.1510265 -0.0689647 0.32725376 0.28758872
-0.07839424 -0.2934116 -0.10036598 -0.08610124 0.07856634 0.20102254 -0.06252406 0.13102439
0.0003736751 0.18942891 -0.38223976 0.24131566 0.08150557 -0.21407205 -0.32716432 -0.050465602
0.056328204 -0.079739586 -0.13020346 -0.05598269 0.1317902 -0.28187865 -0.21792698 0.34465134
-0.10143653 -0.19412129 0.14553426 -0.17224517 0.11780896 0.045995325 0.17130688 0.2618697
0.5422817 -0.08758231 -0.3980518 -0.49466577 0.14762428 -0.33624288 -0.045056473 0.01768284
0.26908064 0.15328857 0.090370454 0.25269452 -0.038512006 -0.11524953 -0.100202754 0.05148544
0.2725411 0.08276831 -0.08334246 0.34304625 0.062014513 -0.21289498 0.11425844 -0.3200289
-0.47761893 0.2942948 -0.18067788 -0.12653579 0.32023224 0.075683 0.18633851 0.42406043
0.12507497 0.29619455 0.1303076 -0.008261796 0.61714077 0.036501445 -0.052479185 0.40493917
-0.37710622 -0.29500148 -0.086546436 -0.18616557 0.31732857 -0.51834357 -0.2855359 0.035318512
0.08181679 0.24776797 0.13424465 0.14063215 0.08249113 0.19541082 0.10010969 -0.0743695
-0.06725393 -0.21761826 0.16365613 -0.1462661 -0.3054206 0.031160021 -0.1794728 0.066370904
0.09755603 0.1496763 -0.43065518 -0.22349097 0.098362595 -0.1432602 0.42379642 0.15455364
-0.20288634 -0.110558435 0.2710377 -0.21958986 -0.38689473 -0.06797856 0.24938832 -0.36000162

bias f4 [100]
00000000: 330c 623c 674f 3f3c 956a 883d f044 69bd
00000010: 9525 a33d 9317 a8bc ad24 bbbd b3f8 18bc
00000020: c319 1cbd 6d0d c6bc 9724 5abd c8f2 c43d
00000030: 0dc5 103c 9ad1 813c ab72 cc3d 9d44 51bd
00000040: 8ddb bd3c 2715 403d 2045 493d ca65 313d
00000050: 0098 dc39 cdde d0bc b7dc b43d 47ec 223d
00000060: a773 503c 6758 43bd 6da2 9abd f016 3ebd
00000070: 2700 f9bc 8022 6d3d 50d9 443d fdfd 2cbd
00000080: 3534 a1bd 5a21 39bd a310 87bd 2a4a 193d
00000090: 8d61 acbc 7225 8c3d b07c 5f3d baa6 fbbc
000000a0: 2046 37bd a532 84bd a779 273d 0741 723d
000000b0: 2dee ba3d ea01 3ebd 0058 b3ba 7868 c43d
000000c0: af40 c93d 73a7 ba3c 53b7 81bc 2725 6e3c
000000d0: 93ef e3bc b0ef 48bd 6031 c13d 3794 853d
000000e0: 5fa7 afbd a7cf 183d 6373 3d3d a7b5 64bc
000000f0: df89 a4bd 3085 c73d 5b29 b13d 27fb 1e3d
00000100: 771e 1cbd 2da1 a03c 074b f1bc 5031 113d
00000110: e7a3 afbd c7e0 95bd 60aa 9fbc 87c7 cf3c
00000120: d3e1 febc 1a61 b3bd 4074 5c3c 67b7 393d
00000130: 4004 ac3d b0e7 4abd a743 d83c ba98 09bd
00000140: c774 f7bc cdb7 42bb 5335 953c d38a 8f3d
00000150: 6832 c83d 6d1c 393d 2d42 133d c080 7c3d
00000160: 1d38 753d d0b1 6abd 8d4e b43d a038 3abd
00000170: 73fc 9e3d e231 b2bd 1d2c ba3d 0f24 bf3d
00000180: 9350 163d 10a4 a4bd 271d e4bc 40a0 3b3c
0.013796854 0.011676646 0.06660954 -0.05695051 0.079661526 -0.020519054 -0.09137855 -0.009336638
-0.038110506 -0.024176324 -0.05325755 0.09616619 0.008836043 0.015847016 0.09982809 -0.051090825
0.023175979 0.046895172 0.04913819 0.043309964 0.0004207492 -0.025496865 0.088311605 0.039776113
0.012722886 -0.04769173 -0.075505115 -0.046408594 -0.03039558 0.05789423 0.048058808 -0.04223441
-0.07871286 -0.045197822 -0.0659497 0.037424244 -0.02104261 0.068430796 0.05456227 -0.03071915
-0.04474461 -0.06454972 0.0408875 0.059144046 0.0912746 -0.046388544 -0.0013682842 0.09590238
0.098267905 0.022784924 -0.015834486 0.014535225 -0.027824199 -0.04905671 0.09433246 0.0652241
-0.085768454 0.037307408 0.04625262 -0.013959325 -0.08034109 0.097422004 0.08650466 0.038813736
-0.03811499 0.019608105 -0.029454721 0.03544742 -0.08576184 -0.073182635 -0.01949042 0.025363697
-0.03111354 -0.08758755 0.013455451 0.04534092 0.08399248 -0.04953736 0.026399447 -0.033592917
-0.030207051 -0.0029711605 0.018213904 0.070089005 0.09775239 0.045193125 0.035951782 0.061646223
0.059867967 -0.05729848 0.08804045 -0.045464158 0.077629946 -0.08700921 0.09090445 0.093330495
0.036697935 -0.08039105 -0.027845932 0.011451781

weight f4 [1, 100]
00000000: 6177 1fc0 a29a bebf d3a4 ee3f 7770 26c0
00000010: 5d59 0c3f dcdc 84bf ec89 f83f f383 853f
00000020: d614 09c0 8157 64bf ff37 3a3f e246 a43f
00000030: 91ac 9d3f 8583 2dc0 dcf0 22c0 ac4c 023e
00000040: 81b8 253f 3631 1840 fc71 243f a910 c1bf
00000050: 4af8 03c0 3d89 1ac0 abf0 8cbd aed6 d8bd
00000060: 7d88 143e 9f1b 10c0 af01 13c0 bdb8 7abd
00000070: 4c67 c5be 92d9 03c0 66ae 3440 63ea 0dc0
00000080: 98a6 b63f bfab 13c0 07c2 c73e e962 3fc0
00000090: bb41 d03f 85bf d8bf e2eb 503f 7f32 9e3f
000000a0: eb0f 093f b9e6 023f 81c0 3540 ec44 1cbf
000000b0: b4c6 06c0 0f7b 4a3f 0733 f43e 5905 19c0
000000c0: 3819 b33f 75e8 de3e 13e9 343f 5bff 963f
000000d0: 847d acbf 8885 ed3e 17ea afbd 1af6 6d3f
000000e0: c6c7 1cc0 db59 2640 af76 c63f c641 b5bf
000000f0: fdfd 99bf e6e3 143f 425c b33f bf47 05bf
00000100: b4e6 0640 3ddb cb3f f796 a63e 0717 53be
00000110: cc5b cabf c9f8 c3be d0cf 413f 394e 07c0
00000120: 10a7 b23f 966d 0240 ad8d cdbf 2267 54bf
00000130: cfe9 06c0 345c a63f 8dd5 2c40 aabd b3bf
00000140: 599c 023d 5f46 d6bf 1e6a 8e3e 704f 323f
00000150: ef5e 9c3f 04e9 1e40 cf25 00be a7c8 2a3e
00000160: 7cae f8bf 6e53 2cc0 bfe4 22c0 9d81 4bc0
00000170: 8b9f 21c0 209f 613f f0c2 f13f 872d 14c0
00000180: 05ba 22c0 cf2b 0b40 f155 25c0 fc17 11c0
-2.4916613 -1.489094 1.864405 -2.6006143 0.5482386 -1.0379901 1.941709 1.0430893
-2.1418967 -0.8919602 0.72741693 1.2834132 1.2318288 -2.7111523 -2.545951 0.1272456
0.64734656 2.3780036 0.64236426 -1.5083209 -2.0620294 -2.4146264 -0.06881841 -0.10587822
0.14505191 -2.2516859 -2.2969778 -0.061211336 -0.38555372 -2.0601544 2.8231444 -2.2174308
1.426959 -2.3073575 0.3901522 -2.990412 1.6270059 -1.6933447 0.8160993 1.235916
0.53539914 0.51133305 2.8398745 -0.61042666 -2.1058779 0.7909402 0.4769518 -2.3909514
1.3992071 0.43536726 0.70668143 1.1796678 -1.3475804 0.4639094 -0.08589571 0.92953646
-2.4496932 2.5992343 1.5504969 -1.4160697 -1.2030636 0.58160245 1.401253 -0.520626
2.107831 1.5926281 0.32537052 -0.20614253 -1.5809264 -0.38275746 0.7570772 -2.1141493
1.3957233 2.0379386 -1.6058861 -0.8296987 -2.1080205 1.2996888 2.700534 -1.4042256
0.031887386 -1.6740226 0.27815336 0.6965246 1.2216471 2.4829721 -0.12514423 0.16678105
-1.9428248 -2.6925921 -2.5452116 -3.179786 -2.5253627 0.8813343 1.8887615 -2.3152788
-2.5426037 2.1745489 -2.5833704 -2.267089

S f4 [4, 4]
00000000: 0000 0000 0000 0000 0000 803f 0000 0000
00000010: 0000 0000 0000 0000 0000 0000 0000 803f
00000020: 0000 80bf 0000 0000 0000 0000 0000 0000
00000030: 0000 0000 0000 80bf 0000 0000 0000 0000
0.0 0.0 1.0 0.0 0.0 0.0 0.0 1.0
-1.0 0.0 0.0 0.0 0.0 -1.0 0.0 0.0
