Models/Kepler/Kepler_symplectic euler_50epoch_PAU()_Softplus(beta=1.0, threshold=20.0)_batchsize_64_shape_torch.Size([549500, 4])_L_coeff_0.001.pt (torch, 53486 bytes, 8 tensors)

numerator f4 [6]
0	0xbcecf6a5	-0.028926203
1	0x3f5fb9be	0.87392795
2	0xbc5ea241	-0.013588489
3	0xbf81eebf	-1.0150985
4	0xbf0cbd1e	-0.5497607
5	0xbd8664bd	-0.06562183

denominator f4 [4]
0	0xbf1088c9	-0.5645872
1	0x3fcb1e04	1.5868535
2	0xbfd9c8cd	-1.7014405
3	0xbdbfe7de	-0.09370397

weight f4 [100, 4]
0	0xbdc94684	-0.09827903
1	0x3f01e42e	0.507388
2	0x3ce76460	0.028246105
3	0x3c313deb	0.010817985
4	0xbd4e34e3	-0.050343405
5	0xbfe3a54e	-1.7784822
6	0x3c5999cb	0.013281296
7	0xbc6723b3	-0.014107632
8	0xbff220a2	-1.8916209
9	0x4098c49f	4.7740016
10	0x3aef1e2b	0.0018243244
11	0x3c1ba77b	0.00950038
12	0xbff842e5	-1.9395415
13	0xbe421742	-0.18954185
14	0x3d24188b	0.04006247
15	0xbd407c92	-0.0469938
16	0x40087654	2.1322222
17	0xc079ab9b	-3.901099
18	0x3b9b0266	0.0047305105
19	0xbb753c40	-0.0037419945
20	0xbd74d172	-0.059770055
21	0xbf44e3ae	-0.7690991
22	0x3cef0f2d	0.029182041
23	0xbc198355	-0.009369691
24	0xbed880be	-0.42285722
25	0xbe0f8765	-0.14016493
26	0x3e963a6c	0.29341447
27	0xbea05507	-0.3131487
28	0xbeae2835	-0.3401505
29	0xbe699ca6	-0.22813663
30	0xbcaa0464	-0.020754047
31	0x3cf6ea0f	0.030140905
32	0xbfe1f219	-1.7652007
33	0x3e1c8ea7	0.15288793
34	0x3c0b63df	0.008507698
35	0xbd24eacf	-0.040262993
36	0xc037e4f4	-2.8733492
37	0xc061f534	-3.530591
38	0xbb5d94ac	-0.003381054
39	0x3af928db	0.0019009368
40	0xbee46492	-0.4460798
41	0x3d16dfce	0.03683453
42	0xbbbf6ce2	-0.0058418373
43	0xbc94bc00	-0.018156052
44	0xbf0ff61c	-0.5623491
45	0x3e287614	0.16451293
46	0x3c25e3e4	0.010125134
47	0xbc53ef1e	-0.012935428
48	0x3e565ea0	0.20934534
49	0x406f2ca3	3.7370994
50	0xbc57fb4e	-0.013182474
51	0x3bb30b87	0.0054640207
52	0xbee72afc	-0.45149982
53	0xbe3695e1	-0.17830612
54	0xbbc08a67	-0.005875874
55	0x3c9b281d	0.018940026
56	0x408c1700	4.3778076
57	0xbfaadab7	-1.3347996
58	0x3a7dc2d1	0.0009680214
59	0xbc294f8d	-0.010333908
60	0xbfe03e39	-1.7518989
61	0xbf36fb7a	-0.7147747
62	0x3c2d9044	0.010593478
63	0xbd050d27	-0.032483246
64	0x3ed7edc3	0.42173585
65	0xbeec9ab4	-0.4621178
66	0x3bb4430d	0.005501157
67	0x3b01040c	0.001968625
68	0x3bd11c09	0.006381516
69	0x3dba383f	0.09092759
70	0x3e072839	0.13198937
71	0xbe3bfb5e	-0.18357608
72	0x3ce854ad	0.028360689
73	0xbccba45d	-0.024858648
74	0x3d7e1eec	0.06204121
75	0x3d58da57	0.0529426
76	0x3be44a23	0.0069668456
77	0xbb9687e2	-0.004593835
78	0xbdf54906	-0.11976819
79	0x3df54a23	0.11977031
80	0x3f3a527b	0.72782105
81	0xbe1780d5	-0.1479524
82	0xbacc02f0	-0.001556484
83	0x3d1599cd	0.03652363
84	0x3bdfbf02	0.00682819
85	0xbccd687e	-0.02507424
86	0xbdb02fc1	-0.08602858
87	0xbe2facf1	-0.17155816
88	0x3d0ee3c8	0.034885198
89	0x3b0ec71c	0.002178616
90	0x3cc5842d	0.024110878
91	0xbe084cda	-0.13310567
92	0xbed7f02a	-0.42175418
93	0x3e26e689	0.1629888
94	0x3a9ec5e7	0.0012113423
95	0x3bdb0528	0.0066839643
96	0xbe86e4b7	-0.2634637
97	0x3f4dc515	0.8037885
98	0x3ed3fc51	0.4140344
99	0x3d89ac5d	0.06722329
100	0xbe94abd3	-0.2903734
101	0xbf211978	-0.6292949
102	0xbc286602	-0.010278227
103	0x3c5b309c	0.013378289
104	0xbc9b2481	-0.018938305
105	0x3d497e73	0.049192857
106	0x3df2468e	0.118298635
107	0xbce80f34	-0.028327562
108	0x3eefa074	0.46802104
109	0xbe0bf0ea	-0.1366612
110	0x3a7544eb	0.0009356278
111	0xbc8e6bb0	-0.017385334
112	0x3d5b2a11	0.053506915
113	0xbd71509f	-0.058914777
114	0xbd539c9d	-0.05166303
115	0x3e1d371f	0.15353058
116	0xc006ddd9	-2.1072905
117	0xc08ce15a	-4.4025087
118	0xbbee21f8	-0.007267233
119	0x3c0087c9	0.007844874
120	0x3ec1b015	0.37829652
121	0xbee5dd5d	-0.4489545
122	0xbb2542d8	-0.0025216844
123	0x3d334e92	0.043776102
124	0x3f811e5a	1.0087388
125	0x409047c0	4.5087585
126	0xbb6186f8	-0.0034412723
127	0xbb89502e	-0.0041904664
128	0xbf22abc3	-0.6354334
129	0x3f1ff3f0	0.62481594
130	0x3c212505	0.009835486
131	0xbd34c7a3	-0.0441357
132	0x3eb662e5	0.35622326
133	0xbfa3167d	-1.2741238
134	0x3c1e2755	0.009652932
135	0xbc435e1b	-0.011924292
136	0xc06c4252	-3.6915479
137	0x3fcc43b9	1.5958167
138	0xbb72250d	-0.0036948354
139	0xbc92f201	-0.017937662
140	0x3f8c7468	1.0973024
141	0xc0857387	-4.1703525
142	0x3b979052	0.0046253586
143	0x3b9e26d9	0.0048264083
144	0xbffa9719	-1.9577361
145	0x3eacdd89	0.33762768
146	0xbb739f49	-0.0037173799
147	0xbd632243	-0.055452596
148	0x4020b4bc	2.5110312
149	0x4071eaea	3.779963
150	0xba03b8de	-0.0005024801
151	0x3c338307	0.010956532
152	0xbda65ae7	-0.08122807
153	0xbda969e5	-0.08272151
154	0xbd735536	-0.059407435
155	0xbca7df19	-0.020492123
156	0xbddbdec1	-0.10735846
157	0xc027db3b	-2.6227558
158	0x3c522059	0.012825095
159	0xbc97eff0	-0.018547028
160	0x3cde0477	0.027101738
161	0xbb0e1db0	-0.0021685176
162	0x3df7868a	0.12086208
163	0x3d40b62b	0.04704873
164	0xbf1d50d7	-0.61451477
165	0x40864358	4.1957207
166	0xb929bc04	-0.00016187137
167	0xbb069c78	-0.002054004
168	0xc0846cbd	-4.1382737
169	0xbfa5b681	-1.2946321
170	0x3c81fbfe	0.01586723
171	0xbbfce5e6	-0.0077178357
172	0x3e9c9bd4	0.30587637
173	0xbd80d4ec	-0.062906116
174	0xbd11dc12	-0.035610266
175	0xbee93c16	-0.45553654
176	0x3c098ca5	0.008395349
177	0x3bc780ec	0.0060883667
178	0x3da57a4d	0.08079968
179	0xbe189cdc	-0.14903587
180	0xbc2da82c	-0.010599177
181	0xbc97006a	-0.018432815
182	0xbe2489b3	-0.16068153
183	0xbcc43063	-0.023948854
184	0xbe40d906	-0.18832788
185	0x3ec8aa13	0.39192256
186	0x3b9bd16c	0.0047551896
187	0xba1fc623	-0.00060948933
188	0xbfe6b488	-1.8023844
189	0x3ff29bd6	1.8953807
190	0xbc9fdc47	-0.019514216
191	0xbd0c0e21	-0.034193162
192	0x3ee4a0a1	0.446538
193	0x3dd25584	0.10270217
194	0xbc245e75	-0.010032286
195	0xbd03af95	-0.03214987
196	0x3fff5814	1.9948754
197	0xbf0abde3	-0.54195994
198	0x3bce9e21	0.0063054715
199	0x3c82897c	0.015934698
200	0xbcb2b57f	-0.02181506
201	0x3ae32bfc	0.0017331834
202	0x3d633ad1	0.055476014
203	0x3e184c6e	0.14872906
204	0xbc588fdc	-0.0132178925
205	0x3d52e0de	0.05148398
206	0x3e10128d	0.14069577
207	0x3d99577a	0.07487388
208	0x3c6d928a	0.01450027
209	0xbc307c7b	-0.010771866
210	0xbd862a52	-0.06551041
211	0xbe010267	-0.12598573
212	0xbed8fb2e	-0.42379135
213	0xbe8ff984	-0.28120053
214	0xbe188105	-0.14892967
215	0x3edaff0a	0.42772704
216	0x3bed5356	0.0072426004
217	0xbc3f2223	-0.011665854
218	0x3d9c8fb9	0.076446004
219	0xbe3288da	-0.17435017
220	0x3d411aee	0.047144823
221	0x3ae70cdd	0.0017627735
222	0xbdfd1ee4	-0.123594075
223	0xbdbf692c	-0.09346232
224	0x3ff0f144	1.8823628
225	0xbf6d273d	-0.92638
226	0x3b11caa0	0.0022246018
227	0x3b1fefeb	0.0024404477
228	0xbedfb2e0	-0.43691158
229	0xc08be70c	-4.371954
230	0xbb370f1c	-0.002793259
231	0x3a166010	0.00057363603
232	0x3f5d07c1	0.86339957
233	0x3dd5ce40	0.1043973
234	0xbcbea5c6	-0.023272406
235	0x3d9c3593	0.07627406
236	0xbdf33a22	-0.11876322
237	0x3fcfe580	1.6241913
238	0xbcd276d5	-0.02569143
239	0xbba80243	-0.0051272227
240	0xc06a7799	-3.6635497
241	0xc0266312	-2.5997968
242	0xba93176e	-0.0011222193
243	0xbb1e495d	-0.0024152615
244	0xc030ea7c	-2.7643118
245	0x405d2746	3.455522
246	0x3b997c73	0.004684025
247	0xbba3e8ea	-0.0050021308
248	0x3c489e68	0.012244798
249	0xbc3c0825	-0.011476551
250	0xbe16a709	-0.14712156
251	0xbbd8d4ce	-0.006617165
252	0x3e1d028d	0.15333004
253	0x3ef14738	0.47124648
254	0x3c6504f6	0.013978234
255	0xbc565f89	-0.013084301

bias f4 [100]
0	0x3bf14f75	0.0073642083
1	0xbe83b5f6	-0.25724763
2	0x3ed944b2	0.42435223
3	0x3ea13f0e	0.3149342
4	0x3ef72a50	0.4827447
5	0xbf44c3fb	-0.7686154
6	0xbfc8cbfd	-1.5687252
7	0x3ef2925a	0.47377282
8	0xbd454015	-0.048156817
9	0x3ef4c269	0.47804573
10	0xbeb51020	-0.35363865
11	0xbef32608	-0.47489953
12	0x3ef1b7e8	0.47210622
13	0x3ee0ab54	0.43880713
14	0x3ef5b8ec	0.47992647
15	0x3e9df532	0.30851132
16	0xbf1a4da6	-0.6027473
17	0xbe9973bb	-0.29971108
18	0x3edf9f56	0.4367625
19	0xbf2b0892	-0.6680995
20	0xbf1e2a8a	-0.6178366
21	0xbefb4ac8	-0.4908049
22	0x3eba0810	0.36334276
23	0x3ef1b1e8	0.47206044
24	0xbfa72113	-1.3056968
25	0x3e292ba5	0.16520555
26	0xbf059c30	-0.5219145
27	0x3eec5bff	0.46163937
28	0xbf17a0eb	-0.59229916
29	0x3ee4bbf6	0.44674653
30	0xbefc3f73	-0.49267158
31	0x3efe4a81	0.49666217
32	0xbeb15671	-0.34636262
33	0xbea9bc8c	-0.33151662
34	0x3ee73f3a	0.45165426
35	0x3eead9d8	0.45869327
36	0x3ee16bac	0.4402746
37	0x3ee79aef	0.45235392
38	0xbfbe88aa	-1.4885457
39	0xbe81565b	-0.25261196
40	0xbefa27c3	-0.4885846
41	0x3ef3798a	0.47553664
42	0x3ef121a6	0.47095984
43	0xbfb7a285	-1.4346472
44	0x3ed63b8b	0.41842303
45	0x3ec60aca	0.38680106
46	0x3ee58aef	0.4483256
47	0x3f0a16d5	0.5394109
48	0x3efd0782	0.4941979
49	0xbd928485	-0.07154182
50	0x3ebabc51	0.364718
51	0x3ebb95ad	0.3663763
52	0x3ecdc767	0.40191194
53	0xbfc6b371	-1.5523511
54	0xbf286a66	-0.6578735
55	0xbf0366cc	-0.5132873
56	0x3f0eec58	0.5582938
57	0x3eea7d92	0.45798928
58	0xbf44a0ea	-0.76808035
59	0x3de0fac4	0.1098533
60	0x3ef2c559	0.4741619
61	0x3ef7db82	0.4840966
62	0x3eb352e1	0.3502417
63	0x3eda63d9	0.42654303
64	0x3ef07310	0.46962786
65	0x3ef62673	0.4807621
66	0x3b3886bb	0.0028156477
67	0x3ec7ddd4	0.3903643
68	0xbd5e095c	-0.054208145
69	0x3d1bd2eb	0.038042944
70	0x3ed5b0ac	0.41736352
71	0xbf059420	-0.52179146
72	0x3ec26abf	0.37972066
73	0x3eda5874	0.4264561
74	0xbf11791a	-0.5682541
75	0xbeca393c	-0.3949679
76	0xbf593c02	-0.8485719
77	0x3ee541ae	0.44776672
78	0xbf3d060c	-0.7383735
79	0xbff55f15	-1.9169642
80	0xbf100f7c	-0.5627363
81	0x3eec6bac	0.46175897
82	0x3eeafb67	0.4589493
83	0x3ee5d4ca	0.44888908
84	0x3ee6b793	0.4506193
85	0x3ee4da01	0.44697574
86	0x3ea65b48	0.32491517
87	0xbf385b12	-0.7201396
88	0x3ef97352	0.48720795
89	0x3ed04178	0.4067495
90	0xbfa83666	-1.3141601
91	0x3ef0f89b	0.4706467
92	0xbec00840	-0.37506294
93	0xbfdf3f59	-1.7441207
94	0xbf1f9995	-0.6234372
95	0x3eeeb078	0.4661901
96	0xbf1898f6	-0.596084
97	0xbf2d7a19	-0.6776443
98	0x3eed7ff7	0.46386692
99	0x3f055120	0.5207691

weight f4 [100, 100]
0	0x3f2efd1e	0.68354976
1	0x3f810504	1.0079656
2	0x3fa50976	1.2893512
3	0xbde6796d	-0.11253629
4	0x3fc3c796	1.5295284
5	0x3fcee87e	1.6164701
6	0x3f8de90a	1.1086743
7	0xbfd6bd1e	-1.6776464
8	0x3f3fd4a6	0.7493385
9	0x3ee72f8c	0.45153463
10	0x3fc69edd	1.5517231
11	0x3fd4a389	1.6612407
12	0x3d095771	0.033530656
13	0xbfac246c	-1.3448615
14	0x3fbda787	1.481675
15	0xbf3d3892	-0.73914444
16	0x3fcd0eb6	1.6020114
17	0x3f806002	1.0029299
18	0xbf139f8a	-0.5766531
19	0x3f66da44	0.90176797
20	0x3fa39b9a	1.2781861
21	0x3f607172	0.87673104
22	0x3ef1310e	0.47107738
23	0xbfb47f57	-1.4101361
24	0x3f741b73	0.95354384
25	0xbf637907	-0.8885655
26	0x3fb178ba	1.3864968
27	0xbfac269a	-1.344928
28	0x3fac0b41	1.3440934
29	0x3f320465	0.69537956
30	0x3fe9c1b9	1.8262244
31	0x3f34fa47	0.7069439
32	0x3fd3d802	1.6550295
33	0x3fcc27df	1.5949668
34	0x3ebea21b	0.37233052
35	0x3db2f762	0.08738591
36	0x3e3673e4	0.17817646
37	0x3f58f4ab	0.84748334
38	0x3f3a4139	0.7275577
39	0x3f8d340b	1.1031507
40	0x3fa66af5	1.3001391
41	0x3e723af2	0.23655298
42	0x3f2cbf3e	0.6747931
43	0x3fd69d07	1.6766671
44	0xbd3ee862	-0.046608336
45	0x3f031fb4	0.5122025
46	0xbfa96aad	-1.323568
47	0xbe6f6431	-0.23378064
48	0xbf94c919	-1.162387
49	0x3f2a0a26	0.66421735
50	0x3ea87a4a	0.329058
51	0x3f0a9322	0.54130757
52	0x3f009f3b	0.50242966
53	0x3f638c31	0.8888579
54	0x3fae4117	1.3613614
55	0x3f924c7a	1.1429589
56	0x3c25c3a3	0.010117444
57	0x3f1a29df	0.6022014
58	0x3f999f59	1.2001754
59	0x3ec2de61	0.38060287
60	0x3f7028e8	0.9381242
61	0x3f95bae6	1.1697662
62	0x3f056073	0.52100295
63	0xbfd2f448	-1.6480799
64	0x3fdc3833	1.7204651
65	0xbfeaf980	-1.8357391
66	0x3f0d569d	0.55210286
67	0xbe156e1e	-0.14592788
68	0x3f098d22	0.53730977
69	0xbec46da8	-0.3836491
70	0x3e6eb3de	0.23310801
71	0x3f815ebc	1.0107036
72	0x3e9da33b	0.30788597
73	0x3fcabcca	1.5838864
74	0x3f84a903	1.0364078
75	0x3fc3fb4c	1.5311065
76	0x3f905c1d	1.1278111
77	0x3facc33a	1.3497078
78	0x3fd7e398	1.6866331
79	0x3f8539bd	1.0408245
80	0x3fb3c0d8	1.4043226
81	0x3ea15ea3	0.31517515
82	0xbfba6cc8	-1.4564447
83	0x3f7ec7c5	0.99523574
84	0xbfb44fa3	-1.4086803
85	0x3f96ce05	1.1781622
86	0xbf02d709	-0.5110937
87	0x3fc63447	1.5484704
88	0xbf8b1fe8	-1.0869112
89	0x3e609068	0.21930087
90	0x3f89f9c9	1.0779353
91	0x3fae369c	1.3610415
92	0x3efd9fe0	0.49536037
93	0x3f79ca49	0.9757429
94	0x3fb2aee4	1.3959622
95	0x3f9d0fe1	1.2270471
96	0x3f365bba	0.71233714
97	0x3fc70461	1.5548211
98	0x3f5475f2	0.8299247
99	0xbf61049b	-0.8789765
100	0x3fa26400	1.2686768
101	0x3f0ee3d4	0.5581639
102	0xbf332cb2	-0.69990075
103	0xbdcee5ef	-0.1010245
104	0x3f8c7a51	1.0974828
105	0x3f3963c3	0.7241785
106	0xbdb12266	-0.08649139
107	0xbfc320c3	-1.5244373
108	0xbf7e4bac	-0.99334216
109	0x3f1383a1	0.57622725
110	0x3eb71479	0.35757807
111	0x3f6c675a	0.923452
112	0xbf206c67	-0.6266541
113	0xbfcd0886	-1.6018226
114	0x3f545f9d	0.82958394
115	0xbf8b1051	-1.0864354
116	0x3f021780	0.5081711
117	0xbd299b94	-0.041408136
118	0xbe8269e8	-0.25471425
119	0x3ef8760b	0.4852756
120	0x3f1b9008	0.6076665
121	0x3dace323	0.084417604
122	0x3ec454be	0.38345903
123	0xbf8a791c	-1.081821
124	0xbf9bcfab	-1.217275
125	0xc001de84	-2.0292063
126	0x3ed9ac56	0.42514294
127	0x3f060650	0.5235338
128	0x3dae72c2	0.08517982
129	0xbe0c0319	-0.13673057
130	0xbcbd335a	-0.023095775
131	0xbeed32e3	-0.46327886
132	0xbee52e38	-0.44761825
133	0x3f877b13	1.0584434
134	0x3ea9f614	0.33195555
135	0x3f0d80c3	0.552746
136	0x3eb785ef	0.3584437
137	0xbf075f00	-0.52879333
138	0xbed538d3	-0.41644916
139	0x3e963bc2	0.29342467
140	0x3f257fd8	0.646482
141	0xbed384f5	-0.41312376
142	0x3f488e8a	0.783425
143	0xbfa30b4d	-1.2737824
144	0x3e56af42	0.20965293
145	0xbe3e8f3c	-0.18609327
146	0x3e1d0bcc	0.15336531
147	0xbf077501	-0.5291291
148	0xbf181d76	-0.59419954
149	0xbe190cb4	-0.14946252
150	0x3e2e96f5	0.17049773
151	0x3ea45ce0	0.32102108
152	0x3e25d79b	0.16195528
153	0xbea0a479	-0.31375483
154	0x3c82b90c	0.015957378
155	0xbe70ea82	-0.23526958
156	0x3f7c0140	0.9843941
157	0x3ea570ce	0.32312626
158	0x3f5c2425	0.8599265
159	0x3fafefa8	1.3745012
160	0x3f0c8bbb	0.5490071
161	0xbe71e5a4	-0.23622757
162	0x3e265761	0.1624427
163	0x401d01e8	2.4532413
164	0x3f645ee6	0.89207304
165	0x3ec51fba	0.38500768
166	0xbe955aad	-0.29170743
167	0xbdf8c126	-0.12146215
168	0xbe44ae7e	-0.19207188
169	0xbd167323	-0.036730897
170	0x3d1a9196	0.037736498
171	0x3d32b285	0.04362728
172	0x3c809c8d	0.01569965
173	0xbc195e67	-0.009360886
174	0x3ea3eb1c	0.32015312
175	0x3f9127a5	1.1340224
176	0x3edff661	0.4374266
177	0x3f561a69	0.8363405
178	0x3ed39490	0.41324282
179	0x3f0fd7ad	0.5618847
180	0x3e8a1847	0.26971647
181	0xbd7f80c1	-0.06237865
182	0x3f3bf619	0.7342239
183	0x3f80da3c	1.00666
184	0x3e0abca6	0.13548526
185	0x3f2f4e02	0.68478405
186	0x3e26a398	0.16273344
187	0x3eaf0277	0.34181568
188	0x3ffefd44	1.992104
189	0x3ea32495	0.31863847
190	0x3ada44fa	0.0016652637
191	0x3d1c38dc	0.038140163
192	0xbe0798a0	-0.13241816
193	0xbf320113	-0.6953289
194	0x3e6110b1	0.21979024
195	0x3ecada6f	0.39619777
196	0xbe175826	-0.1477972
197	0x3f7c5857	0.98572296
198	0x3e95ce17	0.29258797
199	0x3f589c30	0.84613323
200	0x3f262278	0.64896345
201	0xbe479155	-0.19489034
202	0x3f06783e	0.52527225
203	0xbea7dd5e	-0.32786077
204	0x3e6c399d	0.23068853
205	0x3ecf8f5c	0.40539062
206	0xbd208f3d	-0.039199103
207	0xbf376e0a	-0.7165228
208	0xbe615d0c	-0.22008151
209	0x3f597c75	0.8495553
210	0x3d4d90a6	0.050186776
211	0x3d7e572e	0.06209486
212	0x3d8daca0	0.06917691
213	0xbf7e0982	-0.9923326
214	0xbf4a19c4	-0.78945565
215	0x3dffd10e	0.12491046
216	0x3f507156	0.81422937
217	0x3e91f084	0.2850381
218	0x3e97b51f	0.29630372
219	0xbd53c474	-0.051701024
220	0x3f458e68	0.7717042
221	0xbf1e0db8	-0.61739683
222	0xba7cb3c2	-0.0009639823
223	0xbf16e6d2	-0.58945954
224	0x3f1d5b52	0.6146747
225	0xbf52bdad	-0.8232067
226	0x3e00b651	0.12569548
227	0x3f71d5d6	0.9446691
228	0x3e24f885	0.16110428
229	0x3f4080eb	0.75196713
230	0x3ed12f86	0.4085657
231	0x3f53e2b3	0.8276779
232	0x3e566277	0.20935999
233	0x3d8293c9	0.06375844
234	0xbeb9d638	-0.36296248
235	0x3ed864db	0.42264447
236	0xbe5deebf	-0.21673106
237	0x3eeca3cb	0.46218714
238	0xbd41f1e1	-0.047349814
239	0xbec1a993	-0.37824687
240	0x3f2fb895	0.68641025
241	0x3f0e61bf	0.556179
242	0x3f3e8584	0.7442248
243	0x3f58eee6	0.8473953
244	0xbdc8025a	-0.097660735
245	0x3e240155	0.16016133
246	0x3ee719d8	0.45136905
247	0xbf2fdc14	-0.6869519
248	0x3e6f8fe8	0.2339474
249	0x3ea951f6	0.33070344
250	0x3f185326	0.59501874
251	0xbda8cdc8	-0.08242375
252	0x3e05cd6d	0.13066645
253	0xbdae40ec	-0.085084766
254	0x3f52dfd8	0.8237281
255	0xbd8364a8	-0.06415683

bias f4 [100]
0	0xc00663f9	-2.0998518
1	0x3cd711ee	0.026253667
2	0x3ea7c3c0	0.32766533
3	0xbf491eb7	-0.7856249
4	0xbf8393be	-1.0279462
5	0xbd3d3763	-0.0461954
6	0xbecd8a45	-0.40144554
7	0xbe8004da	-0.250037
8	0xbd7f3825	-0.062309403
9	0xc00a2827	-2.1587007
10	0xc01bdd04	-2.4353647
11	0xbf0d899e	-0.5528811
12	0xbe9779a5	-0.29584995
13	0xbf28263d	-0.65683347
14	0x3eecff65	0.462886
15	0xbf15e561	-0.5855313
16	0xbfd3d234	-1.6548524
17	0xbeac795c	-0.3368634
18	0xc0050880	-2.0786438
19	0xbf14b17a	-0.5808331
20	0xbf54de96	-0.8315214
21	0xbf22dfc7	-0.6362271
22	0xbd1ba605	-0.038000125
23	0x3c807add	0.015683586
24	0x3d8cd8d1	0.06877292
25	0x3da09953	0.07841744
26	0xbe83e233	-0.25758514
27	0xbfb14bb6	-1.385123
28	0xbe5de373	-0.21668796
29	0xbeecaf47	-0.46227476
30	0xbebb5fd8	-0.3659656
31	0xbf49040d	-0.78521806
32	0xc01d55b7	-2.4583566
33	0x3e5c84d2	0.21535042
34	0xbfe55d91	-1.7919179
35	0xc00ee0f3	-2.2324798
36	0xbfcc573a	-1.596412
37	0xbe08855e	-0.13332126
38	0xbf1af683	-0.605324
39	0xbe93887f	-0.28815076
40	0xbeccbf97	-0.3998992
41	0xbf114d79	-0.5675884
42	0xbeeacaf9	-0.4585798
43	0xbeb70ffc	-0.35754383
44	0xc0112ddd	-2.2684243
45	0xbfa7e49e	-1.3116643
46	0xc00c3b94	-2.1911364
47	0xbf01170d	-0.504258
48	0xbe8c11d0	-0.2735734
49	0x40fbd5cd	7.8698487
50	0x3f89ce15	1.0766016
51	0x3eea4d59	0.45762137
52	0xbf8d885e	-1.1057241
53	0xbf103d42	-0.5634347
54	0xc0080b3d	-2.125686
55	0xbe61d9c1	-0.22055723
56	0xbf2f17eb	-0.6839587
57	0x3f182d6f	0.59444326
58	0xbff88b58	-1.9417524
59	0xbf97451e	-1.1817968
60	0xbf9bbae2	-1.2166407
61	0x3ee560a9	0.44800308
62	0xbe802690	-0.2502942
63	0xbf15d659	-0.58530194
64	0xbfc38b1a	-1.5276825
65	0xbfd77003	-1.6831058
66	0xbc4127f5	-0.011789312
67	0xbe12752b	-0.14302509
68	0xbfc92b24	-1.571629
69	0xbf100944	-0.5626414
70	0xbd720eb3	-0.05909605
71	0xbefcc1f6	-0.4936673
72	0xbf2f1039	-0.6838413
73	0xbe8a38f9	-0.26996592
74	0xbf52dd88	-0.8236928
75	0x3e1ff229	0.1561972
76	0xbf1ac70b	-0.60459965
77	0xbeeb960d	-0.46012917
78	0xbd85445a	-0.06507178
79	0x3d702f56	0.058638893
80	0xbe30b160	-0.17255163
81	0xbeb54236	-0.35402077
82	0xbec4829d	-0.383809
83	0xbf2e3c7f	-0.6806106
84	0xbf271944	-0.6527293
85	0xbf691aad	-0.9105633
86	0xbf5ae30a	-0.85502684
87	0xbf1ac89a	-0.60462344
88	0xbfe5517b	-1.7915491
89	0x3ef64b72	0.48104435
90	0xbf02ec93	-0.51142234
91	0xbf646e51	-0.8923083
92	0xbee9ccb1	-0.4566398
93	0xbfe98252	-1.8242896
94	0xc0004cda	-2.0046906
95	0x3e9d3b82	0.30709463
96	0xbf120223	-0.5703451
97	0xbea172e7	-0.31532976
98	0xba4ae09f	-0.00077391596
99	0xbeeecf3b	-0.4664248

weight f4 [1, 100]
0	0x3c60a4c8	0.013711162
1	0x3e385e07	0.18004619
2	0x3e1409a9	0.1445681
3	0x3e6a1741	0.22860433
4	0xbd9be5d6	-0.07612197
5	0x3e492fbf	0.1964712
6	0xbefeb2db	-0.4974583
7	0x3db105be	0.08643673
8	0x3da1d5b5	0.079020895
9	0xbb2b62b9	-0.0026151373
10	0x3c53e391	0.012932674
11	0xbe00a681	-0.12563516
12	0xbed54ce5	-0.41660228
13	0xbeb79701	-0.35857394
14	0x3f4e8d36	0.8068422
15	0xbebb2f5e	-0.36559576
16	0x3c145a65	0.009054755
17	0xbeeda887	-0.4641764
18	0x3bcb60f2	0.006206625
19	0xbed61959	-0.41816214
20	0xbe0b4558	-0.13600671
21	0xbed8af45	-0.4232122
22	0x3dca7b84	0.0988684
23	0x3e1dc60e	0.15407583
24	0x3de5fc18	0.11229724
25	0x3ddaf2b0	0.1069082
26	0x3d584d75	0.052808244
27	0xbe56834a	-0.2094852
28	0x3dbf5250	0.09341872
29	0xbee14380	-0.4399681
30	0xbe3827c9	-0.17983927
31	0xbec1212a	-0.37720615
32	0x3c93740d	0.017999673
33	0xbfa9d6d8	-1.326869
34	0x3c03ddbb	0.00804847
35	0x3b0e4114	0.002170627
36	0xbdd21e1d	-0.1025965
37	0xbe56bbdb	-0.20970099
38	0xbe09cc36	-0.13456807
39	0x3dcc3257	0.09970539
40	0xbef39880	-0.47577286
41	0x3e38e933	0.18057708
42	0x3df18e1e	0.11794685
43	0x3e12a15a	0.14319363
44	0x3c8a8b82	0.016912226
45	0xbddbc69d	-0.10731242
46	0xbc22311f	-0.009899407
47	0xbee0dca9	-0.4391835
48	0x3eac6c20	0.33676243
49	0x3f2e0668	0.67978525
50	0x3d244d4a	0.04011277
51	0x3e46277b	0.19350998
52	0xbca13d1a	-0.019682456
53	0xbecb8d51	-0.39756253
54	0xbb9e39cd	-0.0048286677
55	0xbed41e41	-0.41429332
56	0x3e4d15a2	0.20027784
57	0x3da0bb01	0.07848168
58	0xbd637fe6	-0.055541895
59	0xbdd03f0a	-0.10168274
60	0xbe88913d	-0.26673308
61	0x3e32b776	0.17452797
62	0xbeffde9b	-0.49974522
63	0xbec2db3f	-0.38057896
64	0xbb8be7f1	-0.004269593
65	0x3c9daaa8	0.019246414
66	0x3dbc2f2e	0.09188686
67	0x3d56260d	0.05228238
68	0xbe03edf8	-0.12883747
69	0xbee18965	-0.44050136
70	0x3d9b086a	0.07569964
71	0x3e8c0287	0.27345678
72	0x3e0a51da	0.13507786
73	0xbe75e6e4	-0.24013859
74	0xbde6a146	-0.11261229
75	0x3e034ff3	0.12823467
76	0xbe57b1aa	-0.21063867
77	0xbe97bfac	-0.29638422
78	0x3db8ba3f	0.090198986
79	0x3df32297	0.11871832
80	0x3e46b6f3	0.19405727
81	0x3db9f26b	0.09079441
82	0x3dd75835	0.10514871
83	0x3d7cf7e8	0.06175986
84	0xbeab7ed0	-0.33495188
85	0xbdf0752b	-0.11741098
86	0xbe28f836	-0.16500935
87	0x3d86304d	0.065521814
88	0xbd4edf52	-0.050505944
89	0x3dee8062	0.11645581
90	0xbeda1ee4	-0.42601693
91	0xbe7f4367	-0.24928056
92	0xbe3c5e05	-0.1839524
93	0x3c322387	0.010872728
94	0xbd2adda3	-0.041715275
95	0x3e3058cd	0.17221375
96	0xbeb153da	-0.34634286
97	0xbef0cc88	-0.47031045
98	0x3dc845e5	0.09778956
99	0x3e0016e4	0.12508732

S f4 [4, 4]
0	0x00000000	0.0
1	0x00000000	0.0
2	0x3f800000	1.0
3	0x00000000	0.0
4	0x00000000	0.0
5	0x00000000	0.0
6	0x00000000	0.0
7	0x3f800000	1.0
8	0xbf800000	-1.0
9	0x00000000	0.0
10	0x00000000	0.0
11	0x00000000	0.0
12	0x00000000	0.0
13	0xbf800000	-1.0
14	0x00000000	0.0
15	0x00000000	0.0
