Models/Kepler/Kepler_symplectic euler_50epoch_PAU()_ReLU()_batchsize_64_shape_torch.Size([1099000, 4])_L_coeff_0.001.pt (torch, 52687 bytes, 8 tensors)

numerator f4 [6]
0	0xbc08c438	-0.008347563
1	0x3f93dc06	1.1551521
2	0x3ff9065d	1.9455067
3	0xbf1a996c	-0.60390353
4	0xbf6588e6	-0.89662015
5	0xbeced8c2	-0.40399748

denominator f4 [4]
0	0x3f3eb83f	0.7449989
1	0x3f110764	0.566519
2	0xbf79f4c1	-0.9763909
3	0x3e83199e	0.25605482

weight f4 [100, 4]
0	0x3e6283d0	0.22120595
1	0x3eb24e76	0.34825486
2	0x3e82bdc6	0.2553541
3	0xbe654eaa	-0.22393289
4	0xbe91240a	-0.28347808
5	0x3dc35d03	0.09539225
6	0xbeacff8d	-0.3378872
7	0xbe4f0e36	-0.20220265
8	0xbad7ff34	-0.0016479255
9	0xbe582979	-0.2110957
10	0xbe8b4050	-0.27197504
11	0x3cac91c9	0.02106561
12	0x3e47dc8c	0.19517726
13	0x3eaaf333	0.3338867
14	0x3ed73f2e	0.4204039
15	0xbe8b2606	-0.27177447
16	0x3f0ae4a7	0.54255146
17	0xbd02bd86	-0.031919025
18	0xbe1da849	-0.15396227
19	0xbd862463	-0.06549909
20	0xbd4abb4d	-0.04949503
21	0x3f311695	0.6917508
22	0xbbd71a30	-0.006564401
23	0x3e054e18	0.13018072
24	0x3eae8dd9	0.34092596
25	0x3d863c56	0.06554477
26	0xbef9b577	-0.4877126
27	0x3d975f50	0.07391226
28	0xbebfa33d	-0.37429228
29	0xbee543f0	-0.44778395
30	0xbd07feb4	-0.03320189
31	0x3d3e9a17	0.04653367
32	0xbee178b9	-0.44037417
33	0xbefdf9ba	-0.4960459
34	0x3e12adf2	0.14324167
35	0x3e8a2682	0.26982504
36	0x3d727b3c	0.059199557
37	0xbeed39c3	-0.4633313
38	0xbd025e36	-0.031828128
39	0x3b6d1757	0.0036177242
40	0xbd814b13	-0.063131474
41	0x3e324697	0.1740974
42	0x3ea14d84	0.31504452
43	0xbe91c7d2	-0.28472763
44	0x3e45d967	0.19321214
45	0x3e5f5c5f	0.2181258
46	0xbe6488b6	-0.22317776
47	0xbebc5e18	-0.36790538
48	0x3ea9bb06	0.331505
49	0xbe9b057e	-0.30277628
50	0xbea9701c	-0.33093345
51	0x3ea8fea6	0.3300678
52	0x3e0f5f2c	0.14001149
53	0x3eb18892	0.34674507
54	0x3ee18caf	0.44052646
55	0x3e4bf8ef	0.1991918
56	0xbf0217fd	-0.50817853
57	0x3d29b08d	0.041428138
58	0xbcaf7143	-0.021416312
59	0xba91668f	-0.0011093187
60	0x3ed86db3	0.42271194
61	0xbee48232	-0.4463058
62	0x3d9d5783	0.07682707
63	0x3d79fda3	0.061032902
64	0xbe3f2eb9	-0.18670167
65	0xbe90fe29	-0.2831891
66	0x3dacb6f6	0.084333345
67	0x3ee128cb	0.43976435
68	0xbe54ea57	-0.20792519
69	0xbea1cc32	-0.316011
70	0xbeaf7ee4	-0.34276497
71	0x3e942c9d	0.28940287
72	0x3ece255e	0.40262884
73	0x3deef985	0.11668686
74	0x3e79477a	0.24343672
75	0x3da24970	0.07924163
76	0x3ecc7f77	0.39940998
77	0x3e288191	0.16455676
78	0x3e3d5792	0.18490437
79	0xbef185fe	-0.4717254
80	0xbebeed58	-0.37290454
81	0xbeb1543c	-0.34634578
82	0x3e4e7e79	0.20165433
83	0x3e52a8ef	0.20572256
84	0x3ef51ec9	0.4787505
85	0x3e5c5f1d	0.21520658
86	0x3e14c5d4	0.1452859
87	0x3d1388a3	0.03601898
88	0xbee9b76f	-0.4564776
89	0x3e30f3b5	0.17280467
90	0x3e539afe	0.20664594
91	0xbb35181b	-0.0027632776
92	0xbd458dd4	-0.04823096
93	0xbeb7b6fa	-0.35881788
94	0xbec3b220	-0.38221836
95	0xbe83c6ba	-0.25737554
96	0x3eae27e4	0.3401481
97	0xbe798e57	-0.24370705
98	0xbeadce80	-0.3394661
99	0x3e1224d7	0.14271866
100	0x3e830c73	0.25595436
101	0xbe977081	-0.2957802
102	0x3de479e7	0.111560635
103	0xbf0235c3	-0.50863284
104	0x3e9bb27f	0.3040962
105	0x3e42c495	0.19020303
106	0xbc4c292e	-0.01246099
107	0xbeb2429e	-0.3481645
108	0x3f03c7a9	0.5147653
109	0x3df70c14	0.120628506
110	0x3be611c7	0.007021162
111	0xbd05d9ba	-0.032678343
112	0x3ed7f038	0.4217546
113	0xbee744ad	-0.45169583
114	0x3ca54434	0.020174123
115	0xbc8ead0b	-0.017416498
116	0xbe8c1109	-0.27356747
117	0x3ec40ed4	0.38292563
118	0x3d9e992c	0.07744059
119	0x3ee068fd	0.438301
120	0x3cbf63c0	0.023362994
121	0xbf1b4c6b	-0.6066348
122	0xbdd2bfc9	-0.10290486
123	0x3eab8ea8	0.33507276
124	0xbed171f6	-0.40907258
125	0xbeb7d3d4	-0.359038
126	0xbe74f57e	-0.23921773
127	0x3ed9fc73	0.42575416
128	0xbf03e3d0	-0.5151949
129	0x3e601c46	0.21885785
130	0x3efdc203	0.49562082
131	0xbd2567f9	-0.04038236
132	0xbea8fe22	-0.33006388
133	0xbe1e123c	-0.15436643
134	0xbed38879	-0.41315058
135	0x3d9cbfae	0.076537475
136	0x3f00e6b4	0.50352025
137	0x3e7f6121	0.24939395
138	0xbed5df7f	-0.41772076
139	0xbea306d6	-0.31841153
140	0x3ed153fe	0.40884393
141	0x3d26afd8	0.04069504
142	0x3bb89ebf	0.0056341584
143	0xbbc8239d	-0.006107761
144	0x3ea741bd	0.32667342
145	0x3f06184e	0.52380836
146	0x3e02e3a2	0.12782148
147	0x3da94905	0.082658805
148	0x3e5f4160	0.21802282
149	0x3e981f2f	0.2971129
150	0x3ecc4132	0.3989349
151	0x3dfdd8d2	0.12394871
152	0xbeef13ee	-0.46694893
153	0xbe94eb78	-0.29085898
154	0xbe3cef47	-0.18450652
155	0xbd780755	-0.060553867
156	0xbde01c71	-0.10942925
157	0x3f04fa4b	0.51944417
158	0x3e8fdbfa	0.28097516
159	0xbed898ad	-0.42303982
160	0x3dae2127	0.08502417
161	0xbf377d32	-0.7167541
162	0x3dc2c1cc	0.0950962
163	0x3d8817fd	0.066452004
164	0xbec17e78	-0.377918
165	0xbe37c54a	-0.17946354
166	0xbe55faf5	-0.20896514
167	0x3edc8c40	0.43075752
168	0x3d23f1ab	0.040025394
169	0x3e99150e	0.29898876
170	0x3dab78a1	0.083726175
171	0x3ee79f90	0.45238924
172	0xbcd4f924	-0.025997706
173	0xbdfd932a	-0.12381585
174	0x3ed982b7	0.4248254
175	0x3e178b9e	0.14799353
176	0x3e2be2a6	0.16785678
177	0xbe2eddfc	-0.17076868
178	0x3eb55e88	0.35423684
179	0xbe963068	-0.29333806
180	0x3ea05b15	0.3131949
181	0xbe4e95b7	-0.20174299
182	0xbec453d6	-0.38345212
183	0xbeabe061	-0.33569625
184	0x3e7b2675	0.24526389
185	0xbe24b3d6	-0.16084227
186	0xbe5fce3c	-0.21856016
187	0x3ed8ecfc	0.42368305
188	0x3e1fe834	0.15615922
189	0x3e9b437a	0.30324918
190	0x3ec570a0	0.3856249
191	0xbe65a9b1	-0.22428013
192	0xbe836cf8	-0.25669074
193	0xbe96e050	-0.29468012
194	0xbee18328	-0.44045377
195	0xbe840759	-0.25786856
196	0xbdf46d4a	-0.11934908
197	0x3eebd5e5	0.46061626
198	0x3ed16293	0.4089552
199	0xbd146df9	-0.03623769
200	0xbe9e6f3f	-0.3094425
201	0x3e98be75	0.29832807
202	0x3ec08496	0.37601155
203	0x3e94d73b	0.29070458
204	0xbf01f00e	-0.5075692
205	0x3e37a6d9	0.17934741
206	0x3e1a8718	0.15090597
207	0x3eeb1aeb	0.45918974
208	0x3dba6e9a	0.09103127
209	0xbe9f1550	-0.31070948
210	0xbe8034f9	-0.25040415
211	0xbea85a60	-0.3288145
212	0x3e2fa700	0.17153549
213	0xbee95cb1	-0.4557853
214	0xbf02dc0d	-0.5111702
215	0xbd995b53	-0.07488122
216	0x3e84899d	0.2588624
217	0xbe1faecd	-0.15594025
218	0x3cd21bf8	0.025648102
219	0x3d19f60a	0.037588157
220	0x3eb1e1a7	0.34742472
221	0x3f2161dc	0.63039947
222	0xbdb2db3c	-0.08733222
223	0x3d4e6e66	0.050398253
224	0x3ed754fe	0.4205703
225	0x3deffe67	0.11718445
226	0x3ee1b02a	0.44079715
227	0xbc8c7002	-0.017143253
228	0xbe0e0c55	-0.13871892
229	0x3e1b5fb4	0.15173227
230	0xbdfda666	-0.123852536
231	0xbf06749b	-0.52521676
232	0x3f082493	0.5318081
233	0x3ecdc6a1	0.40190604
234	0xbd9a5fd5	-0.0753781
235	0x3ded709f	0.115937464
236	0xbebfe0e9	-0.3747628
237	0x3e0fbbc5	0.14036472
238	0xbe93a304	-0.2883531
239	0x3eb311ca	0.3497451
240	0x3e8ad6e5	0.27117077
241	0xbe7eac31	-0.24870373
242	0xbec4d367	-0.38442537
243	0xbe910bf5	-0.28329435
244	0xbebb33f2	-0.3656307
245	0x3defc4f0	0.11707485
246	0xbe30c281	-0.17261697
247	0xbebeeed2	-0.3729158
248	0xbe8c906a	-0.2745393
249	0x3eef6bcd	0.46761933
250	0xbdf5e194	-0.12005916
251	0x3ee95438	0.45572066
252	0xbf19e1c1	-0.601101
253	0xbca6decf	-0.020369915
254	0xbda550e6	-0.08072071
255	0xbdd55413	-0.104164265

bias f4 [100]
0	0x3f28663b	0.6578099
1	0x3e6d2322	0.23157933
2	0x3e78efd5	0.24310239
3	0x3eb19517	0.3468406
4	0xbd412621	-0.047155503
5	0xbe27285b	-0.16323988
6	0x3e86d604	0.26335156
7	0xbf00a5b0	-0.5025282
8	0xbe140713	-0.14455824
9	0xbd18d264	-0.03731002
10	0x3eafc6b7	0.34331295
11	0x3ec914f1	0.3927379
12	0x3e93d0b5	0.28870168
13	0x3e6feb54	0.23429614
14	0xbe941507	-0.28922293
15	0xbe79551d	-0.24348874
16	0x3ee3dee2	0.44505984
17	0x3ec4dafd	0.38448325
18	0x3e0610ba	0.13092318
19	0x3e18cafd	0.14921184
20	0x3e858c3f	0.26083562
21	0xbda9d3a7	-0.082923226
22	0x3e805ba8	0.25069928
23	0x3ed351cc	0.41273344
24	0x3eb79d82	0.35862356
25	0x3e9b194c	0.30292737
26	0x3eef1fbe	0.46703905
27	0xbd83331b	-0.06406232
28	0xbe8fee04	-0.2811128
29	0x3eddb433	0.43301544
30	0xbd2a6965	-0.04160442
31	0x3c8602a8	0.016358688
32	0x3e8035c4	0.2504102
33	0x3ed54ac8	0.41658616
34	0x3eac6ad9	0.33675268
35	0xbe5536b3	-0.20821647
36	0xbd3b12fe	-0.04567241
37	0x3ee4b6c2	0.44670683
38	0xbe0ef921	-0.13962223
39	0x3eb02304	0.34401715
40	0xbe515504	-0.20442587
41	0x3e7d12cf	0.24714206
42	0x3e524deb	0.20537536
43	0x3e6d8498	0.23195112
44	0x3eb0b93a	0.34516317
45	0x3ea00c62	0.31259447
46	0x3e42033d	0.18946548
47	0x3ed3ccd3	0.41367206
48	0x3e9fc8e8	0.31207967
49	0xbe7f9333	-0.24958496
50	0x3e0f2092	0.13977268
51	0xbe1ca285	-0.15296371
52	0x3ecddc72	0.4020725
53	0x3e9eb0c4	0.30994236
54	0xbe77d4b6	-0.24202237
55	0xbe75d8fd	-0.24008556
56	0x3ebca2a5	0.36842838
57	0x3e84af62	0.25915056
58	0xbe6a03de	-0.22853038
59	0x3ea2e2e2	0.31813723
60	0x3efa1411	0.48843434
61	0x3e4e1a0a	0.2012712
62	0xbc9859fb	-0.018597594
63	0xbe405fe5	-0.18786581
64	0x3e905ce7	0.2819588
65	0x3eb4515e	0.35218328
66	0xbd8a9e07	-0.067684226
67	0x3ee88d5f	0.45420358
68	0xbe8e6871	-0.27814057
69	0x3eb97d5c	0.36228454
70	0x3e70ccf0	0.23515677
71	0x3ef7bb29	0.4838498
72	0xbec745df	-0.38920495
73	0x3ea37535	0.3192536
74	0x3eda4ea7	0.42638132
75	0x3ebdca56	0.37068433
76	0x3d4762c6	0.048678182
77	0xbf62d756	-0.88609827
78	0x3ed6c3b6	0.4194619
79	0xbe53bd8a	-0.20677772
80	0x3f036915	0.5133222
81	0x3ee150ae	0.44006866
82	0x3ec3aa2d	0.3821577
83	0x3e3e4ca3	0.18583922
84	0x3df56b60	0.11983371
85	0xbe954892	-0.2915693
86	0x3eb62bc8	0.35580277
87	0xbe94da6c	-0.29072893
88	0x3ef99e53	0.48753604
89	0x3e12316e	0.14276668
90	0x3e9fa4ae	0.31180328
91	0x3ebeb08d	0.37244073
92	0x3ee6ffd8	0.45117068
93	0xbca0e554	-0.019640602
94	0xbed7d8c2	-0.4215756
95	0xbe5d19cd	-0.21591873
96	0x3ef7d621	0.48405555
97	0x3eb58ed4	0.35460532
98	0x3e068b2e	0.1313903
99	0x3cc071fa	0.023491848

weight f4 [100, 100]
0	0xba143370	-0.0005653417
1	0xbe0a9289	-0.13532461
2	0xbe9f0701	-0.3106003
3	0xbe9d9eb4	-0.30785143
4	0x3eaa3679	0.33244684
5	0xbea0821b	-0.31349263
6	0xbdd3f8ec	-0.103502125
7	0xbed84b7e	-0.42245096
8	0x3e0ff613	0.14058714
9	0xbec0a9ac	-0.3762945
10	0xbe0c573f	-0.13705157
11	0x3d9eed37	0.07760089
12	0x3d4acaf9	0.049509976
13	0xbe68d214	-0.22736388
14	0x3e889edf	0.2668371
15	0xbe5c7b5d	-0.21531434
16	0xbcfa2707	-0.030536188
17	0x3e4aab9a	0.19792023
18	0x3d065f3d	0.03280567
19	0x3d774d23	0.060376298
20	0xbe9bff04	-0.30468
21	0x3ec1e38a	0.3786891
22	0xbe36bf3a	-0.17846385
23	0x3c439417	0.011937163
24	0x3dbf7b5b	0.093497
25	0x3c695304	0.014240984
26	0xbb3488e6	-0.0027547418
27	0xbeb9e8b6	-0.36310357
28	0x3eaf255c	0.3420819
29	0xbd25a1fb	-0.04043768
30	0x3e586bb3	0.21134834
31	0xbe7e2316	-0.24818072
32	0x3e9341e0	0.28761196
33	0xbddc28e6	-0.10749988
34	0x3da453fc	0.08023831
35	0xbc17a431	-0.009255455
36	0x3e72d865	0.2371536
37	0x3da8d936	0.08244555
38	0xbc5d0b4e	-0.013491465
39	0x3e31d99c	0.17368168
40	0xbe9ea2ec	-0.30983675
41	0x3e4d2bd1	0.20036246
42	0x3c1af06f	0.009456738
43	0xbe82ee73	-0.25572547
44	0xbd529d0a	-0.051419295
45	0x3e039eb1	0.12853505
46	0xbe724878	-0.23660457
47	0xbd251836	-0.040306292
48	0xbd0362fa	-0.032076813
49	0x3e9e75a1	0.3094912
50	0x3d86a6db	0.06574794
51	0xbd931925	-0.0718253
52	0xbe384522	-0.17995122
53	0x3c936578	0.01799272
54	0x3f272803	0.6529543
55	0xbe81f846	-0.2538473
56	0x3de0151f	0.109415285
57	0x3d0aa3d9	0.033847664
58	0xbedca8bc	-0.43097484
59	0xbeb4ff1e	-0.3535089
60	0xbcb050a1	-0.021522822
61	0xbcffd663	-0.031230157
62	0x3e826973	0.25471076
63	0xbef0a0c0	-0.46997643
64	0x3e14d4d7	0.14534317
65	0x3d88f3e6	0.06687145
66	0xbdf2ad71	-0.118494876
67	0x3ecb2ca3	0.39682493
68	0x3e0c7948	0.1371814
69	0x3d25c997	0.040475454
70	0x3cc0db9e	0.023542222
71	0x3e10f83e	0.14157197
72	0xbeb6ba3b	-0.35688958
73	0xb90b9fbf	-0.00013315583
74	0x3eea09ed	0.45710698
75	0x3cb3f2e7	0.02196641
76	0xbdaf3e28	-0.08556777
77	0xbdd7a4b2	-0.1052946
78	0x3d762c84	0.060101047
79	0xbe7849e0	-0.24246931
80	0xbdd1ea3c	-0.10249755
81	0x3da289be	0.079364285
82	0x3d9bdf62	0.07610966
83	0x3e0b82bf	0.13624094
84	0xbe4ff216	-0.20307192
85	0x3dd7eb37	0.105429105
86	0xbd67a122	-0.056550153
87	0xbd716103	-0.05893041
88	0xbbd06bd6	-0.0063605113
89	0xbe9ed1c3	-0.3101941
90	0xbd2cffa9	-0.042236004
91	0xbc6ef946	-0.014585799
92	0xbde1d7e6	-0.110275075
93	0x3e290d13	0.16508894
94	0xbe9d7ffa	-0.307617
95	0x3e5cc27e	0.21558568
96	0xbd255e3c	-0.040373072
97	0x3d0226de	0.031775348
98	0x3e213b09	0.15745176
99	0x3c40eb12	0.011774795
100	0xbdd29723	-0.10282733
101	0x3df26f02	0.11837579
102	0x3c9832f8	0.018578991
103	0xbea03490	-0.31290102
104	0xbe5e9fac	-0.21740597
105	0x3eb07603	0.34465036
106	0xbee61bba	-0.4494303
107	0x3c0a798f	0.008451833
108	0xbc603817	-0.013685248
109	0xbecf59e5	-0.40498272
110	0xbc1041de	-0.008804766
111	0x3af6dc06	0.0018833883
112	0xbe1a874f	-0.15090679
113	0x3d21f42f	0.039539512
114	0x3f143adf	0.5790233
115	0x3b558ff0	0.0032587014
116	0xbdb0aa01	-0.08626176
117	0x3ec535f3	0.38517722
118	0xbdcda190	-0.10040581
119	0xbe54301e	-0.2072148
120	0x3dbe7259	0.09299154
121	0x3ed44732	0.41460568
122	0x3dc72664	0.09724119
123	0x3e2a6fc2	0.16644195
124	0xbe9e2f77	-0.30895588
125	0x3d39e733	0.045386504
126	0xbd9949da	-0.07484789
127	0xbc3a46d5	-0.011369427
128	0x3ed198f5	0.4093701
129	0x3d9f79d5	0.077869095
130	0x3dcb76e1	0.09934784
131	0xbde7c64b	-0.11317118
132	0x3de38830	0.1110996
133	0x3d32e41e	0.04367458
134	0xbdae76d1	-0.08518756
135	0xbd883bb8	-0.066520154
136	0x3e6c3e43	0.23070626
137	0xbc8e54eb	-0.017374476
138	0xbe8a6abd	-0.2703456
139	0x3e68e9ce	0.2274544
140	0xbd8534e4	-0.06504229
141	0x3eb1f9ff	0.34761044
142	0x3deedae2	0.11662842
143	0x3e596576	0.2123011
144	0x3ddacebd	0.106839634
145	0x3d25caed	0.04047673
146	0xbde279ad	-0.11058364
147	0xbdbf2bb1	-0.09334505
148	0xbe79536e	-0.24348232
149	0xbcab4425	-0.020906517
150	0xbe0f1105	-0.13971336
151	0x3e6f0b6a	0.23344198
152	0xbc673eaf	-0.014114066
153	0x3e897afc	0.26851642
154	0x3ee8e021	0.45483497
155	0x3d7dac42	0.061931856
156	0x3e23ef11	0.16009165
157	0xbdfe77dd	-0.12425206
158	0x3eb04e90	0.34434938
159	0xbc84f77b	-0.01623129
160	0x3d851351	0.06497825
161	0xbdd50b39	-0.10402531
162	0xbddbb227	-0.10727339
163	0xbea46205	-0.32106033
164	0x3dd415a6	0.103556916
165	0x3d60f952	0.05492527
166	0x3d913bb0	0.070914626
167	0x3e7d0a48	0.24710953
168	0x3eede3c0	0.46462822
169	0xbe4793ea	-0.19490018
170	0x3b598203	0.0033189065
171	0xbc89035a	-0.016725231
172	0xbeb6fca9	-0.3573964
173	0x3da2adbd	0.07943294
174	0x3e0f63ea	0.14002958
175	0xbd34d9bf	-0.04415297
176	0x3e66b52c	0.22530049
177	0xbec24aa8	-0.37947583
178	0xbd4e0d9a	-0.05030594
179	0x3e62e887	0.22159015
180	0x3d28ea74	0.041239217
181	0xbe7e71a0	-0.24848032
182	0x3b4fd3b3	0.0031711876
183	0xbe3b70de	-0.18304774
184	0x3ddfd93d	0.10930107
185	0xbddb7775	-0.10716144
186	0x3e72e9a5	0.23721941
187	0x3e09468b	0.13405816
188	0xbe499921	-0.1968732
189	0x3c81ff62	0.015868846
190	0x3ddbda3b	0.107349835
191	0xbdac2272	-0.084050074
192	0xbc9f309d	-0.01943236
193	0x3d9f129a	0.0776722
194	0x3bd40275	0.0064700195
195	0xbe69ddec	-0.22838563
196	0x3d94ab0c	0.07259187
197	0x3dd2e0c2	0.102967754
198	0xbd2c4916	-0.042061888
199	0x3e1c903f	0.152894
200	0xbd8ab926	-0.067735955
201	0x3e53c6d3	0.20681314
202	0x3ee4f4a6	0.44717902
203	0x3cba76e0	0.022761762
204	0x3e57e5d5	0.21083768
205	0x3d87739a	0.06613846
206	0x3e09eb99	0.1346878
207	0xbee09d32	-0.4386993
208	0xbd5edf6a	-0.054412283
209	0xbc814120	-0.015778124
210	0x3e463655	0.19356664
211	0x3e261bfa	0.1622161
212	0x3e573985	0.21018036
213	0x3da17440	0.07883501
214	0x3f199ca7	0.6000466
215	0xbe9c576b	-0.30535445
216	0x3e93c130	0.28858328
217	0xbe2d5235	-0.1692589
218	0x3e2c3121	0.16815616
219	0xbe9bcf15	-0.3043143
220	0xbd9fbfce	-0.07800256
221	0xbd80c36a	-0.06287272
222	0xbe24813f	-0.16064928
223	0x3ce1c556	0.027559917
224	0x3e036c01	0.12834169
225	0x3e32383a	0.17404261
226	0x3d832f59	0.06405515
227	0xbef1ff3b	-0.47265038
228	0x3e86f4d6	0.2635867
229	0x3db3dcde	0.087823614
230	0x3da4cfc6	0.08047442
231	0x3dd50fed	0.10403428
232	0x3d9e5c3e	0.077324376
233	0x3e8df3a3	0.27724943
234	0x3df0a4c5	0.11750177
235	0x3edeb2be	0.43495744
236	0x3e85e650	0.26152277
237	0xbcf742b0	-0.030183166
238	0x3d92e621	0.071728
239	0x3cd4b040	0.025962949
240	0xbe18ab6b	-0.14909141
241	0xbdf40708	-0.119154036
242	0x3e3dc597	0.18532406
243	0x3d90189a	0.070359424
244	0xbda1e5ba	-0.07905145
245	0xbeb84e6c	-0.3599733
246	0x3da5d9f9	0.080982156
247	0xbe2975e6	-0.16548881
248	0x3ea12c93	0.3147932
249	0x3e3d1773	0.18465976
250	0xbe020466	-0.1269699
251	0xbd4e938e	-0.050433688
252	0x3cc2d66a	0.023783881
253	0xbdb93c81	-0.09044743
254	0x3e9902be	0.29884905
255	0xbe1868dc	-0.1488375

bias f4 [100]
0	0x39dc9800	0.0004207492
1	0xbcd0decd	-0.025496865
2	0x3db4dcb7	0.088311605
3	0x3d22ec47	0.039776113
4	0x3c5073a7	0.012722886
5	0xbd435867	-0.04769173
6	0xbd9aa26d	-0.075505115
7	0xbd3e16f0	-0.046408594
8	0xbcf90027	-0.03039558
9	0x3d6d2280	0.05789423
10	0x3d44d950	0.048058808
11	0xbd2cfdfd	-0.04223441
12	0xbda13435	-0.07871286
13	0xbd39215a	-0.045197822
14	0xbd8710a3	-0.0659497
15	0x3d194a2a	0.037424244
16	0xbcac618d	-0.02104261
17	0x3d8c2572	0.068430796
18	0x3d5f7cb0	0.05456227
19	0xbcfba6ba	-0.03071915
20	0xbd374620	-0.04474461
21	0xbd8432a5	-0.06454972
22	0x3d2779a7	0.0408875
23	0x3d724107	0.059144046
24	0x3dbaee2d	0.0912746
25	0xbd3e01ea	-0.046388544
26	0xbab35800	-0.0013682842
27	0x3dc46878	0.09590238
28	0x3dc940af	0.098267905
29	0x3cbaa773	0.022784924
30	0xbc81b753	-0.015834486
31	0x3c6e2527	0.014535225
32	0xbce3ef93	-0.027824199
33	0xbd48efb0	-0.04905671
34	0x3dc13160	0.09433246
35	0x3d859437	0.0652241
36	0xbdafa75f	-0.085768454
37	0x3d18cfa7	0.037307408
38	0x3d3d7363	0.04625262
39	0xbc64b5a7	-0.013959325
40	0xbda489df	-0.08034109
41	0x3dc78530	0.097422004
42	0x3db1295b	0.08650466
43	0x3d1efb27	0.038813736
44	0xbd1c1e77	-0.03811499
45	0x3ca0a12d	0.019608105
46	0xbcf14b07	-0.029454721
47	0x3d113150	0.03544742
48	0xbdafa3e7	-0.08576184
49	0xbd95e0c7	-0.073182635
50	0xbc9faa60	-0.01949042
51	0x3ccfc787	0.025363697
52	0xbcfee1d3	-0.03111354
53	0xbdb3611a	-0.08758755
54	0x3c5c7440	0.013455451
55	0x3d39b767	0.04534092
56	0x3dac0440	0.08399248
57	0xbd4ae7b0	-0.04953736
58	0x3cd843a7	0.026399447
59	0xbd0998ba	-0.033592917
60	0xbcf774c7	-0.030207051
61	0xbb42b7cd	-0.0029711605
62	0x3c953553	0.018213904
63	0x3d8f8ad3	0.070089005
64	0x3dc83268	0.09775239
65	0x3d391c6d	0.045193125
66	0x3d13422d	0.035951782
67	0x3d7c80c0	0.061646223
68	0x3d75381d	0.059867967
69	0xbd6ab1d0	-0.05729848
70	0x3db44e8d	0.08804045
71	0xbd3a38a0	-0.045464158
72	0x3d9efc73	0.077629946
73	0xbdb231e2	-0.08700921
74	0x3dba2c1d	0.09090445
75	0x3dbf240f	0.093330495
76	0x3d165093	0.036697935
77	0xbda4a410	-0.08039105
78	0xbce41d27	-0.027845932
79	0x3c3ba040	0.011451781
80	0x3d19428d	0.037416983
81	0xbd900a0b	-0.070331655
82	0x3cc8a61a	0.024493266
83	0xbb2f3700	-0.0026735663
84	0xbd09cf33	-0.033644866
85	0x3d9a9d72	0.075495616
86	0xbd51432d	-0.051089454
87	0xbd8bdb63	-0.06828954
88	0xbd9c61af	-0.07635819
89	0xbd9cde2b	-0.07659563
90	0xbd184c8d	-0.03718238
91	0x3d81155f	0.06302904
92	0xbd9f7dd0	-0.07787669
93	0x3dc04b60	0.09389377
94	0xbd06c967	-0.032906916
95	0xbd8e8935	-0.06959764
96	0xbc3ef440	-0.011654913
97	0xbda36b73	-0.07979479
98	0x3c2cadc0	0.010539472
99	0x3d92fc55	0.07177035

weight f4 [1, 100]
0	0xbe0eb115	-0.13934739
1	0xbe1707c2	-0.14749053
2	0xbeb4fb4b	-0.3534797
3	0xbed33b2a	-0.41256076
4	0xbd61725b	-0.0550407
5	0x3e1d329b	0.15351336
6	0x3e2e3df1	0.17015816
7	0x3e124622	0.14284566
8	0xbe246dab	-0.1605746
9	0xbdefb680	-0.11704731
10	0x3e22ffc9	0.15917887
11	0xbe35f9b2	-0.17771032
12	0x3e3b35e6	0.1828228
13	0x3e4e1cfe	0.20128247
14	0x3e747cfc	0.23875803
15	0xbe7a3fb2	-0.2443836
16	0x3e30ad69	0.1725365
17	0xbe422056	-0.18957648
18	0x3eb3409d	0.35010234
19	0x3e92f2fd	0.2870101
20	0xbdb7f240	-0.089817524
21	0x3ebf28fc	0.37335956
22	0xbe603525	-0.21895273
23	0x3dee83b5	0.11646215
24	0xbe28320c	-0.16425341
25	0x3e396245	0.18103893
26	0x3e6f25d2	0.23354271
27	0xbed137d1	-0.40862897
28	0x3e8dd020	0.2769785
29	0xbe884225	-0.26612964
30	0x3e49de70	0.1971376
31	0xbf06ca04	-0.52652
32	0xbeb290a5	-0.3487598
33	0x3e8d6054	0.27612555
34	0xbe289958	-0.16464746
35	0x3e57537e	0.21027943
36	0xbe184f9e	-0.14874122
37	0xbe34f3f2	-0.17671183
38	0x3dc9d8a7	0.09855776
39	0xbd5af737	-0.05345842
40	0x3da24f19	0.07925243
41	0x3e7aef02	0.24505237
42	0x3e80c5a3	0.25150785
43	0xbeadcdf2	-0.33946186
44	0x3ec0a056	0.37622327
45	0xbeab4e03	-0.33457956
46	0xbeac6393	-0.3366972
47	0xbeeed1bc	-0.4664439
48	0xbeabe1e4	-0.33570778
49	0xbdde74a0	-0.10862088
50	0x3e737bdc	0.23777717
51	0xbe9c050a	-0.30472594
52	0xbe34e0f8	-0.17663944
53	0x3e19a73d	0.15005203
54	0xbe195d23	-0.14976935
55	0x3e4ffba1	0.20310833
56	0xbec20dcf	-0.3790116
57	0x3e648622	0.22316793
58	0x3e9de883	0.30841455
59	0xbe124465	-0.14283903
60	0xbdd92a3b	-0.10603758
61	0x3e3292b2	0.17438772
62	0x3e20f443	0.15718178
63	0x3e2d1b2a	0.16904894
64	0xbe90de1c	-0.28294456
65	0xbe132c6a	-0.14372411
66	0x3e719b75	0.23594458
67	0xbecf6383	-0.4050561
68	0x3ea57c1d	0.32321253
69	0xbe27bc42	-0.16380408
70	0xbe9b61d9	-0.3034809
71	0xbe7a8052	-0.24463013
72	0x3ec3ebe3	0.38265905
73	0x3d9c72cc	0.07639083
74	0x3e1aa7d6	0.15103087
75	0xbed52c32	-0.4163528
76	0xbe9818d5	-0.29706445
77	0x3e47d82d	0.19516058
78	0x3e3ca7b4	0.18423349
79	0xbe931ed5	-0.2873446
80	0xbe236bb8	-0.1595906
81	0x3e67ca85	0.22635849
82	0xbdf53281	-0.119725235
83	0xbde95c19	-0.11394519
84	0xbd7134cd	-0.058888245
85	0x3e2999ab	0.16562526
86	0xbe559e6c	-0.20861214
87	0x3e48573d	0.19564529
88	0xbeaef1a1	-0.34168723
89	0x3ecb4770	0.3970294
90	0x3e7fb705	0.2497216
91	0x3e76055f	0.24025486
92	0x3e9089a7	0.2823002
93	0xbe5eb13c	-0.21747297
94	0x3e0e2ebc	0.13885015
95	0x3eb5a4bb	0.35477242
96	0x3e7fbf7a	0.24975386
97	0xbea7bdcf	-0.32762
98	0x3e96333b	0.2933596
99	0x3e014a66	0.12626037

S f4 [4, 4]
0	0x00000000	0.0
1	0x00000000	0.0
2	0x3f800000	1.0
3	0x00000000	0.0
4	0x00000000	0.0
5	0x00000000	0.0
6	0x00000000	0.0
7	0x3f800000	1.0
8	0xbf800000	-1.0
9	0x00000000	0.0
10	0x00000000	0.0
11	0x00000000	0.0
12	0x00000000	0.0
13	0xbf800000	-1.0
14	0x00000000	0.0
15	0x00000000	0.0
