Models/Kepler/Kepler_symplectic midpoint_50epoch_Tanh()_Softplus(beta=1.0, threshold=20.0)_batchsize_64_shape_torch.Size([1099000, 4])_L_coeff_0.001.pt (torch, 52537 bytes, 6 tensors)

weight f4 [100, 4]
00000000: e0ea 0b40 f7a2 67bf 37da bbbd 98b2 41bc
00000010: c9f3 ecbf 7272 cd3f 6d80 32bd d6ca 913d
00000020: 776f 1140 1691 fbbf a278 f2bc 51d6 8339
00000030: bf64 8bbf bb01 23bf 2bc2 a83d c4cc bb3c
00000040: ecc2 95bf 06ff 2540 1749 9e3d b565 d73c
00000050: 14f5 843f dcf6 99be a03c 7b3d cd20 7a3c
00000060: 0982 d73f ebb0 b63d 3a6c b43d 9c7a 853c
00000070: 4700 0240 b258 3f3f 1291 80bd a35c 18bc
00000080: 18d5 d4bf 9d84 23bf 44c3 49bd 885f 6c3d
00000090: cd8f 3e3f effb f5bf 1cbb 31bd 215b 4c3e
000000a0: cb8d b53f bcf7 8cbd b942 a83c f74d 003d
000000b0: 28e9 5e3e 9f8d 8d3f bc86 edbc ed7e 22bb
000000c0: a747 e73f 5448 823f de63 67bd 97d4 0dbd
000000d0: 5e57 d83e fcf7 70be 1a0e a8bc 9703 abbc
000000e0: a8ec 0540 c674 61bf 834d f43d 93e6 1fbd
000000f0: 8aed 03c0 3cdb 9eba 09dc 3c3d 6041 113d
00000100: 5df4 dd3f 9233 dbbf d05b 4bbd 2607 f2bc
00000110: 284f 89bf 16f2 7dbf 600f 8bbd 9b95 793d
00000120: 9f60 1840 fdce 443f 1976 773d 88d6 1bbd
00000130: 7f61 a93f 7dda 78bf bb79 1f3d 5387 6abd
00000140: 9054 35bf 923d e0be 8b7b e8bd 1e7f 01bd
00000150: 9053 673f 72c2 8f3f 4c0a 143d 532f 2fba
00000160: 021c a23f c839 4b3f 4293 77bc bb3a d2bc
00000170: 5943 0e3f 972f 4f3e 7a00 6f3c 870e 073e
00000180: 476a 5dbf 3e9e 1e40 1dd6 1b3d 41f5 c3bc
00000190: 38e0 853e 1858 97bf c361 62bb b811 b7bd
000001a0: dae9 e43f c304 b2bf 291e 98bd d1b0 cd3c
000001b0: 1158 78bf d5e7 67bf f750 303e a8f1 0b3d
000001c0: 7c5e edbf e084 6abf 357c 9fbd a6ed 18bc
000001d0: c4a4 e5bf bf2f 7d3f 3a26 c43c 2ca3 2c3d
000001e0: 79bd ebbf 1091 adbf 1468 dbbc 0109 be3d
000001f0: 66af 833f 93a3 4fbf f491 a4bd e783 803d
00000200: 8d9a 1b40 2b1d e53f 1089 fa3c c445 8cbd
00000210: b5aa 25bf 02fc a53f 9d7b 103d 8796 b3bc
00000220: ba37 87bf 2027 7ebf f4b9 6ebd 168d d1bb
00000230: b9a4 04bf aa19 5abf bd4b 143c 2eb8 98be
00000240: b22d f5bf a368 bb3f 6291 cabc 5fd9 823d
00000250: 87fd c53e dd2b d2bf 544f a1bd 5b6b af3c
00000260: 755b 0abf b0e4 3ebf 3f16 b9bb f064 5f3d
00000270: 8f68 3540 73e8 f33f 1987 303d 9507 6cbd
00000280: dae0 1a40 ebd6 85bf 27b2 e3bc 3757 37bc
00000290: 841b 29c0 7b2d 5e40 d35f 943d d9dd 793d
000002a0: eae5 713f e028 903f 002e 79bd db4f 3ebd
000002b0: 3656 02c0 a27e 0540 50dc 3a3d 7b43 e83c
000002c0: 879b debe ea81 dcbf 82ed b4ba 46f3 b43d
000002d0: a87c 25c0 d70d 5abe ea20 5e3c a689 2e3d
000002e0: c478 12c0 fb17 3440 6b9f 913d 5d45 193d
000002f0: 191d be3e 3ba4 5d3f d655 1c3c 7361 943d
00000300: 9a63 2540 3b6e 2dbe 5b68 113c 7d36 5abd
00000310: 9400 593d 570d 40bd 4c3a 9abe 50e4 37be
00000320: 61ef a5bf c191 62c0 77fe 5fbd 676c 02bc
00000330: 1a9c c43e 4918 b2be c807 ea3d 7211 023e
00000340: 3aeb 4ebf 4bf1 acbf 63c6 3ebd 550c b7bd
00000350: 0432 88bf 9002 3640 a810 6d3d 2bd9 abbb
00000360: a26e 0b3f 3e0a 13be 9420 fbbc 6567 80be
00000370: 5c0b 70bf 07eb 92bf 84d9 6dbc 1f00 4eba
00000380: dc65 403f ad70 893f ed4c debc cba0 9bbd
00000390: 3970 1dbe a564 a1bf f97b 393e e3be bc3d
000003a0: df57 74bf d6ea ad3f a09c 7b3d 91e0 6abd
000003b0: b5b1 abbf 7dd1 0d40 ef1e a23a 35de 8f3d
000003c0: 8eca 51be c009 5fbf ef8a 7b3d 5e12 803c
000003d0: cd34 4440 7d21 0fc0 ae29 073a 4a3f 92bd
000003e0: afce 3cbf 839d 8cbf 6070 553c 329e 52bd
000003f0: 41dd a23f 8f56 25be 1fea ce3d a21c db3c
2.1862106 -0.9048304 -0.091724806 -0.011822365 -1.8511897 1.6050551 -0.043579508 0.07118766
2.2724283 -1.9653652 -0.029598538 0.00025145945 -1.089012 -0.63674515 0.082401596 0.022924788
-1.170011 2.5936904 0.077287845 0.026293615 1.0387292 -0.3007115 0.061337113 0.015266609
1.6836559 0.08920463 0.08809705 0.016293816 2.031267 0.74744713 -0.0627767 -0.00929943
-1.6627531 -0.63874227 -0.049258485 0.057708293 0.7443817 -1.9217509 -0.043391332 0.19956638
1.4183897 -0.06883189 0.020539628 0.031324353 0.2176863 1.1058844 -0.02899491 -0.0024794892
1.8068742 1.0178323 -0.056491725 -0.03462657 0.42254156 -0.23532099 -0.020514537 -0.020875735
2.0925694 -0.8806881 0.11928847 -0.039038252 -2.0613732 -0.001211978 0.04610828 0.035462737
1.7340199 -1.7125113 -0.049648106 -0.029544424 -1.0727282 -0.9919752 -0.06790042 0.06093369
2.3808973 0.7687834 0.06041536 -0.03804639 1.3232878 -0.97208387 0.03893445 -0.05725796
-0.7083216 -0.43796974 -0.11351689 -0.03161537 0.9036188 1.1231215 0.036142632 -0.0006682772
1.2664797 0.7938504 -0.015110793 -0.02566277 0.55571514 0.20232998 0.014587516 0.13189135
-0.8649029 2.4784083 0.03804599 -0.023920657 0.26147628 -1.1823759 -0.0034543134 -0.089389265
1.7883866 -1.3907703 -0.074276276 0.025108727 -0.9700938 -0.9058812 0.17218386 0.03416601
-1.8544459 -0.91609 -0.077873625 -0.009334004 -1.7940907 0.9890098 0.02394401 0.0421478
-1.8417197 -1.3559895 -0.026783027 0.09279061 1.0287902 -0.8110897 -0.08035651 0.062751584
2.431308 1.7899526 0.030582935 -0.06849244 -0.64713603 1.2967532 0.035274137 -0.021922363
-1.0563881 -0.9927845 -0.058282807 -0.0063949926 -0.51813847 -0.8519541 0.009051261 -0.29828018
-1.915457 1.4641308 -0.024727527 0.063891165 0.3866999 -1.6419636 -0.07876459 0.021413496
-0.540458 -0.745677 -0.005648404 0.05453962 2.8345068 1.9055313 0.04309759 -0.05762442
2.4199739 -1.0456213 -0.02779491 -0.011190227 -2.6423044 3.471526 0.072448395 0.061002586
0.94491446 1.1262474 -0.060834885 -0.046462875 -2.036512 2.085854 0.045620263 0.02835249
-0.43478033 -1.7227147 -0.0013803693 0.08835463 -2.5857334 -0.21294342 0.013557652 0.04261174
-2.288621 2.8139637 0.07110485 0.037419666 0.37131575 0.8657872 0.009541949 0.072451495
2.5842042 -0.16936581 0.008874978 -0.05327462 0.052979067 -0.046887722 -0.30122602 -0.17958188
-1.2963678 -3.540146 -0.054686036 -0.007960415 0.38400346 -0.34784153 0.114272654 0.12701967
-0.8082768 -1.3511137 -0.046575915 -0.08937899 -1.0640264 2.8439064 0.057877213 -0.0052443943
0.5446569 -0.14359376 -0.030655183 -0.25078884 -0.93767333 -1.1477975 -0.014517192 -0.00078582944
0.75155425 1.0737511 -0.02713629 -0.07599028 -0.15374841 -1.2608839 0.18113698 0.09216096
-0.9544658 1.3587291 0.061428666 -0.05734307 -1.3413607 2.2159111 0.0012368838 0.070248045
-0.20487425 -0.8712425 0.061411794 0.015633758 3.0657227 -2.236419 0.0005156052 -0.07140978
-0.73752874 -1.0985569 0.013027281 -0.051420398 1.2723771 -0.161463 0.10103249 0.026747052

bias f4 [100]
00000000: a9e4 3b3d ef44 90bd ead1 27bd 33aa 863d
00000010: 6fd4 04bd a46b 96bd 4dce 25bc 1351 05be
00000020: f065 11bd 6275 303c 4876 cb3d e67a 38be
00000030: 0f2b dc3d 0fc8 33bf bf98 8abc 4687 293d
00000040: f1bf 39bd 8cf3 c63c d43a 5b3c d973 06bd
00000050: a576 16be c838 61be 9dca 1d3e 264d eb3e
00000060: 74f2 86bd 79b9 3f3e 0d53 8dbb 91bf 203e
00000070: 65f5 773d b242 7e3b 1220 4abc d776 11be
00000080: 4812 883d 38bc 0a3d 2373 4cbe cbe9 c0bc
00000090: 726e 5cbd d774 173d 6273 85be 167c 9c3a
000000a0: e1bc 8dbc 87dc 1ebd 2c19 563b b50f 753d
000000b0: 1f72 9fbb 7c20 8b3b 7971 85bc 1161 8dbe
000000c0: 9981 20bd 1e58 7ebf 04fd 46bd 1a90 d8be
000000d0: 7b87 b03d 9041 043d 5660 1bbf 6b94 9abc
000000e0: e0d4 febc 6fd1 783e 4ce7 11be 725b 7bbb
000000f0: 5d64 893d 87f0 9d3c 01e9 cb3d 9b5f 9ebe
00000100: ba8b f73e ea95 373c 2c4c 863f 6945 34bd
00000110: 4172 813e 6b83 8f3d e2c8 723c cdd6 5fbe
00000120: ce94 2e3d ee6c acbc 013c cd3c 627e c8bb
00000130: 89d5 51be 52dc 3b3d 0815 143c 895b b2bd
00000140: c113 42bd 18b1 b7bb 4ec6 a53c ef9b cfbd
00000150: 0f73 16bf 32b1 123e fd96 3b3e 4ed7 fcbd
00000160: 6872 fe3d 07ea aabd 5748 9b3d 268a 723d
00000170: f92f 143c 78d7 443d efa7 0d3f e202 b7bd
00000180: debf 693f 4aea bebf e60f 8abe 2a12 3dbc
0.045872364 -0.07044398 -0.040971674 0.06575432 -0.032429155 -0.073447496 -0.010119987 -0.13019209
-0.035497606 0.010770174 0.0993467 -0.18015632 0.107504 -0.7022714 -0.016918538 0.041388772
-0.045349065 0.024286054 0.013380725 -0.032825325 -0.14693697 -0.21994317 0.15409322 0.45957297
-0.06589213 0.18723096 -0.004312879 0.15698077 0.06053676 0.0038797078 -0.012336748 -0.1420549
0.06644112 0.033870906 -0.19965796 -0.023548981 -0.053816266 0.03697666 -0.26064593 0.0011938836
-0.017301979 -0.03878453 0.0032668812 0.059829433 -0.004865899 0.004245816 -0.01628946 -0.27613118
-0.039186094 -0.99353206 -0.04858114 -0.4229744 0.08619591 0.032289088 -0.6069387 -0.0188696
-0.031107366 0.24298643 -0.14248389 -0.0038354066 0.06708596 0.019279731 0.09956551 -0.30932316
0.4834879 0.011205176 1.0491996 -0.044011507 0.2528248 0.07007488 0.014818402 -0.21859284
0.04262238 -0.021048035 0.025053026 -0.0061185816 -0.20491613 0.04586441 0.009038217 -0.08708865
-0.04738212 -0.005605828 0.02023616 -0.10137164 -0.58769315 0.14325407 0.18319316 -0.123457536
0.12424165 -0.083454184 0.07582157 0.05921378 0.009044641 0.04805705 0.5533437 -0.08936097
0.9130839 -1.4915249 -0.26965255 -0.011539975

weight f4 [100, 100]
00000000: 2d6f 07bd e104 b73e 0fc9 bfbd b59d 683e
00000010: a24f 003e 9482 bebe fd69 a5bd 1030 36be
00000020: 765e 623d 64cf 32be 59a0 71bc 7bd7 8dbd
00000030: ac8e 6ebe 9f74 3cbd dd03 4ebe 2852 b43e
00000040: 537f 47bd 883f 4f3e 1e0e 15be 3c8d 38be
00000050: 6c1a f13d cec1 9ebd ce36 fb3d 1f24 2f3e
00000060: f003 8a3b ed67 e8bc 5050 87be 5b62 8a3e
00000070: 4c4a 083e 915b 603e c805 ca3d f7b5 babc
00000080: 9250 57be 6f72 523e cea2 93bc da49 293d
00000090: 2140 2a3e e97a 053e dfbe 6fbd 7a34 acbd
000000a0: 40d7 8abe 186e 9d3e 5da4 5bbe 94bc b93e
000000b0: de43 39be 3ce7 613d a41a 4b3e 6d0e 00be
000000c0: 23f4 c3bd 0df9 ccbe 78de fd3b ccc9 bebe
000000d0: 6b29 3b3e d574 013e abcc aabe 7fc4 adbd
000000e0: 7e1c 1fbd 1d4e 743d 2289 893e 2b98 383e
000000f0: ae46 49bd 1326 babe 687f 89bd bcca 68be
00000100: 1038 223e b593 6f3e b9b1 e53e 4e5f ef3b
00000110: e061 f83d 28ab 0dbe 62f7 e73c 7925 4d3c
00000120: 3a9e ccbe 9a7f ebbb f3fb bfbc e9be 85bd
00000130: 6b92 213e 7099 ce3d 00c1 eabd 3edc 2abe
00000140: ea96 dbbd 0412 0a3e 9932 20bd e1e5 2bbd
00000150: bae0 7b3b 03ec fd3d 887c 88bd 7d98 443d
00000160: 9fb1 adbc ec72 4e3e 8ef2 e4bc 38b2 94bd
00000170: 4cf7 103e c2d8 593e 5552 bdbd 2510 18be
00000180: ed28 b83e 9ef3 a9be 0e90 023e 5808 5cbc
00000190: 80e6 453f 0a90 c5be 7e3a 0d3f bcb4 b9be
000001a0: 296f 72be 7211 023f ac67 163f c4f8 773e
000001b0: b0ff dabe e964 893c c9c5 253f a049 acbd
000001c0: 1cc3 933e 325a 9dbd da7d 283f 7065 22bf
000001d0: a0c2 143f 4498 aebe 8569 013f 54a0 173f
000001e0: 63f9 89bd c8eb 453c 8911 843e df86 253e
000001f0: b0b8 75be 6666 6a3d 7d7a f73e b9b6 62bd
00000200: 64ba 46be 8ab9 26bf 05cc aebe 9ee6 143f
00000210: 1086 9a3e 317f dbbe 235a cebe 66c3 f43d
00000220: b329 0dbf 8b09 8c3e 7bdd 80be 1ec0 f93e
00000230: 4ad3 2f3f 4097 21bf 07f0 613e 2772 f0be
00000240: f6ad 173e 6e68 38bf 1ef2 b2be 58da 643c
00000250: 175d 153f d8d9 433d 03d1 41bd e907 9e3e
00000260: ff77 30be 642c 07bf a3fb 863e 9968 3dbe
00000270: 9150 9a3d ff58 8b3d 622c 17bf f94d a6be
00000280: 0786 683e ec6b 0d3f 9ce2 c9be c3be 083f
00000290: 283c 56be 216e bebd 10f9 a8be 6635 b03e
000002a0: e122 f4be b5df de3c 1227 013f 3acb e7be
000002b0: ef54 593e 7caa 58be 9c05 e73d 7df2 2c3f
000002c0: f6ba 21be ffde 3d3e b9c0 abbd e38d 9fbd
000002d0: 1356 fa3e a630 9dbe 23e3 bdbd 716b bf3e
000002e0: e599 2cbe 1236 96be 6bb7 07bd 19f3 2abe
000002f0: b273 003e 5c21 52bf 72f0 1bbd ed8e 1ebc
00000300: 7927 a8bd 5a07 c3be da9a a93e b607 f83e
00000310: bc65 933d baea 0ebe 5eec eabe 35a7 d7bd
00000320: 922e 9bbe 5bae 443e 86e7 62be f882 3e3d
00000330: d895 d13d 5fb4 aabd f0ec 93be fa1f 96bd
00000340: 9015 bb3d 8300 9cbe 7436 27be da72 acbd
00000350: 2681 f43d 58d7 7dbe e6cd 363c 20c2 253e
00000360: 30a2 b2bd 90d4 0c3d 15b1 80be 1298 66be
00000370: 2d92 323d 998e 39bd 301b 0b3d 7ddd 883d
00000380: 186d 423e 1d73 84be 4a43 dfbd 91a7 3f3e
00000390: 9739 f0bb 371b 463e 7545 32be 5bbc 99be
000003a0: ccd4 7d3c 7529 613e cd93 34be 5b71 f7bd
000003b0: 0d44 a43e e6db 40be bb39 adbc 7822 e7bc
000003c0: 6910 9cbe e341 633e b0c5 a43c 3d3c d93d
000003d0: deb5 2abe a01b 61bd a9c8 9a3e 8bcd e63d
000003e0: 5721 88be 60b5 b8be bdad 7bbe 97b0 9bbe
000003f0: 9892 51be 569f 283e 4892 a0be 80d9 bf3d
-0.03306501 0.3574591 -0.09364521 0.2271641 0.12530378 -0.37208998 -0.08076856 -0.17791772
0.055265866 -0.17461926 -0.0147477025 -0.06925865 -0.23296613 -0.046009656 -0.20118661 0.3521893
-0.04870541 0.20239079 -0.14556167 -0.18022627 0.11772618 -0.07751809 0.122663125 0.17103623
0.004211895 -0.028369868 -0.2642846 0.27028164 0.13309592 0.2190993 0.09864384 -0.022791846
-0.21026829 0.20551465 -0.018021967 0.041330196 0.16626026 0.13035168 -0.05853164 -0.084084466
-0.27117348 0.30748057 -0.21449418 0.36276686 -0.18092296 0.055152163 0.19834381 -0.12505503
-0.0956805 -0.4003376 0.0077474676 -0.37263334 0.18277518 0.12642224 -0.33359274 -0.08484744
-0.03884553 0.059644807 0.26862437 0.18026797 -0.04913967 -0.36357173 -0.06713754 -0.22733587
0.15841699 0.2339619 0.44862154 0.0073050624 0.12128043 -0.13834822 0.028316204 0.012521141
-0.39964467 -0.007186842 -0.023435568 -0.06530554 0.1577851 0.1008786 -0.11462593 -0.16685578
-0.10722144 0.13483435 -0.039110754 -0.041967276 0.0038433508 0.12398531 -0.066643775 0.047996987
-0.02120286 0.20161027 -0.02794769 -0.07260555 0.14156836 0.21274093 -0.09244219 -0.14849909
0.35968724 -0.33193678 0.12750265 -0.013429724 0.7730484 -0.38586456 0.55167377 -0.36270702
-0.23675217 0.5080787 0.5875194 0.2421599 -0.427732 0.01677175 0.6475492 -0.0841248
0.28859794 -0.07683219 0.65817034 -0.6343603 0.58109474 -0.34100544 0.50551635 0.59229016
-0.0673702 0.01208014 0.25794628 0.1616473 -0.23996234 0.05722656 0.4833564 -0.05535004
-0.1940704 -0.6512686 -0.3414003 0.58164394 0.30180407 -0.42870477 -0.40303144 0.11951332
-0.5514175 0.2735103 -0.25168976 0.48779386 0.68681777 -0.63121414 0.2206422 -0.4696209
0.14812455 -0.7203435 -0.34950346 0.013968073 0.5834517 0.047815174 -0.04731847 0.3086541
-0.17233275 -0.5280211 0.2636386 -0.18496932 0.07534898 0.06804084 -0.590521 -0.32481363
0.22707377 0.552428 -0.39430702 0.5341608 -0.20921385 -0.09298349 -0.3300252 0.3441574
-0.4768286 0.027206281 0.5045024 -0.45272237 0.21223806 -0.21158785 0.11280367 0.6755751
-0.15793976 0.18542098 -0.08386368 -0.077907346 0.48893794 -0.30701178 -0.092718385 0.3738666
-0.16855581 -0.29338127 -0.033133905 -0.16694297 0.12544134 -0.8208215 -0.038071103 -0.009677631
-0.08210654 -0.38091546 0.33125955 0.48443383 0.07197139 -0.13956729 -0.4588346 -0.10529939
-0.30308968 0.19207136 -0.22158632 0.04651162 0.102336586 -0.08335184 -0.28891706 -0.07330318
0.09134972 -0.3046914 -0.16329366 -0.08420344 0.119386956 -0.24789178 0.011157488 0.16187334
-0.08722341 0.034382403 -0.25135103 -0.22518948 0.043596435 -0.045302007 0.033961475 0.066828705
0.18986928 -0.25869074 -0.10901506 0.18716265 -0.007331084 0.19346319 -0.17409308 -0.30026516
0.015492629 0.21988471 -0.17634507 -0.12082168 0.3208317 -0.18833885 -0.021145692 -0.028214678
-0.3048127 0.22193103 0.020113796 0.10607193 -0.1667094 -0.054957986 0.30231217 0.11269673
-0.26587936 -0.36075878 -0.24577995 -0.30408165 -0.20466077 0.16467032 -0.31361604 0.09367657

bias f4 [100]
00000000: 9108 4f3e 35fb 5f3d fb30 553d 8633 cb3c
00000010: 5f72 4fbe cba0 11be d5af debd cdf7 09be
00000020: 77d2 2f3e 9049 d0bd a7ef a13d e689 f5bc
00000030: 3270 3c3e aebb 0dbc 5512 913d dbc0 1d3e
00000040: 5314 28bd 9bdc 063e 44c1 873f 97f8 853d
00000050: b7cf f2bd b113 703d 54ff 9e3d f99e 803d
00000060: 1bf0 e33d 6242 0f3e d241 1fbd 976c 343e
00000070: 0c69 763e c853 bd3c 6511 313c 41c4 613d
00000080: 1c3d 2fbd 545b f63e 3240 333c bf1c 643d
00000090: 14ce 353e 26fc 903d 80d6 55bd 51f7 283d
000000a0: 8557 ea3d 409d 043e a971 29bd c0e5 163e
000000b0: 3386 25bd 7b12 bf3c 3c21 68bd b02a 353e
000000c0: fb22 b93d 7177 5b3e bbbc febd db11 e9bc
000000d0: 83da babd 2a5a f9bd a45e cd3d 9613 e83c
000000e0: 0535 afbd 47d1 ffbd 36f8 ef3d 8850 4e3e
000000f0: e525 8fbd e601 4b3e 1cdf 9cbd 34a7 d63d
00000100: dc94 22bc 0910 553e 64a9 523e 827c a2be
00000110: daaf b83c 44b7 4a3e c6f5 043d 711e 82bd
00000120: 56a2 02bd 7c85 b9bd 8c63 31bd 4e2d 3d3c
00000130: 85bd cc3d 4354 85bd 60b2 23bd 7496 37be
00000140: aaa1 7dbd e936 9d3d f6b8 313e d0d7 313d
00000150: f236 073e 416a 0d3f 0328 b13c 17e8 e5bd
00000160: 2f0a 87bd 37ee a3bd d4dd 15bb e952 193d
00000170: ab75 7b3d 12d0 7c3e a0e2 493e f337 0cbf
00000180: 7904 513e c535 253e c686 ab3e 0930 b13d
0.20218112 0.05468293 0.052048665 0.024804842 -0.20258473 -0.14221494 -0.10873381 -0.13473435
0.1717013 -0.10170281 0.07907038 -0.029972982 0.18402174 -0.008650703 0.07083575 0.154056
-0.041035008 0.13170092 1.0605855 0.065415554 -0.11856025 0.05861253 0.07763544 0.06280322
0.11129781 0.13990167 -0.03888113 0.17619549 0.2406351 0.02311124 0.01080737 0.055118803
-0.042782888 0.48116553 0.010940598 0.055691477 0.17754394 0.070793435 -0.052206516 0.041251484
0.11442474 0.12950611 -0.04136816 0.1473608 -0.040411185 0.023324242 -0.05667232 0.17692065
0.09039875 0.21432282 -0.12438341 -0.028450897 -0.09123709 -0.121754006 0.10027817 0.028329652
-0.085550345 -0.12491088 0.11717264 0.20147908 -0.0698965 0.19824943 -0.07659742 0.1048111
-0.009923186 0.20806898 0.2057243 -0.31735617 0.02254479 0.19796473 0.03246095 -0.063534625
-0.031893097 -0.09058663 -0.043307826 0.011546446 0.099970855 -0.06510212 -0.039965034 -0.17928487
-0.061921753 0.07676489 0.17355713 0.043418705 0.13204554 0.55240256 0.021625524 -0.11225908
-0.06593739 -0.0800442 -0.0022867816 0.037432585 0.061391514 0.24688748 0.19715357 -0.5477287
0.20411862 0.16133793 0.3350126 0.0865174

weight f4 [1, 100]
00000000: f58d c3be 7b4a 593e 7518 27bf 7b5c 00bf
00000010: 127a d7be 4911 ccbe cce8 06bf 6b7b e9be
00000020: 1689 c1be dce3 c5be 621b 973e 4add c5be
00000030: 8a53 8f3d eb9b c6be 7f45 793c c4c6 943e
00000040: 7a3e 13bf 36ee cabe ddb7 503f 6e55 db3e
00000050: d96a ddbe 2d07 813e babe 083d d7cf 893e
00000060: 90f4 b7be 831b bb3e 8a2c b83e 790e 653e
00000070: 46a4 763e 331e 823e 9b2e c33e 3053 653e
00000080: 1d75 0abf 6304 c93e 2041 923e bbd2 953e
00000090: 3319 943e 9b44 8a3e 032b a23e 178d 0abf
000000a0: 61c5 9e3e 8efa c63e 9528 d0be 0603 893e
000000b0: c6e9 15bf 761c bebe 1cd6 00bf 80d6 963e
000000c0: 4d35 aa3e 146e 16bf 5c8a f6be be44 fcbe
000000d0: 6e7b 08bf f3bd 0dbf 142b 923e 4ada 21bf
000000e0: 724c d03d 8727 02bf e629 e53e 277f a6be
000000f0: e0f4 dabe 2890 253f 3681 f7be 13ae 1fbf
00000100: 636a e5be 12f8 783e 259e 9c3e 79fe 8c3f
00000110: bda2 873e a0ca 923e c2f9 f7be 34ff fbbe
00000120: 58ec f5be faf3 1bbf 748c e33d 68a5 edbe
00000130: a366 bf3e 80c1 09bf 0a07 07bf dd3b dfbe
00000140: e0e2 22bf e5fc 0a3e 18b9 823e 87e8 9fbe
00000150: 8d1b 9d3e 6211 8d3f b53c 943f 5680 f9be
00000160: 8022 01bf 01b8 e6be 4bab be3e e6e8 783e
00000170: d8a8 923e b01e 1e3f 10ee 00bf 2019 0840
00000180: ba1d d4be 316f 963e 7cce a13e 013a 3bbe
-0.38194242 0.21219818 -0.65271693 -0.50141114 -0.4208532 -0.39856938 -0.5269897 -0.45601973
-0.377999 -0.38650405 0.2951308 -0.38645393 0.06998356 -0.3879083 0.015214323 0.29057896
-0.57517207 -0.39634866 0.81530553 0.42838615 -0.4324558 0.25200787 0.033385016 0.26916382
-0.35928774 0.36544427 0.3597148 0.22368802 0.24086103 0.25413665 0.38121495 0.22395015
-0.5408495 0.3926116 0.2856531 0.29262337 0.28925475 0.27005467 0.3167344 -0.54121536
0.31009963 0.38863033 -0.40655962 0.2676012 -0.58559835 -0.3713109 -0.50326705 0.29460526
0.3324379 -0.58761716 -0.48152435 -0.49271196 -0.5331334 -0.55367965 0.2854849 -0.6322371
0.10170831 -0.50841564 0.44758528 -0.32518885 -0.4276495 0.6467309 -0.48340768 -0.6237499
-0.4480773 0.24313381 0.30589405 1.1015159 0.26491347 0.28670216 -0.48432738 -0.49218142
-0.48031878 -0.60919154 0.11110774 -0.46415257 0.37382993 -0.5381088 -0.52745116 -0.4360036
-0.63627434 0.13573034 0.2553184 -0.31232092 0.30685082 1.102093 1.1581026 -0.48730725
-0.5044327 -0.4506226 0.3724006 0.24307594 0.28644443 0.61765575 -0.50363255 2.1265335
-0.4142893 0.29381707 0.31602848 -0.18283845

S f4 [4, 4]
00000000: 0000 0000 0000 0000 0000 803f 0000 0000
00000010: 0000 0000 0000 0000 0000 0000 0000 803f
00000020: 0000 80bf 0000 0000 0000 0000 0000 0000
00000030: 0000 0000 0000 80bf 0000 0000 0000 0000
0.0 0.0 1.0 0.0 0.0 0.0 0.0 1.0
-1.0 0.0 0.0 0.0 0.0 -1.0 0.0 0.0
