Models/Kepler/Kepler_symplectic midpoint_50epoch_Sin()_ReLU()_batchsize_64_shape_torch.Size([1099000, 4])_L_coeff_0.001.pt (torch, 51770 bytes, 6 tensors)

weight f4 [100, 4]
0	0x3f41c978	0.7569804
1	0xbe2f40c7	-0.17114554
2	0xbd132047	-0.035919454
3	0xbe25aa24	-0.16178185
4	0xbfb09404	-1.3795171
5	0x3e3bfe3c	0.18358701
6	0x3d41f9b5	0.04735728
7	0xbe3fc1c3	-0.18726258
8	0x3f835aa7	1.026204
9	0xbf863c37	-1.0487126
10	0xbba1f4be	-0.0049425056
11	0xbe8f508b	-0.27991137
12	0xbeb91932	-0.36152035
13	0xbfb10373	-1.3829178
14	0xbe77d5ea	-0.24202695
15	0xbee40a3d	-0.4453906
16	0xbe4615aa	-0.19344202
17	0x3ecf8966	0.40534514
18	0x3d56d097	0.05244502
19	0x3d77f324	0.06053461
20	0xbf441662	-0.76596653
21	0x3f388221	0.7207356
22	0x3f76ad30	0.96358013
23	0x3d337a86	0.04381802
24	0xbf8e2dc7	-1.110772
25	0x3f98f34b	1.1949247
26	0xbeacea18	-0.3377235
27	0xbeb3c11d	-0.3510827
28	0x3eb18d7c	0.34678257
29	0x3ed14171	0.4087024
30	0x3def91bc	0.116977185
31	0xbd7e4959	-0.06208167
32	0xbe7a1fb8	-0.24426162
33	0xbffee618	-1.9913969
34	0x3ed43296	0.41444844
35	0x3dfa4777	0.12220662
36	0x3e1846e9	0.148708
37	0xbf8d9dfb	-1.1063837
38	0xbf20f0e1	-0.6286755
39	0xbdae3fb7	-0.085082464
40	0xbdfd6e56	-0.123745605
41	0x3f838481	1.0274812
42	0x3d6006ae	0.05469387
43	0xbf20a1c1	-0.62746817
44	0x3d74a4e2	0.059727557
45	0xbee34bc3	-0.4439374
46	0x3be1adba	0.006887165
47	0xbce00dcc	-0.027350329
48	0x3faf5147	1.3696679
49	0x3f523a5d	0.82120305
50	0xbd742ba7	-0.059611943
51	0x3e90352a	0.2816556
52	0x3f86b119	1.0522796
53	0xbf759838	-0.9593539
54	0xbe61bf88	-0.2204572
55	0xbdb7eca4	-0.089806825
56	0x3f23f838	0.64050627
57	0x3c85344c	0.016260289
58	0x3e94e06a	0.29077464
59	0xbf115a7c	-0.56778693
60	0x3f8293e2	1.020138
61	0x3f177deb	0.5917651
62	0xbececb43	-0.4038945
63	0xbe20b691	-0.15694644
64	0x3fb4edfc	1.4135127
65	0xbe8a185f	-0.2697172
66	0x3d819774	0.063277155
67	0xbf28eb47	-0.65984005
68	0xbef26ab7	-0.47347042
69	0xbe8ce73a	-0.27520162
70	0xbe240af6	-0.16019806
71	0x3e1b07cb	0.15139692
72	0x3ebbc0b4	0.36670458
73	0x3d686e23	0.05674566
74	0xbe2b6f0f	-0.16741584
75	0xbf075ea5	-0.5287879
76	0x3f9053d2	1.127558
77	0x3cd351e7	0.02579589
78	0xbd30a720	-0.043128133
79	0xbf0430a1	-0.516367
80	0x3e95064c	0.29106367
81	0xbed4c60e	-0.41557354
82	0xbdca1707	-0.09867673
83	0x3dc3aaa3	0.09554031
84	0x3e64be72	0.22338274
85	0xbec67140	-0.38758278
86	0x3f066919	0.52504116
87	0xbed94399	-0.42434385
88	0x3e0bcc0d	0.13652058
89	0x3f5ff897	0.87488693
90	0x3f27a14a	0.6548048
91	0x3c0b7206	0.008511072
92	0x3f8513fa	1.0396721
93	0x3e5ee578	0.21767223
94	0xbd2134f2	-0.039357133
95	0x3e84c53c	0.25931728
96	0x3ee5685c	0.44806182
97	0x3e0c6b90	0.13712907
98	0x3ec044c2	0.37552458
99	0x3edd7e7c	0.43260562
100	0x3f977015	1.183108
101	0xbef2a6e8	-0.47392964
102	0x3f047636	0.51742876
103	0xbe2686c9	-0.16262354
104	0xbe276a6b	-0.16349189
105	0x3e8905da	0.26762277
106	0x3eee68a7	0.46564218
107	0x3c511f55	0.012763818
108	0xbe46f3d1	-0.19428946
109	0x3ed934fe	0.42423242
110	0x3ea18c1a	0.31552202
111	0x3def3be0	0.11681342
112	0xbf87ec6a	-1.0619023
113	0xbf47edb9	-0.7809711
114	0xbe8cd47d	-0.27505866
115	0x3f1aad49	0.6042066
116	0xbebe92e1	-0.37221435
117	0x3d8bc5fe	0.068248734
118	0x3e1ebe8e	0.15502378
119	0x3ebc89a3	0.36823758
120	0xbf4c41bf	-0.7978782
121	0xbf014aa1	-0.505045
122	0xbdee5ad3	-0.11638417
123	0x3e28d60d	0.16487904
124	0x3f3087d9	0.6895729
125	0xbf179109	-0.5920568
126	0x3e221d57	0.15831505
127	0x3e0966d0	0.13418126
128	0x3f077f9b	0.52929085
129	0x3fdf4199	1.7441894
130	0xbddd0a29	-0.107929535
131	0x3da21e60	0.0791595
132	0x3f1a17e4	0.60192704
133	0x4003f05e	2.0615458
134	0xbe88d17a	-0.26722318
135	0xbf0b6cfb	-0.54463166
136	0xbdc29eef	-0.095029704
137	0xbf546c26	-0.8297752
138	0x3e966421	0.29373267
139	0x3ef44d34	0.4771515
140	0x3f8b6956	1.0891521
141	0x3f92e4f2	1.1476119
142	0x3ed7d5d1	0.42155316
143	0x3ebad993	0.3649412
144	0xbf8c1ee1	-1.0946923
145	0x3f0eb3a9	0.5574289
146	0x3de6773e	0.112532124
147	0x3dedf22b	0.116184555
148	0x3cd6531e	0.02616268
149	0x3d2953f5	0.041339833
150	0xbd40399c	-0.04692994
151	0xbe7ec052	-0.24878052
152	0xbf7a1d43	-0.977009
153	0xbf693d78	-0.9110942
154	0x3e6faefd	0.23406596
155	0xbe5ab8c2	-0.21359542
156	0x3ea46b08	0.32112908
157	0x3c59e7a8	0.01329986
158	0x3e4c0e9c	0.19927448
159	0xbe2f33fc	-0.17109674
160	0x3f081d03	0.5316927
161	0xbeb8bf8f	-0.36083648
162	0xbe032004	-0.12805182
163	0xbe1b5127	-0.15167676
164	0x3da98932	0.08278121
165	0x3fa4aa37	1.2864445
166	0x3edd67d4	0.43243277
167	0x3ee39a89	0.44453838
168	0x3d0750bf	0.03303599
169	0xbe736bc6	-0.23771581
170	0x3f25df72	0.64794075
171	0xbc0a5b3b	-0.008444603
172	0xbf80fb0a	-1.0076611
173	0x3fb21707	1.3913277
174	0xbe395450	-0.18098569
175	0x3f0e4902	0.5558015
176	0xbcc71c91	-0.024305614
177	0xbf164152	-0.5869342
178	0xbdaf3c8d	-0.08556471
179	0xbd0fdb41	-0.035121206
180	0xbf74992f	-0.9554624
181	0x3e9479a1	0.28999045
182	0x3daad52d	0.08341441
183	0x3e727084	0.23675734
184	0xbf0daa2b	-0.5533778
185	0x3eef5b76	0.46749467
186	0x3e837d0e	0.25681347
187	0x3d911e0b	0.07085808
188	0x3e57c506	0.21071252
189	0x3e179008	0.14801037
190	0xbe8022ac	-0.25026453
191	0x3e3e0742	0.18557456
192	0x3f7dda24	0.9916098
193	0xbed33eab	-0.4125875
194	0xbe20a9ba	-0.15689746
195	0x3eb54bca	0.35409385
196	0xbecec0a3	-0.40381345
197	0x3d31aace	0.043375783
198	0x3e360f81	0.17779352
199	0xbdf29552	-0.11844887
200	0xbe096a63	-0.1341949
201	0xbf226dec	-0.6344898
202	0xbef5d6fc	-0.48015583
203	0x3eaf3ea1	0.3422747
204	0x3de2e21b	0.110782824
205	0xbc802d8e	-0.015646722
206	0x3e951b84	0.29122555
207	0x3e8501ea	0.25978023
208	0xbefbcfd1	-0.4918199
209	0xbd99fb8a	-0.075186804
210	0x3deb1eef	0.114805095
211	0xbe662206	-0.22473916
212	0xbf46755c	-0.77522826
213	0x3f8cf648	1.1012659
214	0x3f2decc3	0.67939395
215	0x3e522dfe	0.20525357
216	0x3e9080cf	0.28223273
217	0x3e40ce19	0.1882862
218	0xbe2ffaa7	-0.1718546
219	0x3f1a97ad	0.6038769
220	0xbeaa4997	-0.3325927
221	0xbeaf3944	-0.34223378
222	0xbecb9229	-0.3975995
223	0xbe184e54	-0.1487363
224	0x3e115dc9	0.14195932
225	0xbe821e3f	-0.254137
226	0xbf1abf2d	-0.6044796
227	0x3ee31df6	0.44358796
228	0x3c8d3b00	0.017240047
229	0x3e36a582	0.17836574
230	0x3f08710c	0.53297496
231	0xbdf4ae54	-0.11947313
232	0xbf4f6faa	-0.8102976
233	0x3f816aa5	1.011067
234	0x3e82c6dd	0.25542346
235	0xbe009480	-0.12556648
236	0xbf8bdc37	-1.0926579
237	0x3f8ea99e	1.1145513
238	0x3f03dce7	0.51508945
239	0x3ed542ff	0.41652676
240	0x3d215887	0.039391067
241	0xbf1dc9a3	-0.616358
242	0xbe3f246b	-0.18666236
243	0xbd609677	-0.054830994
244	0x3f3e97af	0.744502
245	0x3ebc6d0e	0.36801952
246	0xbec05de5	-0.37571636
247	0x3e266fef	0.16253637
248	0xbe6a7618	-0.22896612
249	0xbe5fb208	-0.21845257
250	0x3f2187dd	0.63097936
251	0x3b9e186f	0.00482469
252	0xbea3e9fc	-0.32014453
253	0x3edce8b4	0.43146288
254	0x3e19aaa9	0.15006508
255	0x3dc9bf98	0.09850997

bias f4 [100]
0	0x3f4071f4	0.7517388
1	0x3e02fbb1	0.12791325
2	0xbf4921c8	-0.7856717
3	0x3f1fd3af	0.6243238
4	0xbee70ff1	-0.4512935
5	0x3f383cfd	0.7196806
6	0xbe50c0c9	-0.20386042
7	0x3ed2a60b	0.41142306
8	0x3e9236b1	0.2855735
9	0x3f5edc54	0.87054944
10	0xbf153de5	-0.5829757
11	0x3d08de95	0.033415396
12	0x3e6038a2	0.21896604
13	0xbf8b1462	-1.0865595
14	0xbf1f190f	-0.6214761
15	0xbeac0554	-0.33597815
16	0xbf7da930	-0.99086285
17	0xbf5a30c2	-0.8523065
18	0x3f0cba53	0.5497181
19	0x3efe30c7	0.4964659
20	0x3ed42cec	0.41440523
21	0xbf000ae6	-0.5001663
22	0x3f185d8f	0.5951776
23	0x3f946f16	1.1596401
24	0xbed317d9	-0.41229132
25	0x3f3bf4be	0.7342032
26	0x3e68f21d	0.22748609
27	0x3f14d051	0.58130366
28	0xbf7fa7af	-0.9986524
29	0xbe618fd8	-0.22027528
30	0x3f60c26b	0.8779666
31	0xbf50e8f8	-0.8160548
32	0xbebc66ec	-0.36797273
33	0xbe781135	-0.24225314
34	0xbf3f264b	-0.74667805
35	0x3f15d381	0.58525854
36	0x3f66d7ec	0.9017322
37	0x3e00085f	0.12503193
38	0xbf91c4da	-1.1388199
39	0x3f011f09	0.5043798
40	0xbf3c3417	-0.7351698
41	0x3e84567f	0.2584724
42	0x3e3b18d3	0.18271188
43	0xbe9e99c7	-0.30976698
44	0x3e9f853a	0.3115633
45	0x3f65176a	0.8948885
46	0x3f48d1eb	0.7844531
47	0xbefe22d6	-0.49635953
48	0x3e5c0bfd	0.21488948
49	0xbe0fc85d	-0.14041276
50	0x3e15c5e0	0.14626265
51	0xbf3061f0	-0.6889944
52	0x3f387298	0.72049856
53	0x3f71ec27	0.94500965
54	0x3e974572	0.2954517
55	0x3eaa0ea1	0.33214286
56	0x3f0e055e	0.5547694
57	0x3e30d951	0.172704
58	0xbf70247c	-0.9380567
59	0x3f9c5392	1.2213004
60	0x3f4ff8f1	0.8123923
61	0xbee6e888	-0.45099282
62	0x3ed0353c	0.40665615
63	0xbf3cd02a	-0.73755133
64	0x3f713905	0.9422763
65	0x3f425f22	0.7592641
66	0x3f8ab47a	1.0836327
67	0xbec68b58	-0.38778186
68	0x3f5d10a7	0.86353534
69	0x3f395ac1	0.72404104
70	0xbf0b5939	-0.5443302
71	0x3ee63865	0.449649
72	0xbf3a26e3	-0.72715586
73	0xbf4fa4bb	-0.81110734
74	0x3f601dcb	0.8754546
75	0xbe3a0188	-0.18164647
76	0xbe5d9370	-0.21638274
77	0x3f6a971d	0.9163683
78	0x3f611d72	0.87935555
79	0xbf85c758	-1.045146
80	0x3f1630d4	0.58668256
81	0xbedd0f13	-0.43175563
82	0x3dd802b8	0.105473936
83	0x3e14ba56	0.14524207
84	0xbf94d2f5	-1.1626879
85	0x3f16db73	0.589286
86	0x3f7f1bf0	0.99652004
87	0xbf77e1af	-0.9682874
88	0xbf1b0cac	-0.6056621
89	0x3ec0fc61	0.3769255
90	0xbddc28c6	-0.107499644
91	0x3f73442f	0.95025915
92	0xbe0756e1	-0.13216735
93	0x3f032160	0.512228
94	0x3f8f468c	1.1193404
95	0xbf1ad188	-0.6047597
96	0x3f6e03ba	0.92974436
97	0xbf896a9e	-1.0735662
98	0xbf66578f	-0.89977354
99	0xbf21e263	-0.63236064

weight f4 [100, 100]
0	0x3d3f441b	0.04669581
1	0x3e5bff4d	0.21484108
2	0x3e32c719	0.17458762
3	0x3dd26322	0.10272814
4	0x3cc50f0f	0.024055032
5	0xbec4f517	-0.3846824
6	0xbdcdb7ea	-0.100448444
7	0x3c10efaf	0.0088462075
8	0x3e729261	0.23688652
9	0x3e60057d	0.21877094
10	0x3e94cc42	0.29062086
11	0xbdf5f649	-0.12009866
12	0x3d312338	0.043246478
13	0x3ea0aabc	0.3138026
14	0xbe0010db	-0.1250643
15	0x3ebc7376	0.3680684
16	0xbec73b3a	-0.38912374
17	0x3e4de2f7	0.20106111
18	0x3e2a9496	0.16658244
19	0x3e712e92	0.23552921
20	0x3dcffd2f	0.10155713
21	0x3e8ea9d5	0.27863947
22	0x3eacd261	0.33754256
23	0x3e671937	0.22568212
24	0x3e5a9c86	0.21348771
25	0xbeed4b84	-0.46346676
26	0xbbfc4562	-0.0076987008
27	0x3dfd845d	0.12378762
28	0xbeae1250	-0.33998346
29	0xbd5d5c3b	-0.054043036
30	0xbe0e9e38	-0.13927543
31	0x3d3f5994	0.046716288
32	0x3e1497f6	0.14511093
33	0xbc8aefbd	-0.01696002
34	0x3e26c0ae	0.16284439
35	0xbeeab4ee	-0.45841163
36	0xbd1ce2d5	-0.03830226
37	0xbce32158	-0.02772586
38	0xbd4275c1	-0.04747558
39	0xbcc25de0	-0.023726404
40	0xbde73c99	-0.11290855
41	0x3dc6efbd	0.09713695
42	0x3e87dff2	0.26538044
43	0x3e455dee	0.19274113
44	0xbe215ae3	-0.15757327
45	0xbca3f6e8	-0.020015195
46	0xbd8b5b71	-0.068045504
47	0xbe607e41	-0.21923162
48	0xbe0c76aa	-0.13717142
49	0xbd88ef52	-0.06686272
50	0xbc959196	-0.018257897
51	0x3ea360b9	0.3190973
52	0x3e84697e	0.25861734
53	0x3e1d6d7a	0.15373793
54	0xbee9e833	-0.45684966
55	0xbe89c931	-0.2691131
56	0x3b173d2e	0.0023077237
57	0x3da44dd4	0.08022657
58	0x3e0fd2e0	0.14045286
59	0x3e601920	0.21884584
60	0xbe473b30	-0.19456172
61	0xbe6a032b	-0.22852771
62	0x3d83196c	0.06401333
63	0x3d09812c	0.033570454
64	0x3e7c652d	0.2464797
65	0x3d032a0c	0.03202252
66	0x3ea9cd05	0.3316423
67	0x3df56c34	0.11983529
68	0x3e20c2ee	0.1569936
69	0x3d44ee9b	0.048079114
70	0xbeba673d	-0.3640689
71	0xbebba906	-0.36652392
72	0xbe2f3923	-0.1711164
73	0xbdc7c7c4	-0.09754899
74	0xbe443419	-0.19160499
75	0x3d88bd5a	0.06676741
76	0x3e33db74	0.17564183
77	0x3e6af463	0.22944789
78	0xbd40add4	-0.047040775
79	0x3db0a7ef	0.08625781
80	0x3df1eae3	0.11812379
81	0x3d862d7e	0.06551646
82	0xbf04a9cc	-0.5182159
83	0x3e49ab2c	0.19694203
84	0x3ed34b58	0.4126842
85	0xbe5f6853	-0.2181714
86	0xbe29df47	-0.1658908
87	0xbde0dfe7	-0.10980206
88	0x3d384229	0.04498497
89	0xbe89e905	-0.26935592
90	0xbe5dfd96	-0.21678767
91	0xbe93d1f4	-0.2887112
92	0xbbbb0cb6	-0.0057083024
93	0xbe8005a8	-0.25004315
94	0x3eba9dac	0.3644842
95	0x3e48f0a9	0.19623055
96	0x3f10dc57	0.5658621
97	0xbc5fe2bb	-0.013664897
98	0xbe601df2	-0.21886423
99	0x3c1c5581	0.00954187
100	0x3e86d4a8	0.2633412
101	0x3c7dca61	0.015490145
102	0xbe8a0ad5	-0.2696139
103	0x3d0193f5	0.031635243
104	0x3e2d13da	0.16902104
105	0xbe160edc	-0.14654106
106	0x3eb1691b	0.34650502
107	0xbe98f652	-0.29875427
108	0xbe040f7b	-0.1289653
109	0xbe9c6462	-0.30545336
110	0xbe4dce43	-0.20098214
111	0xbe74301f	-0.23846482
112	0xbee16f82	-0.44030386
113	0xbf11bc2a	-0.5692774
114	0x3cdec5d5	0.027193943
115	0x3dabe430	0.08393133
116	0xbd2fa47d	-0.042881478
117	0xbe93d2ae	-0.28871673
118	0x3e3dcb04	0.18534476
119	0xbe128014	-0.1430667
120	0x3d04d171	0.0324263
121	0xbe93f658	-0.28898883
122	0x3ea29a40	0.31758308
123	0xbf2c4a24	-0.6730063
124	0xbe6aa338	-0.22913826
125	0x3f0bb458	0.5457206
126	0xbd69e8d5	-0.05710681
127	0x3dcdcc76	0.100487635
128	0x3eb272ed	0.34853306
129	0xbcfe546b	-0.031046113
130	0x3ec7e9eb	0.39045653
131	0x3e93aa9a	0.28841096
132	0xbdcead36	-0.10091631
133	0xbe94233a	-0.28933126
134	0xbe0d222a	-0.13782564
135	0x3eacabac	0.33724725
136	0x3dcda38f	0.10040962
137	0x3db336da	0.087506965
138	0x3eaa84f9	0.33304575
139	0x3d4c13ba	0.0498235
140	0xbe2235a5	-0.15840776
141	0x3e10de89	0.1414739
142	0xbdb3eb6c	-0.087851375
143	0x3dd67eac	0.104733795
144	0xbbe4631a	-0.0069698216
145	0x3d1403a0	0.03613627
146	0x3e1f743c	0.15571684
147	0xbd88d6e2	-0.06681611
148	0xbe8441e7	-0.2583153
149	0xbe15d91f	-0.14633606
150	0xbc172270	-0.009224519
151	0xbe81c7dc	-0.25347793
152	0xbe82929e	-0.25502485
153	0xbeb6c0fb	-0.35694107
154	0xbdfde7f3	-0.123977564
155	0x3daf00ef	0.085451
156	0x3dba8ae6	0.09108524
157	0x3e2d1177	0.16901194
158	0xbf25ffb1	-0.6484328
159	0xbd6d3a34	-0.057916835
160	0x3e975b20	0.2956171
161	0x3e6ae761	0.22939827
162	0xbe6cbadf	-0.2311816
163	0xbe4d5bb9	-0.2005452
164	0xbefd9d4d	-0.49534073
165	0x3e81fdb9	0.25388888
166	0xbecfb70b	-0.40569338
167	0x3e3b77ce	0.1830742
168	0x3e94bc12	0.29049736
169	0x3e3ef746	0.18649015
170	0x3d606bb9	0.054790232
171	0xbc71a5ee	-0.014749033
172	0xbead7ab1	-0.3388267
173	0xbd23b82d	-0.039970566
174	0x3e9f10e6	0.3106758
175	0x3caa015f	0.020752607
176	0x3e392921	0.18082096
177	0xbe344cc7	-0.17607413
178	0x3e875515	0.264321
179	0xbeee50a1	-0.4654589
180	0x3e846999	0.25861815
181	0x3ddb639d	0.10712359
182	0xbe6762f5	-0.22596343
183	0xbdd89f1b	-0.10577222
184	0xbf1a0fb3	-0.60180205
185	0xbceda872	-0.029010985
186	0x3ef1f713	0.47258815
187	0x3e96db7f	0.29464337
188	0xbe2fa241	-0.17151739
189	0xbe569c3c	-0.20958036
190	0xbc56d8f1	-0.013113246
191	0xbdb30ff9	-0.08743281
192	0xbaf3dcaa	-0.0018605192
193	0xbbdf063f	-0.0068061645
194	0xbf2a147b	-0.664375
195	0xbde6a3a0	-0.11261678
196	0xbf166d16	-0.587602
197	0xbe398a1e	-0.18119094
198	0x3f201905	0.62538177
199	0xbd38ab60	-0.04508531
200	0xbeb6fc0e	-0.35739177
201	0x3e130090	0.14355683
202	0x3e861480	0.26187515
203	0xbeb27602	-0.34855658
204	0xbbcec6c8	-0.0063103177
205	0xbe3f9893	-0.18710546
206	0xbd815965	-0.06315879
207	0x3c97899a	0.01849823
208	0x3d8edd49	0.069758005
209	0x3ea5a09c	0.32349098
210	0xbdba74b5	-0.09104291
211	0xbea2a163	-0.31763753
212	0x3ecf4e44	0.404894
213	0x3f0557f8	0.52087355
214	0x3ea76558	0.32694507
215	0xbe6992b2	-0.22809866
216	0xbe388de8	-0.18022883
217	0x3e40f5d4	0.18843776
218	0x3eae789c	0.34076393
219	0x3ea762d6	0.32692593
220	0xbc253c85	-0.01008523
221	0x3d57fd20	0.052731633
222	0x3eaa0f60	0.33214855
223	0x3ec282b2	0.37990338
224	0x3d320856	0.04346498
225	0xbf0e5151	-0.5559283
226	0x3e47f16b	0.19525687
227	0x3e6c1e9e	0.23058555
228	0xbe10a1c1	-0.14124204
229	0xbe92e7d4	-0.28692496
230	0xbeadc9f7	-0.3394315
231	0xbead0100	-0.33789825
232	0x3e5fc52f	0.21852563
233	0xbe1c3483	-0.15254407
234	0x3e2f46e7	0.17116891
235	0xbe52a90a	-0.20572296
236	0xbe2085e2	-0.15676072
237	0x3d154a43	0.036447775
238	0xbea7cf9d	-0.32775584
239	0xbe557d59	-0.20848598
240	0xbc7acc34	-0.015307475
241	0x3e290ff5	0.16509993
242	0x3e399af2	0.18125513
243	0x3e463dfb	0.19359581
244	0xbd350a4b	-0.04419927
245	0xbe534083	-0.20630078
246	0x3e126586	0.1429654
247	0xbe7fbcdb	-0.24974386
248	0xbeaf3507	-0.34220144
249	0x3ddb64af	0.10712563
250	0x3d925ebb	0.07146975
251	0xbe2e666d	-0.1703126
252	0x3defa7ca	0.11701925
253	0x3d97ca1f	0.074115984
254	0x3d8a7cec	0.06762108
255	0xbc65a327	-0.014015949

bias f4 [100]
0	0x3d28f950	0.041253388
1	0xbd5ed4f0	-0.05440229
2	0xbd56b7d7	-0.052421417
3	0x3dab68f5	0.08369628
4	0xbcc8e2da	-0.024522234
5	0xbc91d56d	-0.017801965
6	0xbdc5ed7d	-0.09664438
7	0xbd3cc8dd	-0.046089996
8	0x3dc03d30	0.093866706
9	0x3d5cc0b3	0.05389471
10	0xbc6aa833	-0.014322328
11	0x3b93bf80	0.0045089126
12	0x3d90ca47	0.07069831
13	0xbdc15420	-0.09439874
14	0xbd931cf2	-0.07183255
15	0x3daa4307	0.08313566
16	0xbd24a5c0	-0.040197134
17	0x3d91b715	0.07114998
18	0xbd42121d	-0.047380555
19	0xbd8a6613	-0.0675775
20	0xbd2a37b7	-0.04155704
21	0xbbf44a80	-0.00745517
22	0xbd6fe52a	-0.058568157
23	0x3cde826d	0.027161801
24	0x3dca5b6f	0.09880721
25	0x3c9f2ac7	0.019429578
26	0x3cd8fe8d	0.026488567
27	0xbccd4fc7	-0.025062455
28	0x3d310153	0.043214153
29	0xbdaeecc2	-0.08541252
30	0xbcfc0087	-0.03076197
31	0x3dc4af25	0.09603719
32	0xbd2235ea	-0.039602198
33	0xbcae79b3	-0.021298265
34	0x3a826600	0.0009948611
35	0x3accd333	0.0015626907
36	0x3d949747	0.07255416
37	0xbc21cda7	-0.0098756915
38	0xbdc37ab2	-0.09544887
39	0xbd311c50	-0.04323989
40	0xbdb2f66d	-0.08738408
41	0xbcb65f9a	-0.022262383
42	0x3d8e15b7	0.069377355
43	0x3cd332ad	0.025781
44	0x3c7baac0	0.015360534
45	0xbd30af8a	-0.043136157
46	0xbd42769d	-0.0474764
47	0x3c1cde1a	0.0095744375
48	0x3d6c3dc0	0.057676077
49	0xbc09cb9a	-0.008410359
50	0xbcea578d	-0.0286062
51	0xbda2747b	-0.07932373
52	0xbd3f7ec0	-0.046751738
53	0xbdac0d3f	-0.08400964
54	0x3c8e3f33	0.01736412
55	0x3d539ff7	0.051666226
56	0xbc6aad80	-0.014323592
57	0xbdc72ca7	-0.09725314
58	0xbc3ea5f3	-0.011636245
59	0x3da4c60d	0.08045588
60	0xbdc0c24d	-0.0941206
61	0xbdcad8fa	-0.09904666
62	0xbdae27dd	-0.08503697
63	0x3db3677d	0.08759973
64	0x3dad64e2	0.084665075
65	0x3d9182c2	0.07105018
66	0x3d7ef7a7	0.0622479
67	0xbc798d73	-0.015231478
68	0xbd3bbe73	-0.045835923
69	0x3d9222ad	0.0713552
70	0x3d39258a	0.045201816
71	0xbd40e770	-0.047095716
72	0x3d5f8820	0.05457318
73	0xbdcadf20	-0.09905839
74	0xbd00c327	-0.03143611
75	0xbd8f7ff2	-0.070068255
76	0xbdad0248	-0.08447701
77	0xbd0464aa	-0.032322563
78	0xbd65baaa	-0.05608622
79	0xbcafa4c7	-0.021440877
80	0xbd101bfa	-0.03518293
81	0xbdc16a5b	-0.09444114
82	0x3d538ffa	0.05165098
83	0xbdbcaa6a	-0.092121914
84	0xbb7c859a	-0.0038531781
85	0x3b95259a	0.0045516016
86	0xbda4f0c5	-0.08053736
87	0xbdaf737b	-0.08566948
88	0xbcbbe113	-0.022934472
89	0xbd79d7b7	-0.060996737
90	0xbd4663c7	-0.048435
91	0xbb89879a	-0.004197073
92	0x3d2ac80a	0.04169468
93	0x3d84ff27	0.06493979
94	0x3d6c87d7	0.057746734
95	0x3d42215a	0.047395088
96	0x3d8357f7	0.06413262
97	0x3d341633	0.043966483
98	0x3dbf8903	0.09352305
99	0xbd7d0980	-0.061776638

weight f4 [1, 100]
0	0xbe5f1a11	-0.21787287
1	0x3f8311ef	1.0239848
2	0xbf352f57	-0.7077536
3	0xbf67c9ed	-0.9054249
4	0xbf6a978e	-0.91637504
5	0xbf4e5bbe	-0.8060874
6	0xbf2f683a	-0.6851841
7	0xbf196e38	-0.59933805
8	0xbf1fe499	-0.6245819
9	0xbe52cf86	-0.20586976
10	0x3f98c429	1.1934863
11	0xbec5783f	-0.38568303
12	0x3f184569	0.5948091
13	0xbf1c70b8	-0.61109495
14	0x3f0db649	0.5535627
15	0x3f804dd3	1.002375
16	0xbecebb0f	-0.4037709
17	0xbf6b8013	-0.919923
18	0xbf2e6fc8	-0.68139315
19	0x3fa3b337	1.2789067
20	0xbf831543	-1.0240864
21	0x3f1645ff	0.58700556
22	0x3f2edf0c	0.6830909
23	0x3f692891	0.91077524
24	0xbf8250f9	-1.0180961
25	0x3fa9ea7b	1.3274683
26	0x3fda0289	1.7032024
27	0x3f58787c	0.84558845
28	0x3f9aafb6	1.2084873
29	0x3f6fcffd	0.9367674
30	0x3f04745b	0.51740044
31	0x3f8ca2d8	1.0987196
32	0xbecb6d61	-0.39731887
33	0x3f2bfdd2	0.67184174
34	0x3f4bbe00	0.7958679
35	0x3f08c431	0.53424364
36	0x3f8bed9f	1.0931891
37	0x3f975eaf	1.182577
38	0x3f8a2131	1.0791379
39	0xbf83e85b	-1.0305284
40	0x3f965a53	1.1746315
41	0x3fab9b1c	1.3406711
42	0xbed5b9a5	-0.41743198
43	0x3f6649e1	0.8995648
44	0xbf750af6	-0.9571985
45	0xbf1b88d0	-0.60755634
46	0xbf4e1bfe	-0.8051146
47	0x3f053041	0.52026755
48	0x3fa193cd	1.262323
49	0xbf90d572	-1.1315138
50	0xbf110386	-0.56646
51	0xbf2716e2	-0.6526929
52	0xbf32fe82	-0.699196
53	0xbf1997d3	-0.5999729
54	0x3f8271eb	1.0191015
55	0xbefc058e	-0.49222988
56	0x3f4a6555	0.7906087
57	0xbeebd590	-0.46061373
58	0x3f65c9a2	0.8976079
59	0xbf627941	-0.8846627
60	0xbf2a6e48	-0.66574526
61	0x3fd2623a	1.6436226
62	0xbf138a90	-0.57633305
63	0xbf18f6f6	-0.5975183
64	0xbf0051b2	-0.5012466
65	0x3f37104a	0.7150923
66	0x3f80a728	1.0051012
67	0x3f4b792c	0.7948177
68	0x3f86e4ce	1.0538576
69	0x3f18665a	0.59531176
70	0xbf1c85c2	-0.611416
71	0xbeea706e	-0.45788902
72	0xbf387f63	-0.72069377
73	0xbf54ea4c	-0.8317001
74	0x3f894117	1.0722989
75	0xbf71d58c	-0.9446647
76	0x3f673d08	0.903275
77	0xbefae41b	-0.49002156
78	0xbf0410bf	-0.5158805
79	0xbf673a0f	-0.90322965
80	0xbf08e615	-0.5347608
81	0x3fa85beb	1.3153051
82	0x3ef3019e	0.4746217
83	0xbe9a39a6	-0.30122107
84	0x3f6563c5	0.8960536
85	0x3fbb8475	1.4649798
86	0x3efbab34	0.49154055
87	0xbf43cacb	-0.7648131
88	0xbf121666	-0.5706543
89	0xbe4f1b1e	-0.20225188
90	0x3f89baa9	1.0760089
91	0x3f6f2d06	0.93428075
92	0x3fcd64f7	1.6046437
93	0x3f3117d3	0.6917698
94	0xbf7e9fd1	-0.9946261
95	0x3f54a1b7	0.8305926
96	0xbe4ebb0c	-0.2018854
97	0x3f652421	0.89508253
98	0x3f2312de	0.63700664
99	0x3f799873	0.97498244

S f4 [4, 4]
0	0x00000000	0.0
1	0x00000000	0.0
2	0x3f800000	1.0
3	0x00000000	0.0
4	0x00000000	0.0
5	0x00000000	0.0
6	0x00000000	0.0
7	0x3f800000	1.0
8	0xbf800000	-1.0
9	0x00000000	0.0
10	0x00000000	0.0
11	0x00000000	0.0
12	0x00000000	0.0
13	0xbf800000	-1.0
14	0x00000000	0.0
15	0x00000000	0.0
