Models/Kepler/Kepler_symplectic euler_50epoch_PAU()_Softplus(beta=1.0, threshold=20.0)_batchsize_64_shape_torch.Size([1099000, 4])_L_coeff_0.001.pt (torch, 53563 bytes, 8 tensors)

numerator f4 [6]
1.804703 -0.11673771 -3.931522 1.4111284 -2.175745 0.809993
00000000: 8200 e73f 2e14 efbd 0e9e 7bc0 db9f b43f
00000010: 683f 0bc0 b45b 4f3f

denominator f4 [4]
0.09797273 -0.17771415 -0.8952298 0.015878916
00000000: eda5 c83d b3fa 35be c82d 65bf 8014 823c

weight f4 [100, 4]
0.27579954 0.10311002 0.0477026 -0.005920893 0.076050326 0.098073006 0.05486759 -0.08931264
-0.003938908 -0.073438875 -0.07303747 0.16076156 -0.0053693773 -0.0137567045 9.719335e-05 0.0013699795
1.4851514 -1.8367983 -0.027894054 -0.026806656 -0.35055837 1.3249267 0.018114848 0.005364512
0.018972853 -0.009237071 -0.15929404 0.006319056 -0.3159676 -1.6466509 -0.018653315 0.0014359002
-0.96076864 -1.0490125 0.018601015 -0.050646298 -0.04411505 -0.0813859 0.17258905 -0.09559493
-0.13437797 0.21573351 0.18130223 -0.015892867 -0.06371274 0.007832886 -0.060449023 -0.19772366
-0.35879648 -0.76634485 0.14285895 -0.086234726 0.029214097 -0.017117055 0.27470684 0.06519391
-1.4210907 0.8348367 0.00010932782 0.008138021 -0.08272426 -0.026098918 0.10960095 0.20856124
0.033084534 -0.037875745 -0.13476536 0.01582342 -0.07476129 -0.11621526 -0.015208054 0.029997744
1.5750804 -0.1557763 0.047118664 0.1417157 0.055191312 0.15569985 0.12393634 -0.117901094
-1.8097459 -1.4177167 0.04611752 -0.06445008 0.0006219949 0.109481394 0.11117926 -0.021964569
-1.8620201 0.7816715 0.010508956 0.035292096 -1.0349728 0.16006759 0.0047801966 -0.02042443
1.8886622 -0.23876204 0.0012813422 -0.038413245 0.0050581107 -0.0018005853 0.12539504 -0.058245014
-0.03942084 0.058742438 0.10038388 -0.07848489 0.07390053 0.02241149 -0.11405923 0.18612635
0.013628448 0.044974636 0.08043779 -0.13136551 0.34256554 1.0372907 0.001613228 -0.005241138
-0.09297287 -0.117706574 0.020089226 0.24868593 -0.97261304 -0.65760446 0.010233016 -0.061183523
-0.032071788 -0.009800062 0.09311203 -0.091972165 -1.3952032 1.6561053 -0.06187647 -0.04811251
0.53836226 0.8066472 -0.12529208 0.058977466 0.6038595 0.22020617 -0.0014504611 -0.014368959
0.07729963 0.02697821 0.14905778 0.21607178 -0.0150915645 0.034799293 -0.10463572 0.100494504
0.129581 0.010333179 -0.18674885 -0.27135953 -1.4615853 1.6708032 -0.09172869 -0.076265104
0.14229944 -1.2767798 0.09913872 0.04166696 -0.16825508 0.10067971 0.1180055 0.10494437
0.06408106 -0.03454764 0.172406 0.082720466 -0.011194691 -0.42706296 0.19894646 0.016706599
-0.13422963 0.014334351 0.014419612 0.05013228 0.077058956 -0.32172453 -0.19599284 -0.08025674
0.19250159 -0.21755397 0.015285935 0.12565953 0.011706492 0.03721012 0.027524212 -0.079079896
-0.017363686 -0.023646094 0.03567653 -0.17200476 -0.045561053 -0.012913591 -0.0012693068 -0.15312122
0.019845828 0.017596804 0.013374278 -0.019829309 -0.007939919 0.0016257495 0.014349341 0.0741596
0.4047447 -0.49808517 -0.050894406 -0.06370493 0.37369907 -0.42817846 -0.15757538 -0.06312904
0.18957002 -0.26896706 -0.051839672 -0.013462215 0.9786205 1.3982586 -0.0026061737 0.014824134
0.6532874 -0.82718724 0.18009183 0.088006265 -0.011931036 0.00055403484 -0.11621016 -0.1396526
0.9520465 1.3282372 0.015941076 -0.005943261 -0.02028295 0.04457951 -0.14416042 0.08667093
0.333137 -0.189905 -0.041083764 -0.059184577 -0.8360961 0.973784 -0.090523995 -0.15349555
0.051058535 0.12127257 -0.1910782 0.10452177 -1.9733626 -0.003726865 0.004699861 0.039796732
00000000: 9935 8d3e 592b d33d cd63 433d 0d04 c2bb
00000010: 46c0 9b3d 80da c83d d7bc 603d 8ce9 b6bd
00000020: f511 81bb 1f67 96bd ab94 95bd ae9e 243e
00000030: 9af1 afbb cd63 61bc 48d4 cb38 e290 b33a
00000040: 7119 be3f 351c ebbf 1282 e4bc a299 dbbc
00000050: 637c b3be 3397 a93f 9765 943c cac8 af3b
00000060: f56c 9b3c 1557 17bc fa1d 23be 1510 cf3b
00000070: 81c6 a1be 75c5 d2bf d6ce 98bc d134 bc3a
00000080: eff4 75bf 0b46 86bf 2861 983c 7e72 4fbd
00000090: fcb1 34bd a7ad a6bd 2fbb 303e 46c7 c3bd
000000a0: 619a 09be 3fe9 5c3e 4ba7 393e c231 82bc
000000b0: d37b 82bd 8155 003c 6599 77bd 1278 4abe
000000c0: 2cb4 b7be 2d2f 44bf 9e49 123e d59b b0bd
000000d0: 6752 ef3c 1139 8cbc 60a6 8c3e 6284 853d
000000e0: 4de6 b5bf dcb7 553f ed46 e538 5655 053c
000000f0: 566b a9bd 66cd d5bc 7676 e03d 1491 553e
00000100: a683 073d 9923 1bbd eeff 09be 1ea0 813c
00000110: 721c 99bd 4402 eebd 342b 79bc d4bd f53c
00000120: 3c9c c93f d383 1fbe 80ff 403d ec1d 113e
00000130: 4910 623d c86f 1f3e 56d2 fd3d 2176 f1bd
00000140: c1a5 e7bf be77 b5bf bae5 3c3d 67fe 83bd
00000150: 5f0d 233a c837 e03d f4b1 e33d 0aef b3bc
00000160: ad56 eebf a01b 483f c22d 2c3c 728e 103d
00000170: fd79 84bf c2e8 233e 32a3 9c3b 2251 a7bc
00000180: afbf f13f 097e 74be b6f2 a73a 3557 1dbd
00000190: 82be a53b 9e01 ecba 8f67 003e 5392 6ebd
000001a0: bf77 21bd e99b 703d 1096 cd3d b0bc a0bd
000001b0: 2959 973d 4d98 b73c e397 e9bd e897 3e3e
000001c0: db49 5f3c 5337 383d 91bc a43d ae84 06be
000001d0: c064 af3e f1c5 843f f372 d33a dabd abbb
000001e0: 8f68 bebd 2510 f1bd 2992 a43c 86a7 7e3e
000001f0: 2bfd 78bf c458 28bf 61a8 273c 939b 7abd
00000200: b55d 03bd 7090 20bc 85b1 be3d e75b bcbd
00000210: 0596 b2bf 42fb d33f 2e72 7dbd a011 45bd
00000220: 1cd2 093f 6e80 4e3f 914c 00be 5b92 713d
00000230: 8996 1a3f ba7d 613e 661d beba c86b 6bbc
00000240: 454f 9e3d 6801 dd3c 9aa2 183e ec41 5d3e
00000250: 9c42 77bc b489 0e3d 414b d6bd 10d0 cd3d
00000260: e2b0 043e 7e4c 293c 173b 3fbe a3ef 8abe
00000270: 3a15 bbbf e1dc d53f 40dc bbbd e130 9cbd
00000280: f2b6 113e 856d a3bf 3e09 cb3d f9aa 2a3d
00000290: 0f4b 2cbe 2a31 ce3d deac f13d 13ed d63d
000002a0: ee3c 833d d381 0dbd 338b 303e 5969 a93d
000002b0: f069 37bc ffa7 dabe 9fb8 4b3e 47dc 883c
000002c0: 7e73 09be a0da 6a3c 3c40 6c3c 8157 4d3d
000002d0: 16d1 9d3d 14b9 a4be 59b2 48be a55d a4bd
000002e0: 231f 453e 78c6 5ebe dc71 7a3c e4ac 003e
000002f0: 96cc 3f3c a469 183d 757a e13c a4f4 a1bd
00000300: 4a3e 8ebc 74b5 c1bc 8e21 123d 0422 30be
00000310: 3a9e 3abd 8793 53bc de5e a6ba cfcb 1cbe
00000320: b893 a23c 2c27 903c ca1f 5b3c 1371 a2bc
00000330: 6f16 02bc 1a17 d53a 8019 6b3c fde0 973d
00000340: b33a cf3e 0505 ffbe a776 50bd bb77 82bd
00000350: 7c55 bf3e 353a dbbe 715b 21be cc49 81bd
00000360: a51e 423e 0db6 89be d655 54bd 9f90 5cbc
00000370: e086 7a3f 23fa b23f 57cc 2abb ede0 723c
00000380: d83d 273f 8bc2 53bf fe69 383e a13c b43d
00000390: 647a 43bc a63c 113a 98ff edbd 1701 0fbe
000003a0: 52b9 733f ad03 aa3f dc96 823c b0bf c2bb
000003b0: 6e28 a6bc 0199 363d ca9e 13be 8780 b13d
000003c0: ef90 aa3e 7576 42be 7347 28bd 876b 72bd
000003d0: 650a 56bf e949 793f a564 b9bd f02d 1dbe
000003e0: c122 513d c15d f83d 01aa 43be 820f d63d
000003f0: 2597 fcbf 6b3e 74bb 4b01 9a3b e601 233d

bias f4 [100]
0.28268912 -0.06065432 0.10575629 -0.005368817 -0.46809575 -0.45533594 0.025021324 -0.48390254
-0.35032108 -0.18473762 0.10346527 -0.1228486 0.073367685 -0.18212576 -0.48009524 -0.15099645
0.18845299 0.15306343 -0.15204047 0.03158342 -0.10768803 0.028053587 0.2877478 0.44597885
0.30967453 -0.029666442 0.13747281 -0.17751974 -0.05881961 0.3617527 -0.25721306 -0.39026698
-0.03950994 0.15232663 0.0362159 -0.61358356 -0.16794437 -0.062558055 -0.31250694 -0.12837978
-0.28941032 0.010320776 -0.1352985 0.025599355 0.12396991 -0.022607515 0.3339238 0.08616051
-0.03729242 -0.29728112 -0.15391143 -0.1585994 0.43730468 -0.03879712 -0.12879682 -0.44323912
0.03246723 -0.07924643 -0.47713274 -0.12026839 0.12819943 -0.1739753 -0.16681458 -0.4796394
0.18486495 -0.07047638 -0.03896614 0.28178036 -0.5976359 -0.20167886 0.01680869 0.5199848
-0.45469448 0.09230079 0.24021108 0.01791921 -0.16270736 -0.14544508 0.33283883 -0.34526375
0.30248758 0.11966912 0.2945193 0.60187185 -0.040951084 -0.10088591 0.10475947 -0.46441835
0.29156953 -0.033302117 -0.4531457 0.033615373 0.46583736 -0.15930107 -0.18908356 -0.5790211
0.19896878 0.043679036 0.111925945 0.48762777
00000000: a1bc 903e aa70 78bd c196 d83d e7ec afbb
00000010: 3faa efbe cb21 e9be 85f9 cc3c 13c2 f7be
00000020: 495d b3be dc2b 3dbe 99e5 d33d 0c98 fbbd
00000030: cc41 963d 2d7f 3abe 0bcf f5be d09e 1abe
00000040: d2f9 403e a9bc 1c3e 7fb0 1bbe 9e5d 013d
00000050: 8b8b dcbd a3d0 e53c ae53 933e 5757 e43e
00000060: a98d 9e3e 0a07 f3bc acc5 0c3e bcc7 35be
00000070: d5ec 70bd a637 b93e 6eb1 83be 13d1 c7be
00000080: 2dd5 21bd 83fb 1b3e 2057 143d d013 1dbf
00000090: 9cf9 2bbe 701e 80bd e900 a0be fd75 03be
000000a0: 972d 94be 7918 293c b18b 0abe bdb5 d13c
000000b0: f0e3 fd3d 6533 b9bc 0ff8 aa3e ec74 b03d
000000c0: f0bf 18bd 3b35 98be f59a 1dbe e267 22be
000000d0: 66e6 df3e bbe9 1ebd 50e3 03be 3df0 e2be
000000e0: 5cfc 043d f44b a2bd be4a f4be 464f f6bd
000000f0: b646 033e 9526 32be 71d1 2abe 4c93 f5be
00000100: 3d4d 3d3e ec55 90bd f69a 1fbd 8445 903e
00000110: abfe 18bf e784 4ebe 61b2 893c b91d 053f
00000120: b7cd e8be 3208 bd3d e5f9 753e 4fcb 923c
00000130: c29c 26be 8eef 14be da69 aa3e 69c6 b0be
00000140: a7df 9a3e 1515 f53d 3ccb 963e 4614 1a3f
00000150: 53bc 27bd 469d cebd 228c d63d 3ec8 edbe
00000160: 9a48 953e cd67 08bd b702 e8be 46b0 093d
00000170: 3c82 ee3e d21f 23be 1f9f 41be ba3a 14bf
00000180: 79be 4b3e cae8 323d 6e39 e53d 59aa f93e

weight f4 [100, 100]
-0.12803604 0.028776271 -0.13425761 -0.089130834 0.07752684 0.06864223 0.07439923 0.036410633
-0.0062484313 -0.016985686 0.03385066 -0.031537484 0.12011077 0.0776316 0.03948693 -0.05834995
0.29853952 0.26391375 0.17044088 0.16024947 0.070055425 -0.013072766 0.08941421 0.13100618
-0.007567023 0.07677732 -0.022535915 -0.024615435 0.13083489 -0.059846032 -0.04405555 -0.13215551
0.049267504 -0.099939324 0.20188914 0.15048188 -0.16962278 0.02191282 -0.0027311414 0.07305517
-0.122043855 0.12712255 0.03512498 0.08832261 0.17965433 -0.022422357 -0.15123624 -0.019439597
-0.021170862 -0.117940255 0.18910633 -0.07064053 -0.19229981 -0.009116981 -0.18825601 0.15359664
0.037443727 0.12809832 0.19367187 0.025142474 -0.068550475 0.024949856 -0.0872448 -0.21176973
0.0141941905 0.064541265 0.18669176 0.14292613 -0.17050931 0.23398837 0.016964214 0.120737374
-0.035164945 0.08497954 0.10732896 0.021785421 0.19305843 0.046618015 0.052512188 0.12726292
0.13853256 -0.1948207 -0.0419078 -0.1474271 -0.2615556 0.12230339 0.111516766 0.19589384
0.18249707 -0.101628214 -0.04100771 -0.0010847909 0.057887413 0.19824767 -0.42428163 0.04218135
-0.0934291 -0.13546534 0.031835936 0.1944514 -0.16999826 -0.16975835 -0.45244765 -0.107834525
0.16397403 -0.042634938 -0.07126926 -0.03680549 -0.00839605 -0.2741981 -0.1191895 -0.18510237
-0.06482915 -0.08250022 0.1567676 0.12920214 -0.34777334 0.07722418 -0.10626801 -0.16185148
0.10862875 -0.108771145 0.15704264 -0.007072347 0.3786634 -0.2925637 -0.09743302 -0.23055378
0.005870504 0.024146209 0.028617324 0.057464182 -0.11999657 0.24755268 -0.08871916 -0.044663206
-0.08223303 -0.49726522 -0.02484157 0.2985851 -0.040101297 -0.10863506 -0.095899664 -0.1506634
-0.04779213 -0.3156305 -0.14822508 -0.06580701 -0.31686845 -0.09582301 -0.017552815 -0.08064469
0.14358653 -0.12330923 -0.100411184 0.1642938 -0.1158384 -0.13653207 0.02642624 -0.5290869
-0.10337678 0.07207283 -0.388283 0.2171228 0.001879895 -0.2311657 -0.11106164 -0.08762232
-0.014021065 0.034573704 -0.18007027 -0.0937142 -0.090576746 0.18992329 0.20484592 0.100862406
-0.3332426 -0.10108003 -0.09926092 0.04881348 0.03747718 -0.21072744 -0.038605135 -0.1530427
0.029694693 -0.27176037 0.29164946 0.12207767 0.20045972 -0.15515265 0.25150517 -0.04429232
0.108435296 -0.2292249 -0.17472759 0.02826933 -0.09754249 -0.10811855 0.052251387 0.093904376
-0.0708511 -0.16234602 0.10767841 -0.22859868 0.77688605 0.2318312 -0.2207929 0.39295265
0.19097494 0.060273178 0.058118276 0.03353698 0.122750625 -0.019342951 0.4290574 -0.032816973
-0.113491446 -0.15835662 0.047627535 -0.15719561 0.39708212 -0.3879201 0.13871466 0.06674092
0.21189354 0.029053159 -0.0037227424 -0.04887537 -0.120274596 0.0703259 -0.009196829 0.29067937
-0.041154217 0.093192555 0.042413983 -0.10685502 0.15315653 -0.05249871 0.0090342015 0.38789475
0.13019975 -0.31351954 0.059998356 0.06650364 -0.17258255 -0.19965771 -0.07746419 -0.27218345
-0.19814296 -0.010912179 -0.1431353 0.03138304 0.030961117 -0.045127932 0.023756657 0.11966224
00000000: e11b 03be 37bc eb3c d47a 09be 3a8a b6bd
00000010: 64c6 9e3d 4c94 8c3d a05e 983d 5123 153d
00000020: a4bf ccbb 9125 8bbc fda6 0a3d 732d 01bd
00000030: a3fc f53d 51fd 9e3d 0cbd 213d 5b00 6fbd
00000040: 2cda 983e b41f 873e 0e88 2e3e 7018 243e
00000050: 3879 8f3d 282f 56bc cc1e b73d 7c26 063e
00000060: caf4 f7bb 6d3d 9d3d 3d9d b8bc 4fa6 c9bc
00000070: 95f9 053e 1d21 75bd 9873 34bd c653 07be
00000080: b9cc 493d fdac ccbd 07bc 4e3e ec17 1a3e
00000090: 98b1 2dbe 8482 b33c f3fc 32bb f39d 953d
000000a0: 21f2 f9bd 6a2c 023e 36df 0f3d 7ce2 b43d
000000b0: 4ef7 373e 17af b7bc acdd 1abe ca3f 9fbc
000000c0: 846e adbc a98a f1bd 17a5 413e fbab 90bd
000000d0: 3eea 44be 645f 15bc 2fc6 40be 7048 1d3e
000000e0: 985e 193d 352c 033e eb51 463e 97f7 cd3c
000000f0: 3164 8cbd a463 cc3c 67ad b2bd 2ada 58be
00000100: c08e 683c 362e 843d 202c 3f3e 3a5b 123e
00000110: fe99 2ebe a69a 6f3e 89f8 8a3c 2845 f73d
00000120: 1e09 10bd c109 ae3d 49cf db3d 5777 b23c
00000130: 1cb1 453e 88f2 3e3d 0517 573d 3651 023e
00000140: 7bdb 0d3e 147f 47be 83a7 2bbd 21f7 16be
00000150: 9eea 85be 337a fa3d e762 e43d 6598 483e
00000160: 83e0 3a3e 7422 d0bd b3f7 27bd 8b2f 8eba
00000170: 5a1b 6d3d 7001 4b3e 713b d9be 5ac6 2c3d
00000180: c257 bfbd 6db7 0abe 6666 023d 451e 473e
00000190: 0614 2ebe 22d5 2dbe 38a7 e7be 59d8 dcbd
000001a0: cfe8 273e f9a1 2ebd 9ef5 91bd 5ac1 16bd
000001b0: 968f 09bc b263 8cbe a019 f4bd 7a8b 3dbe
000001c0: 25c5 84bd e0f5 a8bd b087 203e 914d 043e
000001d0: 590f b2be b627 9e3d 0ba3 d9bd 65bc 25be
000001e0: c078 de3d 68c3 debd c9cf 203e 26bf e7bb
000001f0: 2be0 c13e e9ca 95be f78a c7bd 4a16 6cbe
00000200: 5b5d c03b 45ce c53c e16e ea3c 905f 6b3d
00000210: c3c0 f5bd 737e 7d3e 64b2 b5bd c4f0 36bd
00000220: ca69 a8bd 8c99 febe 8c80 cbbc 25e0 983e
00000230: 4241 24bd 0f7c debd 0b67 c4bd 8247 1abe
00000240: aec1 43bd 529a a1be 51c8 17be d3c5 86bd
00000250: 953c a2be db3e c4bd ecca 8fbc 0b29 a5bd
00000260: 5908 133e 8d89 fcbd 61a4 cdbd a23c 283e
00000270: af3c edbd 10cf 0bbe d87b d83c 3d72 07bf
00000280: 35b7 d3bd eb9a 933d 08cd c6be 7055 5e3e
00000290: cf66 f63a b4b6 6cbe 4974 e3bd 5573 b3bd
000002a0: 9cb8 65bc 289d 0d3d 5764 38be 3bed bfbd
000002b0: 4d80 b9bd 407b 423e 21c3 513e f390 ce3d
000002c0: c69e aabe 0c03 cfbd 4f49 cbbd a5f0 473d
000002d0: ac81 193d efc8 57be 6b20 1ebd 3ab7 1cbe
000002e0: 4942 f33c 2d24 8bbe 1453 953e dc03 fa3d
000002f0: 5045 4d3e 56e0 1ebe 49c5 803e dd6b 35bd
00000300: 5313 de3d efb9 6abe caeb 32be 1595 e73c
00000310: 5bc4 c7bd 426d ddbd 8d05 563d f050 c03d
00000320: 621a 91bd 093e 26be 8086 dc3d c615 6abe
00000330: 01e2 463f 2865 6d3e 8917 62be 1731 c93e
00000340: ef8e 433e 02e1 763d 6e0d 6e3d 135e 093d
00000350: ae64 fb3d 1c75 9ebc 69ad db3e 176b 06bd
00000360: 346e e8bd 3d28 22be 1715 433d e3f7 20be
00000370: 594e cb3e 779d c6be 370b 0e3e 77af 883d
00000380: 9ffa 583e e400 ee3c 41f9 73bb 8a31 48bd
00000390: 8752 f6bd 0707 903d 4cae 16bc edd3 943e
000003a0: 5391 28bd bddb be3d 49ba 2d3d ced6 dabd
000003b0: 11d5 1c3e e308 57bd 3004 143c 249a c63e
000003c0: 1553 053e a285 a0be d6c0 753d 0f33 883d
000003d0: 7bb9 30be 1273 4cbe 8ca5 9ebd a15b 8bbe
000003e0: fde5 4abe ffc8 32bc 0f92 12be 818b 003d
000003f0: 2ba2 fd3c 11d8 38bd 529d c23c 7a11 f53d

bias f4 [100]
-0.030256553 -0.16163518 -0.011783661 0.20306496 -0.02323927 -0.14232488 -0.20926458 -0.0746284
-0.12426468 -0.04656492 -0.048868846 0.07961265 -0.16333996 -0.018448368 -0.17247824 0.26130894
-0.05935971 -0.054694302 0.01884424 0.013168954 -0.061477028 -0.1547714 -0.099563256 -0.03602561
-0.04490105 -0.03450329 -0.04512332 0.17271669 0.050225582 0.6207614 -0.078242265 -0.19574481
-0.05300001 -0.1359385 -0.02377107 0.06760188 -0.20520572 -0.0638391 -0.113406636 -0.11257449
0.131536 0.11329692 0.021349601 0.09617012 -0.024279686 0.16096163 -0.058398403 0.13968818
-0.24572834 -0.24106835 -0.1543091 -0.11031045 -0.10402165 -0.1483093 -0.14591393 0.077327125
-0.053263824 -0.11808052 -0.05693014 0.095372595 0.14588471 0.11525789 -0.02599146 -0.04701725
0.010961742 -0.07394288 0.088891 -0.10958725 -0.025873056 -0.15998335 -0.0743847 -0.17633638
0.00780845 -0.04200426 -0.023985343 0.09703079 -0.049286027 -0.18636197 -0.10056702 0.15232658
-0.06776159 0.012301939 0.24975292 -0.030353047 -0.15090753 0.14745355 -0.21240607 -0.2242472
-0.1970037 -0.121535294 -0.08795324 0.0055792183 -0.1399565 -0.080679074 -0.099934265 -0.07698468
-0.081138656 -0.1356249 0.029496506 -0.025109228
00000000: 97dc f7bc b183 25be 4210 41bc 43f0 4f3e
00000010: 4860 bebc 9dbd 11be 7449 56be c6d6 98bd
00000020: 7b7e febd dcba 3ebd b32a 48bd f50b a33d
00000030: 9742 27be 0821 97bc 239e 30be 49ca 853e
00000040: 2b23 73bd 2207 60bd 3c5f 9a3c 99c2 573c
00000050: 56cf 7bbd 657c 1ebe d2e7 cbbd 978f 13bd
00000060: 2aea 37bd 5253 0dbd 3bd3 38bd a5dc 303e
00000070: 57b9 4d3d 38ea 1e3f 7b3d a0bd 5471 48be
00000080: 8a16 59bd 7633 0bbe 8cbb c2bc db72 8a3d
00000090: 7321 52be 13be 82bd bd41 e8bd 748d e6bd
000000a0: 60b1 063e 3708 e83d 5ce5 ae3c d7f4 c43d
000000b0: 31e6 c6bc 20d3 243e 2a33 6fbd 6b0a 0f3e
000000c0: 36a0 7bbe 9fda 76be 3403 1ebe 72ea e1bd
000000d0: 4e09 d5bd 65de 17be 766a 15be af5d 9e3d
000000e0: 2b2b 5abd 33d4 f1bd 942f 69bd b552 c33d
000000f0: cd62 153e 540c ec3d 0bec d4bc 2995 40bd
00000100: e198 333c 5d6f 97bd 7c0c b63d 486f e0bd
00000110: bbf3 d3bc add2 23be 0157 98bd 8691 34be
00000120: 07de ff3b a90c 2cbd e97c c4bc 14b8 c63d
00000130: 25e0 49bd acd5 3ebe 15f6 cdbd 80fb 1b3e
00000140: 97c6 8abd 128e 493c 3bbf 7f3e f4a6 f8bc
00000150: 8187 1abe 10fe 163e fa80 59be 0fa1 65be
00000160: 57bb 49be 7fe7 f8bd d420 b4bd e0d1 b63b
00000170: c250 0fbe 123b a5bd 56aa ccbd 25aa 9dbd
00000180: 062c a6bd 41e1 0abe a8a2 f13c deb1 cdbc

weight f4 [1, 100]
-0.13451253 -0.39012536 -0.59576464 -0.084505826 -0.3865731 0.09383652 0.20244409 0.10718655
-0.29865143 -0.3857299 0.3084921 -0.042723995 -0.27271765 0.15131271 0.27484986 -0.11870992
0.1193559 -0.4348431 0.16495539 0.12658356 -0.29915252 0.2697351 -0.46647426 0.31503677
-0.34200537 0.399327 0.094502755 -0.10502208 0.22388951 -0.15829751 -0.082358666 -0.27163696
-0.30233467 0.04781439 -0.4845244 0.15571052 -0.49259874 -0.43073326 -0.11940396 -0.45008513
-0.089478396 0.12590547 0.12525032 -0.1272269 0.26049668 0.13912527 -0.052697707 -0.2291984
-0.4631764 -0.39386368 0.0883108 -0.28764403 -0.17401813 0.16506398 -0.40492347 0.12516618
-0.18931964 0.10148348 0.28028727 -0.06439887 -0.06787972 -0.12073617 0.14304675 0.06297222
-0.47856623 -0.57458735 0.08441144 -0.5005725 0.15217659 -0.5876045 -0.4227715 -0.5465151
0.17496933 -0.069515005 0.014727684 -0.26152214 -0.3727062 0.3253923 0.38063273 -0.09048189
0.048343696 0.21149603 -0.12113038 0.025588388 -0.37479445 0.20125669 -0.24552415 0.20909345
-0.23484477 0.20892341 0.20043193 0.277365 0.1590054 -0.33112094 0.043118503 0.1955331
0.22403693 -0.37763825 0.09325846 -0.5579074
00000000: a7bd 09be 83be c7be 0884 18bf 6411 adbd
00000010: e9ec c5be 5d2d c03d 814d 4f3e 9f84 db3d
00000020: d7e8 98be 647e c5be adf2 9d3e 5bff 2ebd
00000030: a6a1 8bbe b8f1 1a3e 1fb9 8c3e 301e f3bd
00000040: de70 f43d c1a3 debe 11ea 283e 1f9f 013e
00000050: 852a 99be b81a 8a3e b7d5 eebe 804c a13e
00000060: 541b afbe 9774 cc3e a98a c13d d115 d7bd
00000070: 4b43 653e be18 22be a9ab a8bd 0014 8bbe
00000080: 9ccb 9abe 06d9 433d 9513 f8be 9472 1f3e
00000090: e735 fcbe 1289 dcbe 108a f4bd 8f71 e6be
000000a0: 7340 b7bd 5ded 003e 9f41 003e c547 02be
000000b0: d25f 853e db76 0e3e 8dd9 57bd fcb2 6abe
000000c0: 7525 edbe 80a8 c9be 4bdc b43d 1446 93be
000000d0: cf31 32be 8806 293e 2152 cfbe 902b 003e
000000e0: 02dd 41be 92d6 cf3d d081 8f3e 8ee3 83bd
000000f0: 8604 8bbd 8644 f7bd d97a 123e 94f7 803d
00000100: a206 f5be 2818 13bf e8df ac3d 8525 00bf
00000110: 2ed4 1b3e 406d 16bf 8275 d8be 6ae8 0bbf
00000120: 292b 333e e25d 8ebd 624c 713c 3be6 85be
00000130: 59d3 bebe d299 a63e 4be2 c23e 924e b9bd
00000140: 0a04 463d 6a92 583e 3413 f8bd bd9e d13c
00000150: 0fe5 bfbe 3c16 4e3e af6a 7bbe 981c 563e
00000160: 267b 70be 05f0 553e 073e 4d3e c902 8e3e
00000170: 50d2 223e af88 a9be 079d 303d d439 483e
00000180: f069 653e cd59 c1be 4bfe be3d 05d3 0ebf

S f4 [4, 4]
0.0 0.0 1.0 0.0 0.0 0.0 0.0 1.0
-1.0 0.0 0.0 0.0 0.0 -1.0 0.0 0.0
00000000: 0000 0000 0000 0000 0000 803f 0000 0000
00000010: 0000 0000 0000 0000 0000 0000 0000 803f
00000020: 0000 80bf 0000 0000 0000 0000 0000 0000
00000030: 0000 0000 0000 80bf 0000 0000 0000 0000
