Models/Kepler/Kepler_midpoint_100epoch_PAU()_Softplus(beta=1.0, threshold=20.0)_batchsize_256_shape_torch.Size([1125000, 4])_L_coeff_0.001.pt (torch, 54317 bytes, 8 tensors)

numerator f4 [6]
000000 b0 17 c5 3b cc 46 b5 3d db 46 1b bf ac bd dc bf
       0.0060147867 0.08851394 -0.6065499 -1.7245383
000010 04 43 83 3f 18 c2 ed 3c
       1.0254827 0.029023215

denominator f4 [4]
000000 a1 a7 bd be 01 9f 92 bf 66 e6 ff be 6f 32 1e bf
       -0.37041953 -1.1454774 -0.49980468 -0.61795706

weight f4 [100, 4]
000000 d2 3a 66 bc b8 91 cb bb 19 ae 59 3a 97 1a 08 3b
       -0.01405211 -0.0062124394 0.00083038356 0.0020767802
000010 18 a7 86 3b 4e 7b af bb 7b af e8 ba 4e dd bf ba
       0.0041092746 -0.0053552752 -0.0017752493 -0.0014638097
000020 07 f6 25 bb e3 91 08 bc bc 81 9c 3c ce 46 bc ba
       -0.0025323646 -0.008335563 0.01910483 -0.0014364363
000030 6e e8 7c 3d 40 f1 c3 3c d8 7f 24 3b 28 e5 6a 3b
       0.0617451 0.023918748 0.0025100615 0.0035842154
000040 0f 09 83 3e ea 92 6b 3e 96 8a 43 bb b5 67 30 bc
       0.2559285 0.23005262 -0.0029837242 -0.010766913
000050 f9 e7 a9 3b 39 9c d4 ba 65 b5 0a ba bc f4 a4 ba
       0.005185124 -0.0016220874 -0.0005291312 -0.0012585144
000060 38 67 40 40 e8 76 a6 bd 33 5d 40 3c 50 58 00 3c
       3.0063 -0.08128148 0.01174097 0.007833555
000070 cb c4 8e bc 79 02 56 3d 6f fa 19 3e 02 28 5c 3d
       -0.017427823 0.05224845 0.15036939 0.053749092
000080 bc 2d 63 3c c3 95 4b bc 3f b4 c5 bb f9 b6 5a 3c
       0.013865884 -0.012425843 -0.00603345 0.013349288
000090 b1 20 08 3d a5 61 9f 3c c1 d2 ec 3a 23 41 aa 3c
       0.033234302 0.01945574 0.0018068181 0.020783013
0000a0 11 62 fe bb 1c be 1e 3c 62 bb 7e 3e 33 d6 85 3c
       -0.0077631553 0.00968888 0.24876168 0.01633749
0000b0 14 cd 0e 3e 5b db 32 be aa 3c 83 3e 14 9e 60 3e
       0.13945419 -0.1746649 0.2563222 0.21935302
0000c0 54 33 c2 bc a4 fc 89 bc 89 59 7f be 22 e9 07 be
       -0.023706116 -0.016844101 -0.24936499 -0.13272527
0000d0 b3 37 b2 bc 4c b4 b9 3c e8 d1 9e bd b9 cc 27 be
       -0.021755075 0.02266898 -0.0775488 -0.16386689
0000e0 91 7d 63 bc 51 91 3f bd 50 08 1d 3e 2d a5 3c be
       -0.013884918 -0.046769444 0.15335202 -0.18422385
0000f0 27 8f 54 3f 88 f8 0f 3f a9 23 d9 bb a0 0f 80 3c
       0.83030933 0.56238604 -0.0066265655 0.01563245
000100 6c 5b 02 3c ca 66 62 bb 22 65 96 bb 5d 81 93 3b
       0.007956367 -0.003454613 -0.0045896927 0.0045015053
000110 a8 77 3a c0 1c b2 61 c0 9f 02 79 bb 8c f6 ee 3b
       -2.9135532 -3.526496 -0.0037995947 0.0072925743
000120 9a 5a e0 bf 9d de 1b 3f 61 4c c1 3b a3 a2 6b 3b
       -1.7527649 0.60886556 0.0058989977 0.0035955093
000130 d1 67 1f 3b 22 76 83 c0 e4 10 0f bb 5c 7d b2 3a
       0.0024323354 -4.1081705 -0.0021830136 0.0013617682
000140 d8 26 ea be f5 a8 5a 3f 65 99 13 bc dd 3d 62 bc
       -0.4573276 0.8541406 -0.00900874 -0.013808695
000150 7c d7 ab 3f 39 32 87 c0 c8 75 d5 ba e4 0d c2 ba
       1.3425136 -4.2248807 -0.0016285712 -0.0014805165
000160 fa 16 09 c0 39 9a d5 3f 03 fa 3f 3b 57 17 b0 3b
       -2.1420274 1.668769 0.0029293306 0.005373876
000170 7c 0e 02 3d 32 76 03 3c e8 1e 60 3b cf 14 a0 3b
       0.031752095 0.008023785 0.003419811 0.004885293
000180 45 61 36 3d 63 88 0e 3d 6d bb 46 3b 25 29 8d 3b
       0.044526357 0.034798037 0.0030324117 0.0043078833
000190 50 45 e0 3f 86 3f d6 bf 64 c7 ab b9 a8 5e 92 3b
       1.7521152 -1.6738136 -0.0003276422 0.0044668503
0001a0 75 ea 6a 3c 95 79 e7 3b 18 18 ef b8 02 da 34 3a
       0.0143381255 0.0070640543 -0.00011400896 0.0006898941
0001b0 fa a9 63 c0 05 2e 22 3f 6a 8e 35 bb f2 c7 c3 ba
       -3.5572495 0.6335147 -0.0027703294 -0.0014936908
0001c0 0f 17 54 be 13 2e ba 3d 3b 0c 8e bc 08 e7 3a 3d
       -0.20711921 0.09090819 -0.017339816 0.045630485
0001d0 ea 61 69 c0 8e 21 a1 bf fe e8 cc 39 b8 2b 20 3b
       -3.6466012 -1.2588365 0.00039083505 0.002444012
0001e0 57 71 39 bd 99 d6 c1 bc 9a 63 bd bc e9 72 d0 3c
       -0.045274105 -0.023661898 -0.023118783 0.025445418
0001f0 ae 4d 81 bf c1 f1 87 40 92 dd 90 39 0e 72 0a 3b
       -1.0101831 4.248261 0.00027630903 0.002112511
000200 88 8f 98 3b 12 93 74 3c 08 74 79 be ee af 05 3e
       0.004655782 0.014927642 -0.24360669 0.13055393
000210 9e fb a4 40 d8 46 28 40 bb 89 90 3b 0a fa ad 3c
       5.155715 2.629324 0.00441095 0.021237392
000220 ca f0 8a 40 e4 27 6a c0 5a 5d eb 3c b0 f6 a4 3c
       4.341893 -3.6586847 0.028731037 0.020137161
000230 af 3e 7d be 77 ef e7 bf 85 6c a6 3c 20 d3 55 bc
       -0.24730943 -1.8119954 0.020315418 -0.013050824
000240 e3 70 7b 40 66 cc 12 40 59 c4 a8 ba 33 4c b0 ba
       3.928765 2.2937255 -0.0012875899 -0.0013450444
000250 1e ff e9 bf 34 bd a9 bf f5 30 1e bb e3 07 8e bb
       -1.828098 -1.3260865 -0.0024138067 -0.0043344363
000260 6f a7 26 3d f9 2f 9e 3c 63 57 47 3b 2d bb b9 3b
       0.04068702 0.019309985 0.0030417077 0.005668065
000270 31 f8 34 c0 e4 f4 68 40 f8 6b 24 3b 68 4e 72 3b
       -2.8276484 3.639947 0.0025088768 0.0036973003
000280 05 d4 f4 3e 7f bc 05 40 45 3e 37 bb 26 f7 a2 ba
       0.47818008 2.08963 -0.00279607 -0.0012433275
000290 e4 32 63 40 04 dc 74 3f 25 22 6d 3b 32 0a 3f bb
       3.549981 0.9564822 0.0036183682 -0.0029150364
0002a0 4f 63 d7 3a ca ab 99 3c 0f b2 52 3e 13 f9 0f be
       0.0016432795 0.018758673 0.20575736 -0.14059858
0002b0 3b ff 3b bc 81 6f 99 bc 20 9b 0c bb 33 22 68 bb
       -0.011474426 -0.018729927 -0.0021454766 -0.0035420775
0002c0 1c 74 c4 bc a4 d7 0a bd 07 cd fb 3d d6 66 60 be
       -0.023981147 -0.033897057 0.12294965 -0.21914229
0002d0 87 7e b5 bf bf 06 35 40 9b c6 bb bb c6 aa 6c b9
       -1.4179238 2.8285367 -0.0057304627 -0.00022570332
0002e0 a8 af 8c 3e be 51 3b bf 5a fd 3b 3b 59 11 90 bc
       0.27477765 -0.73171604 0.0028684945 -0.017586397
0002f0 15 df 72 c0 7e b3 4c 3f c7 66 23 bd 23 9c 94 bd
       -3.7948658 0.79961383 -0.039892938 -0.07256343
000300 36 68 d3 bc 81 96 83 bb ff 4e 02 bb 8e 4f 94 b9
       -0.025806528 -0.004015744 -0.001988351 -0.00028288033
000310 a8 56 8a bf 22 f3 e4 bf 73 cc 4d bb 93 4a 09 bc
       -1.0807695 -1.7886698 -0.0031402379 -0.008379596
000320 ed 8d bb bd 5c e9 8a 3b c0 bb a4 3c d4 a0 51 3e
       -0.091579296 0.0042392444 0.020109057 0.20471507
000330 c5 7e b5 3d f1 cb 0f 3d 02 05 5f be df 6e 5c 3e
       0.0886207 0.035106603 -0.21779254 0.21526669
000340 57 65 39 3e 6c 59 30 be d5 e0 51 bc fb 9e 26 bd
       0.18105064 -0.17221612 -0.012809952 -0.04067896
000350 3b 69 6c 40 79 88 d7 bf ac ad 12 bb 62 ff 35 3b
       3.6939228 -1.6838523 -0.0022381349 0.0027770628
000360 22 ed dd 3c 30 f0 03 3d e3 75 06 3d 89 6f fb 3c
       0.027090613 0.032211483 0.03282727 0.030692833
000370 88 69 1f 3c 91 44 c3 3b d9 e7 11 39 b4 12 fd 3a
       0.00972975 0.0059591015 0.00013914648 0.0019307942
000380 42 36 e7 bf 99 67 c3 be a7 76 9e 3b f7 89 46 bc
       -1.8063433 -0.38164976 0.004835922 -0.012117854
000390 9c f8 0b bc 85 99 6b 3c 96 f4 b1 3a c4 fd b2 3b
       -0.00854316 0.014379864 0.0013576921 0.00546238
0003a0 8f 1a f5 3c 7f d8 17 3d 3a 9a 67 3b ac d5 62 3b
       0.02991989 0.0370717 0.003533973 0.0034612222
0003b0 43 d5 86 bc 27 8e fc bb 0a 26 08 39 87 6a 61 3b
       -0.016459113 -0.0077073756 0.00012984141 0.003439577
0003c0 70 de be bc 69 a4 0f bd 1e 58 53 3c 6f ff 62 3d
       -0.023299426 -0.035068903 0.012899427 0.05541938
0003d0 fa 2e eb bd 4f 03 c5 3e de ec 17 3d 4d be 1f bc
       -0.114835694 0.38479087 0.03709113 -0.009749961
0003e0 36 fd 22 40 57 6f 25 40 d0 39 45 bb 54 19 15 bb
       2.5467048 2.5849206 -0.0030094273 -0.0022750692
0003f0 ad a3 01 bd e2 18 6a bc 36 4b 6c 3a 87 aa 3c 3b
       -0.031650234 -0.014288159 0.0009013893 0.0028788166

bias f4 [100]
000000 45 73 4c 3d 10 8a 31 3d 9a fa c4 bd 12 ab 42 3d
       0.049914617 0.043344557 -0.09618111 0.047526427
000010 17 48 64 bd 39 e5 27 3d e5 d4 de be 91 50 3c 3e
       -0.055732813 0.040990088 -0.435218 0.18390109
000020 f9 f6 b1 bd f4 8f 46 3c d3 50 91 3f 91 38 0a 3f
       -0.086896844 0.012119282 1.135279 0.53992563
000030 3a 09 9c 3f 59 59 63 3e b0 74 9d 3e df f8 00 3e
       1.2190316 0.22202052 0.30753088 0.12594937
000040 b6 74 15 bd db e4 cd be 8f e9 3b 3d cf f5 d9 be
       -0.036488257 -0.40213665 0.045877036 -0.4257035
000050 0d b9 98 3d 05 4e c3 be 0f 27 4e 3d 2c 7a 0a 3d
       0.07457171 -0.38145462 0.050330218 0.03380792
000060 b8 03 47 3d 60 96 45 3d 0a f3 5c 3d ce 02 d2 be
       0.04858753 0.048239112 0.053942718 -0.41017765
000070 0f cf fc bd 92 a2 d3 be b3 cc 84 be 48 ad c2 be
       -0.12344181 -0.4133497 -0.25937423 -0.38022828
000080 ba 31 96 3f b9 bf 72 3f ff 87 75 3f 1b e7 68 3f
       1.1733925 0.94823796 0.9591064 0.9097764
000090 ca 9f e6 be 63 82 1e 3d cc 70 2b 3d f2 ef dc be
       -0.45043784 0.038698565 0.04185562 -0.43151814
0000a0 b7 f9 a6 3d 51 29 e2 be ef 9e 90 3f a8 b8 32 3d
       0.08153098 -0.44172147 1.1298503 0.043633133
0000b0 a3 0d 97 3f 33 04 d8 be 3d 4b ce bc 1c a3 4f 3f
       1.1801037 -0.42190704 -0.02518236 0.8110826
0000c0 7f a1 3a 3d 09 79 43 3c 16 38 14 3e bb 43 03 3f
       0.04556417 0.0119307125 0.1447452 0.51275223
0000d0 a9 83 0a be 8e 7a cc be f4 d6 e2 3c a0 1a 57 3d
       -0.13526787 -0.39937252 0.027690388 0.052515626
0000e0 5d 4c c2 3c 25 fd 3e 3d f7 65 2c 3d bb 7a 3e 3d
       0.023718053 0.046628136 0.04208943 0.046503764
0000f0 0b c4 89 be 3a 90 3b bd 4e 87 ae be 58 2b 3a 3d
       -0.2690738 -0.045791842 -0.34087604 0.045451492
000100 5f 93 4a be c4 a2 d2 be ca a7 27 3d e0 2e e1 be
       -0.1978278 -0.41139805 0.0409315 -0.43981075
000110 c5 a1 96 3f 86 fc 53 3d aa 8d 14 3d 5c 34 09 3f
       1.1768118 0.051754497 0.036267914 0.5359552
000120 2b ce 47 bd f4 c6 ee bb 65 ba 55 3d 66 19 cc be
       -0.0487806 -0.0072869007 0.052179713 -0.39863127
000130 a4 71 f7 3c f4 c1 d6 be f6 96 92 bd 05 c6 a3 3b
       0.030205555 -0.4194485 -0.071577 0.004997971
000140 67 94 d0 bd e8 b5 dd be 9f dc 99 3f b8 c6 49 3d
       -0.101845555 -0.43302846 1.2020453 0.04926178
000150 32 22 7d be 6f c3 d8 be 75 c9 69 3d 23 af 46 3d
       -0.24720076 -0.42336604 0.05707689 0.048506867
000160 68 69 29 3d f4 89 cd be 26 1c 56 3d 19 ba 9a 3f
       0.04136029 -0.40144312 0.05227294 1.2088042
000170 cb ca 34 3d 8b 5f 47 3d 2b 31 c3 3d be 6e e4 be
       0.04413871 0.0486751 0.095308624 -0.4461574
000180 9c e3 a5 3c e9 b6 09 be fe 91 77 3d bf 2d 2d 3d
       0.020250134 -0.13448681 0.060441963 0.042279955

weight f4 [100, 100]
000000 b6 6e 33 bc da 16 6e 3b 6b 21 b6 be 29 fb 02 3d
       -0.0109516885 0.0036329539 -0.3557237 0.031977806
000010 f6 28 e3 bf 0f f7 36 bf 53 ce d6 be e2 28 c3 3f
       -1.7746875 -0.7147073 -0.41954288 1.5246851
000020 90 0f 8f 3d 8c 2f 4b be c2 0d 16 3f 77 cd 38 3f
       0.0698539 -0.19842356 0.5861474 0.72188514
000030 9c 22 f0 3c 6f e1 0c 3f 1e e3 ad 3f 34 59 88 bf
       0.029313378 0.55031484 1.3584936 -1.0652223
000040 76 75 b6 bd c8 94 82 bd 44 75 d2 be 9f 0e 82 3d
       -0.08909123 -0.06376034 -0.41105092 0.06350445
000050 23 c0 8c 3e 09 41 69 3c 01 6e d9 3d e4 07 0f be
       0.2749034 0.014236697 0.10616685 -0.13967854
000060 b9 e4 11 bd e0 7c 1f 3f 7e 2e 62 bd b1 3c 92 bf
       -0.035618518 0.6229992 -0.05522012 -1.1424772
000070 2a 2d 50 be 7c 49 d5 bf e4 a8 38 3f 99 2f 78 3e
       -0.20329729 -1.6663051 0.72132707 0.24236907
000080 5a e5 36 3e ff e1 18 bf c1 75 20 3f f6 02 92 3d
       0.17860928 -0.5971984 0.6267968 0.07129471
000090 0b 23 83 bf c5 0d 83 3f d1 75 6b bd a6 4b 90 bd
       -1.0245069 1.0238577 -0.057485405 -0.07045679
0000a0 06 8f d5 3e 0a f8 af bf 56 e6 21 3f 18 2c 86 be
       0.4171068 -1.374757 0.6324209 -0.26205516
0000b0 f4 41 5a 3f 84 62 55 3e 63 88 71 3e f8 25 bd bd
       0.85256886 0.20838362 0.23587184 -0.092357576
0000c0 06 46 02 be bf d7 07 3f 0f 17 db 3d 9d 40 78 3f
       -0.12722024 0.5306358 0.106977575 0.9697359
0000d0 65 0b 99 3f 7f ec a4 bd 95 cf 63 be 83 0e a0 3d
       1.1956602 -0.080529206 -0.22247155 0.07815268
0000e0 df 31 26 3f 9b df 27 be 72 df 0d 3d 37 34 3f be
       0.6491985 -0.16393892 0.034636922 -0.18672262
0000f0 7e 32 69 3e 8a a0 01 bf d1 b8 b5 3d 31 59 0a be
       0.22773167 -0.5063559 0.088731416 -0.13510586
000100 16 77 cf 3e 3f 6a 48 bc 41 d6 71 bd 6c 89 74 be
       0.40520543 -0.012232362 -0.05904222 -0.23880547
000110 7b cb 81 3f c6 9d 13 bf 1e b6 9f be 41 6e 1e 3f
       1.0140222 -0.5766262 -0.31193632 0.61886984
000120 9b 76 76 3f fe 24 93 3f 74 d0 8f be bd 47 d9 3e
       0.9627473 1.1495664 -0.28088725 0.42437544
000130 b8 b4 9f be 5f 9b 57 bb cb 7e 97 bf a2 63 07 bd
       -0.31192565 -0.0032899005 -1.1835569 -0.033054
000140 30 6e 82 be 96 6c bb 3e 87 d5 1a 3e 34 e2 dc bc
       -0.2547469 0.36606282 0.15120517 -0.02696333
000150 20 2c 81 be 62 3a 87 bf eb 10 ff 3f 4e fe 54 3f
       -0.25228977 -1.0564692 1.9927038 0.8320054
000160 f0 eb 1c 3f f5 43 08 3e df 57 05 bd 73 f7 73 3f
       0.6129751 0.13307174 -0.032554504 0.9529945
000170 59 38 6a be bf 76 11 bd a7 61 b1 3d d2 57 61 3e
       -0.22873057 -0.035513636 0.08661204 0.22006157
000180 30 fc d2 bd e5 9d 4a 3f 57 c1 09 bf 92 47 3d be
       -0.10302007 0.7914718 -0.5381064 -0.18484333
000190 e3 8c e4 3e 6a 4a b0 3e 86 36 16 3e 5f a4 9a 3e
       0.44638738 0.34431773 0.14669237 0.3020353
0001a0 26 a0 3f 3e 5a 6a 80 3e 91 14 8b 3e 8b db 1d 3e
       0.18713436 0.2508114 0.27164128 0.1541578
0001b0 85 4d 19 bd e2 d8 8a bd e1 99 17 3e 64 c5 54 3c
       -0.037427444 -0.06779648 0.14804794 0.012986515
0001c0 47 4e 9e 3c ee 87 a2 bd 07 67 5e be ac 7f a1 3d
       0.019324435 -0.07936083 -0.2171899 0.078856796
0001d0 0b 6b 78 be 50 b0 20 bf 88 5b 8c 3e d7 82 e7 bd
       -0.24259584 -0.6276903 0.27413583 -0.113042526
0001e0 5e 63 9a bd 80 ed 31 bf 35 2f d0 3d a7 cd 41 3e
       -0.07538484 -0.6950302 0.10165254 0.18926106
0001f0 e9 6e 57 3e 71 5a 70 3e f3 b6 96 3e 01 70 ca 3d
       0.21038403 0.23472 0.29436454 0.09884644
000200 e9 f6 a0 bb b2 30 52 bd e8 37 9e 3d 1a 97 17 bf
       -0.0049122465 -0.05131597 0.07725507 -0.5921494
000210 22 a2 0d 3d a0 6e a6 be 25 ba c0 be 9c 19 7a bd
       0.03457845 -0.32506275 -0.37642017 -0.06105958
000220 1d 45 27 bf d3 5a a0 3d d8 b0 86 3e 2b 49 1e bf
       -0.65339833 0.07829823 0.26306796 -0.61830395
000230 ea 8a b3 3d 4c ed 17 3e 00 b7 08 3e ae 0d 8b 3e
       0.0876673 0.14836615 0.13351059 0.27158874
000240 04 e9 06 3e b1 c2 19 3e 0d 9e 56 3e b4 dc 5f 3c
       0.13174826 0.15015675 0.20958729 0.01366346
000250 11 61 89 3e b6 07 85 3e ea e3 07 3e b8 e1 31 bd
       0.26831868 0.25982445 0.13270536 -0.043428153
000260 95 b4 0e 3e 82 8f cf be ff f2 34 bd 7a 45 9a 3e
       0.13936074 -0.40539175 -0.04417705 0.3013113
000270 e5 b5 9a be 37 12 03 bd ba b3 84 3e a7 7a 57 3c
       -0.302169 -0.031999793 0.2591837 0.013151801
000280 a9 5c 50 be 69 38 47 bd d8 40 0b bd 7a fa aa 3e
       -0.20347847 -0.04863778 -0.033997387 0.33394223
000290 f6 77 33 be 23 05 a5 be 18 07 80 3e 6b 3a 16 bf
       -0.1752623 -0.32230482 0.25005412 -0.5868289
0002a0 9e 7e e2 be 70 29 a9 3e d8 e7 1c 3e 52 9c 00 3e
       -0.44237226 0.33039427 0.15322816 0.12559631
0002b0 fc ea 4f bd 10 15 e4 3d 7d b4 2e 3e c6 82 b9 be
       -0.050761208 0.1113683 0.17061038 -0.36232585
0002c0 d6 75 83 3d 90 4f ad be dd 33 3e 3e 25 c8 f1 3d
       0.0641896 -0.33849764 0.18574472 0.11805753
0002d0 55 01 34 3e a5 2a af be 18 bf 81 3e c6 8e ac 3e
       0.17578633 -0.34212223 0.25341105 0.33702677
0002e0 c7 e5 73 be d4 50 ca be cd 3f 3c 3e d6 5d 8b 3e
       -0.23818122 -0.39514792 0.18383713 0.2722003
0002f0 f0 40 78 bd e8 fc d9 be d9 22 c9 3e cf f5 1f be
       -0.060608804 -0.42575765 0.392844 -0.15621112
000300 14 bb 9d 3e 62 14 9a 3e 4b 3b 60 3e 0d b5 88 be
       0.30806792 0.30093676 0.21897618 -0.2670063
000310 e9 1a e1 3e 9e ef 68 3d a1 ad c8 3d 54 2c 70 3e
       0.43965843 0.05686914 0.09798742 0.2345441
000320 04 6b 22 3e d2 f0 6a bd ac 1f 1b 3e 32 19 cf 3e
       0.15861136 -0.05735857 0.151488 0.4044891
000330 e5 0f f3 3d ec 5f 5e 3d a0 8c 91 be 1d e1 ad be
       0.11868266 0.054290697 -0.284276 -0.3396081
000340 9a 80 c3 bd 7e ed f9 bd 74 fa b7 be 6b 4c 79 be
       -0.09546013 -0.12203501 -0.35933268 -0.24345557
000350 2f f2 2f bf 01 19 fa be 72 29 ed be 9e db 46 3e
       -0.6872892 -0.488472 -0.46320683 0.19419715
000360 5f e6 35 be 8a 85 af be 8c 0f 07 3f b5 6b 2f bf
       -0.17763661 -0.3428157 0.527581 -0.6852372
000370 7e 35 8f 3e 50 ad f3 be 03 d7 55 3e f4 83 73 3e
       0.279705 -0.47593164 0.20882802 0.23780805
000380 df 14 ba 3d a4 33 49 3f f9 d7 2b 3e ba bd a6 be
       0.09086012 0.7859442 0.16781606 -0.32566625
000390 98 dd 07 bd 60 8e e5 be 02 f3 74 be df 30 ee be
       -0.033170313 -0.44835186 -0.23920825 -0.4652166
0003a0 8c 9b 75 bf 51 c2 de be e4 c7 10 bf 5b 5c cb be
       -0.9594047 -0.43507627 -0.5655501 -0.397189
0003b0 46 d6 bf be 66 6b 86 3e cd a2 9e 3e 5c 05 ae be
       -0.37468165 0.26253814 0.30983582 -0.33988464
0003c0 95 aa 3d 3f bf 16 b0 be 7a 33 05 be ed 4f 53 3e
       0.7408841 -0.34392354 -0.13007918 0.20635958
0003d0 c1 61 69 bf 41 9e 6e be ec da b1 3e 1e 7c 07 bf
       -0.91164786 -0.23302557 0.34737337 -0.5292376
0003e0 eb 0c 6a 3d 20 84 18 3f a4 bb 80 bd 9f 05 c8 be
       0.057141226 0.59576607 -0.062857896 -0.3906679
0003f0 7a 4b 7b 3e 18 da 18 bf 36 8b 69 3c 24 1a ea 3d
       0.24540511 -0.59707785 0.014254382 0.11430767

bias f4 [100]
000000 f5 17 bf bf b9 90 91 be c1 f0 b9 3e c2 f9 57 bf
       -1.4929186 -0.28430727 0.36316493 -0.84365475
000010 a6 7f 07 bf b1 a9 42 c0 b7 1c 11 bf 2b a7 82 bf
       -0.5292915 -3.0416071 -0.5668444 -1.0207266
000020 b9 52 37 c0 fa ea b5 be c0 55 f3 be f5 ea aa be
       -2.864424 -0.35530835 -0.4752636 -0.33382383
000030 ba 39 6c 3d 62 5d c4 be cd 62 9c bf 82 0a 62 bf
       0.05767224 -0.38352495 -1.2217652 -0.88297284
000040 51 b6 f0 be 8f 3d 4c be 07 e1 d2 bf 5a 18 18 c0
       -0.47014096 -0.19945358 -1.6474923 -2.3764863
000050 f1 0b e3 bf 05 71 4c be e6 ce 74 bf de 42 00 bf
       -1.7738019 -0.19964989 -0.956282 -0.5010203
000060 4b 29 8e bf 4b 5a 9b bf c8 04 84 c0 af b2 24 bf
       -1.1106352 -1.213693 -4.1255836 -0.6433515
000070 06 40 cb be 14 95 dd bf 3d 98 d8 be 20 e0 d2 bf
       -0.39697284 -1.731112 -0.4230365 -1.6474648
000080 16 68 00 c0 c4 c5 bc be 8e 5b 51 bf e1 bf 98 bf
       -2.006353 -0.36869633 -0.81780326 -1.1933557
000090 de cf 13 bf 18 fe 99 be fd 30 53 c0 86 14 c7 bf
       -0.57739055 -0.3007667 -3.299865 -1.5553138
0000a0 b4 ba 40 c0 f5 a2 d9 bd 7d d1 2d bf 70 a2 bc bf
       -3.0113955 -0.10626785 -0.6789778 -1.4737072
0000b0 6f 54 52 bf fe 8b bf be a1 f3 24 bf 0a 23 d1 bf
       -0.82160085 -0.37411493 -0.6443425 -1.6338818
0000c0 3c d3 e3 3e e7 5e d1 3c 34 76 f4 be 4e f6 82 40
       0.44497097 0.025557948 -0.47746432 4.0925665
0000d0 3d 23 4a c0 7f a6 ee be ae fc e5 3f bf 32 aa be
       -3.1584008 -0.466114 1.7967737 -0.3324184
0000e0 2b 4e c2 be de fb 0e bf aa 81 4c bf d9 2c 0b c0
       -0.37950262 -0.5585307 -0.7988535 -2.1746123
0000f0 5b c6 ab be 03 f9 7d be 2a 8d 05 c0 c0 e7 72 bb
       -0.3354977 -0.24802022 -2.086741 -0.0037064403
000100 b0 d6 42 be 29 6f 26 bf 06 5b bb bf 46 df cd bf
       -0.1902721 -0.65013367 -1.4637153 -1.6083763
000110 98 57 e7 be c8 9d 0a bf 38 c3 13 bf 00 ba 46 bf
       -0.45184016 -0.54147005 -0.57719755 -0.77627563
000120 62 e5 29 be bc c5 e7 bd 21 01 e5 3e 24 77 08 bf
       -0.16591409 -0.11317012 0.44727424 -0.53306794
000130 2c 21 ca be e9 92 2a bf 82 21 f5 be 3b 7d 6b be
       -0.39478433 -0.6663042 -0.47877127 -0.2299699
000140 58 2a db bf 20 2a 68 be 1b f7 40 bf c0 23 e2 bf
       -1.7122297 -0.2267232 -0.75377053 -1.766716
000150 e4 9b d1 3c 0a dc 65 bf ae 06 d6 bf 89 45 05 bf
       0.02558703 -0.8978888 -1.6720788 -0.5205923
000160 e2 d6 19 bf e9 42 e7 be 23 fa 71 c0 7a ce 96 bf
       -0.6009351 -0.45168236 -3.7808921 -1.1781762
000170 bd 41 08 c0 e5 9f c1 bf b8 63 47 be b5 15 b0 be
       -2.1290123 -1.5126921 -0.19471633 -0.3439156
000180 0e a8 dc bf bd 68 35 c0 9f 5b 51 bf ed 0a 46 bf
       -1.7238786 -2.8345177 -0.8178043 -0.7736042

weight f4 [1, 100]
000000 04 99 d8 3d 8c 88 f7 be 40 2f 48 bf 5f f9 61 be
       0.105760604 -0.48346364 -0.781971 -0.22067784
000010 95 b9 62 be 57 33 08 3e 16 53 7f be 37 f2 56 3e
       -0.22141106 0.13300835 -0.24934039 0.20990835
000020 40 ee 0a be 28 39 ea be 37 f7 98 be 32 af e1 be
       -0.13567448 -0.45746732 -0.2987611 -0.44078976
000030 70 ad 1f bf 98 f3 ad be 35 74 07 be d8 fb 02 bf
       -0.6237402 -0.3397491 -0.13227923 -0.51165533
000040 9d fa 0b 3d 1b c5 d3 be 2f 05 51 3e a2 fa c8 bd
       0.03417455 -0.41361317 0.20412134 -0.098134294
000050 ef cd af bd cf 0d d1 3d 90 aa be bd bd 60 62 be
       -0.085842006 0.10207712 -0.09309876 -0.22107215
000060 67 ac ca 3d 28 a5 cb be c4 9a db bd 99 f6 85 be
       0.098961644 -0.39774442 -0.107228786 -0.26164702
000070 43 73 a3 be 74 3a 32 bd 8e 84 c8 be 2d 33 57 be
       -0.31923875 -0.043512776 -0.3916363 -0.21015616
000080 b1 7e fb bd e5 78 fc be de 03 2c be c5 6e 98 be
       -0.12280024 -0.49310985 -0.1679835 -0.2977201
000090 ac 00 b8 be ef 00 0e 3e 28 f7 03 be 03 ed 7c be
       -0.35938013 0.13867544 -0.12887251 -0.24699788
0000a0 6a df 43 3e c7 4d 06 bf 3c bf 01 be 95 ec a5 3d
       0.19128194 -0.5246243 -0.12670606 0.08101765
0000b0 e5 89 e6 3d 9e 18 2a 3e 21 34 4d be 10 39 64 be
       0.1125677 0.16610953 -0.20039417 -0.22287393
0000c0 d1 a3 4d 3f 67 09 a8 bf 26 be 7d be 3a 29 1a bf
       0.8032809 -1.3127869 -0.24779567 -0.60219157
0000d0 94 ce fa bd b6 a0 33 3e e8 52 1a be f1 3a be be
       -0.12246433 0.17541775 -0.15070689 -0.37154344
0000e0 c1 56 bd be 56 be 8b be d1 38 b7 be c2 f9 84 3d
       -0.3698025 -0.27293652 -0.35785535 0.0649295
0000f0 cb 1b f2 be 03 00 ec be 65 34 21 be a2 39 66 bf
       -0.4728683 -0.4609376 -0.15742643 -0.8993169
000100 e6 5b fd be ca 5b 5b be 75 8b 2b be be 5b be bd
       -0.49484175 -0.21421733 -0.16752417 -0.09294842
000110 e2 58 5e bf 0e 94 3f be 03 d8 81 be f5 7c ac 3d
       -0.86854374 -0.18708822 -0.25360116 0.08422271
000120 6a 54 14 bf 24 00 2b bf f4 09 75 3f c3 74 82 be
       -0.57941306 -0.6679709 0.9571831 -0.25479707
000130 da 04 ec be 42 ec 49 be a5 38 80 be fc 0f 0f 3e
       -0.4609745 -0.19719031 -0.25043216 0.13970941
000140 24 09 bf bd 86 4d 06 3f f0 cd 9f 3e 39 21 44 be
       -0.09327915 0.5246204 0.31211805 -0.19153298
000150 83 db 38 3f 68 a5 c0 bd 62 a0 07 be 76 db a2 be
       0.7220995 -0.09406549 -0.13244775 -0.3180806
000160 6f 8c 2d be 56 5e ea be 5b 0c ed 3e 07 01 d3 3d
       -0.16948102 -0.45775098 0.4629849 0.1030293
000170 6e 20 78 be 46 ab bb 3d 36 42 e7 be 1d e2 1c bf
       -0.24231121 0.09163527 -0.45167702 -0.6128252
000180 c5 ac 0d be 60 df f1 bd ed 9e 46 3e 0f 83 81 3d
       -0.13835438 -0.118101835 0.19396563 0.063238256

S f4 [4, 4]
000000 00 00 00 00 00 00 00 00 00 00 80 3f 00 00 00 00
       0.0 0.0 1.0 0.0
000010 00 00 00 00 00 00 00 00 00 00 00 00 00 00 80 3f
       0.0 0.0 0.0 1.0
000020 00 00 80 bf 00 00 00 00 00 00 00 00 00 00 00 00
       -1.0 0.0 0.0 0.0
000030 00 00 00 00 00 00 80 bf 00 00 00 00 00 00 00 00
       0.0 -1.0 0.0 0.0
