Models/Kepler/Kepler_symplectic euler_50epoch_Sin()_ReLU()_batchsize_64_shape_torch.Size([1099000, 4])_L_coeff_0.001.pt (torch, 51737 bytes, 6 tensors)

weight f4 [100, 4]
00000000: c5e4 34bf 2b7b f63d 6ebf ff3e 82ca d2be
00000010: 0181 863f d733 e53e 0651 8ebd 009c b13e
00000020: caa7 ec3e a1ee cf3e d00e 21be 23f1 533e
00000030: 7232 f43e 615d 9e3f 176e 3cbe 059e a23d
00000040: f82d a5be e1a5 7cbe b8d6 33be 38d3 233e
00000050: 1017 053e 5a11 09be 65a2 113f b136 e1be
00000060: f273 c23f ccc5 4ebe 4ae7 0bbf 0d21 2cbd
00000070: f02e ac3e 5e66 8dbe 9879 f23e c062 b23e
00000080: ea23 e73c 9f1e 8ebf 8096 70be d54d b9bd
00000090: 8ae8 903e 71d7 17bf d973 2dbe 440c a6ba
000000a0: 18a3 863e f5e3 a33e 4f27 36be 3215 ba3d
000000b0: 7b1c 383f a97e df3e 5c38 11be d256 833e
000000c0: 6674 903e dbfd cebe c14a 223f 37f5 f03d
000000d0: 36de 17bf 82d2 1dbf 9f6a 58ba c9bd 1d3e
000000e0: 2e90 83be 7ad2 f7be 01ee c3bd ebf5 073e
000000f0: 7a28 06bf 01a7 e43e 9491 4b3e 777c d93c
00000100: 0580 87be 427a 013f 3478 9dbe 1d24 b3bd
00000110: 29af 5e38 fb64 103e ae1d c43d 5b43 593e
00000120: 2d70 f93e d717 96bf afaf 22bf 27a9 80be
00000130: 4c83 b4bf b27f 8fbe ba78 673e c698 243f
00000140: 72ca 353f 3e51 72bf 08f9 6dbe 38dd 303d
00000150: e9d3 2dbe 95ee c93c d06d 543e 9640 813d
00000160: 40ee 433e 589c 8dbe 3a83 333e 6172 0c3e
00000170: 22c4 8e3f cb95 7cbe ab64 44bd 4755 2abf
00000180: 6452 d8be 6829 26be a024 e23d dd59 433f
00000190: 8253 babf 49e6 80ba 910f 00bf 1e57 953e
000001a0: 30e1 5dbe 08a0 ecbe e1cd 4fbe 0c7b 88bc
000001b0: 9b8b 2abf fb0e 54bc b789 a9bd 52bd 033e
000001c0: a80c b1bb 875f b93e 6bf9 863d ad7b 313f
000001d0: 1ff1 21bf 4e24 89bf 0d79 973e e562 003f
000001e0: d4db 303f e64d 243f 9ffb ee3e 52de c73e
000001f0: 8cd0 8e3d 9525 4b3e b4af 8d3d 428c 063e
00000200: 3338 d2be 6195 953f 6638 283d ee9f 01bf
00000210: 7ccf 1b3f cdf2 483e 4887 bbbc 454b 64be
00000220: f70b 333f 906e 7abf fd10 973e 33e2 4d3e
00000230: 7657 653e 5bc9 f7be 5b71 e0bd 129b 4abd
00000240: 029f 41bf b2f8 71bf e7c7 62bd 40e7 803e
00000250: 67ba c2bd 967c 89bd 7c03 093f fa01 8f3d
00000260: 3d78 5c3e c308 a0bf e599 c1bd c6c6 283f
00000270: ad19 7f3e b95e 323f 66c5 4bbe 870b df3d
00000280: 707b 193e 2ff8 acbc 60cf 483d e81c c0be
00000290: 60f0 4d3f 67be 9abd 22b7 da3d 222b 9e3e
000002a0: f548 243f a5a9 38bf 2da5 7a3e a59c 8e3e
000002b0: 6b33 38be acdc 52bd 424b e5be 83cb 07bf
000002c0: 8b0b 793e ffb8 133e 3048 73bc 4d49 0abe
000002d0: fbaa 89bf aea0 82bf 0afc 9b3e ce9d 053f
000002e0: 9656 94be b51d 793f e777 77bd 2967 0c3f
000002f0: 99ef 523e b68c 943c ec4f 01bc 8842 853d
00000300: 189f 56bf 7859 06bf dccc 1bbf 6b6c e53d
00000310: 29ca 23be b9a0 34ba eb2b c5bd abf0 8a3e
00000320: 2d44 a6be 625a 2bbe 98af 9bbd 926c fabe
00000330: fc73 2c3f 64c6 b7be 28ef 8fbe 5be8 db3b
00000340: 194d 8d3e bc2a ae3e 6c35 d2bd 594e 2a3f
00000350: 8b56 d33e 80f0 11be 42a4 073f e2e2 ae3e
00000360: a3e1 1f3e eeae 253f 58fe fe3e ed48 813e
00000370: de85 6c3f aa95 193f 1f7b 813e 8cd5 9bbd
00000380: 791a 853f 2e27 2dbf 51be dc3e ca19 88be
00000390: 7c79 aabd 02a7 7bbf 2ec1 1dbf c39c 01be
000003a0: 5a63 68bf b28f 03bd 7782 c5bd e1de c5be
000003b0: 2447 183f ee9c 81be 921a 07be ebbc 7bbd
000003c0: cf43 4d3f a9d8 6d3f 9f75 df3e 61fb e6be
000003d0: 0e37 253e e00a 003e d5bb 9c3e 3627 edbd
000003e0: ad69 b13e 8bdc 83bd 6020 5d3c ffe9 ed3d
000003f0: 6caa c83e db46 af3e 16f4 a13d 5d3a 11be
-0.70661575 0.12035211 0.49950737 -0.41170126 1.0508119 0.44766113 -0.06949048 0.3468933
0.46221763 0.40611747 -0.15728307 0.20697455 0.47694737 1.2372247 -0.18401371 0.07940296
-0.32261634 -0.24672653 -0.17562377 0.15998542 0.12997079 -0.13385525 0.5688842 -0.4398704
1.5191634 -0.20192641 -0.54649794 -0.042023707 0.3362956 -0.27617162 0.47358394 0.34840965
0.028215367 -1.1103095 -0.23494911 -0.090480484 0.28302413 -0.5931311 -0.16938724 -0.001266845
0.26296306 0.32009855 -0.17788433 0.09086074 0.7191846 0.43651322 -0.14181656 0.25652176
0.28213805 -0.4042805 0.63395315 0.11765521 -0.5932344 -0.61649334 -0.0008255634 0.15404429
-0.25695938 -0.48402768 -0.0956688 0.13277404 -0.5240551 0.44658664 0.19879752 0.026548607
-0.2646486 0.50577176 -0.3075577 -0.087471224 5.3092055e-05 0.14101021 0.095759735 0.212171
0.48718396 -1.1726025 -0.6354932 -0.25129053 -1.4102569 -0.2802711 0.22604647 0.64295614
0.7101203 -0.94655216 -0.23239529 0.04317972 -0.16975369 0.024649898 0.20745015 0.06311147
0.19133854 -0.27658343 0.17530528 0.13715507 1.1153605 -0.24666516 -0.047947567 -0.6653637
-0.4225036 -0.16226733 0.11042142 0.76308995 -1.4556735 -0.0009834255 -0.5002375 0.29168028
-0.21667933 -0.46215844 -0.2029338 -0.016660236 -0.6661927 -0.012943025 -0.0827822 0.12865189
-0.00540312 0.36205694 0.065905415 0.6932934 -0.63258547 -1.0714204 0.29584542 0.501509
0.6908543 0.64181364 0.46676347 0.39036804 0.06973371 0.19838555 0.06918278 0.13139442
-0.41058502 1.1686212 0.04106941 -0.5063466 0.6086347 0.19623871 -0.022891656 -0.22294338
0.6994013 -0.97824955 0.2950515 0.2010582 0.22396645 -0.4839581 -0.10959121 -0.049464293
-0.7563325 -0.94520104 -0.055366423 0.2517643 -0.0950821 -0.06713216 0.5352094 0.06982799
0.21530242 -1.2502674 -0.09453181 0.65928304 0.24912138 0.69675785 -0.1989952 0.108908705
0.14988494 -0.021114437 0.049025893 -0.37522054 0.8044491 -0.075558476 0.10679461 0.30892283
0.64173824 -0.72133857 0.24477072 0.27853885 -0.17988364 -0.05147998 -0.4478398 -0.5304491
0.2432081 0.14426039 -0.014848754 -0.13504525 -1.0755304 -1.0205286 0.30465728 0.52193916
-0.2897231 0.97310954 -0.060417082 0.5484491 0.20599212 0.018133502 -0.00789259 0.065068305
-0.8383651 -0.5248027 -0.60859466 0.1120232 -0.15995087 -0.00068904046 -0.09627517 0.2713674
-0.3247389 -0.16733697 -0.07601851 -0.48910958 0.6736448 -0.35893548 -0.2811215 0.0067110485
0.27597883 0.3401698 -0.10264096 0.665258 0.41276965 -0.142519 0.5298501 0.34157473
0.15613417 0.64720047 0.49803424 0.2525095 0.92391765 0.59993994 0.25289246 -0.0760909
1.0398704 -0.6763791 0.4311395 -0.26582175 -0.083239526 -0.9830171 -0.61622894 -0.12657456
-0.907766 -0.03211946 -0.09644025 -0.38646606 0.5948355 -0.2531504 -0.1319373 -0.061459463
0.8018159 0.9290872 0.43644425 -0.45113662 0.16134283 0.12504148 0.30612054 -0.115797445
0.34650937 -0.064385496 0.013496488 0.11616897 0.39192522 0.34233746 0.07907884 -0.1418242

bias f4 [100]
00000000: 209f fcbe 6548 87bf 2d27 653f 9c93 c1bb
00000010: d869 42bf 50b6 f0be e975 b1be d8c0 f33e
00000020: 38d5 483f 3395 4b3f b46c 58bf c9be 683f
00000030: 26d5 74bf 7c5a 17bf ea90 2abf 589a 343f
00000040: dd1c 4c3f 5c54 273f 3975 873f b158 f6be
00000050: 1df0 833f 8dc6 98be a5a0 5a3f 219e a4bf
00000060: 3d5f b2be eeea eebe e81e 543f fa9a 4dbf
00000070: 24c6 02bf 1829 563f 88b4 473f 5541 4b3d
00000080: c6b5 473f ff16 45bf faf4 79bf f87f 1bbf
00000090: c072 883f 3e5d 0d3f b059 be3e 50cb 0abf
000000a0: e7d2 74be 0ea1 50bf 0673 7c3f 35ad 633f
000000b0: b37a 263f 71a3 d4bd bf43 ba3e 2e9d 2ebf
000000c0: 331c 77be cd07 0c3f ae6e 09bf e024 36bf
000000d0: 3d4c 433f 5d7e 343f a262 fd3e d47b 80bf
000000e0: 5d4a 59bf 57f5 21bf 3473 76bf 68eb 443f
000000f0: d9ea 52bf df9b 233f 0c64 d6be 9e54 3b3f
00000100: 52ee 96be a904 debe 9c51 513f da03 8e3f
00000110: 6dd1 b7be 537e 57bf f2c2 3cbf 31d9 35bf
00000120: 9703 4b3f dec4 17bf 58ab 33bf 0de5 4fbf
00000130: 12ec dd3d cb77 3c3e 4f93 60bf fa0e b73e
00000140: d156 313f 7a5b 353f 95fc c73e 66b3 77bf
00000150: 6e43 6f3f 04cd 58be 5734 763f 6ce4 673f
00000160: c1a2 4bbf 385e 123f b197 043f 5290 433f
00000170: 5e8c 3dbf 38da 443f 158e 7b3f dd5f 173f
00000180: c652 16bf 823a 7bbf 5bd3 113f 8704 3bbf
-0.49340153 -1.0568968 0.895129 -0.005907489 -0.75942755 -0.47014093 -0.3466027 0.47608066
0.78450346 0.79524535 -0.8454087 0.90916115 -0.9563774 -0.59122443 -0.6662737 0.7054801
0.7973154 0.653631 1.0582649 -0.4811454 1.0307652 -0.29838982 0.85401374 -1.2860757
-0.34838286 -0.46663612 0.8285966 -0.803146 -0.5108359 0.83656454 0.78009844 0.049622852
0.7801174 -0.76988214 -0.9763943 -0.6074214 1.0660019 0.552204 0.371778 -0.5421648
-0.23908578 -0.8149575 0.9861301 0.8893617 0.65030974 -0.103827365 0.3637981 -0.6820859
-0.24131851 0.54699403 -0.5368451 -0.71150017 0.76288205 0.70505315 0.49489313 -1.0037789
-0.84879094 -0.63264984 -0.96269536 0.769217 -0.823896 0.63909715 -0.41873205 0.7317599
-0.294787 -0.4336293 0.8176515 1.1094925 -0.35901967 -0.8417713 -0.7373496 -0.7103453
0.7930235 -0.5928477 -0.70183325 -0.8120888 0.108360425 0.18405072 -0.87724775 0.35753614
0.69273096 0.7084271 0.39059892 -0.96758115 0.93462265 -0.21171957 0.96173614 0.9058292
-0.7954522 0.57175016 0.5179396 0.7639209 -0.7404231 0.76895475 0.98263675 0.5913065
-0.5872005 -0.9813615 0.5696313 -0.73053783

weight f4 [100, 100]
00000000: f36d 2b3e 3ece 9ebe f369 de3d bfeb 623d
00000010: e949 63bd 9ca2 e7bb 1551 603e a284 873e
00000020: d5ab 9ebe fb4e 30be f0f5 9ebe 5bf0 843e
00000030: 8aae 283f 5cff aebd a62e 77be 9c69 49bd
00000040: 1e4d 7b3d d42a b73d cec4 cf3e 03cd 01bd
00000050: df3d dfbe d6f1 103e e2d2 0bbe 1dcc aebe
00000060: 6bd4 05bf 22a3 bf3e 9023 0ebe c0f2 b23e
00000070: 38ad 773e c5ed cbbe e5d5 bdbe 295e 1f3e
00000080: a309 d6be e0ae f53d 9035 18bf 7204 81be
00000090: 91df 70be beae d23e 67d5 a93d bfdb 18bc
000000a0: 4055 e3bd 88e9 c0be 80ea e43e 2e69 4b3c
000000b0: bc43 03be af95 cdbd 5528 3d3e bc9e 43be
000000c0: f19b c33e 7278 ffbd 7280 adbe 0882 b53e
000000d0: 6091 03bf 4789 f2bd c4aa ecbd 3cd5 ae3e
000000e0: e8a4 853e 3dcc 233e dfa1 83be a307 90be
000000f0: a4fb 61be 6226 0dbc f967 9fbe 5195 603d
00000100: 1bb7 aebe d5a7 72be 1f9e cebe 061f 833e
00000110: 88cc 84bd 0118 cfbe 575a 7f3e 4ce6 fe3d
00000120: f827 08bd a954 85bd e853 a3be eee7 33be
00000130: ab87 943d ec37 24be 9f10 6abe 1456 c03d
00000140: b46c 67be 23d7 10be 6aea 44be 2a93 2b3e
00000150: 68f1 063e d0da 313e 64a9 de3e 130d 5c3e
00000160: bb67 813e 8082 d1bd 0646 57be d4c7 813d
00000170: 7508 34be db85 e2bd 36c7 b8be cc6d cfbe
00000180: 7e69 2cbd 3d2d 5ebe f59f 5bbc 31a4 02bf
00000190: 6250 8ebe efc4 9ebe be28 983e f2e8 4c3d
000001a0: 0cdf 6b3d 4cbd 7f3e a69f 0c3e e8ec 8fbd
000001b0: a23d 26be cf79 d4be 8f08 d1bb 4ae0 823e
000001c0: 9288 dc3e 69d6 d43d b259 083d b3dc 4c3c
000001d0: f567 b33c 616d 863e 05a3 e33e e6e2 f9bd
000001e0: 7be6 39bf b101 cb3d aebe 703e beb6 6abe
000001f0: 0ce7 82bd 8885 c43d 4491 96be 70fd 8e3e
00000200: 0725 a93e 8e67 20be f199 dabe 687f e73e
00000210: 21ee f7bd bbfb 813e ceac efbe e6aa 32be
00000220: 0f18 76be e20f d43d 4101 9dbe 781e 9cbc
00000230: 771d a6bc eb61 0abd 96f3 0a3f 36af 6bbe
00000240: 697f 08be 2ec4 6abe 3018 5dbe dc18 a03a
00000250: 3fc5 0b3e ba12 5cbe 63b8 88be 7dc7 1b3e
00000260: 7088 2dbe 709e bb3d 6230 67be 1989 843c
00000270: 702a cf3e ee93 c2be d1e6 d7be 5d5a 90be
00000280: 95e2 85be 3740 5dbe 7066 363c 293f eabd
00000290: 7f31 91be 3447 923d 6f09 e5bd c142 9e3e
000002a0: 52dc f6bd be61 8dbd dc60 a13e 9831 cf3d
000002b0: a8df b2bd 2b13 29be 36f6 2abd 06ac 813e
000002c0: 9ac4 6dbc 70bd 363e 4580 eebe 0460 f2bd
000002d0: 0f2d 253c 655c 9abe 359c 953e a7d7 9d3d
000002e0: 3b4a 6e3e 0573 6abc 51f2 d23e 25e7 0f3e
000002f0: a006 8a3d 5782 893d 6418 16be 78a9 113d
00000300: 00ac 70bc 6dd5 bebe 7df9 c7be 60db ddbd
00000310: 7c3e 093e b0e0 97bd 2a98 ae3c 348d dfbe
00000320: 941d b0be 928e 703e 5b38 e5be 95c2 44be
00000330: 93d4 7fbb 470b 25be 96fc ad3e 97bc 88bd
00000340: cb81 423e 935d dd3d 6016 f53d 9822 07bf
00000350: 8978 65be 84ee 3d3d dcfb 02be 3606 933e
00000360: 1e46 32be 8f9e 003d b1f5 7bbe a562 b13d
00000370: 28a3 f33e 2305 babd fd16 4abc 21ea b03e
00000380: 1083 e4bd 65be 53be 2c3f 83bc dc2e eebc
00000390: d43e 34bd 8093 6e3d 1dd3 3b3f 9e02 0c3c
000003a0: 672e d53d 6af5 2fbe 7f69 d1bc 9212 2dbd
000003b0: d0e0 083f ef0f 92bd b49d 913e ed71 993d
000003c0: ac03 34be 1fc4 613e 9bd1 e9be 81b0 93be
000003d0: 7503 813d c629 dbbd 2625 1e3f 142b 243e
000003e0: 0f03 11be 5d3c 833e d3e7 30bd 083d 01be
000003f0: 9f04 e53a 58bc cc3d f073 a53d 06e3 f0be
0.16741161 -0.31016725 0.10860052 0.055400606 -0.055490408 -0.007068945 0.2190593 0.26468378
-0.30990472 -0.17217629 -0.3104701 0.25964627 0.65891325 -0.085448 -0.24138889 -0.049172983
0.06135284 0.08943716 0.40579838 -0.031689655 -0.4360189 0.14154753 -0.13654664 -0.341401
-0.5227725 0.37429148 -0.13880754 0.3495083 0.24187171 -0.3982984 -0.3707725 0.15563263
-0.41804227 0.119962454 -0.5945673 -0.25198704 -0.23522784 0.41148943 0.082926564 -0.009329735
-0.111002445 -0.3767817 0.4471016 0.0124152135 -0.12818807 -0.100383155 0.18472417 -0.19103521
0.3820491 -0.12474145 -0.33887058 0.35450768 -0.513937 -0.1184259 -0.115560085 0.3414706
0.26102376 0.1599588 -0.25709435 -0.28130826 -0.2206865 -0.008615108 -0.31134012 0.0548299
-0.34124073 -0.23696835 -0.40355012 0.25609607 -0.06484324 -0.40448 0.24936806 0.124462694
-0.033241242 -0.06510288 -0.31899953 -0.17568943 0.07252439 -0.16036958 -0.22857903 0.09391418
-0.2260006 -0.14144568 -0.19230047 0.16755357 0.13178027 0.17368627 0.4348861 0.21489362
0.25274453 -0.10229969 -0.21022806 0.06336942 -0.17581351 -0.11060687 -0.36089486 -0.40513456
-0.042092793 -0.21696945 -0.013404836 -0.51031786 -0.27795702 -0.31009623 0.29718584 0.05002684
0.05758576 0.24974555 0.13732776 -0.07027608 -0.16234449 -0.41499183 -0.006379194 0.25561744
0.43072945 0.10392458 0.033288665 0.012503791 0.021900157 0.26255324 0.44460312 -0.122014806
-0.7261731 0.09912432 0.23510239 -0.22921273 -0.06391725 0.095957816 -0.29407704 0.27927732
0.33036062 -0.15664503 -0.42695573 0.4521439 -0.12105966 0.25387368 -0.46811527 -0.17448005
-0.24032615 0.10354592 -0.3066502 -0.019057497 -0.020277722 -0.033784788 0.5427793 -0.23016056
-0.13329853 -0.22926399 -0.21591258 0.001221444 0.13649462 -0.21491519 -0.26703176 0.15212817
-0.16946578 0.09161079 -0.2257705 0.016178655 0.40462065 -0.38003486 -0.42168286 -0.28193942
-0.2614943 -0.21606527 0.011132821 -0.11437828 -0.28358075 0.07142487 -0.1118344 0.30910304
-0.120537415 -0.069034085 0.3151921 0.10116881 -0.08734065 -0.16511218 -0.04173871 0.25326556
-0.0145122055 0.17845702 -0.46582237 -0.1183472 0.010081544 -0.30148616 0.2922074 0.07707148
0.23270504 -0.014309649 0.41200498 0.14053018 0.06739545 0.067143135 -0.14657742 0.03556201
-0.0146894455 -0.37272206 -0.39057532 -0.10832858 0.13402742 -0.074159026 0.021312792 -0.43662417
-0.34397566 0.23491886 -0.44769558 -0.19214852 -0.0039036616 -0.16117583 0.3398177 -0.06676596
0.18994825 0.108088635 0.11967158 -0.5278716 -0.22409262 0.046370044 -0.12791389 0.28715676
-0.1740956 0.031401213 -0.24605443 0.08661393 0.47585416 -0.09083011 -0.012334582 0.34553626
-0.11157811 -0.20678098 -0.016021334 -0.029075079 -0.04400523 0.058246136 0.7336901 0.008545546
0.10409241 -0.17183462 -0.025563 -0.04225404 0.53468037 -0.07131945 0.2844063 0.07492433
-0.17579526 0.2204747 -0.4566773 -0.288456 0.062994875 -0.10701327 0.61775434 0.16032058
-0.14161323 0.2563199 -0.043189835 -0.12620938 0.0017472691 0.09996861 0.08078754 -0.47048205

bias f4 [100]
00000000: 330c 623c 674f 3f3c 956a 883d f044 69bd
00000010: 9525 a33d 9317 a8bc ad24 bbbd b3f8 18bc
00000020: c319 1cbd 6d0d c6bc 9724 5abd c8f2 c43d
00000030: 0dc5 103c 9ad1 813c ab72 cc3d 9d44 51bd
00000040: 8ddb bd3c 2715 403d 2045 493d ca65 313d
00000050: 0098 dc39 cdde d0bc b7dc b43d 47ec 223d
00000060: a773 503c 6758 43bd 6da2 9abd f016 3ebd
00000070: 2700 f9bc 8022 6d3d 50d9 443d fdfd 2cbd
00000080: 3534 a1bd 5a21 39bd a310 87bd 2a4a 193d
00000090: 8d61 acbc 7225 8c3d b07c 5f3d baa6 fbbc
000000a0: 2046 37bd a532 84bd a779 273d 0741 723d
000000b0: 2dee ba3d ea01 3ebd 0058 b3ba 7868 c43d
000000c0: af40 c93d 73a7 ba3c 53b7 81bc 2725 6e3c
000000d0: 93ef e3bc b0ef 48bd 6031 c13d 3794 853d
000000e0: 5fa7 afbd a7cf 183d 6373 3d3d a7b5 64bc
000000f0: df89 a4bd 3085 c73d 5b29 b13d 27fb 1e3d
00000100: 771e 1cbd 2da1 a03c 074b f1bc 5031 113d
00000110: e7a3 afbd c7e0 95bd 60aa 9fbc 87c7 cf3c
00000120: d3e1 febc 1a61 b3bd 4074 5c3c 67b7 393d
00000130: 4004 ac3d b0e7 4abd a743 d83c ba98 09bd
00000140: c774 f7bc cdb7 42bb 5335 953c d38a 8f3d
00000150: 6832 c83d 6d1c 393d 2d42 133d c080 7c3d
00000160: 1d38 753d d0b1 6abd 8d4e b43d a038 3abd
00000170: 73fc 9e3d e231 b2bd 1d2c ba3d 0f24 bf3d
00000180: 9350 163d 10a4 a4bd 271d e4bc 40a0 3b3c
0.013796854 0.011676646 0.06660954 -0.05695051 0.079661526 -0.020519054 -0.09137855 -0.009336638
-0.038110506 -0.024176324 -0.05325755 0.09616619 0.008836043 0.015847016 0.09982809 -0.051090825
0.023175979 0.046895172 0.04913819 0.043309964 0.0004207492 -0.025496865 0.088311605 0.039776113
0.012722886 -0.04769173 -0.075505115 -0.046408594 -0.03039558 0.05789423 0.048058808 -0.04223441
-0.07871286 -0.045197822 -0.0659497 0.037424244 -0.02104261 0.068430796 0.05456227 -0.03071915
-0.04474461 -0.06454972 0.0408875 0.059144046 0.0912746 -0.046388544 -0.0013682842 0.09590238
0.098267905 0.022784924 -0.015834486 0.014535225 -0.027824199 -0.04905671 0.09433246 0.0652241
-0.085768454 0.037307408 0.04625262 -0.013959325 -0.08034109 0.097422004 0.08650466 0.038813736
-0.03811499 0.019608105 -0.029454721 0.03544742 -0.08576184 -0.073182635 -0.01949042 0.025363697
-0.03111354 -0.08758755 0.013455451 0.04534092 0.08399248 -0.04953736 0.026399447 -0.033592917
-0.030207051 -0.0029711605 0.018213904 0.070089005 0.09775239 0.045193125 0.035951782 0.061646223
0.059867967 -0.05729848 0.08804045 -0.045464158 0.077629946 -0.08700921 0.09090445 0.093330495
0.036697935 -0.08039105 -0.027845932 0.011451781

weight f4 [1, 100]
00000000: 0d9f 0fbf cad1 64bf f2f4 843f 3609 23bf
00000010: b03c b23e d14c cdbe 7d6b 2b3f 2e42 733f
00000020: e2f5 a3bf 8a46 4dbf 57d5 833f 4e6e 4b3f
00000030: 82bc 853f fd78 3abf e27b d0be 7046 483f
00000040: 2f56 203f d850 773f 80a0 8a3f ae61 89bf
00000050: dfa6 55bf a4ac 53bf 23dc 3cbf 9917 2dbf
00000060: d1ba 423f a813 66bf da4c afbf da0f babf
00000070: d3f1 08bf a4bd 35bf 903c 573f 28e5 20bf
00000080: 3699 593f 6277 25bf e3ee e63e 6bda 56bf
00000090: 3f83 b53f a21e 38bf b8e3 8b3f d53b 973f
000000a0: bcd5 a23f 033f fbbe 8e40 973f 97f1 5dbf
000000b0: cf03 36bf fd42 9a3f 3450 9f3f 97a7 40bf
000000c0: 10f3 a53f 7d7c b33f 94d3 513f b54c d03f
000000d0: ca9b 7ebf fa98 543f 1f1f 0abf 0dc1 7b3f
000000e0: 058b 9ebf 5179 943f 8620 873f a89f bdbf
000000f0: 40f1 8bbf 7198 643f bddf c83f a516 25bf
00000100: 4ffe b63f d674 903f 2d9e 1b3f cb74 78bf
00000110: 991b 0bbf 9ca9 99bf a015 8d3f 3fd5 37be
00000120: 6e28 1a3e ed0c 963f e1e5 4dbf a721 37bf
00000130: 1e50 d1be 8393 923f d8e4 853f 9ecf 3cbf
00000140: efe5 f33e 8aa8 10bf da7b b33f 04d7 693f
00000150: ed69 583f 5edb 4d3f 0779 15bf b0ae 8c3f
00000160: b0c9 9fbe 79aa abbf a15a 30bf 7b25 93bf
00000170: b599 65bf 27d1 9b3f 326a 8a3f 83e5 a1bf
00000180: b576 45bf 2bc8 833f 4b2c 45bf 0faf bfbf
-0.5610207 -0.8938261 1.0387251 -0.6368593 0.34811926 -0.4009767 0.6696089 0.9502286
-1.2809412 -0.8018576 1.0299481 0.79465187 1.0448153 -0.72840863 -0.40719515 0.7823248
0.62631506 0.9660773 1.0830231 -1.0732934 -0.8345775 -0.82685304 -0.737734 -0.6761413
0.7606631 -0.89873743 -1.3695328 -1.4536088 -0.53493994 -0.70992494 0.84076786 -0.62849665
0.84999406 -0.6463529 0.4510413 -0.8392703 1.4180678 -0.7192174 1.0928869 1.1815134
1.2721477 -0.49071512 1.1816576 -0.8669676 -0.7109956 1.2051693 1.2446351 -0.7525572
1.2964802 1.4022366 0.8196347 1.6273409 -0.99456465 0.83045924 -0.5395374 0.9834145
-1.2386175 1.1599523 1.05568 -1.4814348 -1.0932999 0.8929511 1.569328 -0.6448768
1.4296359 1.1285655 0.6078823 -0.9705321 -0.54338986 -1.2004886 1.1022224 -0.1795244
0.15054485 1.1722695 -0.8042889 -0.71535724 -0.40881437 1.1451267 1.0460463 -0.737543
0.47636363 -0.5650717 1.4022171 0.9134371 0.8453663 0.8041285 -0.583878 1.099081
-0.31208563 -1.3411399 -0.6888829 -1.1495813 -0.89687663 1.2173203 1.0813658 -1.2648166
-0.7713426 1.0295461 -0.7702071 -1.4975299

S f4 [4, 4]
00000000: 0000 0000 0000 0000 0000 803f 0000 0000
00000010: 0000 0000 0000 0000 0000 0000 0000 803f
00000020: 0000 80bf 0000 0000 0000 0000 0000 0000
00000030: 0000 0000 0000 80bf 0000 0000 0000 0000
0.0 0.0 1.0 0.0 0.0 0.0 0.0 1.0
-1.0 0.0 0.0 0.0 0.0 -1.0 0.0 0.0
