Models/Kepler/Kepler_midpoint_50epoch_PAU()_Softplus(beta=1.0, threshold=20.0)_batchsize_64_shape_torch.Size([1099000, 4])_L_coeff_0.001.pt (torch, 53395 bytes, 8 tensors)

numerator f4 [6]
0.14588444 0.007979661 -0.3828611 0.012391236 -0.4188953 -0.04710668
00000000: bb62 153e 20bd 023c 5f06 c4be 9c04 4b3c
00000010: 7279 d6be eff2 40bd

denominator f4 [4]
-0.02964375 0.10683959 -3.312421 -0.08603617
00000000: 73d7 f2bc b7ce da3d b5fe 53c0 bb33 b0bd

weight f4 [100, 4]
0.012761307 -0.045249455 0.01152239 0.002977409 5.476304 -3.240699 -0.002618943 -0.0109652085
-4.465041 4.6374273 0.008806555 0.006408671 0.0048777186 0.050669573 0.0037654128 -0.0007602948
-2.2533615 6.1316953 0.011833669 0.0020799225 0.00083370134 -0.009753794 0.12298618 0.1334781
6.471714 1.6482961 0.0046516126 -0.009659527 -1.8211405 4.0448594 -0.02036864 -0.004412126
-0.011871716 0.008658233 0.17722411 0.13901459 -0.48879546 -0.28428352 -0.011549418 0.016461026
-3.6617799 -0.47174922 -0.00026220843 -0.025285453 5.1719446 0.6739425 0.0042173867 0.016751382
0.006204062 0.0037158283 0.07514169 -0.17702334 0.44909978 -6.619317 -0.012282021 0.0020024818
-0.0052752723 -0.057342846 -0.0020075121 -0.0014420884 0.046622355 0.07704587 0.011741086 -0.00140027
5.113626 4.7593975 0.0068488526 -0.009316184 0.017933093 0.014913315 -0.02832117 0.048888735
-0.39624038 -6.7691092 -0.011026493 0.0020434 0.014577262 -0.0058884914 -0.19328405 -0.074912995
-0.20388286 0.20495822 -0.35304576 -0.34099028 3.3033864 -5.9146614 -0.012169965 -0.008056715
1.1479563 -0.1271497 -0.003390007 0.03636066 1.3321729 -6.511536 -0.01231038 0.004515564
0.00048247923 0.0015563256 0.090122625 -0.1835628 0.001222395 0.002793888 -0.14510718 -0.10630029
-0.61130774 -1.9848527 0.13555124 -0.018877322 0.0072428067 -0.064653754 -0.00829422 -0.0014099556
-0.23063904 -3.6408124 0.03331422 -0.00018340527 0.5350672 -4.1959844 0.024934385 0.0072717713
0.012030426 0.0015588773 0.16317232 -0.057398807 -1.0227723 -4.0343 0.018769221 0.0043603973
-5.199089 4.110093 0.008468242 0.010185871 0.0045773685 0.0066350587 0.07425054 0.014659001
-3.799688 5.2387495 0.012621898 -0.0045709577 0.9111505 -3.6599498 0.11904812 0.072171316
-1.4980837 3.3149152 -0.026677577 -0.010507514 -0.006196956 0.0030615868 -0.033437517 -0.11452425
2.9434848 5.90776 0.0067194165 -0.0021394491 0.0061167036 0.0005019326 0.046263605 0.16987243
-4.3965893 -5.2377596 -0.0073578944 0.012306609 6.2999535 -2.0539234 -0.006340444 -0.013523444
0.0082590645 -0.004435337 -0.12457593 -0.16381195 -0.12564643 -0.98820925 0.008456348 -0.008980756
0.0010143078 0.0045496286 0.00010674608 0.01232401 0.03812336 0.08488019 0.008628074 -0.001085735
-0.008452 0.01088614 0.0467341 0.19723661 0.0053823665 -0.016106712 0.0016158319 0.0010838921
-0.39812994 -0.3239047 -0.014219917 0.012329873 0.0023209495 -0.004337954 0.12854894 -0.11338026
-0.82399315 0.784389 -0.02740833 -0.036765307 4.2350597 -1.0919309 0.006562053 0.026882287
-0.4848925 -1.754182 0.078749985 -0.016893517 0.009757177 -0.011453879 -0.025805218 -0.21175885
-6.0076303 -3.189154 -0.0077665527 0.01019064 -3.3009942 -1.2434274 0.011284063 -0.04101248
0.80031073 -0.8803748 0.022391189 0.02224158 -3.20038 2.851478 -0.021369793 -0.012097466
0.0020916995 -0.0039159004 -0.18963377 0.08230664 -0.34721318 1.0702817 -0.013960328 -0.0108173005
0.010622833 0.010717541 -0.013663677 0.030951424 -3.0124004 -3.3393931 0.013964058 -0.00087179244
-0.003550407 -0.0015795917 0.031270236 -0.16555822 -6.5534854 0.97474945 -0.0028731746 0.014840531
00000000: cd14 513c 7e57 39bd 68c8 3c3c a220 433b
00000010: e23d af40 9d67 4fc0 93a2 2bbb 6ba7 33bc
00000020: 9ee1 8ec0 ce65 9440 5e49 103c d4ff d13b
00000030: 45d5 9f3b e68a 4f3d 25c5 763b 854e 47ba
00000040: 1337 10c0 d936 c440 01e2 413c 4f4f 083b
00000050: c08c 5a3a 61ce 1fbc 2ee0 fb3d 7cae 083e
00000060: 4818 cf40 5efb d23f 8e6c 983b fe42 1ebc
00000070: 221b e9bf 7d6f 8140 22dc a6bc 9893 90bb
00000080: 9681 42bc 43db 0d3c 3d7a 353e d759 0e3e
00000090: 6643 fabe 9c8d 91be c539 3dbc 46d9 863c
000000a0: 9a5a 6ac0 1d89 f1be 0579 89b9 7023 cfbc
000000b0: 9280 a540 7f87 2c3f 0132 8a3b 323a 893c
000000c0: 724b cb3b 4185 733b e3e3 993d 9b45 35be
000000d0: 68f0 e53e 72d1 d3c0 883a 49bc 123c 033b
000000e0: 31dc acbb 55e0 6abd 7790 03bb 7504 bdba
000000f0: 15f7 3e3d 3aca 9d3d af5d 403c 4489 b7ba
00000100: d3a2 a340 fc4c 9840 576c e03b e8a2 18bc
00000110: 6ce8 923c fa56 743c cc01 e8bc 8e3f 483d
00000120: 05e0 cabe 8b9c d8c0 77a8 34bc 90ea 053b
00000130: 78d5 6e3c 3ff4 c0bb 41ec 45be fc6b 99bd
00000140: abc6 50be 91e0 513e 6ac2 b4be 4796 aebe
00000150: af6a 5340 e844 bdc0 8864 47bc 5000 04bc
00000160: 3bf0 923f 8833 02be e12a 5ebb eaee 143d
00000170: a484 aa3f 815e d0c0 7ab1 49bc 4cf7 933b
00000180: 44f5 fc39 9ffd cb3a 3692 b83d e3f7 3bbe
00000190: c538 a03a aa19 373b fa96 14be f7b3 d9bd
000001a0: aa7e 1cbf a70f febf f2cd 0a3e 9da4 9abc
000001b0: 1155 ed3b 3069 84bd 7be4 07bc 42ce b8ba
000001c0: a42c 6cbe 1203 69c0 7e74 083d 7a50 40b9
000001d0: 2afa 083f 8145 86c0 3243 cc3c 0a48 ee3b
000001e0: 441b 453c 3e53 cc3a a516 273e 031b 6bbd
000001f0: 34ea 82bf fc18 81c0 e9c1 993c aae1 8e3b
00000200: f05e a6c0 e285 8340 62be 0a3c a4e2 263c
00000210: c0fd 953b e86a d93b ab10 983d 4e2c 703c
00000220: 172e 73c0 d6a3 a740 14cc 4e3c f9c7 95bb
00000230: 2941 693f 9e3c 6ac0 80cf f33d 8ece 933d
00000240: 35c1 bfbf 9227 5440 ef8a dabc b527 2cbc
00000250: d60f cbbb e7a4 483b c7f5 08bd b18b eabd
00000260: 0e62 3c40 5f0c bd40 8d2e dc3b 0036 0cbb
00000270: a16e c83b 2094 033a e87e 3d3d 0af3 2d3e
00000280: dcb0 8cc0 ba9b a7c0 7e1a f1bb a9a1 493c
00000290: 3899 c940 7b73 03c0 80c3 cfbb 6f91 5dbc
000002a0: 0751 073c 4e56 91bb aa21 ffbd 52be 27be
000002b0: 75a9 00be 48fb 7cbf 7f8c 0a3c 0524 13bc
000002c0: 86f2 843a 0d15 953b dedc df38 a5ea 493c
000002d0: 3e27 1c3d aad5 ad3d c45c 0d3c 394f 8eba
000002e0: 427a 0abc c85b 323c 416c 3f3d 65f8 493e
000002f0: 905e b03b 39f2 83bc 52ca d33a 6211 8e3a
00000300: b0d7 cbbe d6d6 a5be a8fa 68bc 3c03 4a3c
00000310: 121b 183b 6525 8ebb 55a2 033e e933 e8bd
00000320: 37f1 52bf b8cd 483f 6f87 e0bc 3897 16bd
00000330: 9c85 8740 64c4 8bbf 7e06 d73b 3e38 dc3c
00000340: d443 f8be 0989 e0bf ac47 a13d 4664 8abc
00000350: 91dc 1f3c 0da9 3bbc 7765 d3bc 50d7 58be
00000360: 823e c0c0 191b 4cc0 917e febb a4f6 263c
00000370: 7d43 53c0 a128 9fbf cae0 383c b4fc 27bd
00000380: 2ae1 4c3f 3e60 61bf ba6d b73c f933 b63c
00000390: 07d3 4cc0 9e7e 3640 b40f afbc 7334 46bc
000003a0: e514 093b f450 80bb 5b2f 42be 6290 a83d
000003b0: edc5 b1be fefe 883f dcb9 64bc 0c3b 31bc
000003c0: 640b 2e3c a098 2f3c 9ddd 5fbc d78d fd3c
000003d0: 2bcb 40c0 9eb8 55c0 81c9 643c 0089 64ba
000003e0: f2ad 68bb 4d0a cfba 3815 003d 1888 29be
000003f0: 27b6 d1c0 2e89 793f df4b 3cbb b325 733c

bias f4 [100]
-0.011045583 0.011722432 0.013224886 -0.002028288 0.013463586 0.015812436 0.014247671 0.008302932
0.18731236 -1.1082006 0.002343857 0.009493693 0.14037715 0.012788275 0.008074793 -0.009946483
0.012180802 0.006314117 0.01351326 0.17588992 -2.375437 0.01192778 -0.5670849 0.013514621
-0.122744925 0.05861173 -0.10807361 0.019191522 0.032693636 0.016735686 0.05519154 0.016715249
0.012616704 -0.010402499 0.013251933 -0.0013864907 0.014879642 0.011073028 0.01315836 0.022984382
0.014025124 0.009863221 0.15911995 -0.5358087 0.00054048415 -0.0053528636 0.14434737 0.0023769406
0.015505702 0.009803259 -0.6046378 0.01684498 0.6335268 0.1703237 0.008809515 0.0063441196
-0.6064472 0.010153563 0.15281035 -0.61678207 -0.012039987 0.008455491 0.005523991 0.012702069
0.013085808 -0.15838212 -1.9672838 0.011069272 0.00052626454 -0.0068265134 0.006938276 0.0024187057
0.016916245 0.0831887 -0.019742033 0.015161287 0.006559869 -2.2417433 -0.6829748 -0.005562438
-0.085086375 -0.009084622 -1.469476 0.014901152 0.015870286 0.012377434 0.015236367 0.01350633
0.0029873597 -0.02845623 -0.53815 0.01308736 -0.5288938 0.009842539 0.020551795 -1.5922676
-1.4881923 0.0043294826 0.013516047 -0.001573677
00000000: 88f8 34bc 720f 403c 31ad 583c 07ed 04bb
00000010: 5f96 5c3c 1589 813c 106f 693c 0509 083c
00000020: d0ce 3f3e 84d9 8dbf 659b 193b 6f8b 1b3c
00000030: 07bf 0f3e ea85 513c 234c 043c 93f6 22bc
00000040: fd91 473c a7e6 ce3b b866 5d3c 7d1c 343e
00000050: 2907 18c0 bc6c 433c 7a2c 11bf 6e6c 5d3c
00000060: b161 fbbd da12 703d b255 ddbd 8a37 9d3c
00000070: c3e9 053d 4719 893c 8610 623d 6bee 883c
00000080: 4bb6 4e3c 3e6f 2abc a31e 593c e8ba b5ba
00000090: bec9 733c a56b 353c 2996 573c be49 bc3c
000000a0: a2c9 653c 5999 213c 57f0 223e c22a 09bf
000000b0: 47af 0d3a 1367 afbb cccf 133e 72c6 1b3b
000000c0: a10b 7e3c d99d 203c 8bc9 1abf 7cfe 893c
000000d0: d02e 223f 5669 2e3e c955 103c 55e2 cf3b
000000e0: 2040 1bbf 215b 263c 517a 1c3e 6ee5 1dbf
000000f0: 5e43 45bc e688 0a3c 9802 b53b 571c 503c
00000100: db65 563c ec2e 22be f5cf fbbf e45b 353c
00000110: 04f5 093a f2b0 dfbb 7a5a e33b 2683 1e3b
00000120: f093 8a3c d65e aa3d 0bba a1bc 0c67 783c
00000130: 2bf4 d63b b978 0fc0 70d7 2ebf 1d45 b6bb
00000140: c441 aebd abd7 14bc ca17 bcbf f623 743c
00000150: 6702 823c b9ca 4a3c f4a1 793c a749 5d3c
00000160: 94c7 433b 0a1d e9bc 33c4 09bf 5e6c 563c
00000170: 9665 07bf 9a42 213c 3d5c a83c 6dcf cbbf
00000180: 167d bebf 55de 8d3b 6972 5d3c d643 ceba

weight f4 [100, 100]
-0.2937013 -0.23481409 -0.14635669 -0.9932389 -0.83432597 0.024765518 -1.0119629 -0.24903782
-0.0801398 -0.29663047 -0.17450492 0.5175105 -0.22092892 -0.9944302 -0.25527382 -0.36739114
-0.20405878 -0.51699764 -0.46136358 -0.7317632 -0.18414304 -0.3508249 -0.0718098 -0.62438977
-0.23539343 0.19017126 0.7819842 -1.0001186 -0.30357113 0.57636476 -0.13350537 0.16864169
0.1284468 -0.8276275 -0.62240225 -0.44029883 -0.14602023 -0.67107373 -1.2221508 -0.22853316
-0.3172211 -0.12698604 0.10565397 -0.3986733 -0.38642493 -0.9877091 0.6060467 -0.93879676
-1.1378973 0.1581733 0.09795495 -0.48214823 -0.27430546 -0.07910124 -0.67822266 -0.33387485
-0.6006585 -0.62058526 -0.14678344 0.08649574 -0.61393005 0.37988588 0.15968329 -0.5157131
-0.32436493 -0.123922266 0.445503 -0.39543858 -0.632102 -0.55842483 -0.096261814 -0.3125391
-0.3458233 -0.17335851 0.1587738 -0.19930309 0.11355487 0.5484381 -0.032408405 -0.32115933
-0.10562461 -0.06500434 0.6516218 -0.20678125 -0.37353054 -0.58925086 -0.5589815 -0.7238226
0.12547573 -0.21823101 -0.6919882 -0.3311951 0.054529488 -0.6575595 -0.6938429 1.0998007
0.5960921 -0.56587154 -0.5766424 0.19661933 -1.4740057 0.18545619 0.684326 -1.3626835
-0.12034278 -1.450713 0.589488 -0.16026261 -1.2306521 0.5606707 -0.2803901 0.11121546
-1.7243228 -0.48758084 -1.4307058 -1.4079556 -0.07783841 -2.0664475 0.117176875 -0.8657455
1.974288 0.044450883 1.2511425 0.13665555 -1.1807063 -1.3043469 0.3134274 -1.3906823
0.2538816 0.1404142 -1.5831691 -0.034737986 0.5290157 -1.5690914 -0.7759424 0.42680562
-0.6196715 -0.44549114 -0.13037679 -0.35747498 -0.11342327 -0.37997162 -1.4412185 -0.20004317
-1.8197631 -1.6541396 -0.24192339 -1.958854 -1.7150204 -1.0521722 0.73264253 -0.75910646
0.47200733 -0.77160114 0.41733402 -0.06044237 0.19594966 -0.57947946 -1.568456 0.5710447
-1.9429821 -0.51880664 -1.6872194 -0.21152432 -0.23590064 -1.02889 1.5364621 0.12547287
-1.2264254 -1.2478533 -1.7811242 -2.002133 0.18094847 -1.1251873 -0.4719007 -0.4101018
0.046588868 1.3478425 0.9583186 -1.7124481 -1.1073453 -1.0003546 1.4785337 -0.25934675
-0.12671083 -0.12282146 -1.5329405 0.14255133 0.11542826 -1.7685795 1.1228188 0.33426324
-0.008125334 0.2040616 -1.95287 1.3794725 1.5481553 -0.45647296 -0.2029086 -0.18138091
-0.32596064 -0.5119929 -0.19196165 -0.5374176 -0.6419149 -0.3656432 0.4171601 -0.45725876
0.13838801 0.18166648 -0.31267422 -1.019712 -0.061252475 -0.3679552 -0.28036222 -0.088131905
-0.462757 -0.5757838 0.16420688 0.5245817 0.18004039 -0.35468015 0.3716365 -0.15687048
0.039030448 -0.24825667 0.50062233 -0.3330522 -0.2835895 -0.5431989 0.16242631 -0.11157306
-0.112101495 -0.7232785 -0.56887877 0.2918738 -0.63408744 -0.5045434 -0.16039239 0.24907406
-0.37065664 -0.8061865 -0.22899818 0.15018535 -0.20984031 -1.803909 0.343059 -1.022524
0.0043186373 0.92002004 -0.13244627 -0.5919029 0.7330888 0.09077416 0.099183984 0.25524852
00000000: 0460 96be 1b73 70be 87de 15be e844 7ebf
00000010: 6396 55bf 0ee1 ca3c 0088 81bf c503 7fbe
00000020: 5620 a4bd f3df 97be 6bb1 32be 917b 043f
00000030: 313b 62be fa92 7ebf 40b3 82be b11a bcbe
00000040: c9f4 50be f559 04bf d937 ecbe d554 3bbf
00000050: fe8f 3cbe 529f b3be 0411 93bd 02d8 1fbf
00000060: fa0a 71be 41bc 423e 1e30 483f e303 80bf
00000070: ad6d 9bbe a48c 133f a2b5 08be 68b0 2c3e
00000080: 8f87 033e 65df 53bf c155 1fbf d96e e1be
00000090: 5486 15be 7dcb 2bbf 706f 9cbf 9904 6abe
000000a0: ce6a a2be a108 02be 1c61 d83d e81e ccbe
000000b0: 7dd9 c5be 81da 7cbf e025 1b3f fc54 70bf
000000c0: 9ea6 91bf 2ef8 213e 9b9c c83d 22dc f6be
000000d0: c471 8cbe d5ff a1bd 00a0 2dbf a5f1 aabe
000000e0: c1c4 19bf adde 1ebf 664e 16be ae24 b13d
000000f0: 852a 1dbf 6780 c23e 0484 233e c605 04bf
00000100: 2913 a6be f5ca fdbd f818 e43e ed76 cabe
00000110: 70d1 21bf eef4 0ebf ea24 c5bd 2005 a0be
00000120: c00f b1be e584 31be 9995 223e 1c16 4cbe
00000130: 758f e83d 7066 0c3f adbe 04bd ff6e a4be
00000140: b751 d8bd ff20 85bd b0d0 263f 77be 53be
00000150: 653f bfbe 25d9 16bf 6919 0fbf 704c 39bf
00000160: b67c 003e f377 5fbe 2426 31bf 6792 a9be
00000170: 505a 5f3d d255 28bf b09f 31bf 45c6 8c3f
00000180: 7e99 183f f5dc 10bf d69e 13bf 9456 493e
00000190: 38ac bcbf 3ae8 3d3e fd2f 2f3f 6a6c aebf
000001a0: 4776 f6bd f7b0 b9bf b0e8 163f e21b 24be
000001b0: 0286 9dbf 1d88 0f3f 4b8f 8fbe eec4 e33d
000001c0: 9cb6 dcbf 32a4 f9be 5e21 b7bf e437 b4bf
000001d0: bf69 9fbd ad40 04c0 6efa ef3d 7fa1 5dbf
000001e0: 78b5 fc3f 2112 363d 7025 a03f 6fef 0b3e
000001f0: 6221 97bf d7f4 a6bf 8e79 a03e e101 b2bf
00000200: c5fc 813e bdc8 0f3e 49a5 cabf 6b49 0ebd
00000210: 936d 073f fdd7 c8bf 29a4 46bf 4486 da3e
00000220: cba2 1ebf 6a17 e4be 7e81 05be f606 b7be
00000230: 764a e8bd a48b c2be d979 b8bf 1ed8 4cbe
00000240: ffed e8bf d9ba d3bf c4ba 77be babb fabf
00000250: ca85 dbbf 94ad 86bf 768e 3b3f cd54 42bf
00000260: f2aa f13e a787 45bf ceac d53e 6b92 77bd
00000270: 07a7 483e c458 14bf 2bc3 c8bf fc2f 123f
00000280: a3b3 f8bf 83d0 04bf cef6 d7bf d599 58be
00000290: f08f 71be abb2 83bf caaa c43f f67b 003e
000002a0: 82fb 9cbf a8b9 9fbf e1fb e3bf f222 00c0
000002b0: 8e4a 393e 2306 90bf f89c f1be ddf8 d1be
000002c0: f8d3 3e3d 1a86 ac3f 5e54 753f 8031 dbbf
000002d0: 7ebd 8dbf 9f0b 80bf 9840 bd3f 19c9 84be
000002e0: 7cc0 01be d189 fbbd 6537 c4bf faf8 113e
000002f0: a765 ec3d d060 e2bf 87b8 8f3f 8d24 ab3e
00000300: 1f20 05bc 86f5 503e a5f7 f9bf 8e92 b03f
00000310: f429 c63f d3b6 e9be 46c7 4fbe ebbb 39be
00000320: 50e4 a6be f711 03bf 9891 44be 3394 09bf
00000330: 8954 24bf 9635 bbbe 0296 d53e d21d eabe
00000340: 96b5 0d3e c706 3a3e d616 a0be ec85 82bf
00000350: e0e3 7abd a064 bcbe a38b 8fbe 807e b4bd
00000360: 7cee ecbe 9166 13bf d925 283e fc4a 063f
00000370: 825c 383e a398 b5be 2447 be3e a8a2 20be
00000380: 64de 1f3d ff36 7ebe c928 003f d185 aabe
00000390: a532 91be 150f 0bbf 1553 263e 6b80 e4bd
000003a0: 7895 e5bd c828 39bf 0aa2 11bf 7c70 953e
000003b0: 8e53 22bf c229 01bf e73d 24be 450d 7f3e
000003c0: b5c6 bdbe 3d62 4ebf 807e 6abe 30ca 193e
000003d0: 61e0 56be 7de6 e6bf 6ea5 af3e 11e2 82bf
000003e0: 5b83 8d3b 6f86 6b3f ff9f 07be f386 17bf
000003f0: b5ab 3b3f cee7 b93d f920 cb3d efaf 823e

bias f4 [100]
-0.9737785 -2.3962858 -1.3328202 -1.9750814 -0.44806334 -0.32995933 -2.0584054 -1.4126862
-1.0881755 -1.9379331 -2.1275911 -0.67336196 -1.3840835 -2.3420942 -0.94231105 0.55580294
-0.88919556 -2.3996508 -2.2264926 -2.5846977 -2.172534 -3.142942 -2.086561 -1.1848204
-0.6768312 -1.5716819 -1.4406656 -0.88721883 -1.035368 -1.981666 -1.1126366 -1.405058
-0.6253305 -2.071177 -0.6324454 -1.837635 0.9822931 -2.5507858 -1.7248151 -0.56087
-2.606884 -2.2771387 -0.6345407 -2.5916164 11.850186 -2.1934588 -1.0371981 -0.86488914
-1.6111486 -2.2599354 -0.7036989 0.104563706 -0.605991 -0.9799417 -1.0877279 -2.181524
-0.10066444 -2.1727796 -0.7558785 -1.0129501 0.101559326 -0.32596448 -0.8664793 -0.35503536
-2.249988 -2.5119765 -1.3722637 -0.058432445 -0.48585325 -0.66019315 -2.4543684 -0.07274796
-1.007277 -1.001918 -2.4016628 -3.1183858 -2.1760876 -2.1416628 -2.2514493 -2.6243372
-1.4958545 0.07229793 -1.9867333 -2.284113 -1.3070925 -0.909764 -2.9808335 -1.0782954
-1.6818376 -2.1090405 -1.7084261 -1.759983 -2.2972767 -2.3574495 -2.6578283 -1.0321031
1.236708 -1.6012349 -2.429945 -1.2844652
00000000: 8c49 79bf bf5c 19c0 da99 aabf 78cf fcbf
00000010: 8f68 e5be 6ef0 a8be eabc 03c0 e7d2 b4bf
00000020: 5649 8bbf 310e f8bf 742a 08c0 7361 2cbf
00000030: a629 b1bf dfe4 15c0 4c3b 71bf 1a49 0e3f
00000040: 52a2 63bf e193 19c0 db7e 0ec0 b06b 25c0
00000050: cc0a 0bc0 f625 49c0 378a 05c0 32a8 97bf
00000060: cf44 2dbf df2c c9bf bb67 b8bf c620 63bf
00000070: f086 84bf 3ba7 fdbf e06a 8ebf f1d8 b3bf
00000080: a915 20bf 2a8e 04c0 f1e7 21bf a037 ebbf
00000090: 9077 7b3f 1340 23c0 bec6 dcbf 2d95 0fbf
000000a0: 30d7 26c0 a4bc 11c0 4271 22bf 0bdd 25c0
000000b0: 5d9a 3d41 a161 0cc0 e8c2 84bf 6069 5dbf
000000c0: 1e3a cebf c8a2 10c0 9c25 34bf 7f25 d63d
000000d0: 3a22 1bbf 76dd 7abf ab3a 8bbf 179e 0bc0
000000e0: 2829 cebd d20e 0bc0 4181 41bf 59a8 81bf
000000f0: 56fe cf3d d1e4 a6be 96d1 5dbf 32c7 b5be
00000100: ceff 0fc0 39c4 20c0 56a6 afbf dc56 6fbd
00000110: c2c1 f8be 6b02 29bf 5f14 1dc0 e2fc 94bd
00000120: 74ee 80bf d93e 80bf d8b4 19c0 a293 47c0
00000130: 0545 0bc0 0111 09c0 bf17 10c0 24f5 27c0
00000140: 2978 bfbf f010 943d 474d febf e82e 12c0
00000150: cf4e a7bf 4be6 68bf fac5 3ec0 9505 8abf
00000160: 7446 d7bf 85fa 06c0 b5ad dabf 1f47 e1bf
00000170: 9506 13c0 74e0 16c0 dc19 2ac0 f41b 84bf
00000180: 734c 9e3f 44f5 ccbf 3884 1bc0 5b69 a4bf

weight f4 [1, 100]
-0.2122682 0.18447998 -0.18536943 0.15490925 0.28666544 -0.5401141 0.1501379 -0.0898744
0.1615716 0.15233332 0.22563583 -0.14807156 0.09291995 0.19305924 0.406993 0.57788414
0.38607007 0.08948919 0.1717089 0.17966165 0.16962408 0.033206653 0.44537786 0.6183062
0.39974847 -0.18681194 0.18203154 -0.18754919 0.3865818 -0.056298014 0.299639 0.3742333
0.48934186 0.17075264 0.5759992 0.14897998 -0.2868815 0.16068445 0.16580556 0.279242
0.17179818 0.17740418 -0.3067679 0.23092556 -0.76159 0.24012667 0.21758917 0.3696481
-0.047381047 0.22430733 0.12940735 0.1603104 -0.29890773 0.33285758 -0.21779431 0.1844455
0.06503924 0.20643799 -0.16281034 0.051890694 0.637228 0.6307785 0.2873968 0.26340166
0.1671287 0.060560636 0.36602998 0.30966476 0.4161582 0.27462906 0.19413958 0.13095918
0.27569088 -0.06644654 0.17502066 0.024111291 0.09107327 0.11444302 0.07983407 0.2040747
-0.09566701 0.2498992 0.16914152 0.19915852 0.20663507 0.4526669 0.18809621 -0.2820976
-0.090500355 0.22541833 -0.06784078 0.10057941 0.16162224 0.20028803 0.16265707 0.3545982
-0.6320188 -0.112776995 0.19897576 -0.07304499
00000000: d65c 59be 52e8 3c3e 7cd1 3dbe 88a0 1e3e
00000010: d0c5 923e eb44 0abf c0bd 193e 1210 b8bd
00000020: 0773 253e 44fd 1b3e 140d 673e 12a0 17be
00000030: d14c be3d 52b1 453e 6361 d03e 37f0 133f
00000040: faaa c53e 1c46 b73d 75d4 2f3e 39f9 373e
00000050: efb1 2d3e b303 083d 9108 e43e 5149 1e3f
00000060: d5ab cc3e a14b 3fbe 7a66 3a3e e50c 40be
00000070: 0dee c53e bf98 66bd 486a 993e 829b bf3e
00000080: 048b fa3e c8d9 2e3e af74 133f 358e 183e
00000090: 22e2 92be 778a 243e efc8 293e cff8 8e3e
000000a0: ddeb 2f3e 71a9 353e af10 9dbe c077 6c3e
000000b0: 90f7 42bf c4e3 753e b2cf 5e3e 8442 bd3e
000000c0: a112 42bd d2b0 653e 5c83 043e 6928 243e
000000d0: 6f0a 99be 4f6c aa3e 7905 5fbe 48df 3c3e
000000e0: 4b33 853d 7b64 533e c1b7 26be 568b 543d
000000f0: 6021 233f b37a 213f ac25 933e 95dc 863e
00000100: c923 2b3e 6e0e 783d 4868 bb3e 618c 9e3e
00000110: b012 d53e 2e9c 8c3e 87cc 463e 2a1a 063e
00000120: 5b27 8d3e 2015 88bd 9e38 333e 0b85 c53c
00000130: 9f84 ba3d 1a61 ea3d 0b80 a33d f5f8 503e
00000140: 11ed c3bd 93e5 7f3e 6f33 2d3e 36f0 4b3e
00000150: 2598 533e f5c3 e73e 4b9c 403e 196f 90be
00000160: 4058 b9bd 10d4 663e 1bf0 8abd 94fc cd3d
00000170: 4d80 253e 4e18 4d3e 938f 263e e58d b53e
00000180: fccb 21bf a0f7 e6bd 4dc0 4b3e 9d98 95bd

S f4 [4, 4]
0.0 0.0 1.0 0.0 0.0 0.0 0.0 1.0
-1.0 0.0 0.0 0.0 0.0 -1.0 0.0 0.0
00000000: 0000 0000 0000 0000 0000 803f 0000 0000
00000010: 0000 0000 0000 0000 0000 0000 0000 803f
00000020: 0000 80bf 0000 0000 0000 0000 0000 0000
00000030: 0000 0000 0000 80bf 0000 0000 0000 0000
