Models/DoublePendulumExternalForce/DoublePendulumExternalForce_midpoint_50epoch_PAU()_Softplus(beta=1.0, threshold=20.0)_batchsize_64_shape_torch.Size([549500, 4]).pt (torch, 119600 bytes, 14 tensors)

N f4 [1, 2]
000000 2d 84 ca bd 0d d9 7a bd
       -0.09888492 -0.061242152

numerator f4 [6]
000000 54 eb cb 3b 76 39 09 3f 29 09 20 3f 22 72 2a be
       0.0062231217 0.53603303 0.6251398 -0.166451
000010 0a 78 0b bf 3c 78 9d bd
       -0.5448004 -0.076889485

denominator f4 [4]
000000 eb bc 9a bf c8 13 49 3f 5a 39 92 bf 3c 5b 19 bf
       -1.2088903 0.7854581 -1.1423752 -0.5990484

weight f4 [100, 1]
000000 b0 5c 30 3f 56 d7 65 bf dd 2e 94 3e 57 32 e4 b9
       0.6889143 -0.897817 0.28942004 -0.00043525055
000010 b0 79 7a ba 14 44 85 3e cc c5 a8 39 c6 5c 23 bf
       -0.0009554876 0.26028502 0.00032190827 -0.63813436
000020 9c 23 99 bf 28 43 88 be bc 4e 11 bf ba fc 82 bf
       -1.1963992 -0.26613736 -0.56760764 -1.0233376
000030 00 30 53 bf 9f 8b fb be 7b b7 f3 3e b8 b7 6b ba
       -0.8249512 -0.4912996 0.47600922 -0.0008991915
000040 68 33 90 3e 1b 42 89 3e 56 18 83 bf 9c d3 6e bf
       0.2816422 0.26808247 -1.0241802 -0.9329164
000050 b3 02 53 3f ea d0 67 bf aa 36 4a bf 72 1d 97 3e
       0.82425994 -0.9055315 -0.7898966 0.29514652
000060 52 1a 61 3f f5 72 15 bc cd a2 96 be 41 5f 9f 3e
       0.87930787 -0.009121646 -0.29421082 0.3112736
000070 e8 00 92 3f 82 2c 80 3e ed cd a8 3a db 79 86 3f
       1.1406527 0.25033957 0.0012878753 1.0505937
000080 56 d7 c1 3f 7b 9d 69 bf e0 e7 cb 3f a8 72 9a be
       1.514384 -0.9125592 1.5930138 -0.301656
000090 25 8a 40 bf 9d 82 74 bf 45 e9 a5 3e 0c 50 17 bf
       -0.7521079 -0.955118 0.32404533 -0.59106517
0000a0 60 b0 de 3f d1 e4 92 3e 97 36 be 3e ac 9c 8d 3f
       1.7397575 0.28690198 0.37151024 1.1063437
0000b0 aa c7 ea 39 4d e9 32 ba 62 d1 7c 3a 2e 06 8e 3a
       0.0004478072 -0.00068249257 0.00096442376 0.0010835582
0000c0 e7 86 0b 3a dc df b3 b9 46 53 65 bf 97 10 55 ba
       0.0005322531 -0.0003430833 -0.8958019 -0.0008127777
0000d0 f0 40 87 3b c9 0f 8d 3b 69 b0 9a 3e cd 99 a2 bd
       0.004127614 0.0043048603 0.30212715 -0.079394914
0000e0 74 84 6a bd a2 4b a4 b8 52 c0 8c bf 94 7c a4 3f
       -0.057255223 -7.834217e-05 -1.0996192 1.2850518
0000f0 d7 0d af b9 f0 8b ba 3f dc 83 85 bf 5f ea 9b ba
       -0.00033388913 1.4573956 -1.0430865 -0.001189541
000100 e6 1e 64 3e 15 8d 9d be af c4 64 3d e6 2b 83 3b
       0.22277412 -0.307717 0.055851635 0.004003036
000110 7d 22 89 38 18 bc c9 3f 5b a7 26 bf 18 89 85 bf
       6.539093e-05 1.5760527 -0.65099114 -1.0432463
000120 1a b8 3a bf 06 8e 21 bf 84 99 17 3f 70 3c 8a bd
       -0.72937167 -0.63107336 0.5921862 -0.06749809
000130 e1 fc 8d bf b8 6a 83 bf 51 a5 9a 3f 96 df 09 ba
       -1.1092798 -1.0266943 1.20817 -0.0005259452
000140 eb 57 93 bf 51 0c 3b 3f 4e e9 b8 be 18 a5 81 39
       -1.1511205 0.7306567 -0.36115497 0.00024727802
000150 23 3b 95 3f ae 9a 82 3e 6a e6 6b bf 79 bb 1e bf
       1.1658672 0.25508636 -0.9214846 -0.6200481
000160 8c c9 65 3b c5 1f 98 bf 32 69 79 bf 33 7a ce 3f
       0.0035062758 -1.1884695 -0.9742614 1.6131042
000170 39 63 75 3e d4 b2 2c 3f 5d 37 8b 3e 76 13 1c ba
       0.23963632 0.6746037 0.27190676 -0.00059538276
000180 23 c4 c4 ba 19 03 05 bf f3 80 e3 bd 67 53 44 bf
       -0.0015012067 -0.5195785 -0.111085795 -0.7668976

bias f4 [100]
000000 f5 0a 23 bf e7 a2 43 3d a3 62 d2 be 84 bc 34 bc
       -0.63688594 0.047762778 -0.4109088 -0.011031274
000010 75 f7 34 bc 2f 86 9b be f3 cd 44 bc 40 4c 13 3f
       -0.0110453265 -0.3037581 -0.012011993 0.57538223
000020 a7 80 34 3f c1 a7 bb 3f 03 c6 60 3f b1 91 5f 3f
       0.7050881 1.466057 0.8780214 0.8733168
000030 5f 55 09 3f 1b c1 7b 3e 86 a5 ba bf c2 c6 35 bc
       0.5364589 0.24585383 -1.4581764 -0.011094751
000040 d0 4c c5 be 67 ab aa be cc de 56 bf 8b 53 53 be
       -0.38535166 -0.33333895 -0.8393371 -0.20637338
000050 dc f0 56 bf 19 00 7d 3f ef 89 57 3f 8e 8a e5 be
       -0.8396127 0.98828274 0.84194845 -0.4483227
000060 b5 3d 7f 3e 46 c6 2a 3f 98 23 c6 3e b2 4e 04 bf
       0.24925883 0.6670879 0.3869903 -0.5168258
000070 ad 03 06 3e 16 71 79 be c5 0d 97 3f b7 1c 73 be
       0.1308734 -0.24359545 1.1801077 -0.23741423
000080 c4 9e 63 bf ba e8 ce be 81 e8 3a bf bf 9e f9 3e
       -0.8891413 -0.4041193 -0.7301102 0.48753926
000090 52 ae c5 3c 50 94 8e 3e dd 46 56 3f d3 d5 17 be
       0.024130974 0.27847528 0.8370188 -0.14827661
0000a0 b0 6d 8d be 3e 7a 52 3f 8a 7a 09 3f de 0b 0f 3e
       -0.27622747 0.82217777 0.53702605 0.1396937
0000b0 a1 3d 97 3f d7 c8 2d bc 64 51 97 3f ba 6c 97 3f
       1.1815683 -0.010606966 1.1821713 1.1830056
0000c0 89 23 1f 3f d4 c7 49 bf 61 1b 84 3e b8 67 32 bc
       0.621636 -0.7882054 0.25802138 -0.010888986
0000d0 39 33 36 bc 70 47 97 3f c2 4e 50 3f fe c2 bf be
       -0.011120611 1.1818676 0.81370175 -0.37453455
0000e0 31 df 02 bf 50 b0 2b bc 1e 37 83 bf e4 53 a7 3d
       -0.51121813 -0.010479048 -1.0251195 0.08170298
0000f0 97 ef 1f 3f e0 15 a5 be 6e 3c b5 3e c6 02 33 bc
       0.6247496 -0.32243252 0.35397667 -0.010925954
000100 36 1b 41 3f 56 3b fc 3e 4f f8 70 3f 01 11 96 3f
       0.75432146 0.4926402 0.9412889 1.1723939
000110 5d 8b ac be d6 f3 53 bf 72 3b 69 3f 96 5d e0 3e
       -0.33700076 -0.8279394 0.9110633 0.438214
000120 ea 6e 79 3f 32 c8 29 3f b7 09 ca 3e 8c 4e e0 be
       0.97434866 0.663211 0.39460537 -0.43809927
000130 a9 33 18 be 60 b7 53 3f ea a2 62 3d a9 df 31 bc
       -0.14863457 0.82701683 0.05533115 -0.010856547
000140 ec 9f f5 3d 9c 23 ab 3e 95 fb f2 3f 91 ff 2d bc
       0.11993393 0.33425605 1.8983027 -0.010620014
000150 9a 90 97 3d d7 97 6a be 86 e5 4f bf c0 dc 30 3f
       0.074006274 -0.22909485 -0.812096 0.6908684
000160 9e 17 3e bc 1a 69 86 bf 28 77 82 3f 82 d8 ec be
       -0.01160231 -1.0500824 1.0192614 -0.46258932
000170 80 6a 7d be 9f d3 07 3e f8 1b b3 be 65 06 2c bc
       -0.24747658 0.13264321 -0.34982276 -0.010499571
000180 f5 24 30 bc 8b 91 8c be d5 e5 9a 3f 79 dc 84 3f
       -0.010750999 -0.2745479 1.2101389 1.0379783

weight f4 [100, 100]
000000 66 eb fd 3e 9c 53 97 3e d1 8e bb 3f 7f c8 ae ba
       0.49593657 0.29555976 1.4652959 -0.0013334899
000010 07 0f 89 3a 9f 9f 42 3f f3 a5 3b 3a ba 48 21 3e
       0.0010456749 0.7602481 0.0007158212 0.15750399
000020 f2 a9 14 3f 20 25 23 3f 17 e7 81 3f 3d da 0b bd
       0.58071816 0.63728523 1.0148648 -0.034143675
000030 9c 8a 94 3e d5 f4 61 3f d5 3d b7 3f cd b5 af 3a
       0.29012 0.8826421 1.4315745 0.0013405621
000040 5b cb 9e 3f b8 9c 11 3f bd 8d 1a 3f 7e 55 6a 3e
       1.2405809 0.5687976 0.60372525 0.22884175
000050 9f dc de 3e 37 0f 0a 3f c0 b8 c5 3d dc dc ae 3f
       0.43527696 0.53929466 0.09654379 1.3661151
000060 40 ad 23 bf 53 d9 5d be 20 cd 62 bf 2a 35 cf 3f
       -0.63936234 -0.21664934 -0.88594246 1.6188099
000070 0b d0 00 bf 53 ed 97 3e 45 15 ae 3a 0f 05 25 bf
       -0.5031745 0.29673252 0.0013281485 -0.64460844
000080 ad 78 47 bd 24 e0 08 3e ab 53 db 3c 3e e3 82 bf
       -0.04869907 0.13366753 0.026773294 -1.0225599
000090 b9 c2 44 3e 92 4d e9 3e ec 72 62 be ef ac 5f 3f
       0.19214906 0.45566994 -0.22114152 0.8737325
0000a0 bc e6 00 bf 02 91 a8 be e2 98 1e bf f4 23 0e bf
       -0.5035207 -0.32923132 -0.6195203 -0.5552361
0000b0 bd 2b 13 3c 0a 48 e0 3a 24 5e 2c bc a6 a0 8e bc
       0.008982596 0.0017111313 -0.010520492 -0.017410588
0000c0 cb e3 d6 be 60 5b ca 3e 6d c6 1f 3f a8 28 95 3a
       -0.41970667 0.3952284 0.6241215 0.0011379914
0000d0 2e b8 8e bc 6b 28 55 bc 67 26 35 be 73 76 aa 3e
       -0.017421808 -0.013010125 -0.1769043 0.33293495
0000e0 8d 13 9b 3e ac d4 b3 ba 35 59 c5 3d 7b 7c 17 bf
       0.30288354 -0.0013719997 0.096361555 -0.5917432
0000f0 8a e2 bf be ab a5 06 bf 20 17 12 3e 8b 2a a0 3b
       -0.37477523 -0.5259654 0.14266634 0.004887884
000100 1d ee 70 be cf 24 5d bf f0 55 83 be 82 e3 42 be
       -0.23528333 -0.8638429 -0.25651503 -0.190321
000110 0b 23 b3 3e 24 fd 82 bb fa 75 81 3e 0c 6c fc 3d
       0.34987673 -0.003997462 0.2528532 0.12325296
000120 0e 2c 02 bd 59 e0 39 3f 34 84 18 bf 43 70 c0 3e
       -0.031780295 0.7260795 -0.59576726 0.3758565
000130 ae 10 2c 3f 0b 8b ba 3e ad 06 03 bf a9 2b 87 3b
       0.6721295 0.36434206 -0.5118206 0.0041250777
000140 a9 fd 3e 3e 64 41 45 bf 0a dd 9f 3f ce 18 c5 39
       0.18651451 -0.77052903 1.2489331 0.0003759325
000150 0f 6d fb be b7 18 9c be 8f 8a 12 3f c8 c4 0d 3f
       -0.49106643 -0.30487606 0.57242674 0.5537839
000160 45 ac aa bc 16 ee a4 3e 4c 57 fd 3e b9 76 64 be
       -0.020834098 0.32212895 0.49480665 -0.22310914
000170 a2 48 14 3f c7 0d 0a bf 74 8b 99 3f 5e 07 3b 3c
       0.5792333 -0.5392727 1.1995683 0.011415331
000180 5d 9b eb 3b 80 2e 78 3e 4c 6e ca 3d f8 84 17 3f
       0.0071901516 0.24236488 0.09884319 0.5918727
000190 ec 57 b3 3f f2 f0 c4 3e de 11 8f 3f 9e 25 cb 3d
       1.4011207 0.38465077 1.1177328 0.09919284
0001a0 d9 fa 00 3b 4e 5d 10 3f 49 67 95 3d 97 39 18 3f
       0.0019680767 0.5639237 0.07295091 0.59462875
0001b0 e3 7b 20 3d fa 70 1a 3f 71 d0 61 3e 48 39 38 be
       0.039180648 0.6032864 0.2205217 -0.17990601
0001c0 31 07 3e 3e 0a c1 dd 3e d4 f4 9c 3f b7 aa 9f 3d
       0.18557431 0.4331134 1.2262216 0.07796233
0001d0 cb 71 98 3f f4 41 ff 3e 22 3e e5 3d 65 2e fa 3e
       1.1909727 0.49855006 0.111934915 0.4886352
0001e0 c5 bf a9 3f 00 03 3b bd 1c d9 2e be c7 71 9e 3f
       1.3261648 -0.045657158 -0.17075008 1.2378472
0001f0 ed 3a 00 bf 04 f0 8f bf 18 2a 77 bf 4c e2 a8 3f
       -0.50089914 -1.1245122 -0.96548605 1.319406
000200 85 22 af be 97 8c 27 3e af 2d eb bd 61 cf ad be
       -0.34206024 0.16362225 -0.11483323 -0.3394728
000210 91 d6 45 3f 8c 23 d8 3e c0 79 02 3f d6 48 9c bf
       0.7728053 0.4221462 0.50967026 -1.2209728
000220 ea 2c 61 3f 84 2a 9f 3e b9 07 00 bd 1e dc 71 3f
       0.8795916 0.31087124 -0.031257365 0.944765
000230 0d 5a 94 be e6 52 30 bd 27 58 6a bf 92 6f c8 be
       -0.28974953 -0.043047808 -0.9154076 -0.3914762
000240 b5 92 c9 bd f9 b2 43 3c 62 64 8a be c4 76 21 be
       -0.09842435 0.011944526 -0.2702971 -0.15767962
000250 9c d2 93 bf 27 ea 77 3f ab 8c 18 3f 4a 60 84 bb
       -1.1548648 0.96841663 0.5958964 -0.004039799
000260 ba a8 c1 3e 49 73 10 bf c9 f7 00 be b7 33 6a 3f
       0.3782404 -0.5642591 -0.12594523 0.9148516
000270 3f a5 59 3f 7f db a0 be 58 73 2c 3f e4 7b b5 be
       0.8501777 -0.31417462 0.673635 -0.35446084
000280 9f 5b 9c bf a4 24 f4 bd 23 8d f6 3d 63 3b da bb
       -1.221546 -0.11921051 0.120386384 -0.0066599115
000290 71 ac 08 bf 6a 04 a3 bf bc 97 4f bf 3a 0c 3d bf
       -0.53388125 -1.2735722 -0.81090903 -0.7384678
0002a0 ef c6 78 3f 1a fc 32 3f c2 aa 0f bf af f8 04 bd
       0.9717855 0.69915926 -0.5611993 -0.032463726
0002b0 a5 c2 76 3e fe b1 c9 3e 50 2d 29 bf 5c 61 68 3f
       0.24097688 0.3939361 -0.66084766 0.9077356
0002c0 9c bd d4 3e ea b6 37 bd cf f4 4d be 38 3d 16 3d
       0.4155091 -0.044852175 -0.20112918 0.036679476
0002d0 9c 6e f3 3e 91 1f 46 bf f7 eb a4 3f 18 39 af bd
       0.47545326 -0.77391917 1.2884511 -0.08555812
0002e0 be 18 ac be ab f2 88 bc d5 c6 84 3e a3 20 bf 3e
       -0.33612627 -0.016717276 0.25932947 0.37329587
0002f0 a4 ca 91 3e 4f 38 a2 3f 71 9f 2e bc 68 7b 74 bc
       0.28474915 1.2673434 -0.010658131 -0.0149220005
000300 d8 d9 7b 3e 8d 39 04 bf 72 31 64 3f 80 7c a3 3d
       0.2459482 -0.51650316 0.8913795 0.07982731
000310 8f 64 69 3b 06 0f 9f 3f 20 38 08 bf 1f 0b ca bd
       0.0035612916 1.242646 -0.5321064 -0.098654024
000320 82 47 9d 3f c5 aa b1 3e 10 9e 61 3f 85 be 8b 3d
       1.2287447 0.347006 0.8813181 0.06823448
000330 86 14 6f 3c 09 4b e7 3e 30 d8 e5 3d db 80 b9 3e
       0.0145922955 0.45174435 0.11222875 0.3623112
000340 1b 0d 9c be 7c f9 d8 3e 69 59 04 3e 72 cb 3a be
       -0.3047875 0.4237784 0.12924732 -0.1824167
000350 2b 47 5f 3e af c7 e2 3e 2f 6f 6d 3f 4e 58 b5 bd
       0.21804492 0.44292971 0.9274778 -0.088547334
000360 9c ed 70 3f 6b 48 a5 3e 74 96 4e 3f 8b e2 48 3f
       0.94112563 0.32281813 0.80698323 0.7847068
000370 f7 c2 89 3f df dd cf be 61 ef dd be 3c 3a 85 3f
       1.0762624 -0.40598962 -0.43346694 1.0408397
000380 94 fd 02 bf ea c2 43 bf 69 b0 37 bf 23 e8 6b 3f
       -0.5116818 -0.7646929 -0.71753556 0.9215109
000390 8c 8a ac be c6 53 28 3c 96 47 90 bd 62 80 3d be
       -0.33699453 0.010273879 -0.07044904 -0.18506005
0003a0 e1 b0 9c 3f 63 2a 3f 3f e2 9f 89 3f 83 04 40 bf
       1.2241479 0.7467405 1.0751917 -0.75006884
0003b0 79 cc 8c 3f 90 1e 28 3f f1 8c 71 bd c6 27 11 3f
       1.09999 0.65671635 -0.058972303 0.56701314
0003c0 c2 27 04 be 13 0c ad bd af 35 52 bf 6e c4 bb be
       -0.12905791 -0.084495686 -0.82113165 -0.366733
0003d0 4e dd 96 3d 42 7f 4f 3c 3e 0a 78 bd 2d 41 b9 3a
       0.07366429 0.012664618 -0.060556643 0.0014133804
0003e0 ab 94 83 bf 0d 06 7e 3f a9 97 ff 3e ce 62 53 3d
       -1.0279745 0.9922798 0.49920395 0.0516079
0003f0 98 9b 0b 3f 53 29 28 bf 51 dd 23 be 88 11 82 3f
       0.5453429 -0.65688056 -0.16002394 1.01616

bias f4 [100]
000000 83 cd c3 be fd f4 a7 bf ed b1 bb bf 12 71 07 be
       -0.3824273 -1.312164 -1.4663674 -0.13226727
000010 1e 17 48 be 33 43 48 bf 55 b5 d1 bf 39 3a 85 bf
       -0.19540069 -0.7822754 -1.6383463 -1.0408393
000020 27 73 65 be 9f 21 c5 bf 85 83 9f bf 05 7d e4 3e
       -0.22407208 -1.5400885 -1.2462012 0.44626632
000030 74 75 c0 bf 4b 87 d8 be 0c 37 a4 bf e9 e2 22 be
       -1.5035844 -0.4229072 -1.2829299 -0.15906872
000040 5d 5c 54 be ae 7b 10 3e 26 f2 84 bf 48 97 c4 bf
       -0.20738359 0.1410968 -1.0386398 -1.5358667
000050 d8 5c 94 bf da 07 a2 bf dd 42 ea be c6 f0 85 bf
       -1.1590834 -1.2658646 -0.45754138 -1.0464103
000060 e4 9b 52 be 6c d0 d1 be 50 35 d8 bf f1 87 80 bf
       -0.2056728 -0.40979326 -1.689127 -1.0041486
000070 cf 63 c8 bf 9e 83 c1 bf b7 80 8b 3e 46 6e b7 bf
       -1.5655459 -1.5118291 0.2724664 -1.4330528
000080 ae d6 b1 bf 9b 3b b8 bf 42 f0 a7 bf e7 3a b7 bf
       -1.389364 -1.439319 -1.3120196 -1.431485
000090 54 5c e3 bf b1 fd 30 bf 85 9b b1 bf 9c 09 cb bf
       -1.7762551 -0.691371 -1.3875586 -1.5862308
0000a0 15 1c 5e bf cd 80 b0 be 0c 07 b2 be 47 77 95 bf
       -0.867616 -0.34473267 -0.34771 -1.1677026
0000b0 c0 be 35 3d f4 6a 23 bf cc db 98 bf 7a 18 8a bf
       0.044371367 -0.6383507 -1.1942077 -1.078872
0000c0 d6 01 b7 bf d6 29 c4 bf 9e 6b b2 bf a9 e2 bc bf
       -1.4297435 -1.5325267 -1.3939092 -1.4756671
0000d0 8b f3 d8 bf 24 74 be bf f0 cf 75 bf 33 36 89 bf
       -1.6949323 -1.4879193 -0.9602041 -1.0719665
0000e0 fa 19 30 be 31 c1 02 c0 88 45 48 bf 35 32 ae be
       -0.1719741 -2.0430415 -0.78231096 -0.3402268
0000f0 32 5c cb bd df 72 9d bf 7f c8 9d bf fb fa f2 3b
       -0.09929694 -1.2300681 -1.2326812 0.007415173
000100 c0 d7 1a bf 24 91 d8 bf 1e 29 a3 bf 7e c3 d5 bf
       -0.6048546 -1.6919293 -1.2746923 -1.6700284
000110 42 14 3a bf 4e c5 ad bf f1 a6 64 be de 35 bc bf
       -0.7268716 -1.3575838 -0.22329308 -1.4703939
000120 54 f7 fb be 9b 0a ca bf b1 b1 06 c0 27 37 8a bf
       -0.49212134 -1.5784487 -2.1045954 -1.0798081
000130 db fd 94 bf 8e b7 aa bf 4c f5 f0 bf d1 84 b6 bf
       -1.163997 -1.3337266 -1.8824859 -1.4259282
000140 75 72 72 bf 41 d4 d5 bf 6b 6c dc be 76 63 cc bf
       -0.947059 -1.67054 -0.43051466 -1.5967853
000150 3b 7e b7 bf d8 e2 d8 bf 2b 7a e8 bf a8 88 cc bf
       -1.4335397 -1.6944227 -1.8162283 -1.5979204
000160 92 e7 92 bf 94 97 1a bf da eb 7b bf 87 48 f6 bf
       -1.147692 -0.6038754 -0.98406756 -1.9240884
000170 e0 b6 9a bf 21 85 9b be ea 9d bd bf dd c9 8d bf
       -1.2087059 -0.30375007 -1.4813817 -1.1077229
000180 c8 ae a8 bf bf 34 98 bf c8 9d 7e bf 66 bd e6 bf
       -1.3178339 -1.1891097 -0.99459505 -1.802655

weight f4 [2, 100]
000000 26 aa 8f be c1 4f 00 3e 5b 4e 60 be f9 c8 96 be
       -0.280595 0.12530424 -0.2190489 -0.29450205
000010 56 55 1e bd 18 1b 45 3e e1 c4 bd 3d 66 44 52 3e
       -0.0386556 0.19248617 0.09266067 0.20533904
000020 15 7b 3e 3e 56 9f 3b be 06 3f 68 be ee cf 19 3e
       0.1860164 -0.183225 -0.22680292 0.15020725
000030 38 1a bc 3d 29 c9 85 3e 24 ff d4 3c e6 61 98 bd
       0.09184688 0.26130036 0.026000567 -0.07440548
000040 f5 dc 7a 3e c7 76 ee bd a5 7d 82 3d 91 c1 4a be
       0.24498351 -0.11643749 0.06371621 -0.19800402
000050 fe 8d a5 3e 5b 71 95 3e 72 a8 52 be 00 e6 10 3e
       0.32334894 0.29188046 -0.2057207 0.14150238
000060 23 a5 a8 3e db cb 75 bd ef dc cc 3d c9 97 50 3e
       0.3293849 -0.060008865 0.10003077 0.20370401
000070 fb ee 8d bd 29 c5 e0 3d 04 1b ab bc 15 50 c7 bd
       -0.069303475 0.10975105 -0.020886905 -0.09732071
000080 4a d0 4d be 27 8d 59 be f2 69 a8 3e 8b 49 c7 bd
       -0.20098987 -0.21245252 0.3289333 -0.09730824
000090 7c 5c 38 bd 87 b1 2f be 04 67 bb 3e 36 c0 2c 3b
       -0.045010075 -0.17157565 0.36602032 0.0026359684
0000a0 dd ac 70 3e 91 de b3 3e da ff 6f 3e 71 15 77 be
       0.23503442 0.35130742 0.23437443 -0.24129273
0000b0 b8 7b 7b be df 9b ad 3d 4a 7b 6b 3d e4 ac b9 3d
       -0.24558914 0.08476996 0.057490624 0.090661794
0000c0 8a 1e 75 be 61 4a 04 be 78 3d 51 be bd c4 58 be
       -0.23937431 -0.12918998 -0.20433605 -0.211688
0000d0 2f d2 64 3d 73 dc c8 3d 56 04 7e bd d2 52 4b 3d
       0.05586451 0.09807672 -0.062015854 0.04963953
0000e0 cd d8 98 3d 1b 58 56 3d 02 c9 0e 3e c6 0c d3 be
       0.074632265 0.052330118 0.13943866 -0.41220683
0000f0 eb 8d ab 3e f6 ae 7e be ae 57 6d be 27 3b 44 3d
       0.33506712 -0.2487143 -0.23177978 0.047907975
000100 e6 6c a0 3d 43 eb 38 be dd 66 3f be b0 15 9f 3d
       0.07833271 -0.18058495 -0.18691583 0.077678084
000110 b8 1a 45 3b 22 45 85 3d dd 60 b8 3e 0e 10 30 3d
       0.003007574 0.06507327 0.360114 0.04298406
000120 c0 b5 8b be 17 23 fc bd 32 2e ff 3d cd 8f 6d be
       -0.27287102 -0.1231138 0.12459983 -0.23199387
000130 a6 3f 82 be d0 02 4b be 43 e5 1e 3e d8 74 47 be
       -0.25439185 -0.19825292 0.15517144 -0.19478166
000140 2a c6 97 bd 21 9c 48 be f0 e2 00 bd eb ea 5d bd
       -0.07410844 -0.19590808 -0.031466424 -0.054179113
000150 d2 09 05 3e bb 90 36 be ff 63 15 be 82 b8 47 be
       0.12992027 -0.17828648 -0.14588927 -0.19503978
000160 2e 32 80 be dd 7c ed be 64 c6 79 be 6c d0 ec bd
       -0.25038284 -0.46384326 -0.24392086 -0.11563191
000170 ae 30 41 be 2a 44 11 3d 91 b7 07 be 1e 2d 8b be
       -0.18866226 0.035465397 -0.13253619 -0.2718286
000180 4a 88 25 be a1 1d 75 be 32 7a 4b bc 36 de c3 3d
       -0.16165271 -0.23937084 -0.01241927 0.09563868
000190 88 16 a7 be cd 67 cc bc 36 46 38 be 7a 48 93 be
       -0.32634377 -0.02495184 -0.17995533 -0.28766233
0001a0 f4 d0 d3 3d f8 00 c0 3c 3c 5d 83 bd 04 4f 17 3e
       0.10342589 0.023437962 -0.064142674 0.14776236
0001b0 0c 2d 60 be 8f ee f1 bd 35 2a 63 be 6b 7f 25 bc
       -0.21892184 -0.118130796 -0.2218407 -0.01010118
0001c0 de 33 d1 bd 00 51 ea 3c 4e 7b 05 be 7e 17 8b bd
       -0.10214971 0.028603077 -0.13035318 -0.0679159
0001d0 92 94 be 3d c3 12 5d bd 47 5c e1 3d 2d a8 11 be
       0.09305681 -0.05397297 0.11003929 -0.1422431
0001e0 21 c2 b6 bc 6b 65 e5 bc 1a 9e 89 be 1f f6 90 3b
       -0.022309365 -0.028002461 -0.26878434 0.004423871
0001f0 99 40 38 3e 4e c3 6a 3b 28 7f b4 bd 53 95 a8 3d
       0.17993392 0.0035821977 -0.08813316 0.08231606
000200 75 2c 65 be d2 7d 97 bc 02 62 be 3d 4c a0 5b be
       -0.2238024 -0.018492613 0.09296037 -0.21447867
000210 a8 01 67 be e2 d5 63 be 0f b4 33 3d 4f 6e f3 bd
       -0.22559226 -0.22249559 0.04387289 -0.11886274
000220 cd 46 6a be ec d6 27 3d 31 0f 0a 3e 9e ce 4d 3e
       -0.22878571 0.04097645 0.13482358 0.2009835
000230 c0 e9 27 3e 69 49 48 3e 88 39 d2 3d 8f 09 82 be
       0.16397762 0.19559254 0.102648795 -0.25397918
000240 81 84 38 bc 8f d2 9a bd 09 e0 84 be e0 a5 0e be
       -0.01126206 -0.07559692 -0.25952175 -0.13930464
000250 53 dc 68 be 81 4e 18 3e 35 86 c2 bd ca f5 47 be
       -0.22740297 0.14873697 -0.09498254 -0.19527355
000260 13 2c 5a 3e 3c 6b ef 3c f0 d8 95 be ee 58 9f bc
       0.21305875 0.029225938 -0.29267073 -0.019451585
000270 32 db ad 3e b0 a3 e9 bd 48 b8 08 3c 4a 97 17 3d
       0.33956295 -0.11408174 0.008344717 0.037009515
000280 99 c2 79 3e e5 6b 66 be 26 12 8c be 2a 26 33 be
       0.2439064 -0.22502096 -0.27357596 -0.17495027
000290 3d 28 eb bd 8d a6 bc bd 70 c1 bc bd 2d 1a 8d b9
       -0.11482284 -0.092114545 -0.09216583 -0.00026913118
0002a0 c0 f0 a4 3e 0d f1 54 be db e3 78 be 8e a0 07 be
       0.32214928 -0.20795079 -0.2430567 -0.1324484
0002b0 72 41 bb bd f9 f7 44 be 5d 93 f3 3d 8e f8 8a be
       -0.09143342 -0.19235219 0.11893342 -0.27142757
0002c0 15 95 7e be d9 d2 62 be 1a 62 be 3d af db 5e be
       -0.24861558 -0.22150744 0.09296055 -0.2176349
0002d0 2d f4 0b 3e ea 5c 2f be 3a bd ae 3e a5 7e 3f be
       0.13667364 -0.17125288 0.34128743 -0.18700655
0002e0 d9 1f 8f 3d c7 37 f6 bd 2a b1 63 bd a1 7a 1d be
       0.06988496 -0.120223574 -0.05558888 -0.1537881
0002f0 72 65 18 be 24 de 25 bd 42 2f 87 be 54 54 b4 bd
       -0.14882448 -0.040495053 -0.26403242 -0.08805147
000300 b8 00 7e be 10 77 2a be 88 95 14 be 9d d9 63 be
       -0.24804962 -0.16646981 -0.14510167 -0.22250982
000310 90 c7 51 be 32 5d 6a be 6b 1b a0 3e 7f 2f a9 bd
       -0.20486283 -0.22887114 0.31270918 -0.08261012

weight f4 [100, 4]
000000 07 74 ca bb 4a 79 8b 3b 2e 99 89 ba 4d af 30 3c
       -0.0061783823 0.004256402 -0.0010497922 0.010783982
000010 f2 74 72 3f d0 5a 2a bf 34 4f cb bd fa e0 6d 3e
       0.94709694 -0.6654482 -0.09927216 0.23230353
000020 a0 b7 3c 3a 16 bb aa ba 24 2e 57 b8 15 9b 29 b9
       0.0007198993 -0.0013025727 -5.1302966e-05 -0.00016174869
000030 32 16 68 3f 66 1b 99 3e 94 60 ae bc 73 ef 5f 3d
       0.9065887 0.29903716 -0.021286286 0.054671716
000040 bb 3e 04 bf d9 b6 09 3f 10 ea ce 3e 11 98 20 bf
       -0.5165822 0.5379463 0.4041295 -0.62732035
000050 85 14 c8 bc 96 55 36 3e ca 08 13 bf 7c 66 c2 3e
       -0.024423847 0.17806086 -0.57435286 0.37968814
000060 b0 13 dd b6 58 1e 06 bb e4 15 4d b9 7a ad ae ba
       -6.588605e-06 -0.0020464864 -0.00019558478 -0.0013326847
000070 df c1 09 3a 87 da d2 b9 08 4f 87 3a 9e a1 80 3a
       0.00052550243 -0.00040217137 0.0010323236 0.0009813791
000080 25 7e 8c 39 62 59 a4 ba 40 ee d7 39 44 f8 f5 b9
       0.00026796866 -0.0012538845 0.00041185506 -0.00046915014
000090 15 a6 79 3e 07 c5 dd 3e 91 2a 30 be e2 ec b6 be
       0.24379762 0.43314382 -0.17203738 -0.35727602
0000a0 7f 18 02 3d c9 a0 cf 3b d6 a8 1b 3c c3 00 43 3d
       0.031761643 0.0063363058 0.009500703 0.04760815
0000b0 04 45 87 3d c8 b9 d4 3e 21 88 93 be ff a2 3a be
       0.066049606 0.4154799 -0.28814796 -0.1822624
0000c0 49 34 1d 3a b7 53 3a ba c3 a8 d6 b8 ed dd 6f 39
       0.0005996866 -0.00071078114 -0.000102357495 0.0002287549
0000d0 39 0a 61 3a 83 dd f3 b9 0b 91 82 37 9b 84 e8 3a
       0.0008584592 -0.0004651361 1.5564749e-05 0.0017739715
0000e0 b4 4b 44 bf 6d b5 22 be 69 9e a1 be c6 d9 bb 3e
       -0.76678014 -0.15889521 -0.3156617 0.36689585
0000f0 69 1b 92 3b 1e 22 55 bb ec d6 a4 3b 62 f2 b1 bb
       0.004458834 -0.0032521556 0.0050305035 -0.0054305056
000100 23 62 2f bd 8e 50 03 bd 99 bb 80 bd 92 dd a4 3d
       -0.0428182 -0.032059245 -0.062857814 0.08050074
000110 f6 63 05 3a 2d 35 d3 ba 80 47 76 39 30 96 6b ba
       0.00050884427 -0.001611387 0.00023487024 -0.0008986918
000120 9c 22 78 bb 15 cc 28 3f c3 1a d7 3d a9 80 60 be
       -0.0037862426 0.65936404 0.10503151 -0.2192408
000130 a7 39 d7 39 38 de 6a ba cd 99 04 3a 32 82 81 39
       0.0004105095 -0.0008959505 0.00050583185 0.000247018
000140 0f 55 04 be 40 40 b5 bc 04 07 20 be a3 ea 2e bf
       -0.12923072 -0.022125363 -0.15627676 -0.6832678
000150 7a 36 88 3a 52 dc 49 bb 14 2f 15 3a 7a 74 84 ba
       0.0010392212 -0.0030801487 0.0005690914 -0.0010105514
000160 e1 73 36 be c0 df 35 be 89 11 d2 be 94 8a a6 3e
       -0.17817642 -0.17761135 -0.41029003 0.32527602
000170 98 4e 15 3a 72 ac 26 ba 13 1c a2 39 85 7b 1e 3a
       0.00056956103 -0.0006358094 0.00030919965 0.00060456275
000180 ba e0 35 3a 8a 9e 70 ba 4b 0d a6 38 3d 72 21 3a
       0.0006938089 -0.00091788976 7.917973e-05 0.00061586854
000190 38 74 8d 3e 57 cc 02 bf 5a ea d9 3e fc 97 22 bf
       0.2762773 -0.5109305 0.4256161 -0.6351316
0001a0 b8 26 66 3a 54 cd 1f 3b 70 f6 de 39 4d 72 f3 39
       0.0008779573 0.002438386 0.0004252675 0.00046433732
0001b0 ce d6 42 3a c2 1e 5d ba 7f d1 df 39 f8 17 90 3a
       0.0007432521 -0.0008435064 0.0004268996 0.0010993471
0001c0 f2 80 0d 3b 92 dd 94 3a d5 86 95 b9 ef 56 2e 3a
       0.002159175 0.0011357537 -0.00028519952 0.00066505274
0001d0 3e 8f 20 bd fc 6c cd bd 16 33 a7 bd c8 c1 c0 be
       -0.039199106 -0.10030553 -0.08164041 -0.37647843
0001e0 8f 6b e6 3e 6b 22 9d be 61 a0 76 3e 7a 64 16 be
       0.45003936 -0.3069032 0.24084617 -0.14686766
0001f0 8e 2c 2a 3a 65 59 40 ba 6d c5 d2 39 ba b1 52 3a
       0.00064916245 -0.00073375396 0.00040201415 0.00080373476
000200 ab de 19 3a 49 4e 23 ba 86 e0 83 b8 a1 be 8b 39
       0.0005869667 -0.0006229622 -6.2883875e-05 0.00026654176
000210 22 dd 6e 3d db c4 61 3e 59 90 a2 be 4a 8c 29 3f
       0.058316357 0.2204775 -0.31750754 0.6622969
000220 51 e6 3a bc a3 2f 24 bd ca e5 b1 3e fa 8d ff 3e
       -0.011407451 -0.040084492 0.34745628 0.49913007
000230 f0 37 13 3a 54 02 0d ba 55 58 22 3a f3 42 c4 3a
       0.00056159403 -0.000537907 0.0006192972 0.0014973566
000240 36 9f 19 3a 1b 3f 9d ba 76 4d ea 39 fc c7 6b 3a
       0.0005860211 -0.0011996956 0.0004468967 0.00089943386
000250 28 50 1f 3f b5 bd 83 be 41 11 ff 3e c3 fc 24 bf
       0.62231684 -0.25730672 0.4981785 -0.64448184
000260 0b fe 85 b9 47 4c 08 3a 6d c6 11 39 65 c8 83 b9
       -0.00025557014 0.00051993545 0.00013902197 -0.00025135573
000270 c1 6c d4 be fd 99 ab 3e 2a 84 87 3d 96 4e fc 3e
       -0.41489223 0.3351592 0.06617005 0.49278706
000280 f0 61 0d 3f 70 40 19 bf 63 4b 3c bf 28 fa 59 3f
       0.55227566 -0.5986395 -0.7355253 0.85147333
000290 f4 b0 08 3f a2 d1 74 3e cf 46 89 3e 53 47 2d bd
       0.5339501 0.23908094 0.26811835 -0.04230435
0002a0 1a 40 42 39 3a bb ad ba 0a 14 c6 39 51 c4 6e ba
       0.00018525161 -0.001325465 0.00037780433 -0.0009108233
0002b0 0f 54 f7 3d 22 fe ab 3d 1a b1 87 be 2e 4d 20 bf
       0.1207658 0.08398081 -0.26502305 -0.62617767
0002c0 97 99 07 3a 95 ad 84 ba c5 a9 c0 39 e6 b5 d1 39
       0.0005172728 -0.0010122532 0.00036747582 0.0003999911
0002d0 5c 19 7c 3a a8 ba 79 ba 2e e9 87 b9 2c 5e a7 3a
       0.0009616816 -0.000952641 -0.0002592294 0.0012769154
0002e0 5b 9e 37 be a3 08 bd be 73 e9 09 be 7f 90 d0 3e
       -0.17931502 -0.36920652 -0.1346796 0.40735242
0002f0 cb 5e a4 3a f4 25 25 3a f7 f2 34 3b d9 93 f7 39
       0.0012540458 0.0006299906 0.0027610639 0.00047221666
000300 c4 2b 62 38 6b 6a c6 ba db f0 e5 39 06 41 04 bb
       5.392336e-05 -0.0015137916 0.00043857735 -0.0020180359
000310 03 ea 85 3f c8 b5 89 bf d6 83 a0 3d 5c 74 43 be
       1.046204 -1.07586 0.07837646 -0.19087356
000320 08 dc 1e bf 6d f9 73 3d 7f ab 4c 3e 0d 6c 87 be
       -0.6205449 0.059564043 0.19987296 -0.26449624
000330 e1 76 0d 3a 34 a3 90 ba cc 92 68 39 60 36 9f 39
       0.00053964375 -0.0011034966 0.0002217993 0.00030367356
000340 2f 22 21 3f 7d ea 2e 3f dd c0 78 3e ef ce 92 be
       0.62942785 0.6832655 0.24292322 -0.28673503
000350 e0 7e 36 3a d4 46 13 b9 de 04 29 3a 1b 8a 07 3b
       0.0006961655 -0.00014045398 0.00064475636 0.0020681683
000360 ea 84 12 bf a2 c1 1c 3f fc 9d e4 be 90 5a 1b 3f
       -0.5723406 0.6123296 -0.44651783 0.6068506
000370 a5 f7 27 3f f6 a6 fd bd 62 6a d1 be 09 32 14 3f
       0.6561225 -0.12385361 -0.40901476 0.5788885
000380 6b 13 13 3e 86 f5 ce bd fe 45 9d be 49 50 5f be
       0.14362876 -0.10105424 -0.30717462 -0.2180797
000390 ca c9 74 3a af a0 a9 ba f2 05 e9 37 46 74 bb 3a
       0.000933793 -0.0012941564 2.7778533e-05 0.001430162
0003a0 f3 ae 97 ba 80 68 64 35 a3 ae 27 ba cd b6 0f bb
       -0.0011572525 8.5088686e-07 -0.00063965673 -0.0021929026
0003b0 9b e8 0e bb 15 1d d2 ba 22 2c 8e b9 92 ed 68 3a
       -0.0021806124 -0.0016030396 -0.00027117232 0.00088854984
0003c0 14 a8 1d 3a bc 58 65 ba 98 23 23 3a 4b 95 e9 3a
       0.00060141203 -0.0008748879 0.00062232604 0.0017820982
0003d0 21 ae 57 bd db cb de bd ad 51 99 be e7 d5 a9 3e
       -0.052656297 -0.10878726 -0.29945126 0.33171007
0003e0 1a a0 6b 3a 6f f1 30 ba 8e 06 0d b8 ce ce 9b 3a
       0.00089883956 -0.00067498436 -3.3623124e-05 0.0011887194
0003f0 aa 44 37 3a 4c 8d 2d ba 35 0a 6f 39 91 51 63 3a
       0.0006991128 -0.0006620481 0.00022796619 0.0008671517

bias f4 [100]
000000 7e 39 21 3f 8e 6f 35 3f c0 15 4d bc 13 99 2c 3f
       0.6297835 0.70873344 -0.012517393 0.6742107
000010 8c fc 26 3f 71 30 29 3f e9 ff 56 bc 2e f9 4b bc
       0.65229106 0.6608954 -0.013122537 -0.012449546
000020 cd b3 52 bc bf d5 40 bf 44 0a 4d be 87 89 2e bf
       -0.012860251 -0.7532615 -0.20023447 -0.681786
000030 71 0c 4b bc 64 49 48 bc b0 7d 20 3f 88 db 1d 3f
       -0.012393103 -0.012224529 0.62691784 0.61663103
000040 8d 87 20 3f c9 b4 4c bc 7d 27 20 3f 81 9b 4f bc
       0.62706834 -0.012494274 0.62560254 -0.012671352
000050 ca 5e 20 3f 28 c3 4c bc be 98 e5 be 33 60 49 bc
       0.62644637 -0.012497701 -0.44843096 -0.012291002
000060 e6 97 49 bc 69 e5 2c 3f 4b 4d ac be 03 ab 49 bc
       -0.012304282 0.6753755 -0.3365272 -0.012308839
000070 82 b0 ab be b3 a1 00 bf af 08 0a 3f 3f 66 4e bc
       -0.33533102 -0.50246733 0.539195 -0.01259762
000080 81 28 4e bc e6 30 23 3f f5 32 23 3f 82 f0 4a bc
       -0.012582899 0.6374649 0.6374963 -0.012386443
000090 e6 22 4c bc f6 bb 2d 3f 59 46 1f 3f 20 69 1f 3f
       -0.012459492 0.6786493 0.62216717 0.62269783
0000a0 5e 9a 1d 3f 6c f1 da be 40 9d 58 bc 7b 0d 2c 3f
       0.6156367 -0.42762315 -0.013221085 0.6720807
0000b0 f4 b9 4f bc 0a e6 46 bc cd b3 f2 be b4 9d 1f 3f
       -0.012678612 -0.0121398065 -0.47402802 0.6235001
0000c0 6b bc 58 bc d4 e9 20 3f f1 2a 02 bf 7d 01 50 bc
       -0.013228516 0.62856793 -0.50846773 -0.012695667
0000d0 9c 22 30 bf 41 5c 49 bc bb 73 31 3f 04 e4 2e 3f
       -0.6880281 -0.012290061 0.69317216 0.68316674
0000e0 fb 97 16 bf ff 3f 4a bc 19 31 1f 3f d8 2b ac be
       -0.58825654 -0.012344359 0.6218429 -0.336272
0000f0 8b 27 4c bc 5c 2c 27 3f 7b 6d 48 bc 78 85 4a bc
       -0.0124606 0.6530206 -0.012233133 -0.012360923
000100 33 9b 2c 3f bb c9 e2 be 01 b2 46 bc c2 82 21 3f
       0.67424315 -0.44294533 -0.0121274 0.63090146
000110 5e 55 51 bc 9c 95 50 bc 5b c5 21 3f 81 06 49 bc
       -0.012776701 -0.012730982 0.63191766 -0.012269617
000120 99 d5 2c 3f a0 d1 1a bf 44 5e 2c 3f 24 bd 48 bc
       0.67513424 -0.6047611 0.6733134 -0.012252126
000130 26 fc d5 be da 6d 46 bc e2 94 28 bf 91 c5 5c bc
       -0.41793936 -0.012111152 -0.6585218 -0.013474838
000140 08 92 ef 3e d2 69 0c bf 85 8f 0f 3f 1f 83 22 be
       0.467911 -0.5484897 0.5607837 -0.15870331
000150 b5 c8 bc be 22 a2 4a bc 47 fc 1f 3f 32 68 4d bc
       -0.36871877 -0.012367757 0.6249432 -0.012537049
000160 71 0a 05 bf b6 e3 ab be 64 8a 1f 3f c2 d6 4e bc
       -0.5196906 -0.33572167 0.6232054 -0.012624444
000170 16 3f 46 bc 95 d7 06 bf 92 1e 26 3f 4f 03 0e 3f
       -0.012100002 -0.526727 0.64890397 0.554738
000180 6a 73 f1 3e 9a d8 41 bc 1c 7e 4c bc 62 00 4e bc
       0.47158366 -0.011831427 -0.012481239 -0.012573333

weight f4 [100, 100]
000000 3e 5c 85 bf 4f 4e 25 be b5 05 20 bf d2 01 4d bf
       -1.0418775 -0.16143154 -0.6250871 -0.800809
000010 d4 81 a7 be b7 20 a4 be 73 6c 03 bf 27 15 b4 be
       -0.32716238 -0.3205621 -0.51337355 -0.35172388
000020 d7 e8 0a bf 99 9a aa 3e 4d 01 83 3e a6 56 06 3f
       -0.54261535 0.33321074 0.2558693 0.52475965
000030 52 97 9c be 0b 00 dc be 9f 0a 05 bf d6 2a 57 bf
       -0.30584198 -0.42968783 -0.5196933 -0.8404974
000040 7f 40 74 bf 9f 9c 49 bf 3c 7f 14 bf 9b 41 8f be
       -0.95410913 -0.7875461 -0.58006644 -0.2797974
000050 1c f8 51 bf e9 47 29 bf 32 30 7f 3e ba 47 9e be
       -0.8201921 -0.6612535 0.24920729 -0.30914098
000060 1d 46 ec be 54 55 87 3e 67 69 bd 3e 6d 38 32 bf
       -0.46147242 0.26432288 0.36994478 -0.6961735
000070 8a 31 d6 3e 26 dc 0d 3f 1e 4f 3a be a4 97 19 bf
       0.4183467 0.55414045 -0.18194243 -0.5999701
000080 3c 60 89 bd 13 1e 2e bf bd f9 28 bf 91 a6 10 bf
       -0.067078084 -0.6801464 -0.6600607 -0.5650416
000090 af f2 11 bf 39 35 e7 3d 7f 56 8b bf 08 6e 40 bf
       -0.5701093 0.11289448 -1.0885772 -0.75167894
0000a0 00 ba 36 3e 38 13 d0 3e fa 7a 3f bd c5 6a 43 bf
       0.17844391 0.40639663 -0.04674814 -0.7633479
0000b0 6a 45 bb bd 60 1e c3 3d 7e eb 0d 3f 41 21 87 bf
       -0.09144099 0.09527278 0.5543746 -1.0557023
0000c0 01 b7 38 bf 2e 95 61 3b 9c bf 32 3f 8c 43 ea be
       -0.7215424 0.0034421193 0.6982362 -0.4575466
0000d0 0e 63 d9 3e 5f 2a 17 bf 26 f7 3b be 4d d7 29 be
       0.42458385 -0.5904903 -0.18355998 -0.16586037
0000e0 42 38 b0 3e 0e 8f 98 be 3d d1 57 bf c5 30 27 3f
       0.3441792 -0.29796642 -0.8430365 0.6530879
0000f0 42 9a 05 bf d2 b0 5d bf e1 20 bd be 0f 26 b0 bd
       -0.52188504 -0.8659793 -0.36939147 -0.08601009
000100 24 bd af 3d 79 1f ad 3e a5 c0 04 bf 34 0b 8a bd
       0.085809976 0.33813074 -0.5185645 -0.06740418
000110 02 f6 41 be af d6 49 3e 91 27 e6 be 3d 7f 08 be
       -0.18941501 0.19710802 -0.44952062 -0.13329788
000120 85 d4 68 bf 1d 86 95 3d 2c a5 94 be 0e eb ce bd
       -0.9094928 0.07300971 -0.29032266 -0.10103427
000130 41 44 ea 3e a4 a8 17 bf 46 1f 0e 3f 81 4e 23 bf
       0.457552 -0.592417 0.5551647 -0.6379166
000140 e5 bf 7e be 7c 54 8a 3e c9 2d 4c be 8a c3 87 3e
       -0.2487789 0.2701758 -0.1993934 0.26516372
000150 31 d3 ca 3e 7c 4c 1e bf 9e b3 97 bf 30 41 0f 3e
       0.3961425 -0.61835456 -1.185169 0.13989711
000160 bd c7 c3 3e 17 47 07 3f ab 38 5b bf 8e 54 16 bf
       0.38238326 0.5284285 -0.85633343 -0.5872277
000170 36 45 44 bf 91 4f 82 3e e1 fd bb be d4 eb ec be
       -0.7666811 0.2545133 -0.36717132 -0.46273673
000180 48 01 a9 be 96 51 1b bf 6b 3a 19 bf 29 bb 28 be
       -0.3300879 -0.60671365 -0.59854764 -0.16477646
000190 c1 47 92 bf 1f 9c 77 3c e6 6e 1c bc e6 1f 10 be
       -1.1428148 0.015112906 -0.009547925 -0.14074668
0001a0 fb 8f 79 be 89 7d 93 3c 61 40 c0 be 1d 7a b8 be
       -0.2437133 0.018004196 -0.37549117 -0.36030665
0001b0 8c 15 f7 be 6a 72 a0 3e ba fb 54 3d 2e 7a 9e 3e
       -0.48258626 0.3133729 0.051997878 0.3095259
0001c0 9d 89 2c 3e d5 3f 33 bd 4c db dc 3d 8b c2 7d bf
       0.1684937 -0.043762047 0.10784015 -0.99124974
0001d0 5b b7 63 bf 03 e7 cd be 78 9c c7 bd e9 3b 82 be
       -0.88951653 -0.4021531 -0.09746641 -0.25436333
0001e0 2e d3 ef bc 3f be 56 be ab d1 69 3d 2a 70 ca bc
       -0.029275503 -0.2097101 0.05708472 -0.024711687
0001f0 38 6f f3 3b cd e1 a2 3d eb 41 14 3f b4 e5 be be
       0.00742903 0.07953224 0.5791308 -0.37284625
000200 59 61 50 3f cb 09 09 3f 28 59 44 3d 5d 29 ac bc
       0.8139854 0.5353057 0.04793659 -0.021015817
000210 dc b6 af bd 04 0c 53 be fe 3a a7 3e 07 11 c2 bd
       -0.085797995 -0.20610052 0.32662195 -0.09475904
000220 10 2d b5 be 06 58 eb bc 1c fb 6b bf 34 fb 30 bd
       -0.35385942 -0.028728496 -0.9218004 -0.043208316
000230 97 3e ae bd ba 6f 6a 3e 85 6c 2e bc b4 df 68 be
       -0.08508032 0.22894183 -0.01064599 -0.22741586
000240 f6 ab 51 bd 27 cb 80 3e 05 7b 9c 3e 3f 90 4a bf
       -0.051189385 0.25154993 0.30562606 -0.7912635
000250 1b 47 6f be bd 1e a2 bb 8c df 19 3f 6d 08 de be
       -0.23366968 -0.004947512 0.6010673 -0.43365803
000260 87 0a a1 3e 91 18 c4 be 12 98 36 3d ab b6 c7 3e
       0.31453344 -0.38299993 0.04457862 0.39006552
000270 6b 21 e1 3e ac f9 2a be 3a c3 3d bf 16 26 e8 3e
       0.43970808 -0.16696805 -0.7412602 0.45341557
000280 09 52 e3 bd 37 b3 86 be 9e a7 e2 3c 49 f2 ce bc
       -0.11099631 -0.26308605 0.027667817 -0.025262015
000290 1e e2 98 3d 38 cf 70 3c bd be 78 be 7a cb 3b bd
       0.074650034 0.014697842 -0.24291511 -0.045848347
0002a0 8b 82 26 3e 4b 35 c4 3a 8d a3 6f bd 28 8b b1 bc
       0.16260736 0.0014969496 -0.058505584 -0.0216728
0002b0 c3 84 3c be fc a1 09 3e f4 9b a1 3e ac e2 0c 3c
       -0.1841002 0.13440698 0.31564295 0.008598965
0002c0 11 3b 0f 3e 0b 28 8a bd ec 85 81 3e 64 84 e8 be
       0.13987376 -0.06745919 0.25297487 -0.45413506
0002d0 82 b9 04 3d d9 1c 31 3e 2f 00 f0 3a 72 5c 2a bc
       0.032403477 0.17296161 0.0018310602 -0.010398017
0002e0 18 90 0d 3f fb 1d 00 bf 92 03 84 bf cc 2d ae 3e
       0.55297995 -0.50045747 -1.031359 0.34019315
0002f0 41 63 cf 3e 1e 1d b0 3e 17 9b 0b bf 94 ad aa be
       0.40505412 0.34397215 -0.54533523 -0.33335555
000300 cf 4d 1a bf bf 0b 19 3e cb ae 00 3e 49 b2 84 3e
       -0.60274976 0.14945887 0.12566678 0.2591727
000310 b8 76 cc bc c6 67 cf be 46 41 a8 be a6 1d 71 3e
       -0.024958953 -0.4050886 -0.328623 0.23546466
000320 cd b5 25 bf 9d 16 8a 3f 3f 39 25 3a b4 99 8d bd
       -0.6473053 1.0788151 0.0006302781 -0.06914082
000330 81 d0 08 3f a2 09 f5 bc ea 62 e5 39 ee e1 30 bb
       0.5344315 -0.02991182 0.0004375198 -0.0026990133
000340 09 cf 91 3c cf 34 c4 3e ab 62 6d 3e cb 80 86 bc
       0.017798917 0.3832154 0.2318217 -0.016418835
000350 1b f4 cf 3b d0 0a e3 3b 07 0c fa bc c9 fb d1 be
       0.0063462383 0.006928779 -0.030523313 -0.4101241
000360 eb 7d a8 be 10 a0 9b b7 58 c7 37 3e 55 b6 cb 3b
       -0.32908568 -1.8551975e-05 0.17947137 0.006216804
000370 0e cb 1f bc e0 14 11 bd e1 99 76 3f cc 7d 44 3c
       -0.009753002 -0.0354203 0.9632855 0.011992883
000380 0f fd 09 3c 16 18 00 c0 a3 d2 04 3f f7 ff 9f 3b
       0.00842215 -2.00147 0.51883906 0.0048828083
000390 0d 05 0e 3e 59 b0 2f 3e c7 3b b7 be 13 94 0a 3b
       0.13869114 0.17157115 -0.35787794 0.0021145388
0003a0 f1 7d c0 3b a5 7e 9b be be eb 9a 3d c2 57 82 3c
       0.0058743884 -0.3037006 0.075644955 0.015910987
0003b0 b5 7c c1 3b c8 02 ad bf 2d d6 51 be f4 aa 8f be
       0.005904759 -1.3516474 -0.20491858 -0.28060114
0003c0 9a 5f dd bd 52 7b db 3e cc dc 13 3c 00 e8 80 bd
       -0.1080925 0.42867523 0.00902481 -0.062942505
0003d0 c2 b0 0b 3c f4 7d 4a 3c bb e8 47 3f 7a 02 71 be
       0.008526029 0.012359131 0.78089494 -0.23536101
0003e0 c1 f5 8a 3b a0 35 e7 3d 31 95 3d 3f 27 a9 8e 3b
       0.004240722 0.11289525 0.74055773 0.0043536606
0003f0 01 54 2c 3f c0 68 44 3c c3 c4 89 bf e7 9a 0f 3e
       0.6731568 0.011987865 -1.0763172 0.14023934

bias f4 [100]
000000 e5 27 44 c0 da f6 58 c0 89 24 df be 66 b1 76 c0
       -3.064935 -3.3900666 -0.43582562 -3.8545775
000010 83 20 21 c0 d6 3e 77 c0 4f 30 53 c0 62 4a 80 c0
       -2.5176094 -3.8632102 -3.2998235 -4.00908
000020 d5 e8 1a c0 12 cb 2c bf 82 ee ad be 92 c9 1c c0
       -2.420461 -0.6749736 -0.3397103 -2.4498029
000030 7f 3f 7d bf 1f 94 81 c0 51 da 73 bf 00 7d 7d c0
       -0.9892501 -4.049331 -0.95255 -3.9607544
000040 ad f0 1b c0 84 5f f7 be 66 cc 63 bf 26 02 dc be
       -2.4365647 -0.4831506 -0.8898376 -0.4297039
000050 1e 3b 04 bf b9 dd 40 c0 e3 01 b9 bf d9 17 1a c0
       -0.51652706 -3.0135329 -1.4453701 -2.4077055
000060 e2 9c bc bf 23 62 69 c0 38 1a dc be 87 78 c7 be
       -1.4735377 -3.6466148 -0.42988753 -0.38959143
000070 d0 d2 11 c0 0b be 0e 3e 43 8f 30 c0 d2 74 6f c0
       -2.278492 0.13939683 -2.758744 -3.7415051
000080 a0 f4 69 c0 1e 62 ed be 83 16 6c c0 9b 7e 0c c0
       -3.6555557 -0.4636392 -3.688874 -2.1952274
000090 8b 48 d7 be 50 62 a0 bf 9c b4 bd be ec 80 11 bf
       -0.42047533 -1.2530003 -0.37051857 -0.56837344
0000a0 8e 47 95 bf 78 39 ee bf 58 ae 88 bd 42 12 1e c0
       -1.1662462 -1.8611288 -0.066738784 -2.4698644
0000b0 1f 20 04 c0 aa aa 10 bf 17 b0 7a c0 7a 12 1d c0
       -2.0644605 -0.5651041 -3.9169977 -2.4542527
0000c0 84 0f 78 c0 eb 46 ad bf a1 ac 13 c0 98 c4 17 c0
       -3.875947 -1.3537267 -2.3074114 -2.3713741
0000d0 05 63 ce bf 2e 90 78 bf 3c d6 c9 bf 90 9f f0 bf
       -1.6123968 -0.97095 -1.5768504 -1.8798695
0000e0 94 bc d9 be 08 11 24 c0 85 62 64 c0 09 68 7a c0
       -0.42526686 -2.5635395 -3.5685132 -3.9125998
0000f0 db ce 9b bf 4a 6b 4a c0 e9 51 22 c0 6e 74 16 c0
       -1.2172502 -3.1627984 -2.5362494 -2.3508563
000100 bd 19 37 3d 2e 22 b8 be 86 fa 22 bf 4f 10 a2 be
       0.04470228 -0.35963577 -0.6366352 -0.31653067
000110 28 22 37 bf a6 fc 53 c0 43 ea ed be f5 e9 80 c0
       -0.71536493 -3.3122954 -0.4646779 -4.028559
000120 2f 0c 15 c0 60 af 80 c0 8c ff 90 bf 01 7c 9c bf
       -2.3288686 -4.021408 -1.1327987 -1.2225343
000130 f5 d2 73 c0 97 ff 80 c0 0b 8a 4a bf 55 4f 97 bf
       -3.8097508 -4.0312 -0.79116887 -1.1821085
000140 45 8f b4 bd 54 3c 2d c0 81 39 27 c0 d3 02 25 c0
       -0.08816389 -2.7068071 -2.6128848 -2.5782974
000150 02 d2 0c c0 ef 4d 1d c0 5b a1 16 c0 33 53 d2 bf
       -2.2003179 -2.4578817 -2.3535984 -1.643164
000160 b6 c0 74 c0 89 d1 b9 be b7 f8 2e c0 67 1e e9 bf
       -3.8242621 -0.36292675 -2.7339303 -1.8212403
000170 d1 fa 75 c0 84 92 7a bf 83 69 a6 be a7 43 2c c0
       -3.8434336 -0.97879815 -0.32502374 -2.6916292
000180 48 80 2f c0 09 ba 25 c0 66 ff 74 c0 6e 90 1b c0
       -2.7422047 -2.5894797 -3.8280883 -2.4306903

weight f4 [1, 100]
000000 76 cf 3c 3d f1 9b 18 ba 09 ec 30 be 9b da 3a 3a
       0.046096288 -0.0005821577 -0.1727754 0.00071279117
000010 98 e7 06 3d 64 43 00 b9 29 64 8e 3a 3e 2f ae 39
       0.03293571 -0.00012232136 0.001086359 0.00033223064
000020 07 0f c3 3c dd 50 85 3e 63 ea aa 3e 4b d8 66 3d
       0.023810877 0.26038256 0.33381948 0.056358617
000030 96 24 b5 bd 41 f6 b0 3a 64 bc 4f be f7 2e ee b8
       -0.08844869 0.0013501124 -0.20286709 -0.00011357472
000040 e8 8c dc 3c 68 22 42 be 05 39 c5 3c ae 40 40 3e
       0.026922658 -0.18958437 0.02407504 0.18774673
000050 51 ba 47 be de 56 57 3d d3 d0 87 3d 2a 38 5a 3d
       -0.19504668 0.052573077 0.06631627 0.05327622
000060 b5 b2 b2 3c fe ec 8c 3a d5 3c 03 3e 59 35 4b be
       0.02181373 0.0010751782 0.12816174 -0.1984457
000070 58 28 3b 3d e4 ad 39 be d9 d2 32 3d 09 59 bf 39
       0.04569277 -0.1813274 0.04365811 0.00036496695
000080 0e b7 af 3a fa 0d 1f 3e e1 3c b6 3a b0 43 ca 3c
       0.0013405995 0.15532675 0.0013903641 0.024690479
000090 3d b2 4f 3e d4 35 f6 3c fb 4d 74 3e 8e 63 0d 3e
       0.20282836 0.030054964 0.23857872 0.13807508
0000a0 7e 3d 98 3c 7b e9 0e 3d c5 96 72 3e e3 bf c3 3c
       0.01858401 0.034890633 0.23690327 0.02389521
0000b0 32 62 a2 3b 8c 79 9f be 36 5a c9 b8 bf 94 5e 3c
       0.0049555534 -0.3114742 -9.60123e-05 0.0135852685
0000c0 06 6f 0a b9 aa 8f d6 bd 24 7d 0b 3b 49 a2 48 3d
       -0.00013202065 -0.104766205 0.0021284306 0.048982892
0000d0 8b 49 6b bd b9 b3 06 3d fb 85 0b 3d 75 46 97 3b
       -0.057443183 0.03288624 0.03406332 0.0046165534
0000e0 4d a9 07 3e 53 02 0a 3d 5d bd 9e 3b 57 2d e8 38
       0.13248177 0.033693623 0.004844351 0.00011071067
0000f0 da e1 a2 bc d2 2d 21 3d 2d 99 4a 3d 2d ae 79 3d
       -0.019883085 0.03935034 0.049462486 0.060957123
000100 24 f6 70 bd 03 91 89 3e 68 d7 56 bd e2 c8 29 3e
       -0.058828488 0.26868448 -0.05245152 0.16580537
000110 dc fe 57 be f6 70 2e 3d ce de b0 3d 00 1a 8f 39
       -0.21093315 0.042588197 0.086362466 0.00027294457
000120 aa ce b4 3c db 84 75 3b 62 fb 00 3d fc 4b 45 3d
       0.022071201 0.0037463221 0.031489737 0.048168167
000130 4e e3 3d 3a 66 3b de b9 b5 5c c5 3c 36 24 a9 bd
       0.0007243649 -0.00042387395 0.024092058 -0.0825886
000140 f7 f6 a6 3e 2d 8e 2d 3d 16 21 4c 3d 00 ad 25 3d
       0.32610294 0.042371918 0.04983624 0.04044819
000150 f7 2a c5 3b bf 8a b8 3c 2e b3 e0 3c f8 4e a2 bc
       0.0060170847 0.022527097 0.02742919 -0.019813046
000160 a2 45 80 3a 6e 35 a8 3e 52 f5 43 3d 25 78 d1 ba
       0.0009786377 0.32853264 0.047841378 -0.001598124
000170 9d 1c 8b ba 0d bf 2f 3d d2 b3 8b 3e 5a e9 42 3d
       -0.0010613386 0.04290681 0.2728563 0.047585823
000180 64 21 47 3d a0 10 cc 3c 6e 83 ee b9 18 a0 65 3d
       0.04861583 0.024910271 -0.0004549282 0.05606088

S f4 [4, 4]
000000 00 00 00 00 00 00 00 00 00 00 80 3f 00 00 00 00
       0.0 0.0 1.0 0.0
000010 00 00 00 00 00 00 00 00 00 00 00 00 00 00 80 3f
       0.0 0.0 0.0 1.0
000020 00 00 80 bf 00 00 00 00 00 00 00 00 00 00 00 00
       -1.0 0.0 0.0 0.0
000030 00 00 00 00 00 00 80 bf 00 00 00 00 00 00 00 00
       0.0 -1.0 0.0 0.0
