Models/DoublePendulum/DoublePendulum_midpoint_50epoch_Tanh()_Softplus(beta=1.0, threshold=20.0)_batchsize_64_shape_torch.Size([549500, 4]).pt (torch, 52019 bytes, 6 tensors)

weight f4 [100, 4]
-0.46163577 -0.08213615 -0.13589607 -0.12262102 -0.30317253 -0.16137876 0.41051245 -0.008688989
-0.0017038506 -0.0024469642 -2.0175243e-05 0.0016153519 -0.11273338 0.11427826 -0.050706033 -0.22480872
0.15504594 0.029235695 -0.16189662 -0.32962134 0.14977376 -0.7225174 0.3104449 -0.32656068
-0.14066659 -0.042241484 -0.12425145 0.05517698 -0.06819557 0.0258867 0.24003898 0.2739903
4.608663e-05 -0.06708254 0.026157884 -0.2366027 -0.062280238 0.06374369 -0.06319412 -0.019599179
0.035300728 0.047592293 0.155657 0.12375004 0.13934557 -0.11076471 0.0411068 0.24675457
0.45968363 0.087630995 0.19488952 0.1088215 -0.27503142 0.3842459 0.16074947 -0.31572697
-1.1446946 1.4457766 -0.39730194 0.3829935 -0.12321768 -0.6794476 -0.0136361625 0.023536004
-0.018636031 -0.039809685 0.022219623 -0.24089143 0.0424545 -0.2680253 -0.003849986 0.013187314
0.08115931 0.087782465 -0.072159804 -0.14916463 0.21834233 -0.04164304 0.17022039 -0.12704267
-0.12759146 0.2129951 0.098653756 -0.27772436 -0.004231945 0.14604963 0.3521513 0.08219792
0.00034658215 0.0014432201 0.00093705766 -0.001260695 -0.042874813 -0.21243967 0.12813771 -0.18234877
0.10387278 0.7160166 0.013029514 -0.16890337 0.22458336 0.14798637 0.17334771 -0.0022464164
-0.68584 -0.04062604 -0.014570934 0.17630562 0.17947848 -0.04680559 -0.005770927 0.32965505
-0.7739348 -0.21364543 -0.035742518 0.14925332 0.15896174 0.22598091 0.08892886 0.11736344
0.1718984 -0.46525618 -0.35353887 0.23740573 0.053435642 0.01728573 -0.108146735 0.2580262
-0.21912976 -0.23840725 0.38987917 0.176092 0.38871154 0.048303463 -0.023102924 -0.06535545
0.26884046 -0.06095079 -0.22575577 0.2382376 -0.25098932 0.34728935 -0.23053426 0.36839214
0.021852683 0.53141105 0.0088050915 -0.06268174 -1.5123582 1.3927004 -0.35598174 0.5472243
0.1856077 -0.04092783 0.2898752 -0.07739499 -0.002137504 -0.12109781 0.6046176 0.46870807
0.3440187 0.06568905 -0.02746203 0.07403335 -0.35854268 0.04364388 -0.14571159 0.25753725
0.31199563 -0.2144841 0.30225292 -0.29875177 0.12641501 0.084930606 0.031151146 0.39679128
3.378088e-05 -0.00040352118 -0.00044356336 5.9123104e-05 1.0063251 -0.95476705 -0.32229352 0.5903811
-0.17952004 0.2749479 -0.1867877 0.28853396 -0.018469298 -0.055758316 0.0059320047 0.0034245243
-0.17609169 -0.18646397 0.27979404 -0.17494753 -0.2857677 0.0155632645 -0.14879243 0.16134368
-0.7160258 -0.110801294 -0.17374018 0.13134746 0.10609891 0.015128124 0.18362728 0.24587214
-0.38629013 0.13633215 0.15338737 -0.12387341 0.2024328 0.5583521 -0.24426565 -0.16132785
0.53164333 0.11548235 0.03154985 0.059555404 0.055972878 0.0023725342 -0.3541279 -0.4056195
0.26778424 -0.10540014 -0.07256394 0.09714623 0.3917392 0.0728028 -0.021367963 0.1598812
0.12633516 -0.0049136677 -0.15114185 -0.38133794 -0.40810397 0.019249335 -0.17050244 -0.0051611788
-0.10031628 -0.013882223 -0.000111182046 -0.07357647 0.3220634 -0.21570884 -0.13805756 0.063262515
-0.0037394133 0.060898505 0.16972761 -0.2068757 0.0016034228 0.0007275499 -0.00063617685 -0.0021146082
00000000: 865b ecbe ff36 a8bd 5728 0bbe bb20 fbbd
00000010: 6e39 9bbe 7940 25be b02e d23e 435c 0ebc
00000020: bd53 dfba 3f5d 20bb 013e a9b7 37ba d33a
00000030: c2e0 e6bd b80a ea3d 21b1 4fbd 4234 66be
00000040: 5dc4 1e3e b27f ef3c 3ac8 25be 21c4 a8be
00000050: 4b5e 193e e6f6 38bf a2f2 9e3e f632 a7be
00000060: e70a 10be 6805 2dbd 8b77 febd 4201 623d
00000070: 1eaa 8bbd 5810 d43c c7cc 753e 7548 8c3e
00000080: 244d 4138 9262 89bd 0f49 d63c fa47 72be
00000090: 9019 7fbd 0d8c 823d eb6b 81bd 758e a0bc
000000a0: 7f97 103d 23f0 423d 8c64 1f3e a970 fd3d
000000b0: 9bb0 0e3e 9cd8 e2bd 9b5f 283d 3bad 7c3e
000000c0: a75b eb3e e177 b33d 1e91 473e cedd de3d
000000d0: ebd0 8cbe e1bb c43e 829b 243e f7a6 a1be
000000e0: 5a85 92bf 350f b93f 296b cbbe b917 c43e
000000f0: 8d59 fcbd 47f0 2dbf 366a 5fbc 94ce c03c
00000100: 97aa 98bc 7b0f 23bd ed05 b63c 3eac 76be
00000110: c5e4 2d3d 9d3a 89be 0c50 7cbb 9b0f 583c
00000120: da36 a63d 4bc7 b33d 85c8 93bd 9dbe 18be
00000130: 2295 5f3e e491 2abd 414e 2e3e 7917 02be
00000140: 56a7 02be 631b 5a3e fb0a ca3d e331 8ebe
00000150: 21ac 8abb 098e 153e 2d4d b43e 6257 a83d
00000160: 78b5 b539 6e2a bd3a e0a4 753a e83d a5ba
00000170: 809d 2fbd c989 59be 8836 033e a3b9 3abe
00000180: 41bb d43d dd4c 373f be79 553c 01f5 2cbe
00000190: 2ef9 653e bd89 173e 1082 313e 9d38 13bb
000001a0: 3693 2fbf 7e67 26bd edba 6ebc 7689 343e
000001b0: 35c9 373e 38b7 3fbd 0b1a bdbb 8cc8 a83e
000001c0: 9720 46bf dec5 5abe bf66 12bd ddd5 183e
000001d0: dec6 223e 8a67 673e 5620 b63d 3e5c f03d
000001e0: 2206 303e 0f36 eebe 0c03 b5be 7d1a 733e
000001f0: 55df 5a3d ce9a 8d3c 097c ddbd 031c 843e
00000200: 8d63 60be 0821 74be 3e9e c73e 7651 343e
00000210: 3305 c73e dad9 453d 5842 bdbc 14d9 85bd
00000220: 75a5 893e 89a7 79bd 852c 67be 8ff4 733e
00000230: ac81 80be e9cf b13e 2c11 6cbe e59d bc3e
00000240: 6604 b33c 8e0a 083f 3b43 103c 495f 80bd
00000250: f494 c1bf 0244 b23f 3d43 b6be e416 0c3f
00000260: f20f 3e3e f1a3 27bd 866a 943e 4481 9ebd
00000270: 5e15 0cbb 2102 f8bd 38c8 1a3f 81fa ef3e
00000280: 3823 b03e fb87 863d 0df8 e0bc cc9e 973d
00000290: e892 b7be edc3 323d 6b35 15be ecdb 833e
000002a0: e4bd 9f3e b8a1 5bbe e5c0 9a3e fef5 98be
000002b0: f072 013e 19f0 ad3d b030 ff3c 3a28 cb3e
000002c0: f2af 0d38 b28f d3b9 118e e8b9 f3fa 7738
000002d0: 43cf 803f 9d6b 74bf a803 a5be 3723 173f
000002e0: 1ad4 37be f9c5 8c3e 4645 3fbe b9ba 933e
000002f0: ed4c 97bc d562 64bd 4361 c23b fc6d 603b
00000300: 6151 34be 69f0 3ebe 2a41 8f3e 7225 33be
00000310: 2550 92be 10fd 7e3c 0b5d 18be 4737 253e
00000320: 784d 37bf caeb e2bd f2e8 31be f37f 063e
00000330: 634a d93d f3db 773c ca08 3c3e e8c5 7b3e
00000340: d2c7 c5be a89a 0b3e 9411 1d3e 58b1 fdbd
00000350: 8b4a 4f3e 2af0 0e3f c620 7abe 2133 25be
00000360: c719 083f 0382 ec3d 6a3a 013d 5ef0 733d
00000370: d143 653d 857c 1b3b 4150 b5be 5cad cfbe
00000380: 041b 893e 07dc d7bd 679c 94bd 9af4 c63d
00000390: 0a92 c83e a219 953d de0b afbc e6b7 233e
000003a0: 015e 013e d502 a1bb eec4 1abe ba3e c3be
000003b0: 01f3 d0be c8b0 9d3c 3198 2ebe 1b1f a9bb
000003c0: 9f72 cdbd 4372 63bc 682a e9b8 43af 96bd
000003d0: 7ee5 a43e c7e2 5cbe f65e 0dbe c78f 813d
000003e0: f210 75bb b670 793d 13cd 2d3e 39d7 53be
000003f0: f129 d23a 0cb9 3e3a 1bc5 26ba 3d95 0abb

bias f4 [100]
-0.17513588 0.48247802 -0.00028725242 -0.3251723 -0.11856278 -0.5730346 -0.22116986 -0.286838
0.24043582 -0.048877437 -0.0032478017 0.3072353 0.11112154 -0.22183016 0.06328535 0.16876966
-0.2398645 0.3239492 -0.09458127 -0.088881485 -0.34784624 0.42309546 0.001311434 0.21087839
0.0055209426 0.29125288 -0.098287016 -0.35059306 -0.012048905 -0.069305204 -0.09920271 -0.21527694
-0.05074149 0.14122629 0.17927656 -0.34507588 0.14161909 -0.005767853 0.2888779 0.07544078
-0.30537298 0.46544123 -0.5582015 0.36564815 -0.00026187545 0.16855142 -0.34898302 0.008999546
-0.21779473 -0.3981105 0.18216316 0.11730178 0.4270187 0.0030674092 0.39787528 0.4731037
-0.27133816 -0.37022406 0.30283132 -0.27256414 0.067927144 -0.34896827 0.29244542 0.0029367032
-0.06011521 0.031098476 -0.34412706 6.999151e-06 -0.026528621 -0.32174727 -0.13074954 -0.20576371
0.56875724 0.564199 0.5841201 0.27728167 -0.36985976 0.15916055 0.12254758 -0.3623205
-0.033472598 -0.41365024 -0.00023427441 0.0011615261 0.33655477 -0.21144414 -0.3679632 0.66854155
0.08594197 0.27375397 0.059055578 -0.23399848 0.18181564 -0.40856123 0.050531197 0.10337735
0.36208662 -0.0831922 -0.2269 0.15750924
00000000: d256 33be 5c07 f73e 5e9a 96b9 fc7c a6be
00000010: 0bd1 f2bd 65b2 12bf 5a7a 62be 6edc 92be
00000020: cf34 763e b533 48bd 12d9 54bb f24d 9d3e
00000030: b193 e33d 7227 63be c09b 813d f4d1 2c3e
00000040: 0a9f 75be abdc a53e d3b3 c1bd 7f07 b6bd
00000050: e718 b2be f89f d83e 6ce4 ab3a 81f0 573e
00000060: 06e9 b43b 191f 953e b44a c9bd ef80 b3be
00000070: c568 45bc e3ef 8dbd ca2a cbbd 8f71 5cbe
00000080: 4fd6 4fbd a09d 103e 4694 373e c9ad b0be
00000090: 9804 113e 4200 bdbb cee7 933e b280 9a3d
000000a0: d959 9cbe 504e ee3e 4be6 0ebf 3c36 bb3e
000000b0: 544c 89b9 be98 2c3e e7ad b2be d572 133c
000000c0: 9505 5fbe 24d5 cbbe fb88 3a3e ea3b f03d
000000d0: 32a2 da3e 9606 493b 4fb6 cb3e a63a f23e
000000e0: d6ec 8abe 028e bdbe b50c 9b3e 878d 8bbe
000000f0: 631d 8b3d f8ab b2be 68bb 953e b475 403b
00000100: 5e3b 76bd 3bc2 fe3c 6c31 b0be 40da ea36
00000110: 8d52 d9bc 0fbc a4be 35e3 05be b9b3 52be
00000120: 139a 113f 586f 103f e588 153f ddf7 8d3e
00000130: 425e bdbe fcfa 223e 3afa fa3d 1382 b9be
00000140: 901a 09bd f7c9 d3be 8fa7 75b9 593e 983a
00000150: e850 ac3e d084 58be ac65 bcbe 8a25 2b3f
00000160: 5802 b03d 7b29 8c3e 43e4 713d 4c9d 6fbe
00000170: e12d 3a3e f02e d1be cdf9 4e3d 81b7 d33d
00000180: 6b63 b93e ac60 aabd 7958 68be 1a4a 213e

weight f4 [100, 100]
0.22476245 -0.20349722 -0.09753048 0.35524353 0.15244114 0.2812515 0.39390033 0.3497361
-0.2540244 0.33713615 0.022082448 -0.40546742 -0.14312512 0.07797743 -0.07343314 -0.012009322
0.5410985 -0.35573813 0.47512606 0.13269666 0.2929528 -0.3408707 -0.25913474 -0.39532804
-0.07940406 -0.20006345 0.012383574 0.22082746 0.18206522 0.07182954 0.21342881 0.3810977
0.33340085 -0.041704472 0.03617087 0.36425203 -0.28101125 -0.2566064 -0.3257739 -0.029970659
0.4726146 -0.5469845 0.1807491 -0.30834508 0.0355463 -0.122533016 0.13750488 -0.2518823
0.14262898 0.35719353 -0.0051740664 -0.17912121 -0.15386185 0.037923697 -0.24465407 -0.39427486
0.16884299 0.2850063 -0.25428173 0.26682943 -0.09841239 0.33818713 -0.2668337 -0.03594373
0.14432757 0.057737056 0.44513687 -0.08178974 -0.021402584 0.35587078 0.19404435 0.065319866
-0.224811 -0.24057217 -0.5603105 -0.28400183 0.19626173 0.15358554 0.05990342 0.3070174
-0.15016341 0.46500415 -0.073477864 -0.12821387 -0.26949352 0.12356591 0.21919666 -0.54834425
-0.09958899 -0.38979128 -0.34222934 0.26018122 -0.1628592 0.46089575 0.050315328 0.11107978
-0.4025018 0.32125515 0.5330936 -0.29951954 0.36313167 0.056442786 0.009241796 -0.040977128
-0.13359919 0.24032706 0.16389348 -0.15241992 0.1633376 -0.11076926 -0.114361405 0.030902887
-0.24921156 0.1274963 -0.06407655 0.205939 -0.10492613 0.09803539 -0.15602721 -0.13269126
-0.13250391 -0.14693804 -0.0011031985 0.12957683 -0.26638564 -0.2820994 0.20284013 -0.16740997
0.50046885 -0.24410835 0.34341717 -0.10357846 0.18564086 -0.30884728 -0.042627264 -0.024060665
-0.3294992 0.43897265 -0.010520659 -0.017531665 -0.30907005 -0.067782626 0.11198029 -0.08462044
0.00049040664 0.10927864 -0.019830605 0.17996132 0.20790935 0.017656045 0.4330451 0.092220224
0.015065669 -0.37306204 -0.5081026 -0.037600975 -0.17294091 -0.22784972 0.07346638 0.24020405
0.018404847 0.08116914 0.048515588 0.04425313 -0.09293146 -0.10440378 -0.24123225 0.004816853
-0.1403551 0.06594883 -0.09783127 0.043186318 -0.06268169 -0.32256594 0.008730426 0.3729316
0.32023987 -0.12175304 -0.21780424 0.19540429 0.07813664 0.2281357 0.013180558 0.06267107
0.14199367 0.02380394 0.33413243 -0.045482375 0.064792074 0.04371467 0.36734962 -0.10571456
0.19482175 -0.16440575 0.19539921 0.006040327 0.19708392 0.15891865 -0.2284072 -0.1607355
-0.08697913 0.10213678 -0.26400048 0.25822446 0.11562693 -0.095439404 0.33946848 0.24743184
-0.38222775 0.03162479 -0.20313999 -0.16493294 -0.010664382 -0.07608736 0.046344712 0.048254948
0.2296879 -0.2512793 0.20966461 0.04614455 0.05128943 -0.15539311 0.011739271 -0.23135813
0.074381396 -0.14816888 -0.11739079 0.044262677 -0.0023622315 0.023716245 -0.067505985 -0.052281648
0.22255239 -0.05911429 0.055430148 0.03540205 -0.09646028 -0.0150504215 -0.131325 0.034056094
-0.0564151 -0.005287267 0.04779729 0.10627962 0.046545714 -0.032884702 -0.031198151 -0.138297
0.07655514 0.16633582 0.087935336 0.11950902 -0.044711106 -0.12255426 0.032880813 0.1557053
00000000: 2128 663e 9361 50be 0fbe c7bd 7be2 b53e
00000010: 8819 1c3e 3200 903e 4ead c93e 9c10 b33e
00000020: 7c0f 82be 1c9d ac3e 40e6 b43c 6d99 cfbe
00000030: 648f 12be a1b2 9f3d 1d64 96bd bfc2 44bc
00000040: 6e85 0a3f 4f23 b6be b943 f33e a2e1 073e
00000050: e9fd 953e 9b86 aebe 4fad 84be 7068 cabe
00000060: 999e a2bd 6fdd 4cbe 79e4 4a3c 9820 623e
00000070: 4e6f 3a3e 5e1b 933d 158d 5a3e 3d1f c33e
00000080: 84b3 aa3e 4fd2 2abd e827 143d 3e7f ba3e
00000090: b5e0 8fbe ea61 83be d6cb a6be 0785 f5bc
000000a0: 8afa f13e 2d07 0cbf 4b16 393e 68df 9dbe
000000b0: ff98 113d 97f2 fabd 14ce 0c3e b8f6 80be
000000c0: 550d 123e 12e2 b63e 378b a9bb 8d6b 37be
000000d0: f68d 1dbe e155 1b3d 9986 7abe 65de c9be
000000e0: 2de5 2c3e 59ec 913e 3731 82be de9d 883e
000000f0: 6f8c c9bd dd26 ad3e 6d9e 88be bc39 13bd
00000100: 9bca 133e b17d 6c3d fbe8 e33e 6181 a7bd
00000110: 7954 afbc b234 b63e 90b3 463e 6cc6 853d
00000120: db34 66be 8d58 76be 8270 0fbf b068 91be
00000130: d6f8 483e 8745 1d3e 4a5d 753d 6231 9d3e
00000140: 70c4 19be 0615 ee3e 907b 96bd 7f4a 03be
00000150: 0efb 89be 2010 fd3d 1775 603e 4a60 0cbf
00000160: 50f5 cbbd b992 c7be af38 afbe 7936 853e
00000170: 90c4 26be 87fa eb3e 7217 4e3d cc7d e33d
00000180: b714 cebe 8e7b a43e d278 083f a05a 99be
00000190: 65ec b93e 8d30 673d e76a 173c a2d7 27bd
000001a0: 3ace 08be 4c18 763e b1d3 273e f813 1cbe
000001b0: f941 273e feda e2bd 5036 eabd 0d28 fd3c
000001c0: 5131 7fbe 648e 023e 913a 83bd ace1 523e
000001d0: 83e3 d6bd c7c6 c83d 99c5 1fbe 38e0 07be
000001e0: 1baf 07be ed76 16be 3399 90ba caaf 043e
000001f0: b363 88be 556f 90be 53b5 4f3e 856d 2bbe
00000200: ba1e 003f 8af7 79be 60d4 af3e f220 d4bd
00000210: a318 3e3e 3b21 9ebe ed99 2ebd df1a c5bc
00000220: 1fb4 a8be 06c1 e03e d85e 2cbc 919e 8fbc
00000230: 6e3e 9ebe 9ed1 8abd ec55 e53d 7b4d adbd
00000240: a28e 003a 7bcd df3d cb73 a2bc c847 383e
00000250: 30e6 543e 69a3 903c 16b8 dd3e f5dd bc3d
00000260: ffd5 763c fd01 bfbe 0313 02bf 7b03 1abd
00000270: 6c17 31be 7051 69be 8b75 963d 0df8 753e
00000280: c3c5 963c 023c a63d 48b8 463d c542 353d
00000290: d952 bebd a6d1 d5bd 9605 77be b1d6 9d3b
000002a0: 3fb9 0fbe 2e10 873d c35b c8bd 23e4 303d
000002b0: 425f 80bd 5d27 a5be 100a 0f3c e4f0 be3e
000002c0: 7bf6 a33e a859 f9bd 1308 5fbe 1018 483e
000002d0: 1a06 a03d 689c 693e 44f3 573c b159 803d
000002e0: ca66 113e 7b00 c33c 6813 ab3e ba4b 3abd
000002f0: b5b1 843d 270e 333d 4015 bc3e e080 d8bd
00000300: 5a7f 473e fb59 28be bb16 483e efed c53b
00000310: 5ed0 493e 92bb 223e 94e3 69be d997 24be
00000320: 1d22 b2bd 172d d13d 122b 87be ff35 843e
00000330: d0cd ec3d bc75 c3bd d0ce ad3e c65e 7d3e
00000340: 5bb3 c3be ff88 013d ee03 50be 2ee4 28be
00000350: a9b9 2ebc b1d3 9bbd f4d3 3d3d fba6 453d
00000360: 4e33 6b3e aea7 80be 52b2 563e 1102 3d3d
00000370: de14 523d 5f1f 1fbe 1256 403c 25e9 6cbe
00000380: 4655 983d 95b9 17be 956a f0bd c84c 353d
00000390: abcf 1abb 9248 c23c 9440 8abd 4825 56bd
000003a0: c6e4 633e d321 72bd b90a 633d bd01 113d
000003b0: f88c c5bd 0b96 76bc 107a 06be 677e 0b3d
000003c0: 8513 67bd cf40 adbb 17c7 433d 21a9 d93d
000003d0: b8a6 3e3d 1cb2 06bd 4493 ffbc bb9d 0dbe
000003e0: f1c8 9c3d f053 2a3e 7117 b43d 25c1 f43d
000003f0: fe22 37bd bafd fabd 08ae 063d 3671 1f3e

bias f4 [100]
-0.54337776 0.029004224 -2.3398137 -0.17320758 -2.1303704 -2.002636 0.0193346 -1.1929169
-2.064572 -2.2742856 -0.65666944 -0.7764553 -0.96225333 -2.1486573 -2.0130455 -2.388341
-0.4768971 -0.21483473 -0.26108804 -1.8861371 -0.26032606 -1.9110984 -1.1095498 -0.6539689
-2.279179 -0.16658005 -0.30630842 -0.2628682 -0.10585527 -0.8721028 -0.082796015 -2.0356965
0.10513016 0.027371265 -1.2776467 0.042138584 -1.854218 0.0031091874 -0.3372169 -2.0893092
-0.21513574 -2.27234 0.011261597 -0.15126963 -0.013055635 -2.1079957 -0.013885326 -0.71207905
-0.26236266 -0.7459196 -0.07682229 -0.14949606 -2.2261474 -0.09928294 -2.2962625 -2.0500894
-0.06186495 -0.18548071 -0.34379786 -0.08517937 -0.049960587 -1.7395276 -0.3361478 -0.22989687
-2.4721391 -2.1513813 -0.36744896 -0.13286795 -1.1382742 -2.1113834 -1.23055 -1.7350961
-0.29917067 -2.2133229 -0.70671207 -1.0094419 -0.7255626 -0.5356828 -2.3294833 -2.245232
-0.11088318 -2.0684876 -0.44252816 -0.2954273 -0.13912031 -0.25375268 -0.17369118 -0.18460001
-2.0184014 -0.9007407 -0.43036345 -2.4015539 -0.8573172 -0.23156722 -0.0138467755 -2.4061534
-2.154255 -1.7133061 -0.20594923 -1.115058
00000000: ce1a 0bbf 449a ed3c 82bf 15c0 545d 31be
00000010: fd57 08c0 302b 00c0 9863 9e3c 80b1 98bf
00000020: f321 04c0 e58d 11c0 7d1b 28bf c6c5 46bf
00000030: 3c56 76bf 9a83 09c0 bdd5 00c0 94da 18c0
00000040: db2b f4be a3fd 5bbe 55ad 85be f16c f1bf
00000050: 7549 85be df9e f4bf ba05 8ebf 816a 27bf
00000060: 12de 11c0 f693 2abe 75d4 9cbe a996 86be
00000070: a6ca d8bd 2142 5fbf f590 a9bd da48 02c0
00000080: 7b4e d73d b439 e03c ed89 a3bf 8299 2c3d
00000090: 0457 edbf 82c3 4b3b b2a7 acbe 3eb7 05c0
000000a0: 8b4c 5cbe 056e 11c0 9082 383c 6de6 1abe
000000b0: 4de7 55bc 67e9 06c0 477f 63bc d04a 36bf
000000c0: 6654 86be 96f4 3ebf 0155 9dbd 7f15 19be
000000d0: 3379 0ec0 db54 cbbd f7f5 12c0 aa34 03c0
000000e0: 1a66 7dbd a8ee 3dbe 4606 b0be 8672 aebd
000000f0: 79a3 4cbd d7a8 debf 901b acbe 166a 6bbe
00000100: 8737 1ec0 3bb0 09c0 4522 bcbe 890e 08be
00000110: f8b2 91bf e820 07c0 aa82 9dbf a117 debf
00000120: e62c 99be 15a7 0dc0 15eb 34bf 6435 81bf
00000130: 78be 39bf 8222 09bf 4116 15c0 e2b1 0fc0
00000140: b816 e3bd 1a62 04c0 0d93 e2be 3f42 97be
00000150: 8e75 0ebe dfeb 81be 1adc 31be c907 3dbe
00000160: 7d2d 01c0 f196 66bf 9958 dcbe 0fb3 19c0
00000170: 2479 5bbf f51f 6dbe 96dd 62bc 6bfe 19c0
00000180: 50df 09c0 9d4d dbbf 5be4 52be 38ba 8ebf

weight f4 [1, 100]
-0.04402498 0.0845529 -0.000110375884 0.09864774 -0.00023714235 -0.0009919546 0.13995095 -0.014275457
-0.0006206111 -0.00055201637 -0.013995543 -0.010581553 -0.017965596 -0.00021158981 7.3559095e-05 -0.0005605483
0.0072630667 0.19283788 0.10166877 -0.00045839464 0.059644237 -0.0007748132 -0.010369964 -0.030058099
-0.00045302298 0.18374203 0.010537598 0.12564194 0.06666531 -0.023186052 0.1332428 -0.00031188966
0.100930564 0.21734545 -0.0152810365 0.12864159 -0.00078476104 0.13464017 0.08807287 -0.0047591506
0.07344999 -3.7754915e-05 0.08471166 0.13800432 0.15531301 -0.0005321726 0.35599124 -0.017656364
0.044672742 -0.025652602 0.14633098 0.14556946 -1.404756e-05 0.20366292 -0.0013850487 -0.0005264469
0.22090018 0.23143198 0.029794665 0.14741713 0.14764886 -0.000488358 0.051507037 0.07630175
-0.00023193492 -0.00639145 0.117516585 0.14693412 -0.014550528 -0.00068335177 -0.004046368 -0.0029699642
0.0972997 8.335231e-05 -0.011151855 -0.017590716 -0.03549964 -0.041659497 -5.346479e-05 -0.00052710704
0.13362764 -0.00048772304 -0.02296263 0.10612236 0.26199907 0.08876228 0.19124155 0.09412688
0.00018624536 -0.02054873 -0.038824484 -0.00029652682 -0.011191878 0.069227986 0.20049296 -0.0002717083
-0.0051012044 -0.00024658875 0.16280606 -0.015914695
00000000: 8a53 34bd 122a ad3d 9a79 e7b8 d407 ca3d
00000010: 6aa9 78b9 7904 82ba 4d4f 0f3e 9be3 69bc
00000020: 82b0 22ba 31b5 10ba 904d 65bc 405e 2dbc
00000030: 962c 93bc 35de 5db9 bd43 9a38 c2f1 12ba
00000040: 05ff ed3b 4b77 453e b737 d03d b054 f0b9
00000050: 844d 743d d51c 4bba c8e6 29bc 673c f6bc
00000060: b783 edb9 df26 3c3e e4a5 2c3c 48a8 003e
00000070: d287 883d adf0 bdbc cd70 083e 1f85 a3b9
00000080: afb4 ce3d ce8f 5e3e 505d 7abc 9fba 033e
00000090: 6cb8 4dba 1ddf 093e 8d5f b43d a6f2 9bbb
000000a0: f36c 963d 085b 1eb8 4f7d ad3d 0151 0d3e
000000b0: 600a 1f3e 8081 0bba 7c44 b63e 14a4 90bc
000000c0: c4fa 363d 6825 d2bc cad7 153e 2910 153e
000000d0: d0ad 6bb7 038d 503e 868a b5ba 4101 0aba
000000e0: a833 623e 81fc 6c3e f113 f43c 84f4 163e
000000f0: 4331 173e 2705 00ba 0bf9 523d 1844 9c3d
00000100: 8e33 73b9 5e6f d1bb 89ac f03d e675 163e
00000110: 5665 6ebc f622 33ba 6597 84bb bba3 42bb
00000120: 1145 c73d 6ecd ae38 45b6 36bc 681a 90bc
00000130: 1268 11bd 26a3 2abd 623f 60b8 8e2d 0aba
00000140: afd5 083e 14b5 ffb9 201c bcbc ae56 d93d
00000150: be24 863e 00c9 b53d d3d4 433e 98c5 c03d
00000160: dc4a 4339 cf55 a8bc 6c06 1fbd 2877 9bb9
00000170: 235e 37bc 67c7 8d3d 074e 4d3e 1274 8eb9
00000180: 0128 a7bb 9548 81b9 a2b6 263e 895f 82bc

S f4 [4, 4]
0.0 0.0 1.0 0.0 0.0 0.0 0.0 1.0
-1.0 0.0 0.0 0.0 0.0 -1.0 0.0 0.0
00000000: 0000 0000 0000 0000 0000 803f 0000 0000
00000010: 0000 0000 0000 0000 0000 0000 0000 803f
00000020: 0000 80bf 0000 0000 0000 0000 0000 0000
00000030: 0000 0000 0000 80bf 0000 0000 0000 0000
