Models/DoublePendulum/DoublePendulum_midpoint_10epoch_Tanh()_ReLU()_batchsize_64_shape_torch.Size([7000, 4]).pt (torch, 50921 bytes, 6 tensors)

weight f4 [100, 4]
-0.18594816 0.009684981 -0.013658329 -0.1539105 -0.31156045 -0.072483145 0.34187976 -0.0674141
0.010040287 0.031274393 0.14724061 -0.19214411 -0.12876023 0.08335165 -0.068557315 -0.13926631
0.18105401 0.0026304345 0.023331368 -0.21795075 0.016648417 -0.32327133 0.1570609 -0.37912354
-0.19209307 -0.08489074 -0.15673494 0.074739434 -0.08483673 0.11319906 0.10028588 0.16515826
0.044055358 -0.059414573 -0.012838367 -0.12258969 -0.3335159 0.20627782 -0.25841528 -0.07997604
0.007593594 0.09765699 -0.08760378 0.221983 0.14850438 -0.10411364 0.08076158 0.18212378
0.13988972 0.18199536 0.06514371 -0.009456323 -0.06552238 0.17022076 0.104699835 -0.18512955
0.03134684 0.3260328 -0.095338106 0.18781064 0.00028611955 -0.098715454 -0.069873735 0.07037314
0.07035743 0.038869567 -0.001812656 -0.15097757 0.09454178 -0.3860193 0.0013148498 0.09682977
-0.0719946 0.0870954 -0.0074574864 -0.10268365 -0.067657925 -0.1689319 -0.015556534 0.0010552306
-0.1478741 0.21662854 0.113827445 -0.17101026 0.05325773 0.20339775 0.15289287 0.07366417
0.016931076 -0.06841076 0.072436035 -0.14298001 -0.023982504 -0.12967071 0.070234284 -0.1730326
-0.019630106 0.1582501 -0.016993895 -0.05350281 0.19526197 0.27607214 0.13744096 -0.074267775
-0.30670065 -0.005862644 0.0043667406 0.069171935 0.14018907 -0.046328638 -0.1314506 0.20908725
-0.23158742 -0.11618139 0.0952405 0.028899308 0.065035194 0.22944824 -0.11349391 0.20124128
0.08072909 -0.077026255 0.018936673 -0.045904953 0.23975626 -0.12837835 0.04957348 0.14072466
-0.17070033 -0.1505249 0.25962737 0.07738957 0.30118898 -0.018804904 -0.091653794 -0.011242965
0.15898004 -0.0679542 -0.1558091 0.1301665 -0.17345268 0.06443382 -0.058352858 0.052979175
0.122229286 0.1535742 0.16106774 -0.032287795 -0.26440224 0.031463984 -0.0032842727 0.042480785
0.10959386 0.070764154 0.1619049 -0.035152428 0.045275934 0.0019050671 0.10824135 0.092837855
0.05783335 0.14577508 -0.028470898 0.08751302 -0.2799347 -0.07582916 -0.094583035 0.1384324
0.15983053 -0.14599325 0.15706752 -0.20891601 0.14079799 0.1528559 -0.057183437 0.31242076
-0.0880742 -0.024363248 0.12354819 -0.11117069 0.03318146 -0.2971844 -0.11476875 0.19275783
-0.2142995 0.09915682 -0.005644418 0.16632484 0.06255752 -0.1516079 0.078190714 0.031107211
-0.027701387 -0.045368347 0.11515262 -0.12230526 -0.11576093 -0.149495 -0.08127575 0.053950727
-0.3317858 -0.1371773 0.005409206 0.0018260492 0.15793705 0.022686118 -0.015659403 0.2640684
-0.50296426 0.24397913 0.111808755 -0.06564826 -0.07553276 0.012973413 0.0029263431 0.05391674
0.1674959 0.036436826 0.0065870234 0.029234104 0.04761746 0.04991973 -0.09114342 -0.28081286
0.15382284 -0.14082368 -0.14057219 0.08489293 0.14517854 0.14278986 -0.14259689 0.118088245
0.1378718 -0.049930677 -0.13899142 -0.24068634 -0.28049105 -0.08055111 -0.27166507 0.06913682
-0.120580494 -0.059418358 0.056042016 -0.03528082 0.2435181 -0.09336857 -0.0054611485 0.033791933
-0.035502616 0.115110494 0.11210844 -0.10248837 -0.1895367 0.08292028 0.16142437 0.06473327
00000000: 3269 3ebe c1ad 1e3c 2fc7 5fbc b79a 1dbe
00000010: da84 9fbe 0b72 94bd dd0a af3e 6710 8abd
00000020: 0480 243c 9419 003d 3ec6 163e 6dc1 44be
00000030: b9d9 03be 45b4 aa3d c767 8cbd d49b 0ebe
00000040: 3966 393e 5e63 2c3b 6d21 bf3c 7b2e 5fbe
00000050: 4362 883c d283 a5be 93d4 203e 7b1c c2be
00000060: 0cb4 44be 32db adbd 207f 20be fd10 993d
00000070: e1be adbd e9d4 e73d af62 cd3d 3f1f 293e
00000080: 6473 343d b25c 73bd 0458 52bc 4e10 fbbd
00000090: 99c2 aabe 7e3a 533e 024f 84be 7aca a3bd
000000a0: afd3 f83b 6300 c83d 9c69 b3bd 834f 633e
000000b0: 8811 183e 8839 d5bd 5466 a53d a87e 3a3e
000000c0: 403f 0f3e fe5c 3a3e 116a 853d b2ee 1abc
000000d0: 9930 86bd 5a4e 2e3e de6c d63d 9a92 3dbe
000000e0: 8b65 003d c5ed a63e a040 c3bd 6f51 403e
000000f0: 5102 9639 542b cabd f619 8fbd cb1f 903d
00000100: 8e17 903d b235 1f3d a496 edba dd99 1abe
00000110: 1f9f c13d 52a4 c5be 0a57 ac3a b04e c63d
00000120: e871 93bd 135f b23d ee5d f4bb ce4b d2bd
00000130: 3d90 8abd 7cfc 2cbe d5e0 7ebc aa4f 8a3a
00000140: 4f6c 17be dfd3 5d3e 5d1e e93d 501d 2fbe
00000150: c724 5a3d 8047 503e f38f 1c3e 3edd 963d
00000160: 0ab3 8a3c f11a 8cbd 5859 943d 5a69 12be
00000170: f576 c4bc 66c8 04be fed6 8f3d 752f 31be
00000180: 51cf a0bc 500c 223e c836 8bbc c325 5bbd
00000190: c1f2 473e 5459 8d3e 53bd 0c3e b419 98bd
000001a0: de07 9dbe 6c1b c0bb e016 8f3b 04aa 8d3d
000001b0: b98d 0f3e 19c3 3dbd fc9a 06be f81a 563e
000001c0: 4125 6dbe 82f0 edbd 740d c33d 3ebe ec3c
000001d0: 2c31 853d 7bf4 6a3e 7f6f e8bd 3212 4e3e
000001e0: 4b55 a53d f1bf 9dbd 1521 9b3c d506 3cbd
000001f0: aa82 753e 9d75 03be 900d 4b3d 201a 103e
00000200: 11cc 2ebe 3323 1abe e1ed 843e 6c7e 9e3d
00000210: 7135 9a3e be0c 9abc fcb4 bbbd 6a34 38bc
00000220: aacb 223e 922b 8bbd 6c8c 1fbe 5e4a 053e
00000230: 949d 31be e1f5 833d 6803 6fbd b100 593d
00000240: 5953 fa3d 8e42 1d3e f1ee 243e 3540 04bd
00000250: bb5f 87be 61e0 003d f43c 57bb 5500 2e3d
00000260: bf72 e03d ccec 903d 66ca 253e fefb 0fbd
00000270: 4273 393d 72b3 f93a a4ad dd3d c621 be3d
00000280: aae2 6c3d 1046 153e cd3b e9bc 073a b33d
00000290: 9a53 8fbe 524c 9bbd c0b4 c1bd 39c1 0d3e
000002a0: 9daa 233e 417f 15be 4fd6 203e 14ee 55be
000002b0: 592d 103e 4286 1c3e 2e39 6abd 9df5 9f3e
000002c0: 3f60 b4bd 6f95 c7bc d506 fd3d 75ad e3bd
000002d0: 48e9 073d 8e28 98be e10b ebbd 4f62 453e
000002e0: 5471 5bbe bb12 cb3d cff4 b8bb 0f51 2a3e
000002f0: 281e 803d 1a3f 1bbe 7422 a03d 8dd4 fe3c
00000300: 05ee e2bc 29d4 39bd 23d5 eb3d 2e7b fabd
00000310: 1114 edbd 3815 19be e773 a6bd 70fb 5c3d
00000320: d4df a9be 3578 0cbe b53f b13b 0b58 ef3a
00000330: 40ba 213e 3dd8 b93c 2648 80bc f933 873e
00000340: 44c2 00bf aad5 793e fdfb e43d 9872 86bd
00000350: ebb0 9abd 708e 543c e4c7 3f3b cdd7 5c3d
00000360: 0c84 2b3e c83e 153d f5d7 d73b 5c7c ef3c
00000370: 870a 433d a178 4c3d 67a9 babd b4c6 8fbe
00000380: bc83 1d3e 1534 10be 28f2 0fbe 58dc ad3d
00000390: afa9 143e 8137 123e eb04 12be 40d8 f13d
000003a0: 442e 0d3e 1c84 4cbd c453 0ebe 7b76 76be
000003b0: 869c 8fbe fbf7 a4bd af17 8bbe 9b97 8d3d
000003c0: e8f2 f6bd aa60 73bd 508c 653d 9f82 10bd
000003d0: cf5c 793e 0538 bfbd 6ff3 b2bb 6969 0a3d
000003e0: 316b 11bd 0dbf eb3d 1c99 e53d 6ce5 d1bd
000003f0: e915 42be 1cd2 a93d 6e4c 253e e092 843d

bias f4 [100]
-0.37060186 0.5224067 0.2660336 -0.47032928 -0.28824776 -0.5236445 -0.4228329 -0.4296103
0.4087496 -0.46747673 -0.29143253 0.3964448 0.18756385 -0.409333 0.077104084 0.35660654
-0.31397304 0.5350819 -0.36989543 -0.30583018 -0.49796373 0.50815034 0.2784925 0.44760144
-0.048033617 0.46770513 -0.20122848 -0.42804724 -0.20268297 -0.4234734 -0.27232027 -0.41963542
-0.109751955 0.4375624 0.40501845 -0.43880644 0.29117024 -0.26168564 0.4269331 0.34585586
-0.45486343 0.4779772 -0.5574424 0.44775113 -0.2962558 0.43941328 -0.41068226 0.3026513
-0.3598261 -0.48776257 0.121704586 0.41655654 0.53059447 -0.26773512 0.46956074 0.40077063
-0.3945315 -0.45954046 0.29451317 -0.5115228 0.09011135 -0.48854187 0.45613933 0.4384407
0.24087644 0.09929756 -0.39644554 0.061289962 -0.4056042 -0.4852027 -0.2138694 -0.41392022
0.48703393 0.5029069 0.56176376 0.4035407 -0.5724892 0.16118717 0.30550605 -0.48954064
0.40584394 -0.49202085 -0.018765908 0.40423247 0.5011521 -0.2747994 -0.43219173 0.5427758
0.36369815 0.50134563 0.3744687 -0.36485848 0.4691639 -0.4195115 0.3556579 0.19547358
0.4204492 -0.10711214 -0.34731132 0.14548033
00000000: 87bf bdbe 72bc 053f 8e35 883e 00cf f0be
00000010: 3695 93be 910d 06bf 8e7d d8be e2f5 dbbe
00000020: a147 d13e 1c59 efbe a536 95be d0fa ca3e
00000030: bd10 403e 1894 d1be bfe8 9d3d 2295 b63e
00000040: 13c1 a0be 21fb 083f ef62 bdbe c695 9cbe
00000050: 1af5 febe 2416 023f 9296 8e3e 042c e53e
00000060: e6be 44bd 0c77 ef3e d70e 4ebe 0229 dbbe
00000070: 208c 4fbe 81d1 d8be 906d 8bbe 74da d6be
00000080: a2c5 e0bd 2e08 e03e 945e cf3e 3dab e0be
00000090: 4414 953e a9fb 85be fa96 da3e 0514 b13e
000000a0: dce3 e8be 6db9 f43e 8cb4 0ebf a33f e53e
000000b0: d7ae 97be c7fa e03e f244 d2be 1cf5 9a3e
000000c0: 203b b8be 04bc f9be 4140 f93d e646 d53e
000000d0: 0ad5 073f 9414 89be 446a f03e cf31 cd3e
000000e0: 0800 cabe e348 ebbe 6eca 963e 29f3 02bf
000000f0: 4d8c b83d 2922 fabe 188b e93e 4d7b e03e
00000100: 50a8 763e 855c cb3d e9fa cabe 2f0b 7b3d
00000110: 5bab cfbe 7d6c f8be 9400 5bbe 5aed d3be
00000120: 835c f93e 82be 003f c0cf 0f3f e39c ce3e
00000130: a78e 12bf 400e 253e 4a6b 9c3e 12a5 fabe
00000140: c7ca cf3e 28ea fbbe f6ba 99bc 8ff7 ce3e
00000150: 814b 003f 82b2 8cbe 3c48 ddbe 5bf3 0a3f
00000160: a536 ba3e 3058 003f 5dba bf3e bbce babe
00000170: 4036 f03e 36ca d6be cb18 b63e 3a2a 483e
00000180: 1e45 d73e 9c5d dbbd cad2 b1be ccf8 143e

weight f4 [100, 100]
0.13590556 0.11286017 0.015382321 0.015396129 0.023185987 0.07415832 0.12287858 -0.02018403
0.07308886 0.23116419 -0.04876861 -0.17529488 -0.034359742 0.081656985 0.032445796 0.049890645
0.14533898 0.015401795 0.10269745 0.12122027 0.008591581 -0.055915415 -0.16031149 -0.08675125
0.06455453 0.086166166 -0.061348308 -0.11556062 0.14794849 -0.09474761 0.03436671 0.047648318
0.17460366 0.075478 0.051817313 0.18901671 -0.0754121 -0.006971167 -0.05130604 0.14222583
0.1255579 -0.15756236 -0.12477311 -0.0033029402 0.050286125 -0.14981131 -0.05178227 -0.114591554
-0.10290918 0.059051853 0.06077297 0.035284817 0.1456016 0.1763624 0.00034263427 -0.0026706331
-0.10226314 -0.04291262 0.06338579 0.052517377 0.13833962 0.022919852 0.042984247 0.15753348
0.006015072 0.26742336 -0.004728781 -0.11170864 -0.16085573 0.115333065 0.013514937 0.030694699
0.13415597 0.09196127 -0.08854503 0.08904247 -0.12684962 0.2233409 0.08701687 -0.060616635
-0.13785313 0.16464688 -0.048022006 0.23784715 -0.0019696325 0.038480785 -0.07060596 -0.15734898
0.09295081 0.054022294 -0.18590587 0.03286222 0.10753297 0.2853816 0.15629506 0.09438974
-0.03229703 0.2135934 0.18722406 -0.19473632 0.23411308 0.0795546 -0.02961187 0.08968732
0.097901486 0.053211924 0.13403396 -0.13410035 0.11141032 0.033043116 -0.10253999 -0.075090565
-0.001131898 0.29616317 -0.174397 -0.0989448 0.0148493955 -0.061429318 0.124052815 -0.005907365
0.029197114 -0.017124083 -0.11614277 0.037092347 0.036078073 -0.10795376 0.0031465148 -0.20285632
0.24629584 -0.007757048 0.29312566 -0.18136342 -0.042171296 -0.17463751 -0.12205741 -0.10769849
-0.11303313 0.18344873 0.05257924 -0.009758582 -0.18506445 -0.14631988 0.11560772 -0.017804412
0.13339947 0.02407724 -0.03888416 0.076895066 0.25604084 -0.09452416 0.2507073 0.07027042
0.091394134 -0.12702976 -0.23303379 0.050010562 -0.20919965 -0.12588215 0.1544114 0.06942822
0.032057196 0.056681443 0.118104294 0.092852265 -0.076448984 0.14664079 -0.00023001387 0.055111483
-0.19673605 0.051196665 -0.075423226 -0.0065346956 -0.03220947 -0.088629544 -0.079442225 0.25506517
0.035727274 0.054711625 -0.13956586 0.34222242 0.10029293 -0.04719822 0.061112996 0.08931277
0.0013498216 -0.08565268 0.10974391 -0.076913066 0.024871536 -0.06457552 0.16383903 -0.014363062
0.00072784413 -0.028344966 0.08135561 -0.0060149226 0.20745936 0.15772374 0.048798367 -0.010375241
-0.10214176 0.11406026 -0.19935308 -0.0874653 0.11382229 -0.13498706 0.02035972 -0.0045336094
-0.07555091 -0.17099261 -0.23344505 0.064052984 -0.012662819 -0.12577993 -0.06558126 -0.019458272
-0.08059826 0.18290362 0.042678382 0.010848162 -0.18734251 0.087798536 0.110696875 0.027104814
0.050254803 0.11858466 -0.108763546 -0.08844893 -0.04114027 -0.06787942 -0.030240849 -0.24444419
0.29125008 0.018293424 0.15940724 0.009972751 -0.03416559 -0.21682547 0.091578916 -0.07542015
-0.1996583 0.13050643 -0.067774385 0.26829255 0.02494577 -0.05545729 -0.14510536 0.04491929
-0.1579948 -0.07433843 -0.114753656 0.16656415 0.11179053 -0.1576783 0.03725542 0.10396073
00000000: d42a 0b3e 3c23 e73d 2106 7c3c 0c40 7c3c
00000010: 8af0 bd3c 51e0 973d c4a7 fb3d fb58 a5bc
00000020: 9daf 953d 4eb6 6c3e 98c1 47bd 8080 33be
00000030: cdbc 0cbd c73b a73d e2e5 043d 225a 4c3d
00000040: bed3 143e cf57 7c3c 0a53 d23d 5542 f83d
00000050: b4c3 0c3c 9007 65bd b228 24be a4aa b1bd
00000060: 2a35 843d e377 b03d 5d48 7bbd 0cab ecbd
00000070: cf7f 173e 090b c2bd 1bc4 0c3d e22a 433d
00000080: 4dcb 323e 3694 9a3d 643e 543d 998d 413e
00000090: a971 9abd 636e e4bb 4826 52bd a6a3 113e
000000a0: 4092 003e 0758 21be 0b89 ffbd 2476 58bb
000000b0: d3f8 4d3d 2368 19be a519 54bd faae eabd
000000c0: 0cc2 d2bd 5be0 713d 14ed 783d d086 103d
000000d0: 9618 153e 5898 343e 98a3 b339 ca05 2fbb
000000e0: 566f d1bd 25c5 2fbd 69d0 813d 761c 573d
000000f0: e7a8 0d3e 6ac2 bb3c 4010 303d 7550 213e
00000100: 151a c53b b7eb 883e e4f3 9abb 80c7 e4bd
00000110: 5db7 24be be33 ec3d c16d 5d3c 7373 fb3c
00000120: 2f60 093e 3156 bc3d 1957 b5bd e65b b63d
00000130: dee4 01be 7ab3 643e e735 b23d 2649 78bd
00000140: 5f29 0dbe 3199 283e b9b2 44bd 348e 733e
00000150: f314 01bb 079e 1d3d dc99 90bd 1720 21be
00000160: ff5c be3d 7b46 5d3d 1c5e 3ebe 899a 063d
00000170: 3f3a dc3d 891d 923e d00b 203e 684f c13d
00000180: e449 04bd 3ab8 5a3e aab7 3f3e f568 47be
00000190: 57bb 6f3e 86ed a23d 9894 f2bc fcad b73d
000001a0: 9380 c83d bff4 593d 3340 093e 9a51 09be
000001b0: 182b e43d 3858 073d 7c00 d2bd 15c9 99bd
000001c0: 325c 94ba b3a2 973e 2195 32be 92a3 cabd
000001d0: e14a 733c 4f9d 7bbd 670f fe3d 9292 c1bb
000001e0: c92e ef3c ce47 8cbc 43dc edbd 25ee 173d
000001f0: 9ac6 133d dc16 ddbd c235 4e3b 91b9 4fbe
00000200: fa34 7c3e d62e febb 9114 963e 55b7 39be
00000210: cfbb 2cbd 2dd4 32be 3cf9 f9bd 0791 dcbd
00000220: ea7d e7bd fcd9 3b3e 545d 573d 76e2 1fbc
00000230: 8981 3dbe e1d4 15be bec3 ec3d 8fda 91bc
00000240: df99 083e a23d c53c ff44 1fbd 297b 9d3d
00000250: c917 833e e295 c1bd b55c 803e f0e9 8f3d
00000260: d92c bb3d 1714 02be 69a0 6ebe e0d7 4c3d
00000270: 6f38 56be 40e7 00be 061e 1e3e 6230 8e3d
00000280: 684e 033d cd2a 683d aae0 f13d 5429 be3d
00000290: 4991 9cbd 0129 163e e12f 71b9 94bc 613d
000002a0: 2d75 49be 98b3 513d 7e77 9abd 0021 d6bb
000002b0: 14ee 03bd 6883 b5bd 9bb2 a2bd e797 823e
000002c0: c356 123d 4c19 603d 5aea 0ebe c737 af3e
000002d0: 6166 cd3d ec52 41bd 9f51 7a3d 9de9 b63d
000002e0: 7fec b03a ac6a afbd 6ac1 e03d 9984 9dbd
000002f0: 64bf cb3c 2c40 84bd 6bc5 273e 0c53 6bbc
00000300: cbcc 3e3a b433 e8bc c59d a63d d418 c5bb
00000310: 3a70 543e 5582 213e cce0 473d eafc 29bc
00000320: b32f d1bd 6d98 e93d 3723 4cbe 0221 b3bd
00000330: a91b e93d 0c3a 0abe 6dc9 a63c ac8e 94bb
00000340: 6fba 9abd b018 2fbe 380c 6fbe 362e 833d
00000350: b677 4fbc 74cc 00be 784f 86bd f466 9fbc
00000360: b310 a5bd 164b 3b3e 87cf 2e3d 7dbc 313c
00000370: b7d6 3fbe b8cf b33d 0bb5 e23d ea0a de3c
00000380: fbd7 4d3d 84dc f23d 6cbf debd b624 b5bd
00000390: b382 28bd 5e04 8bbd a8bb f7bc 944f 7abe
000003a0: bb1e 953e 17dc 953c a73b 233e c064 233c
000003b0: 38f1 0bbd 7f07 5ebe ba8d bb3d e175 9abd
000003c0: 3a73 4cbe 7aa3 053e 4ccd 8abd a45d 893e
000003d0: 125b cc3c 2f27 63bd 8096 14be 4afd 373d
000003e0: 64c9 21be bf3e 98bd f703 ebbd cb8f 2a3e
000003f0: 6ff2 e43d 6c76 21be 2499 183d 5de9 d43d

bias f4 [100]
-0.0018187047 0.015603495 -0.09285053 -0.031980183 0.009984207 0.04113685 0.07332497 0.04628855
0.07082088 -0.09779805 0.04510924 0.01931814 -0.048453104 -0.09998697 0.09360939 -0.03374951
-0.08900336 -0.07207596 0.024816943 0.061488785 0.010319198 0.015599931 -0.013919008 0.016634
-0.008486057 0.0800295 0.03750315 -0.042893805 0.03552128 -0.035076287 -0.06377087 -0.040529978
0.086941294 0.053163923 -0.09178176 0.08832269 -0.07577856 0.067361906 0.012809301 -0.028748943
-0.0017198444 -0.057660162 0.09018087 -0.038539078 -0.030668749 -0.08000109 0.06500629 0.08041445
0.016095078 -0.016775215 0.032155097 -0.044472862 0.09879636 -0.030749274 0.03589536 0.08231013
-0.026715994 0.07817651 0.05649556 -0.0018397451 -0.036390662 0.07527276 0.034407627 0.0068798303
-0.031904686 -0.093731456 -0.085922174 -0.00041879417 -0.09156915 -0.09687511 -0.025601208 -0.009062159
0.074993886 -0.065306485 -0.096851744 0.0003861785 -0.09260992 -0.009221149 0.072095215 -0.08278807
0.023039937 -0.02679342 0.0998791 0.0024813414 -0.010419726 -0.02246542 -0.04888282 0.07193124
-0.051483847 0.091402315 0.06708435 -0.084492326 0.078322746 -0.0018096686 0.06168592 -0.047141135
0.017369403 0.0031647563 0.00643512 -0.018295038
00000000: 9a61 eeba cda5 7f3c 6b28 bebd a7fd 02bd
00000010: cd94 233c 1d7f 283d 672b 963d 1099 3d3d
00000020: 8a0a 913d 584a c8bd 77c4 383d 1341 9e3c
00000030: c376 46bd f8c5 ccbd 48b6 bf3d ed3c 0abd
00000040: 6547 b6bd 909c 93bd e74c cb3c aadb 7b3d
00000050: da11 293c da96 7f3c 8d0c 64bc 0744 883c
00000060: 1a09 0bbc 82e6 a33d e79c 193d 6ab1 2fbd
00000070: c37e 113d 27ac 0fbd 4d9a 82bd c302 26bd
00000080: 470e b23d 6ac2 593d 13f8 bbbd 87e2 b43d
00000090: ca31 9bbd 0af5 893d 1ade 513c e782 ebbc
000000a0: 676c e1ba 102d 6cbd bfb0 b83d 27db 1dbd
000000b0: 073d fbbc 9dd7 a3bd 0522 853d 55b0 a43d
000000c0: d3d9 833c 2d6c 89bc 10b5 033d 2d29 36bd
000000d0: bf55 ca3d e7e5 fbbc 0307 133d 3792 a83d
000000e0: 80db dabc 021b a03d e367 673d 9a23 f1ba
000000f0: 600e 15bd 9b28 9a3d 03ef 0c3d 3370 e13b
00000100: 7dae 02bd 47f6 bfbd f7f7 afbd 9a91 dbb9
00000110: 9b88 bbbd 7566 c6bd a0b9 d1bc 7379 14bc
00000120: 6596 993d 68bf 85bd 355a c6bd 0078 ca39
00000130: 45aa bdbd 4d14 17bc a8a6 933d cb8c a9bd
00000140: 40be bc3c e07d dbbc 6a8d cc3d 009e 223b
00000150: 80b7 2abc 6709 b8bc 5a39 48bd b050 933d
00000160: bae0 52bd 2331 bb3d 8563 893d 500a adbd
00000170: ad67 a03d 6732 edba 60aa 7c3d 1017 41bd
00000180: 474a 8e3c cd67 4f3b b3dd d23b 7adf 95bc

weight f4 [1, 100]
0.09360564 0.07029695 -0.14413661 0.12232632 -0.21234903 -0.16563132 0.13189918 0.18537346
-0.26559937 0.10188655 -0.2933522 -0.07050416 0.1435955 -0.21870403 -0.06474554 -0.14796317
-0.03230427 0.10388326 0.1228085 -0.05953408 0.057071734 -0.22657636 -0.2878078 -0.07940038
-0.18724869 0.22771639 0.097914875 0.15061276 0.050129782 0.14702576 0.15000604 -0.08982458
0.08769096 0.12052752 0.11607376 0.072081715 0.09157812 -0.06809358 0.12399848 -0.39955398
0.043775074 -0.018376915 0.028251052 0.10397237 0.038358245 0.042854715 0.06999739 -0.13517405
0.087725624 0.080452375 0.15817289 0.101676874 -0.22997777 0.20461166 -0.47114453 -0.28195807
0.20893817 0.14143927 0.1712558 0.09884119 0.06379695 -0.21093583 0.21724394 -0.011514829
-0.27906865 -0.09701478 -0.0099723 0.17821757 -0.1884925 0.06594261 -0.3547145 -0.15746753
0.105226986 -0.2019579 -0.008190668 0.19668221 0.12623468 0.08693198 -0.07481678 -0.19429438
0.10451619 -0.30292058 -0.06435466 0.17019702 0.04294788 0.16032185 0.03463698 0.13613912
-0.043320365 0.119119294 0.15207131 -0.17401221 -0.28188926 0.15033387 0.10295511 0.10637241
-0.062203668 -0.19477405 0.0914903 -0.13034
00000000: 50b4 bf3d d9f7 8f3d 8c98 13be 3986 fa3d
00000010: 0672 59be 429b 29be 9410 073e 8ad2 3d3e
00000020: a4fc 87be e5a9 d03d 4232 96be 7c64 90bd
00000030: b30a 133e f3f3 5fbe 4f99 84bd a883 17be
00000040: 7b51 04bd bfc0 d43d 0683 fb3d 02da 73bd
00000050: 0dc4 693d a203 68be 8b5b 93be ab9c a2bd
00000060: 1fbe 3fbe 7c2e 693e 9887 c83d 3b3a 1a3e
00000070: e354 4d3d ec8d 163e 2f9b 193e f3f5 b7bd
00000080: 5197 b33d 22d7 f63d 14b8 ed3d 949f 933d
00000090: 4f8d bb3d a674 8bbd eaf2 fd3d 5792 ccbe
000000a0: 7e4d 333d 2f8b 96bc c06e e73c 77ef d43d
000000b0: 891d 1d3d 6d88 2f3d cb5a 8f3d 116b 0abe
000000c0: 7ea9 b33d 37c4 a43d 13f8 213e f73b d03d
000000d0: 4b7f 6bbe b885 513e db39 f1be cf5c 90be
000000e0: e3f3 553e 75d5 103e ae5d 2f3e 406d ca3d
000000f0: faa7 823d 90ff 57be 3275 5e3e b1a8 3cbc
00000100: 16e2 8ebe afaf c6bd dc62 23bc ab7e 363e
00000110: 2e04 41be eb0c 873d 249d b5be 2b3f 21be
00000120: 3f81 d73d 0dce 4ebe 2732 06bc 1067 493e
00000130: aa43 013e 6509 b23d 8a39 99bd 1bf5 46be
00000140: 960c d63d 6818 9bbe 60cc 83bd 2148 2e3e
00000150: 1eea 2f3d 692b 243e 82df 0d3d 0e68 0b3e
00000160: b270 31bd d1f4 f33d 95b8 1b3e 4230 32be
00000170: ca53 90be 1ff1 193e 21da d23d c7d9 d93d
00000180: 46c9 7ebd d972 47be 445f bb3d d977 05be

S f4 [4, 4]
0.0 0.0 1.0 0.0 0.0 0.0 0.0 1.0
-1.0 0.0 0.0 0.0 0.0 -1.0 0.0 0.0
00000000: 0000 0000 0000 0000 0000 803f 0000 0000
00000010: 0000 0000 0000 0000 0000 0000 0000 803f
00000020: 0000 80bf 0000 0000 0000 0000 0000 0000
00000030: 0000 0000 0000 80bf 0000 0000 0000 0000
