Models/DoublePendulum/DoublePendulum_symplectic midpoint_50epoch_Tanh()_ReLU()_batchsize_64_shape_torch.Size([549500, 4]).pt (torch, 51768 bytes, 6 tensors)

weight f4 [100, 4]
000000 5f c0 6e 38 5e 9b dd b8 e3 df 23 3a 6e 04 55 b8
       5.692278e-05 -0.000105670406 0.0006251318 -5.0787283e-05
000010 0f 1a 9e 3e a8 a1 89 be 72 39 25 bf 3b 48 65 3f
       0.30879256 -0.26881146 -0.6454078 0.8956334
000020 62 11 a5 b9 44 f8 33 39 9f e3 18 ba 62 2a 2b ba
       -0.00031484204 0.00017163256 -0.0005832258 -0.0006529448
000030 43 6f 7c 38 95 93 57 38 15 32 89 b9 8d 1e 59 b9
       6.0185102e-05 5.139744e-05 -0.0002616799 -0.00020706114
000040 2e bb 96 38 de 7b 84 38 9e 78 11 b9 d9 55 40 b9
       7.187422e-05 6.3173225e-05 -0.00013873211 -0.00018342528
000050 53 6b eb b7 23 5d 7e 39 aa 01 32 ba f0 ee 3c ba
       -2.806416e-05 0.00024258024 -0.0006790409 -0.00072072353
000060 87 25 01 38 ba 99 77 38 31 af 4d 39 b8 d2 fe 36
       3.0790947e-05 5.9032558e-05 0.00019615587 7.594321e-06
000070 db fa 99 3f 2c 53 99 bf 30 0f c6 bc d8 03 18 3d
       1.202968 -1.1978507 -0.024177164 0.03711304
000080 16 46 84 36 0c 31 b8 b8 1f f3 4e 39 4b ea d5 b8
       3.9420656e-06 -8.7829394e-05 0.0001973626 -0.00010200272
000090 60 8a d3 b8 3d 6f d9 b8 2d 7b 92 39 f7 89 9b 39
       -0.000100870384 -0.00010368086 0.00027939063 0.00029666696
0000a0 48 8e 7c b8 b2 b3 25 3a b6 ba a4 b9 36 a8 ee 39
       -6.021399e-05 0.0006321027 -0.00031419628 0.00045520224
0000b0 f4 65 c1 3e 65 69 82 3e 1f 16 92 be 21 87 a2 3e
       0.37773097 0.25471035 -0.28532502 0.3174372
0000c0 5b 18 9e b9 05 33 8a b9 57 6a 6f 39 ec db 09 3a
       -0.00030154255 -0.00026359424 0.00022832431 0.0005258906
0000d0 00 81 f6 38 83 8d ac 38 41 81 b6 39 8e a4 d5 b7
       0.00011754222 8.227958e-05 0.00034810047 -2.5468205e-05
0000e0 af 12 ad b8 ac 7f 27 b8 3f af e2 39 4e 22 cd 39
       -8.252763e-05 -3.9934806e-05 0.00043236648 0.00039126206
0000f0 75 6c 19 bf 23 d2 29 3f 18 ac ab 3e 8d 2d e5 be
       -0.5993112 0.6633627 0.33529735 -0.44761315
000100 bf 3b e0 38 e2 2c 54 b9 43 44 46 b9 fa a5 6c b9
       0.00010692281 -0.00020234616 -0.00018908181 -0.00022568545
000110 e1 5f 12 b9 da 37 9f 38 0d 06 fe 39 d8 91 13 3a
       -0.00013959363 7.592114e-05 0.00048451163 0.00056293374
000120 e8 a8 59 b9 e4 58 12 39 54 75 2b b9 44 d4 de b9
       -0.00020757655 0.0001395676 -0.00016351539 -0.0004250129
000130 98 ca 08 b8 2e 37 f8 b8 36 db b8 ba f4 58 6e b9
       -3.2613607e-05 -0.000118358395 -0.0014103416 -0.00022730586
000140 68 ef 5b bf 36 a6 54 3f be ad 8c bd 8e b3 94 bd
       -0.8591218 0.8306612 -0.06869076 -0.0726081
000150 24 3f 97 38 ea c4 96 b8 c0 84 02 39 fd f0 f9 b9
       7.212002e-05 -7.1892355e-05 0.0001244722 -0.0004767253
000160 f0 6c 83 b7 84 3e 49 b9 87 36 f5 b9 fe 2b dd b9
       -1.5667145e-05 -0.00019192143 -0.00046770668 -0.00042185182
000170 1e fc f0 3d f6 f9 a6 3d 27 4f dc 3d b4 70 61 bd
       0.117668375 0.08153145 0.107572846 -0.055039123
000180 2b a3 73 b8 79 77 af b9 a7 ce 14 3a 2a eb e8 38
       -5.8087677e-05 -0.00033467615 0.00056765456 0.00011106425
000190 a0 18 f2 be 3a 00 4a be de 2d b5 3c 32 70 34 3d
       -0.47284412 -0.19726649 0.022116598 0.04405231
0001a0 47 b3 af 38 0c 89 e0 b7 08 b8 0a 3a 2a aa 93 39
       8.378043e-05 -2.6766698e-05 0.0005291705 0.00028164807
0001b0 aa 45 d3 be 4f 50 5e be be 7d 92 bd 19 cf 66 bd
       -0.41264087 -0.21710323 -0.0715289 -0.056349847
0001c0 f0 7c fc 38 43 0f 13 38 83 08 d2 b8 6c ea 91 b9
       0.00012039568 3.5061745e-05 -0.00010015166 -0.00027831213
0001d0 33 37 84 39 25 fb 35 39 cf 83 85 b9 e5 7a 4a b9
       0.0002521813 0.00017355064 -0.00025465942 -0.00019310003
0001e0 48 28 3a 3f 3d 90 e4 bd 0b 3a 3d 3e a0 56 44 be
       0.72717714 -0.11160324 0.18479173 -0.1917367
0001f0 0b e8 06 b8 18 a2 7c b9 ba 13 12 36 54 57 31 b9
       -3.2164196e-05 -0.00024092977 2.1767178e-06 -0.00016912568
000200 84 d4 fc b7 26 07 8d b8 84 00 a3 39 31 24 fd 38
       -3.0139701e-05 -6.7247354e-05 0.00031090167 0.00012070721
000210 5a 16 fe 37 b4 22 14 39 00 08 1a 3a ae d2 f2 38
       3.0289568e-05 0.00014127308 0.0005875826 0.000115787014
000220 be ad d0 3c fd d9 d9 bc 16 ce 58 3e ea 81 4b 3e
       0.025473472 -0.026593203 0.21172366 0.19873777
000230 04 1e 71 3f 08 3f 8a bf 3f de 3a 3d 8e 19 51 be
       0.94186425 -1.0800486 0.045622107 -0.20419905
000240 fb 87 23 be ea f8 40 bf a5 8d ff bb 65 5d 82 bb
       -0.15969841 -0.7537981 -0.0077988678 -0.0039784187
000250 6a 44 51 39 a9 d3 d7 b8 74 df 57 39 0c e3 f7 b8
       0.0001995728 -0.00010291424 0.0002058724 -0.000118201686
000260 12 f9 7c b8 5d 1b 11 ba 48 41 36 3a ea 86 f3 b9
       -6.0313447e-05 -0.00055353885 0.00069524767 -0.0004644909
000270 dd 4e 05 3f b5 9e ea 3e d9 41 fe bc 03 64 c2 3c
       0.5207346 0.4582421 -0.031037258 0.02372933
000280 50 ff 9d b9 58 31 5c b9 82 63 c0 39 34 ba 77 b9
       -0.00030135596 -0.00020999217 0.00036695233 -0.00023625122
000290 e9 14 40 39 2c b6 28 39 a1 c6 8c ba 8c 2f e3 b9
       0.00018318337 0.00016089593 -0.0010740348 -0.0004333224
0002a0 e5 ef fa bc bd 10 fa 3d 8d e6 bd 3e 11 b8 fa 3e
       -0.030631969 0.12210224 0.3708996 0.48968557
0002b0 fe f4 16 38 89 69 96 b9 9a af fe 39 c8 76 29 3a
       3.5990954e-05 -0.0002868886 0.0004857749 0.0006464538
0002c0 8a 0e cb b7 44 3d ff b8 55 85 98 b9 72 1d 68 b7
       -2.4206256e-05 -0.00012170759 -0.0002909104 -1.3835133e-05
0002d0 56 3c c3 38 80 65 4a 39 3c ba f9 37 dd 8f 0f 39
       9.309563e-05 0.00019302033 2.9769835e-05 0.00013691136
0002e0 23 b0 19 b8 6a 19 52 b7 1c d5 33 3a b2 6d 28 3a
       -3.6642083e-05 -1.2522893e-05 0.0006860064 0.0006425037
0002f0 90 b5 36 b5 08 63 f4 38 76 53 b9 b9 31 e2 50 ba
       -6.806449e-07 0.00011653273 -0.00035348133 -0.00079682755
000300 52 84 07 b9 ed e7 32 b9 d0 ef 55 b9 f2 be b8 38
       -0.00012923896 -0.00017061802 -0.000204026 8.80937e-05
000310 f4 4e 98 b8 9e b5 f9 b8 da 6d ea 39 d4 89 58 38
       -7.262631e-05 -0.00011907074 0.00044713804 5.1626776e-05
000320 81 a6 99 bf 5b 29 98 3f 12 6d a5 3e f6 79 f0 be
       -1.2003938 1.1887621 0.32309777 -0.4696805
000330 3a 81 e9 38 4f 9f 9a 39 24 22 c8 b9 ba 41 22 b9
       0.00011134376 0.00029491863 -0.0003817241 -0.00015474009
000340 db 8d 5e b8 1a e6 a6 b6 32 aa 11 b9 a2 76 00 b9
       -5.3061038e-05 -4.973973e-06 -0.0001389168 -0.00012251225
000350 3d bf 9b b7 49 1f 85 b9 90 71 e8 b8 ef 45 01 ba
       -1.8566492e-05 -0.00025391046 -0.00011083775 -0.00049313804
000360 d4 c9 44 39 b5 a4 04 b9 dc 65 38 3a c8 00 8f 39
       0.00018767203 -0.00012649859 0.0007034221 0.00027275668
000370 70 8d 12 bd 75 37 3d 3e 84 76 b0 3e e8 67 fb 3e
       -0.035779417 0.18478186 0.3446542 0.49102712
000380 90 dc 6b 38 6d c7 a9 38 e5 ab 09 ba fd 66 b4 b9
       5.623378e-05 8.095694e-05 -0.00052517495 -0.00034409008
000390 01 80 6e b9 09 36 8b b9 3f 3b 4b 3a 97 2c 3f 3a
       -0.00022745134 -0.00026552405 0.0007752664 0.0007292716
0003a0 36 5c a8 be 66 62 65 be df a3 de bd 09 b7 92 bc
       -0.3288285 -0.22400817 -0.108711 -0.017909544
0003b0 01 c6 14 b9 92 7e 1a b9 df 80 71 39 df 4f 57 39
       -0.00014188142 -0.00014733736 0.00023031559 0.00020533752
0003c0 70 e8 d7 38 52 70 9e b8 77 ae 22 b9 26 45 47 ba
       0.00010295294 -7.5549484e-05 -0.00015514517 -0.00076015515
0003d0 68 39 2c b9 f0 24 10 b9 65 20 80 39 41 4a 12 39
       -0.00016424584 -0.0001374667 0.00024438198 0.00013951307
0003e0 55 3c c0 38 2f 54 07 38 8c a5 12 ba fe 22 f9 b9
       9.166511e-05 3.226491e-05 -0.00055941264 -0.00047519052
0003f0 a9 8a 6d 38 e1 83 af b7 35 a2 6f b8 5b 95 c3 b9
       5.663434e-05 -2.0923037e-05 -5.7133107e-05 -0.00037304577

bias f4 [100]
000000 be 61 3b 40 45 15 b5 bf fe 49 18 40 0b b0 1f c0
       2.9278407 -1.4147116 2.3795161 -2.4951198
000010 22 b3 40 c0 e1 64 15 c0 9d d8 30 c0 89 8f db 3e
       -3.0109334 -2.3342822 -2.763221 0.42882946
000020 4a 99 44 40 c5 12 41 40 97 c3 3e c0 ec 91 c0 3f
       3.071856 3.0167706 -2.9806879 1.5044532
000030 87 a0 4d c0 c3 2b 1e c0 f8 c4 41 c0 9a a6 92 3e
       -3.2129228 -2.471421 -3.027647 0.28642732
000040 0f b5 39 40 bf 03 3f c0 1c 31 0a c0 ee 46 34 40
       2.901676 -2.9846036 -2.1592474 2.8168292
000050 18 7d 04 3f 7a e6 41 c0 42 83 3d 40 46 c3 0b c0
       0.5175338 -3.0296922 2.9611363 -2.1837935
000060 0d ea 3a c0 33 18 6d bf ad a0 24 40 23 b6 7b bf
       -2.9205353 -0.9261505 2.5723069 -0.98324794
000070 d1 3f 42 c0 e8 76 0d c0 c0 28 17 3f 36 f1 3d 40
       -3.035145 -2.2103825 0.59046555 2.9678473
000080 38 7e 4a c0 49 96 33 c0 a5 4a d7 bf cc ae a1 bf
       -3.1639538 -2.8060477 -1.6819655 -1.2631469
000090 cc e4 01 3f 57 57 44 40 4c 4e 4f c0 20 8a ab bf
       0.5073974 3.0678308 -3.2391539 -1.3401527
0000a0 cd 32 15 40 64 d6 35 c0 bb 07 56 3f da 6e 0c 40
       2.3312256 -2.8412104 0.83605546 2.1942658
0000b0 ea e4 3e 40 aa 7b 40 40 4a a6 42 40 99 0e 45 c0
       2.9827218 3.0075479 3.0413995 -3.079016
0000c0 98 1d 38 c0 6e c7 40 40 d4 29 d5 be 3d 8c 38 c0
       -2.8768063 3.0121722 -0.41633475 -2.8835595
0000d0 32 79 40 40 e0 3e 43 40 74 a2 21 40 7a d8 9b bf
       3.0073972 3.0507126 2.5255404 -1.2175438
0000e0 80 9b 42 c0 1e 9c 40 c0 97 b7 6f bf b1 99 44 40
       -3.040741 -3.0095286 -0.9363951 3.0718806
0000f0 15 48 46 c0 ad f0 3f 40 b3 b6 41 c0 99 67 50 40
       -3.0981495 2.9990647 -3.026776 3.256323
000100 31 72 20 40 bb 90 2b c0 ed 8c 47 40 37 38 9f 3e
       2.5069697 -2.6807086 3.1179764 0.31097576
000110 84 0b 18 c0 66 7f 86 bf f2 34 36 c0 91 31 1f c0
       -2.3757029 -1.0507629 -2.8469815 -2.4874003
000120 38 98 7f 3f 96 79 37 40 01 0e aa bf 62 0a 43 c0
       0.9984164 2.866796 -1.3285524 -3.0475087
000130 24 25 7e 3f e3 2a 37 c0 5e 8e 00 c0 8c 9a 39 c0
       0.9927542 -2.8619926 -2.0086894 -2.9000578
000140 1f 67 37 40 7e 2b f3 bf 82 24 41 c0 85 7e d0 be
       2.865669 -1.8997648 -3.0178533 -0.40721527
000150 52 25 c4 3f 73 fd 00 bf 92 ad 3b 40 be 14 27 40
       1.5323889 -0.5038673 2.932469 2.610641
000160 43 fc 3e c0 fb 6f 29 40 88 54 3e c0 3d 7e 84 3f
       -2.9841468 2.6474597 -2.9739094 1.0351025
000170 89 95 13 c0 95 a6 17 3f 51 cd 4c 40 19 4f 41 40
       -2.306002 0.5923856 3.2000315 3.0204527
000180 5a ba 41 c0 be 56 45 bf 36 da 6e 3f 24 94 3d c0
       -3.026999 -0.77085483 0.93301713 -2.9621668

weight f4 [100, 100]
000000 4d a3 73 3d bd b4 4b bb 65 d2 f1 bd 33 ad ab bd
       0.059481908 -0.003108307 -0.11807708 -0.083826445
000010 d0 99 c2 bc 4b 8d 96 3d a1 23 22 bd b6 a0 d7 bb
       -0.023754984 0.07351168 -0.03958476 -0.0065804375
000020 51 ab 19 be 3d ae 95 3d 4f e6 d2 bc 86 7f dd bc
       -0.15006758 0.07308624 -0.025744585 -0.027038347
000030 f3 6d 97 bc 4a e4 32 be fb e3 a0 bd ac e5 03 3d
       -0.018485045 -0.17469898 -0.07855984 0.032201454
000040 bb f8 95 3d 00 ad 68 be 21 b3 22 bd af 13 5b 3d
       0.07322832 -0.22722244 -0.039721612 0.05348557
000050 7e 4e 57 bc 0e 63 8b 3c ad 31 06 be b9 85 57 be
       -0.013141273 0.017015006 -0.13104887 -0.21047105
000060 64 9a 86 bd 97 94 0b be 3b fb 05 3d 3d 3e 9a 3d
       -0.065724164 -0.13630901 0.032710295 0.07531402
000070 3b 7d 46 3d ac 4d bc bd 19 14 fd 3c 19 70 22 be
       0.048459273 -0.09194502 0.030893372 -0.15863074
000080 cd 94 93 bd b7 e9 68 bd 7a 68 a8 bd 98 eb 70 3b
       -0.07206116 -0.056863513 -0.08223052 0.0036761519
000090 40 a7 98 3b e4 90 0e 3e 0b 5b 76 3d dc 8c 29 bd
       0.0046586096 0.13922459 0.06014542 -0.0413941
0000a0 8c dc 01 be 32 fa e0 bc 38 df be 3c 15 ed 94 bc
       -0.12681788 -0.027463052 0.023299798 -0.018179456
0000b0 6e 76 6c bd 02 81 19 bd 4b c9 ab bc 15 1a 5e bd
       -0.05773013 -0.037476547 -0.020970007 -0.054224093
0000c0 3b 48 af 3d 35 8f c3 bd b9 94 10 bc a1 3c 94 3c
       0.08558699 -0.09548799 -0.008824521 0.018095316
0000d0 20 96 df 3c d9 88 39 be 3c 6b bc 3d 90 9e 57 3c
       0.027293265 -0.1811861 0.09200141 0.013160363
0000e0 7a 77 2f bc 40 b6 f5 bd bd 7c 81 3c db ec 7e 3d
       -0.010709638 -0.11997652 0.01580655 0.0622376
0000f0 3e 4a 07 be 6d 5b 6b bd 09 1a 80 bd e7 6b 3e bb
       -0.13211915 -0.057460237 -0.06254966 -0.0029056014
000100 c4 3b cf bd ec f4 73 be 7c 32 da bd 0b 51 a0 3b
       -0.10118821 -0.23823899 -0.106541604 0.0048924736
000110 55 6b 88 3d c5 73 6f 3d b0 35 8d 3d de 67 5d 3c
       0.06661097 0.058460016 0.06895006 0.013513533
000120 cb fc 5b bd bb f6 80 3d b5 42 ee 3d 9e 77 da bd
       -0.05370788 0.0629706 0.11633817 -0.106673464
000130 ba 5d 8e bb 76 91 9b 3d 30 d0 bf bd 3f 1f c3 3c
       -0.004344669 0.07596104 -0.093658805 0.02381861
000140 ab d1 c8 3d 16 e5 4b 3d e0 63 fe bd f3 d4 75 bb
       0.09805616 0.04977902 -0.124213934 -0.003751096
000150 53 2a 27 3b 06 08 4e 3c c8 7e e0 bd a1 a5 97 b9
       0.0025507405 0.012575155 -0.109616816 -0.00028924368
000160 4e 08 19 3e f1 e4 7c 3c 92 90 07 be 7a c9 0a be
       0.14944574 0.015435443 -0.13238743 -0.1355342
000170 27 da cd bd df db ea bc 9d fb ae 3d ce 1b d2 3b
       -0.10051375 -0.028669296 0.08544085 0.006412006
000180 21 a9 51 3c ff 08 b4 bd 90 8b 72 3c 51 52 5c bd
       0.012796671 -0.08790778 0.014803782 -0.05378944
000190 25 01 21 3d 54 b5 4a be 5a a9 00 bc 9c e0 1d bb
       0.039307732 -0.19795734 -0.007852877 -0.0024090176
0001a0 2b 2f 4d 3d ab 35 17 bc c6 ec ee bc 53 0d c9 be
       0.05009381 -0.009229104 -0.029165637 -0.39267978
0001b0 53 a4 c8 bb 46 07 9a 3d b5 03 fe 3d db 2c e8 3d
       -0.0061231046 0.075209185 0.12403051 0.113366805
0001c0 7b 8c 53 3d 41 24 9b 3d 62 31 03 3e a1 64 81 3e
       0.051647644 0.07575274 0.12811807 0.25272086
0001d0 ec 66 48 3e 96 cc e0 3d 01 5f 64 be e0 3e d8 3c
       0.19570512 0.10976522 -0.22301866 0.026397169
0001e0 8d 96 b1 be bc e1 f9 bd 7c b0 2d 3d 58 2d fa bd
       -0.34685174 -0.122012585 0.042404637 -0.1221568
0001f0 79 b7 12 3a c2 b6 c1 bd f0 a7 ab 3d 1a 06 95 bc
       0.00055967976 -0.094586864 0.08381641 -0.018191386
000200 73 e8 c9 bc 49 23 27 be 03 d1 3d 3e 4f fb 35 3e
       -0.024646973 -0.16322054 0.18536763 0.17771648
000210 42 11 1f 3e 3a 4b d4 3d f5 30 02 3c 94 03 f5 3c
       0.15533927 0.10365911 0.007946243 0.029908933
000220 83 4a d1 3d 83 c5 0a bd 75 bf 61 bd 2a db 2c be
       0.1021929 -0.033879768 -0.05511423 -0.1688048
000230 12 54 4e ba 79 dc 0e 3c f2 5e 08 3e 56 51 80 3d
       -0.0007870804 0.008719557 0.13317469 0.062655136
000240 9b 7e 0e be 62 29 6b be 04 65 3e bd dc 3a 29 bd
       -0.13915484 -0.22965005 -0.046483055 -0.0413159
000250 0a 16 33 3d 31 53 9e bd f3 d9 78 bd 80 a8 df bd
       0.04372219 -0.07730711 -0.060754728 -0.10920811
000260 1b 05 14 3e 3b 67 fb bc 71 40 51 be d6 5b 85 be
       0.14455073 -0.030688873 -0.20434739 -0.26046628
000270 76 9f ad bd c4 72 b4 bd 8c 0d 0d ba 13 9a 05 3e
       -0.084776804 -0.08810952 -0.0005380742 0.13047056
000280 36 d7 b6 3d 1d 67 2f be 0f 7d f3 3b cc 5d a8 bd
       0.08927767 -0.17129178 0.0074306796 -0.08221015
000290 ca e6 0b be 74 e1 86 be df e3 00 3e 1e 65 c1 3e
       -0.13662258 -0.26343882 0.12586926 0.3777246
0002a0 fa 82 b0 3c 9a 58 ae 3d e0 9f 8a 3c 61 b3 b3 3d
       0.02154683 0.08512993 0.016921937 0.08774448
0002b0 9c 47 83 3e 10 6a 16 bb e2 9d 49 be 77 0e 3f 3d
       0.2564057 -0.0022951402 -0.19689134 0.046644654
0002c0 c3 ba 84 3e b0 a5 b7 bd 1d 92 33 bd 7d 09 75 be
       0.25923738 -0.08967149 -0.043840516 -0.239294
0002d0 e9 f4 d1 bd da 6d 1b be 90 d5 13 3d 40 c5 95 be
       -0.10251791 -0.15178624 0.03609234 -0.29252052
0002e0 b5 a9 87 3a 3d 08 77 3d f5 fd 1c bd 75 30 a9 bc
       0.0010350259 0.06031059 -0.03832813 -0.020652989
0002f0 f6 5c 88 bd 24 ee 5d bd 84 94 be bc ed a3 51 3c
       -0.06658356 -0.054182187 -0.023264177 0.012795431
000300 15 17 06 bd 36 ba 10 3e bd c2 0b 3e 8b 5f da 38
       -0.032736856 0.14133534 0.13648506 0.00010412846
000310 45 d7 96 bd 27 8e 53 bb b6 ad b8 3d 82 07 14 be
       -0.07365278 -0.0032280774 0.09017508 -0.14455989
000320 79 fc 35 be 4d 98 16 3d 54 27 cd 3b 53 f7 9b bd
       -0.17772092 0.03676634 0.006260792 -0.07615533
000330 d1 06 0e bd a9 de 4e 3b 3b 9a 9a 3e 16 d1 6f bd
       -0.03467447 0.0031565821 0.30195794 -0.05854901
000340 ea 51 0e 3e 3f 2e 68 bd c7 07 80 bc 62 42 ab bb
       0.13898435 -0.05668473 -0.015628709 -0.0052264193
000350 ec 9e fb 3d 42 ec b0 3d 49 aa 01 be 5c cc 2a 3d
       0.12286171 0.086388126 -0.12662615 0.0416988
000360 e4 6c 25 bd 7e 9e 7c 3d 07 96 d0 bd 78 80 dd bd
       -0.04038705 0.061674587 -0.101848654 -0.10815519
000370 4e 6e 7d 3b 8a c9 68 3c 80 de df 3d 19 24 91 bd
       0.0038670483 0.014208207 0.109311104 -0.07086963
000380 a1 ae f6 bd be df 19 3e b9 97 35 be be 6f c2 3d
       -0.120450266 0.15026757 -0.17733659 0.094939694
000390 c0 d9 b0 3d 40 aa 16 3e 7b 13 ef 3d fb 0b 19 bd
       0.086352825 0.14713383 0.116736375 -0.03736494
0003a0 82 ed 5a 3d 23 4f 64 3c cd 21 01 be fb 90 44 3d
       0.05344916 0.013934883 -0.1261055 0.047989827
0003b0 7d 3f 8d 3d 4e 73 97 3c 2a 2a 1e bd d2 e6 0d 3c
       0.06896875 0.018487599 -0.03861443 0.008660989
0003c0 1c 75 97 bd 4d d1 d4 3c 0a 6c 88 bd 8e f9 4a ba
       -0.07395384 0.025978709 -0.06661232 -0.0007742875
0003d0 e0 6d 89 bd a5 8f 69 bc bb 52 58 3e fa 6f 6e 3d
       -0.0671041 -0.014255439 0.21125309 0.058212258
0003e0 c3 b7 a9 3b 02 11 9b 3d 46 58 02 3e c0 ae 36 3d
       0.005179377 0.07571603 0.12728986 0.04460025
0003f0 4b 4b 54 be 10 da 1b be 5d 40 7e bc 07 22 fd bd
       -0.20731847 -0.15219903 -0.015518275 -0.12360006

bias f4 [100]
000000 33 0c 62 3c 67 4f 3f 3c 95 6a 88 3d f0 44 69 bd
       0.013796854 0.011676646 0.06660954 -0.05695051
000010 95 25 a3 3d 93 17 a8 bc ad 24 bb bd b3 f8 18 bc
       0.079661526 -0.020519054 -0.09137855 -0.009336638
000020 c3 19 1c bd 6d 0d c6 bc 97 24 5a bd c8 f2 c4 3d
       -0.038110506 -0.024176324 -0.05325755 0.09616619
000030 0d c5 10 3c 9a d1 81 3c ab 72 cc 3d 9d 44 51 bd
       0.008836043 0.015847016 0.09982809 -0.051090825
000040 8d db bd 3c 27 15 40 3d 20 45 49 3d ca 65 31 3d
       0.023175979 0.046895172 0.04913819 0.043309964
000050 00 98 dc 39 cd de d0 bc b7 dc b4 3d 47 ec 22 3d
       0.0004207492 -0.025496865 0.088311605 0.039776113
000060 a7 73 50 3c 67 58 43 bd 6d a2 9a bd f0 16 3e bd
       0.012722886 -0.04769173 -0.075505115 -0.046408594
000070 27 00 f9 bc 80 22 6d 3d 50 d9 44 3d fd fd 2c bd
       -0.03039558 0.05789423 0.048058808 -0.04223441
000080 35 34 a1 bd 5a 21 39 bd a3 10 87 bd 2a 4a 19 3d
       -0.07871286 -0.045197822 -0.0659497 0.037424244
000090 8d 61 ac bc 72 25 8c 3d b0 7c 5f 3d ba a6 fb bc
       -0.02104261 0.068430796 0.05456227 -0.03071915
0000a0 20 46 37 bd a5 32 84 bd a7 79 27 3d 07 41 72 3d
       -0.04474461 -0.06454972 0.0408875 0.059144046
0000b0 2d ee ba 3d ea 01 3e bd 00 58 b3 ba 78 68 c4 3d
       0.0912746 -0.046388544 -0.0013682842 0.09590238
0000c0 af 40 c9 3d 73 a7 ba 3c 53 b7 81 bc 27 25 6e 3c
       0.098267905 0.022784924 -0.015834486 0.014535225
0000d0 93 ef e3 bc b0 ef 48 bd 60 31 c1 3d 37 94 85 3d
       -0.027824199 -0.04905671 0.09433246 0.0652241
0000e0 5f a7 af bd a7 cf 18 3d 63 73 3d 3d a7 b5 64 bc
       -0.085768454 0.037307408 0.04625262 -0.013959325
0000f0 df 89 a4 bd 30 85 c7 3d 5b 29 b1 3d 27 fb 1e 3d
       -0.08034109 0.097422004 0.08650466 0.038813736
000100 77 1e 1c bd 2d a1 a0 3c 07 4b f1 bc 50 31 11 3d
       -0.03811499 0.019608105 -0.029454721 0.03544742
000110 e7 a3 af bd c7 e0 95 bd 60 aa 9f bc 87 c7 cf 3c
       -0.08576184 -0.073182635 -0.01949042 0.025363697
000120 d3 e1 fe bc 1a 61 b3 bd 40 74 5c 3c 67 b7 39 3d
       -0.03111354 -0.08758755 0.013455451 0.04534092
000130 40 04 ac 3d b0 e7 4a bd a7 43 d8 3c ba 98 09 bd
       0.08399248 -0.04953736 0.026399447 -0.033592917
000140 c7 74 f7 bc cd b7 42 bb 53 35 95 3c d3 8a 8f 3d
       -0.030207051 -0.0029711605 0.018213904 0.070089005
000150 68 32 c8 3d 6d 1c 39 3d 2d 42 13 3d c0 80 7c 3d
       0.09775239 0.045193125 0.035951782 0.061646223
000160 1d 38 75 3d d0 b1 6a bd 8d 4e b4 3d a0 38 3a bd
       0.059867967 -0.05729848 0.08804045 -0.045464158
000170 73 fc 9e 3d e2 31 b2 bd 1d 2c ba 3d 0f 24 bf 3d
       0.077629946 -0.08700921 0.09090445 0.093330495
000180 93 50 16 3d 10 a4 a4 bd 27 1d e4 bc 40 a0 3b 3c
       0.036697935 -0.08039105 -0.027845932 0.011451781

weight f4 [1, 100]
000000 56 14 70 39 3b fc 1b bd e5 f5 3b 3d af ab 56 bf
       0.0002289576 -0.038082343 0.0458888 -0.8385572
000010 cb cb 85 3a c9 d6 af bd e2 57 63 3e 3c 30 77 b9
       0.001020783 -0.08585889 0.22201493 -0.00023573724
000020 e7 1d 8c be e3 41 1a be 70 6d 6f 3d 5e 75 89 bd
       -0.27366564 -0.15064196 0.058453977 -0.06711839
000030 16 b6 68 3d f4 67 81 ba 8d 33 b0 bc 36 38 64 ba
       0.056814276 -0.0009872899 -0.021508956 -0.0008705886
000040 b5 2d f4 3c 47 9c 06 bd 09 7b 4f 3e d0 02 b8 3d
       0.029806951 -0.03286388 0.20261778 0.089849114
000050 12 53 99 be 37 ac 4a bb c2 fe 40 b9 12 91 13 3c
       -0.2994619 -0.0030925402 -0.00018405452 0.009006755
000060 b3 f3 ee 3d 2c b1 1a bf b1 17 05 bb be 1b 63 be
       0.11667576 -0.6042659 -0.002030831 -0.22178552
000070 e8 b9 09 be ab 38 cd bd 97 ca b5 b9 0a 68 2d 3c
       -0.13449824 -0.10020574 -0.0003467395 0.010583887
000080 85 16 d3 3c 66 de 52 be 58 0f 23 3f 84 c8 22 bf
       0.025767574 -0.20592651 0.6369529 -0.6358721
000090 7d f9 55 3b 5a 9d e5 3c f7 04 0a 3e 2e d6 01 3e
       0.0032649927 0.028029133 0.13478456 0.1267936
0000a0 62 d9 53 bd 67 42 db bc 20 55 b6 3a b2 40 50 bd
       -0.051720984 -0.026765062 0.0013910867 -0.05084295
0000b0 6b 98 47 be e6 e2 2d 3b 58 2a 09 39 b4 49 2c 3d
       -0.19491737 0.0026532947 0.00013081112 0.042062476
0000c0 18 84 15 3e 1a a3 38 3e 4c b7 b5 bd 3c e7 86 3c
       0.14601171 0.18030968 -0.08872852 0.016467683
0000d0 84 2b 28 bd 2f 65 98 bd 7f b7 b5 3d af ab 42 bd
       -0.041057125 -0.07441174 0.0887289 -0.04752701
0000e0 55 d0 36 be 3b b6 1c 3e a7 52 e7 3d aa 65 3f be
       -0.1785291 0.1530389 0.112950616 -0.18691126
0000f0 61 fd 95 bc 5d e1 9e 3d 31 dc c5 3e f5 2d 22 be
       -0.018309297 0.077578284 0.38644555 -0.15837844
000100 19 60 a2 3d a2 ed e8 3c c6 5b fe 3d ad 25 de bd
       0.079284854 0.028433625 0.12419848 -0.1084703
000110 63 f5 9f bd 26 b0 fa bd a6 de 78 39 7d e9 f8 bd
       -0.07810476 -0.12240629 0.00023734066 -0.12153909
000120 4c 08 55 3a 7f b1 05 3e 2b 64 72 bd 21 1b 07 be
       0.00081265415 0.1305599 -0.05917756 -0.13193943
000130 0e b7 70 be a3 78 07 3e 48 97 7e 3e 84 99 80 3a
       -0.2350733 0.13229613 0.24862397 0.0009811376
000140 09 fc 12 3d 2a 4e 3e 3a a2 f4 57 3b a7 32 f4 3d
       0.03588489 0.0007259572 0.003295221 0.11923724
000150 29 f7 09 3e c7 98 85 3d 5b 0c be bd 04 08 db 3a
       0.1347319 0.065232806 -0.092797 0.0016710763
000160 d6 19 a8 3c 8b 97 35 bb c4 ff 60 ba c5 d5 f7 bd
       0.020520132 -0.0027708735 -0.0008583034 -0.1210132
000170 f7 10 00 be 2a fd 62 be f3 7c c3 3d dd 66 ee 3d
       -0.12506472 -0.22166887 0.095453165 0.11640713
000180 67 54 bb 3c 56 2c 95 bc 4d 0f 1c 3d 97 f1 01 bd
       0.022867395 -0.018209618 0.03810053 -0.03172454

S f4 [4, 4]
000000 00 00 00 00 00 00 00 00 00 00 80 3f 00 00 00 00
       0.0 0.0 1.0 0.0
000010 00 00 00 00 00 00 00 00 00 00 00 00 00 00 80 3f
       0.0 0.0 0.0 1.0
000020 00 00 80 bf 00 00 00 00 00 00 00 00 00 00 00 00
       -1.0 0.0 0.0 0.0
000030 00 00 00 00 00 00 80 bf 00 00 00 00 00 00 00 00
       0.0 -1.0 0.0 0.0
