Models/DoublePendulum/DoublePendulum_symplectic euler_50epoch_PAU()_Softplus(beta=1.0, threshold=20.0)_batchsize_64_shape_torch.Size([175000, 4]).pt (torch, 53472 bytes, 8 tensors)

numerator f4 [6]
00000000: 7525 37bb d428 223e 65c9 3dbf a583 543f
00000010: 1878 143f 9400 7abf
-0.002794591 0.15835887 -0.7413543 0.83013374 0.5799575 -0.9765713

denominator f4 [4]
00000000: a660 20bd 7d1f 2b3f ead9 b3bf 9fd7 8c3f
-0.03915467 0.6684492 -1.4050877 1.1003302

weight f4 [100, 4]
00000000: 11ea 1c3e acdf a13e b884 b33c f242 32be
00000010: beb5 873b 41ec 963b b70d 5ebc 7bbc 1d3b
00000020: 7f54 30be a3d1 393e 09bf a0be bc3c e43e
00000030: 88aa 603a f46c 553b fc50 ddbc c73f fa3c
00000040: 3661 283f 0e30 26bf dde1 47bc 76fd ad3c
00000050: 4588 d6ba 9e42 f43b 68cf 8b3b 1bf2 f1bb
00000060: 90b3 52bd 5c10 ebbc 1c18 4abd e17c 40bd
00000070: 4185 5bbe c7dc 95be 0466 963d b7dc cebd
00000080: 16b6 48be 41fc 10be 45f1 c13d 4aeb bcbd
00000090: 788a 2c3f cb40 2bbf 5cc7 5d3e 92bc 9bbe
000000a0: 3332 b2be ec5b 993e 0bc5 8d3e 4fd6 9abe
000000b0: 303b bbbe 56c7 f83d 941b 343e d252 67be
000000c0: bcaf 413c 7c21 88b9 f9c1 4ebd a660 963d
000000d0: ece6 03bd 8101 843d 85df 943e dc4e 4e3e
000000e0: 92c2 d7be ff91 3cbd f311 d4bd 9f83 173e
000000f0: 8a46 9abd bde4 53bd 18e1 8a3d 5a11 943e
00000100: 85ec 59ba b5ac ec39 0f8d 8db8 fb7a 0d39
00000110: 6cd0 46bd 2903 9ebe a45b 4dbd cf9c 4d3d
00000120: d8a6 193f 6624 18bf 4429 37be e565 7c3e
00000130: 10a0 a73b 4094 cb3b 1d1e 9bbc 1c68 e93b
00000140: 6ee3 0bbe a408 7ebd 6397 cb3d ff0f a1be
00000150: 9286 08ba f74c 163b 3428 8aba 1112 93ba
00000160: 786a 5cbb 8afb 12bc af50 513c 8367 403c
00000170: 0541 b6be 43cc 9c3e 7acc a9bd 14cb 8bbe
00000180: b735 0d3f 30d7 08bf 88b4 1cbd 1d5b 553d
00000190: 00f3 493c c460 693a e7db 52bd 8ed9 9a3d
000001a0: c1a9 243b 2ef1 ac3b e1a0 4d3d 6b9b 72bd
000001b0: f565 af3b f831 583b 326a 20bc 46ef e6ba
000001c0: c229 bd3d 770c 063e 05ac 653e 30d5 bbbe
000001d0: e10b 69bb 1dfa c3bb ac98 053c 277b 173c
000001e0: 0b6c 023f 0154 00bf a706 2cbe f391 793e
000001f0: 9b7d 2eba de0b 893a 90bf 26bb 9024 c2ba
00000200: c299 603b 47f7 463b 09a1 b5bc 6f84 b53c
00000210: 796d 203d 155d 2cbd b2ff 97be c1a9 c4be
00000220: ed97 073f 9d7a b03e d1c0 c43d 0b81 22be
00000230: 9c06 bf3e 4d71 653e 63bc 813d 5cd1 c0bd
00000240: ccc6 313b 1db5 c33a d840 febb 224a 8dbb
00000250: a73e 02be d696 2f3e d1bf 36be 9dc4 903e
00000260: d5d1 173d 80da a6bc 4ba3 17be e10c 9bbe
00000270: eec3 443e b25c ec3e f5f2 313e 7a85 74be
00000280: 0d6a 173b 2cf9 8c3b aac0 b6bc ec40 9e3c
00000290: 07b3 843b 2eb1 863b 6a35 3cbc b291 4c3b
000002a0: 95df ce3d 3242 9c3c cb33 10be 59ad 743e
000002b0: bab5 023e 2a65 003e 9b29 68be 4eb4 043f
000002c0: a405 143c ccb2 8bbb 8a7c 60bd 2cd6 a93d
000002d0: 6699 973b 5926 5d3b 9fde 00bd 6067 123d
000002e0: 91c0 57ba f269 9339 3c21 df39 1bc5 f638
000002f0: 7713 b43d 7cf1 0b3e 392e b83e 7e52 0abf
00000300: bcd5 c83e 3838 a2be 298d 673e 4fca a5be
00000310: 3ad9 9b3d 2e2d fe3c cdae 84be 7fca f6bd
00000320: b363 723e aea1 083e 10a8 373e 74c1 da3d
00000330: bfee 3d3c fd7f 773c 4669 0dbe 513e 3f3e
00000340: 19f9 953e 695e 8fbe 4b63 39be 04e7 4fbe
00000350: 7ac1 1d3f ca53 1dbf 42a0 0c3c 5730 8bbc
00000360: e149 283b 94ce 223b 427f 05bc 31dd 95bb
00000370: e901 3abb ab09 18bb 9039 4f3e 5c3f 69be
00000380: 3663 a13e 5d36 95be 1ca5 243e bc80 543e
00000390: 9cd9 413b c1f2 393b 373e 82bc b87e 043c
000003a0: 8b8e 723e f90f ed3d 1415 08be 4bbf 00be
000003b0: fc99 1ebf fbf2 1e3f 9da8 71be 94a0 a83e
000003c0: cd96 ab3e eff8 bebe 6c78 88be db9e c73e
000003d0: 4adb 203b bf2c 013b 73d6 48bc e7af c93b
000003e0: 6e6d 9fbe 5de0 aa3e 8986 89be 8c0a bf3e
000003f0: f72d d5be e6dc 9ebd 2672 fb3d ed8f 31be
0.15323664 0.3161596 0.021913871 -0.1740835 0.0041415384 0.0046058004 -0.013553075 0.0024068642
-0.17219733 0.18146376 -0.31395748 0.44577587 0.0008570333 0.0032566162 -0.027016155 0.03054799
0.6577333 -0.64917076 -0.012199846 0.021239024 -0.0016367516 0.0074542305 0.004266668 -0.0073835975
-0.051440775 -0.028694324 -0.0493394 -0.046994094 -0.21437551 -0.29270002 0.07343677 -0.10100692
-0.1960071 -0.14158727 0.09469847 -0.09224565 0.67398787 -0.6689574 0.21658081 -0.30417305
-0.34803924 0.29952943 0.27689394 -0.3024163 -0.36568594 0.12147395 0.17588645 -0.22590187
0.0118216835 -0.0002596489 -0.050477955 0.07342653 -0.032202646 0.06445599 0.29076782 0.2014727
-0.42140633 -0.04603767 -0.10354986 0.14796303 -0.075329855 -0.051731814 0.067812145 0.28919488
-0.0008313137 0.00045142104 -6.749678e-05 0.00013492622 -0.04853861 -0.30861786 -0.050136223 0.050198372
0.6002021 -0.5943054 -0.17886835 0.24648245 0.0051155165 0.006212741 -0.018935258 0.0071230065
-0.13660976 -0.06201996 0.09940984 -0.31457517 -0.0005208041 0.0022934058 -0.0010540546 -0.0011220594
-0.0033632796 -0.008971104 0.012775584 0.011743429 -0.3559648 0.3062459 -0.08290954 -0.27303374
0.5516009 -0.5345335 -0.038258106 0.052088846 0.012326002 0.0008902664 -0.051479246 0.075610265
0.0025125595 0.0052777743 0.050202254 -0.05923025 0.0053527304 0.0032988768 -0.009790944 -0.0017618916
0.0923648 0.13090692 0.22428901 -0.36686087 -0.003556006 -0.0059807436 0.008154076 0.00924567
0.5094611 -0.5012818 -0.16799413 0.24372081 -0.000665629 0.0010455807 -0.002544377 -0.0014811922
0.0034271334 0.003035979 -0.022171514 0.022157876 0.0391669 -0.042080957 -0.29687268 -0.38410762
0.52966195 0.34468547 0.09607089 -0.15869538 0.3730973 0.22406502 0.0633476 -0.09414932
0.0027126549 0.0014931295 -0.007759195 -0.004311816 -0.12719212 0.17147383 -0.1784661 0.28275004
0.037065346 -0.02036786 -0.14808385 -0.30283263 0.19215366 0.4616447 0.17377837 -0.23879042
0.0023103983 0.0043021645 -0.022308666 0.019318067 0.004049662 0.004110477 -0.011487344 0.003121477
0.10101239 0.019074533 -0.14082257 0.23894252 0.12764636 0.12538591 -0.22672121 0.51837623
0.009034548 -0.0042632576 -0.05480627 0.08292803 0.004626441 0.003374478 -0.031462308 0.035743117
-0.0008230294 0.0002811696 0.00042558636 0.00011766908 0.08792775 0.13666338 0.35972765 -0.54032123
0.39225566 -0.31683517 0.22612442 -0.32380912 0.07609792 0.031027403 -0.25914612 -0.12050342
0.23670845 0.13342926 0.17935205 0.106814295 0.011592566 0.015106198 -0.1380969 0.18676116
0.2929161 -0.28001717 -0.18104284 -0.20302969 0.61623347 -0.61455977 0.00858313 -0.016990824
0.00256788 0.0024842368 -0.008148016 -0.004573487 -0.0028382486 -0.0023199122 0.20236802 -0.22778076
0.31521004 -0.29143038 0.16078609 0.20752233 0.0029579168 0.0028373452 -0.015898807 0.008086853
0.23687188 0.11575312 -0.1328929 -0.12572972 -0.6195371 0.6208951 -0.23599477 0.3293501
0.3351349 -0.37299296 -0.26654375 0.38988385 0.002454477 0.0019710509 -0.01225816 0.0061550024
-0.31138176 0.333743 -0.26860455 0.37312734 -0.4163663 -0.07756977 0.122776315 -0.1734006

bias f4 [100]
00000000: c02c 013f 907d ed3d d5f6 233f 5307 0c3e
00000010: 50b2 0cbf 280f debe 05fd e13e 4fd1 0fbf
00000020: d9f2 19bf 103f 21be 4e2a e63e 1f57 56bd
00000030: 5473 143e 7602 323e 60d0 14bf 3b6e 11bf
00000040: cf5c 143e 8075 e03e e1f4 49be f4d8 e33d
00000050: 8228 d03e 1c45 35bc 20bf 093f b72c c03e
00000060: 38fc eb3e 36b4 153e 586e 153e edaa df3d
00000070: 3520 16bf 4ffe 023f 7cb3 06bf c6eb 033d
00000080: 925a 093e 9642 c83e efdd dd3e 29fd 1ebf
00000090: 67ea d63d 5220 88bc dcfd 1cbf a33d af3e
000000a0: 1a10 063e daea f53d cd1a 433e b40d a33e
000000b0: e206 173e f557 0c3e 7265 143e c0c6 173f
000000c0: caf7 a9bc 659b 1bbf 1b36 1ebf 0bd3 18bf
000000d0: a63f bc3e 4ba5 27be a52c e33d cfdd 1dbf
000000e0: ed9e be3e 3024 fa3d 2c46 18bf 1be2 0fbe
000000f0: 77be b23e 6435 003e 564d 943d 1ca0 11bf
00000100: 83f0 2c3f 2023 82bd b140 163e c941 bb3e
00000110: 29eb 15bf 16d6 0f3e 1c7a 053e bd6f de3e
00000120: 08e1 17bf c006 0d3f 0340 bf3e 6b06 e63e
00000130: 605c 103e 6e5e c8bd 4dab bc3e a475 0a3e
00000140: c72e eb3e 13be 163e 8bea e83e de6e f63e
00000150: 2634 ac3d 3cbf c43c a0c3 da3e 7a1d ec3d
00000160: 921d 133f cb44 63bd 5075 e93d 4ba4 143e
00000170: 71f2 d43e 49be 91bd 5727 fbbe bbdf 13bf
00000180: 2c66 2f3f 31f6 eb3e d6c2 13be 1138 de3e
0.5045891 0.11596215 0.6404851 0.13674669 -0.54959583 -0.43370938 0.4413835 -0.56178755
-0.6013618 -0.15746713 0.4495415 -0.05232918 0.14497119 0.17383751 -0.58130455 -0.56808823
0.14488529 0.43839645 -0.1972232 0.11125365 0.40655905 -0.01106384 0.5380726 0.37534115
0.46090865 0.14619526 0.14592874 0.109212734 -0.58642894 0.51169294 -0.5261762 0.032207273
0.13413456 0.391133 0.43333384 -0.6210504 0.104939274 -0.016616974 -0.6132486 0.34226713
0.1309208 0.12007685 0.19053192 0.31846392 0.1474872 0.13705428 0.14491823 0.59287643
-0.020748038 -0.6078399 -0.6180131 -0.59697026 0.3676731 -0.16371648 0.110925 -0.6166658
0.37230626 0.122139335 -0.59482074 -0.14051096 0.34910938 0.12520367 0.07241313 -0.5688493
0.6755449 -0.06354356 0.14673115 0.36573628 -0.5856195 0.14046511 0.13034862 0.43444625
-0.59327745 0.55088425 0.37353525 0.44926772 0.14097738 -0.09783636 0.36849442 0.13521439
0.45934126 0.14720945 0.45491442 0.4813146 0.08408384 0.024016969 0.42727375 0.1152906
0.57466996 -0.055485528 0.11399329 0.14515798 0.41591218 -0.07116372 -0.4905345 -0.5776326
0.68515277 0.46086267 -0.14429793 0.4340215

weight f4 [100, 100]
00000000: 38f2 d8bd 7c44 c63d b8bf 2a3c 2ebf c9bd
00000010: 6e3c 393c e836 923e cae4 a0bc c48f 65bc
00000020: af10 ea3d eaf8 98bc 7629 793c 9edf 3c3d
00000030: c634 c03d 6027 213d 3503 02ba 9dd3 573d
00000040: 0223 613d 1bb2 e03d 06c5 a3bc d7de 8e3e
00000050: 5ef4 68bd 521e 0d3e a9d6 17be 790a f63b
00000060: 5361 16bc ec70 d1bc 188e 0c3b d21e 873d
00000070: 538f 8e3c 1245 1cbe 46c2 2d3b 740a fc3c
00000080: 6dd0 3d3d 4a0c 63bd ff24 a13d 0d46 a1bd
00000090: 84d7 88be 7835 2f3d 5e2d 2139 335c f1bc
000000a0: 4c2e a0bc d3ad 813e e47d 02be 567b c73c
000000b0: 4461 893c 8af5 53bd 6448 4abe 1e83 163a
000000c0: 3ebc 813c 4b4e dcbd b41c 043d 205b 813d
000000d0: 0688 b13c 26b0 103d ab0e 09bc a101 223e
000000e0: 6500 acba 902a fa3c 5c28 a53d 58a5 d13b
000000f0: 2a8d 21bc 6953 c83c 4f44 17bc 34dd 903c
00000100: 3f56 2b3c 338a 843d 3d39 a13b 8163 a9bb
00000110: 858b 643d ff37 f23a 5d42 97bd 4487 23be
00000120: 8823 52bc 1770 87bc 88bb 1dbc af75 9f3d
00000130: b62a 9d3c c94c 303e 469f ca3d 9a80 823d
00000140: e4b4 4abd bb86 efbd 75cf 15bd 1e02 d73c
00000150: bfcf 6abe e637 a03e 48f2 5cbd 7d66 4abc
00000160: 6437 2dbc 0df3 76bd 9b27 52bc d4d3 ee39
00000170: b25e d23c f252 62bc 084e 89bd 4da1 4ebd
00000180: c567 9b3b 9fb4 4dbe 4b08 103c 9dce 95bc
00000190: 2efe 2abe 3e33 4d3d 309e 873b d279 55bd
000001a0: 733c c5bb 26a7 8a3e e614 c93c 7b79 9bbd
000001b0: 20d1 883d 8903 5a3b 768c 2b3c 014e b93c
000001c0: 6d0c a8bd 750c c9bb fa9d 40bd 2a78 8b3d
000001d0: 0dd8 79be 8604 303d 28ab 8dbc 002d a23d
000001e0: c692 b2bd 922b 3a3e b70b 5dbd 1f77 7d3c
000001f0: 04bc d5ba 0b35 87be 8dbe 033c 820b 363e
00000200: b9eb 02bd c529 c1bd 9836 1f3c ec13 7e3e
00000210: 6005 c23d 0e24 d5bc 3c5a d9bb d7b6 823d
00000220: e660 f03d 8ae6 75bd d92f 273d d3ff 6f3d
00000230: d6be f93d 24b1 77bd c3f7 dabb 9311 8cbc
00000240: 7632 dabd a992 49be b61b 40be 8d42 103d
00000250: 7e94 0ebc efaf 19be 9b77 11bc a434 0a3e
00000260: 6cf4 753b a047 163c 193e 413d a1e2 c73e
00000270: 4870 8fbc 548e 8e3c de47 3a3d 6b1f c2bb
00000280: 3b8a 2dbd bce8 fabc 0a63 e6bc 7849 00bb
00000290: 4d61 c5bb 9add 033d 6131 53bd 2043 583d
000002a0: 1306 383d 9177 123d cfd1 10be 46ed 3ebe
000002b0: 940b 823c c8a3 f43c 0174 b03b a780 873d
000002c0: 137d 75be e851 8d3e da47 cebd 8935 79bd
000002d0: 0152 333c 392c dfbd 46b9 1dbd 50fd 853d
000002e0: 3320 a6bc 98e3 223e d0c9 7dbd 746e 703e
000002f0: 6f1b fb3b 644d 89bd 41b9 343e 154b a4bc
00000300: 8310 013c 314c b63c 4c2e 2dbd b5fb 24be
00000310: 8bab 66bc 6d20 77be 93e3 923c b5d4 1ebd
00000320: c719 4b3d 0364 0c3e 8e8f be3c b857 b0bd
00000330: f1ec 783c adb0 973e d3a0 7bbe f794 6c3c
00000340: 2610 a33d 81bb 36bc 7e12 81bb 6dcc b13c
00000350: f4b1 4bbd 0888 75bb 1df1 9c3b 6d04 413c
00000360: e574 aebd 7a14 76bd fcf3 79bc 698f 093e
00000370: 5be0 6abd 2194 00bd 5467 d6bd ef22 f1bb
00000380: f3f6 71bc 95fe e6bc 346f 973d 8d8c 833d
00000390: 0839 993d 485b c8bd 57ad 1bbb 18a6 c93e
000003a0: 1ed4 10bd 4124 edbb b5fe 1f3d 32e1 85bd
000003b0: e7c3 563e 8120 a33d c6e7 00bc 80cc 0a3c
000003c0: 782b 203e 6fb6 8dbb 2f11 843d b19e ca3c
000003d0: db55 2dbe 8e0c 9abd 7bfe 8abd 507e 91bc
000003e0: 2ba7 023d ab86 28bb 0201 ac3d 9e78 7e3e
000003f0: 8b62 013d 5eff b03c 9172 173e daf0 883b
-0.105930746 0.09681031 0.010421686 -0.09850918 0.0113059115 0.28557515 -0.019640345 -0.014011327
0.114289634 -0.018673379 0.015207639 0.046111695 0.09385066 0.03934419 -0.00049595843 0.052692045
0.054965027 0.10971471 -0.019991409 0.27904388 -0.05687367 0.13781098 -0.1482798 0.0075085727
-0.009178477 -0.02556654 0.0021447 0.065976754 0.017402327 -0.15260723 0.00265135 0.030766703
0.04634135 -0.05543164 0.078683846 -0.07874689 -0.26726925 0.0427756 0.00015371057 -0.02946291
-0.019553326 0.2532793 -0.12743336 0.024350803 0.016770013 -0.051747836 -0.19754177 0.0005741584
0.015836831 -0.10757121 0.032253936 0.06316209 0.021671306 0.03532424 -0.0083653135 0.15820934
-0.0013122676 0.030537874 0.080643386 0.0063978843 -0.009860316 0.024453836 -0.009232595 0.017683603
0.010457574 0.06471672 0.0049201534 -0.0051693325 0.05579712 0.0018479823 -0.07385705 -0.15969568
-0.012825854 -0.01653294 -0.00962723 0.07786118 0.019185405 0.17216791 0.0989366 0.06372185
-0.049488917 -0.1169562 -0.0365748 0.026246127 -0.22930811 0.31292647 -0.053941995 -0.012353537
-0.010572288 -0.060290385 -0.0128268255 0.00045552722 0.02567992 -0.013813721 -0.067043364 -0.050446797
0.004742595 -0.20088433 0.00879104 -0.018286997 -0.16698524 0.050097696 0.0041387305 -0.05211813
-0.006019169 0.2708065 0.024546098 -0.0759153 0.066805124 0.0033266267 0.0104705 0.022620203
-0.08205495 -0.006135518 -0.04702566 0.06810029 -0.24398823 0.042973064 -0.017293528 0.07918739
-0.08719401 0.18180683 -0.05396625 0.015470295 -0.0016306643 -0.26407656 0.008041036 0.17777827
-0.031963084 -0.09431795 0.009717606 0.24812287 0.094736814 -0.026018169 -0.006633071 0.0638253
0.11737232 -0.060034312 0.040817115 0.058593582 0.12194602 -0.06047167 -0.0066823675 -0.017098224
-0.10654156 -0.19684853 -0.18760571 0.035219718 -0.0087023955 -0.1500852 -0.008878614 0.13496643
0.003752972 0.00917235 0.04717836 0.39040092 -0.017509595 0.017401852 0.045478694 -0.0059241555
-0.042368155 -0.030628555 -0.028123397 -0.001957504 -0.006023562 0.032193758 -0.051560763 0.05279839
0.044927668 0.03575856 -0.14142536 -0.186452 0.015874662 0.029863253 0.0053849225 0.06616335
-0.23973493 0.27601552 -0.10072298 -0.06084207 0.010944844 -0.10897107 -0.03850677 0.06542456
-0.020279026 0.15907133 -0.06196004 0.23479635 0.0076631824 -0.06704214 0.17648794 -0.020055333
0.007877472 0.022253128 -0.04228048 -0.16111644 -0.014078985 -0.24133463 0.017930781 -0.038777072
0.04958513 0.13710026 0.023261812 -0.08610481 0.01519321 0.2962698 -0.24573068 0.014439813
0.079620644 -0.011153103 -0.003938972 0.021703923 -0.049730256 -0.0037465114 0.004789485 0.01178084
-0.085183896 -0.06007812 -0.015255924 0.13433613 -0.05734287 -0.031391267 -0.10468927 -0.0073589007
-0.01476835 -0.028197566 0.07394257 0.06423292 0.07481581 -0.097830355 -0.0023754442 0.39384532
-0.03535854 -0.007236988 0.039061267 -0.06537093 0.20973168 0.07965184 -0.007867759 0.008471608
0.15641582 -0.0043247263 0.0644859 0.024733873 -0.16927283 -0.07521926 -0.067868195 -0.017760426
0.031897705 -0.0025715034 0.0839863 0.248507 0.03158812 0.021606144 0.14789797 0.0041791024

bias f4 [100]
00000000: 7e43 6bbf b9d4 8fbf f347 86bf 88ba 8fbf
00000010: 2c99 78bf 214d 30be 14c1 29bc ea59 4dbf
00000020: 7cf0 56bf 02fc 82bf e09e b83d 1c74 b0bf
00000030: c101 34bf 8553 a9be 322b 2abe 357f 19bf
00000040: 9866 bebd 312c 5bbf 0a2b 65bd 9145 8abf
00000050: a74c 94bf 9b2d 56be 868d 6bbf 9b2d 963d
00000060: 411c f7bd 141c 5bbe 33f9 46be dec1 3f3d
00000070: c02f 5c3c 84fd 4cbd 6d0e d2bd c537 52bf
00000080: f7cd 27bf 4f2a 9dbf a201 2cbf df4b 29bf
00000090: e682 81bf 1477 62bf 2802 98bf b7fb 36bf
000000a0: 6176 dbbe 49c9 e0bc 8dd0 04bd 0380 1ebf
000000b0: 2390 67bc 5e14 86bf 878a 71bf 43d4 a4bf
000000c0: 0127 adbf 84e9 95bd 8de9 11bf 1723 85bf
000000d0: 9c6b c7bd 9039 37be 03ab 05be a00f 4ebd
000000e0: dfc8 4e3e e3b8 38be faf3 b4bd 1bf2 dabe
000000f0: 449e 3abf 5b2e c9bd bdd6 4bbf aec7 29bd
00000100: 12c7 35bf aec8 b93d 00c8 03be 832f 77bf
00000110: 3517 1e3d 21c3 4dbf bad1 45bf 8d1c 4e3e
00000120: 30dc 25bd 3313 27be 6bd0 173d 8748 96bf
00000130: 202b a8be b398 e2bd 2aad e5bc a41e debd
00000140: 7357 24bd 7e16 4fbe c220 2ebd 94a6 a3bf
00000150: 9641 11bf f75a aabd 6357 70bf dc96 aabd
00000160: d261 33bf 8997 68bd 52a8 66bd 065b 38bd
00000170: ad47 92be 33ed e1be d9b5 3fbe 894e c4bd
00000180: e2aa d1bd 25d4 82bf 31a6 c2bd 1c9c 9bbf
-0.9189986 -1.1236793 -1.0490707 -1.12288 -0.9710872 -0.17216922 -0.010360975 -0.8021532
-0.839607 -1.0233157 0.09014678 -1.3785434 -0.70315176 -0.33071533 -0.1661804 -0.5995973
-0.09296912 -0.85614306 -0.05594925 -1.080248 -1.1585892 -0.20915835 -0.9201282 0.07332917
-0.12065936 -0.2139743 -0.19431 0.046815746 0.013439119 -0.05004646 -0.10256658 -0.8211635
-0.6554865 -1.2278537 -0.6718999 -0.66131395 -1.0118072 -0.8846295 -1.1875658 -0.71477836
-0.42863753 -0.02743973 -0.032425452 -0.6191408 -0.014133486 -1.0474966 -0.94352 -1.2877277
-1.3527528 -0.0731993 -0.56996995 -1.0401334 -0.09737322 -0.17893052 -0.13053517 -0.05030787
0.20193814 -0.18039279 -0.08835597 -0.42762837 -0.72897744 -0.09823295 -0.7962454 -0.041450195
-0.7100688 0.0907148 -0.12869263 -0.9655687 0.03859635 -0.8037587 -0.7727314 0.20128079
-0.04049319 -0.16315918 0.037063997 -1.1740884 -0.32845402 -0.11064281 -0.028036673 -0.10845688
-0.04012246 -0.20223424 -0.04251171 -1.2785211 -0.567407 -0.083181314 -0.9388334 -0.083295554
-0.70071137 -0.05678514 -0.056312867 -0.04500868 -0.2857031 -0.4412628 -0.18721713 -0.09585292
-0.102376714 -1.0220991 -0.09504355 -1.2157016

weight f4 [1, 100]
00000000: 76f7 f2ba e056 8d3a fef0 84b9 283d c638
00000010: 63e7 6639 8301 fb3d 07d7 a83e df48 753a
00000020: b55a 20bb e4e2 033a fa1e 393e 1a0e 843a
00000030: 8bf0 c2ba 938b 863c f429 1e3e a355 e13a
00000040: 4ed5 333e 51bf ffb9 4b23 7a3e c7e3 d8ba
00000050: 4051 89b8 7852 573e 4535 013b 8d3c 913e
00000060: 29b2 bc3c 0e7c 1d3e 6b07 233e 5b52 97bd
00000070: 0eaf 203e 994e adbd e056 6a3d 7382 1d3a
00000080: 40db 1739 42b1 33ba 206c 943a 9041 e5ba
00000090: 7bc6 3abb 3d94 22bb 27f1 a83a aa4c 083a
000000a0: 08e8 f2b7 61ab 233d 1623 163e 7109 7a39
000000b0: eca6 9a3e ff1f a5ba 1231 c6ba e7a4 ee39
000000c0: 88d1 81ba 7735 a3bd 5194 ffb9 181f 7fb8
000000d0: fcc9 113e 03da ef3d 827b 14be 622f 0d3e
000000e0: 7360 46be 2c15 813d 927e 813e e4c7 a13a
000000f0: 0e9b fe3a eedb 283e d1d2 26ba 84cd 003e
00000100: 660f 6c39 38f0 31be 0e71 ec3d 14c5 feba
00000110: 8466 883e a5f0 dfba 5c3b 4a39 b320 8dbe
00000120: 12ca 603e 5c4d 833e 50e7 793e c61c ddba
00000130: 2aec 15ba dd89 3f3e 35b2 c43e 5367 24bd
00000140: 551a e73d 96f7 e13d 95a5 40bd 0169 36ba
00000150: 5a58 da39 497f 063e 1c09 f639 9e1c 583e
00000160: 7b78 abba 0cce a53e e29a 263e 2769 e63d
00000170: 9606 203d aa40 a33a d782 0d3e d6ea 703e
00000180: e62f 8e3d 51ff b13a ae37 203e 05c5 d7b9
-0.0018536884 0.0010783337 -0.00025356555 9.452767e-05 0.00022020708 0.12256148 0.32976553 0.0009356867
-0.0024468128 0.0005031063 0.18078223 0.0010075003 -0.0014872713 0.016423976 0.15445691 0.001719166
0.17561838 -0.00048779932 0.24427526 -0.0016547375 -6.547803e-05 0.21027553 0.001971559 0.2836651
0.023034172 0.15379354 0.15920798 -0.07388755 0.15691778 -0.08462257 0.057211757 0.0006008513
0.00014482159 -0.00068547216 0.0011323728 -0.0017490853 -0.0028499651 -0.0024807595 0.0012889252 0.0005199412
-2.8956696e-05 0.03995836 0.14661822 0.00023845375 0.30205476 -0.0012598037 -0.0015120825 0.0004551776
-0.0009904364 -0.07969182 -0.00048747894 -6.0825696e-05 0.14237207 0.11711504 -0.1450024 0.13787606
-0.1937273 0.06302866 0.25291878 0.0012342897 0.0019424872 0.16490147 -0.00063638116 0.12578398
0.0002251245 -0.17376792 0.11545001 -0.0019437396 0.26640713 -0.0017085267 0.00019286334 -0.2756401
0.21952084 0.25644958 0.24404645 -0.0016869537 -0.000571909 0.18704934 0.3841721 -0.0401376
0.11284319 0.110335514 -0.04703291 -0.0006958396 0.00041646027 0.13134493 0.00046927563 0.21104667
-0.0013082171 0.32383764 0.1627002 0.11250525 0.03906878 0.0012455184 0.13819443 0.23527083
0.0694273 0.0013580119 0.1564624 -0.00041154787

S f4 [4, 4]
00000000: 0000 0000 0000 0000 0000 803f 0000 0000
00000010: 0000 0000 0000 0000 0000 0000 0000 803f
00000020: 0000 80bf 0000 0000 0000 0000 0000 0000
00000030: 0000 0000 0000 80bf 0000 0000 0000 0000
0.0 0.0 1.0 0.0 0.0 0.0 0.0 1.0
-1.0 0.0 0.0 0.0 0.0 -1.0 0.0 0.0
