Models/DoublePendulum/DoublePendulum_symplectic midpoint_50epoch_Sin()_ReLU()_batchsize_64_shape_torch.Size([549500, 4]).pt (torch, 51757 bytes, 6 tensors)

weight f4 [100, 4]
-1.119921e-08 -2.9129557e-08 1.7185862e-08 2.1009933e-08 0.0052783317 -0.0010769515 0.007405488 -0.005904768
2.2301838e-06 8.026979e-09 1.2224543e-05 4.608331e-06 7.030673e-08 -9.5248165e-09 2.9234712e-08 7.1245736e-08
1.3355863e-07 6.1695424e-08 -1.4986492e-09 7.874579e-08 0.7890406 0.17892167 0.058894962 -0.12657374
2.3384056e-08 8.321563e-09 5.598504e-08 -9.073604e-08 7.3057826e-10 4.285951e-09 2.7606117e-09 5.427874e-09
2.0496506e-08 3.2655298e-09 2.3585606e-08 2.1387768e-08 9.013098e-09 -4.0844267e-10 -1.6921902e-09 -3.4977874e-09
-2.258681e-08 -1.1174094e-08 -3.075007e-08 -4.6818624e-08 2.5263994e-08 2.8488614e-08 2.287138e-08 -3.4208478e-09
0.059838884 0.027876018 -1.7561392 2.388842 -0.30981642 -0.82950795 0.22713521 -0.29747874
1.806765e-08 6.0046865e-08 5.9233184e-08 -4.5308713e-08 -2.9836018 2.955228 0.67371076 -0.97677857
-1.5899159e-09 9.527894e-09 4.6249733e-09 1.9101602e-08 2.5832364e-08 3.7443954e-08 1.6521165e-08 -9.034422e-10
-2.0914577e-08 -2.773574e-08 -1.629204e-08 1.0987783e-08 1.7286629e-08 1.8355601e-08 5.4349734e-09 6.2425967e-09
-3.7760767e-08 -1.4574981e-07 -4.827655e-08 7.8177656e-08 0.022469094 0.027067604 0.5231323 0.70007575
-2.1511813e-08 -2.2492808e-08 -1.21387e-08 -7.923547e-09 1.1617012e-06 3.9584737e-07 1.4466737e-07 -2.6461946e-06
2.0341606e-06 1.6392917e-06 5.586221e-07 -7.760269e-07 -1.9362519e-08 2.4882073e-07 2.3792009e-07 -3.1698377e-07
8.034388e-08 2.6740766e-08 -1.1215565e-09 -5.5488243e-08 -7.079522e-09 -1.15927605e-08 -1.205308e-08 -1.1807008e-08
-0.17493212 0.18935078 0.37832358 -0.5802455 -3.133579e-08 -5.4733636e-08 -2.092741e-08 -5.630473e-08
-1.9551295e-07 -2.2756808e-08 8.413508e-08 -1.9856472e-07 -1.5717124e-08 -8.106426e-09 1.8016825e-08 2.4882624e-08
-0.8184785 0.8204529 -0.7503604 -0.9817692 -1.2186868e-08 5.7257172e-09 -1.5761204e-08 3.061934e-08
-0.005859829 0.0043042013 0.41020703 0.42875433 -2.2122228e-08 -1.5359051e-08 -2.5659144e-08 -1.06807025e-08
-0.51018023 -0.3293127 0.05268885 -0.032930598 -4.1300176e-08 -1.5633023e-07 3.442986e-08 5.8209164e-08
-1.7787936e-09 6.2800884e-09 7.0938135e-09 2.8960958e-09 -1.7483988e-08 -1.6917216e-08 -1.8760943e-08 -1.0753274e-08
5.1274444e-08 2.3632902e-08 2.913353e-08 1.8397e-08 3.4282234e-08 -7.508574e-10 7.73391e-09 2.1773516e-10
0.5673604 -0.56226236 -0.7210804 0.92912936 0.12375414 0.07534225 -0.4237647 -0.54811287
-1.5056605e-08 -5.8499983e-09 -3.0944087e-09 1.7751729e-08 4.9835982e-08 1.2509666e-08 3.1394723e-08 7.935898e-09
-0.014586374 -1.3501004 -0.061790768 0.094132505 -1.3232661 0.008540147 0.01469199 -0.012415006
-1.1586404e-07 4.344254e-07 -2.0915257e-07 2.008341e-07 -0.8231345 0.8078794 0.7247798 0.9362781
-2.9817496e-08 -1.8602767e-08 -5.8222653e-09 -3.0713718e-08 -1.0038138e-07 -1.0551349e-07 -1.556346e-07 1.937381e-07
3.791777e-08 6.877336e-08 -3.485968e-08 8.58808e-08 -2.7612814e-09 7.928649e-09 -4.5182658e-09 -2.728956e-08
6.305681e-08 -3.6868133e-08 -6.320013e-08 -9.416206e-09 4.2736367e-08 1.7974888e-09 -1.0573645e-08 4.02587e-08
1.213593e-07 1.4045159e-07 -1.3882652e-07 6.893623e-08 -4.2424197e-09 -2.0416794e-08 -1.8970773e-08 -2.5718252e-08
-0.5787871 -0.31475607 -0.070505574 -0.1620575 1.933696e-07 -6.705377e-07 9.596521e-08 1.2907192e-07
1.2507203e-07 -2.944586e-07 -1.1346361e-07 -9.774182e-08 -2.3374945e-08 -1.4209652e-08 -1.2129515e-08 -7.603069e-09
-3.0057442 2.9805858 -0.011992764 -0.0054995893 3.8782805e-08 2.8021201e-08 1.4959102e-08 -8.431733e-09
00000000: a566 40b2 9338 fab2 1ca0 9332 5579 b432
00000010: dbf5 ac3b 7f28 8dba bca9 f23b c97c c1bb
00000020: 44aa 1536 07e7 0932 0318 4d37 43a1 9a36
00000030: 89fb 9633 96a2 23b2 d01f fb32 c2ff 9833
00000040: 5168 0f34 6b7d 8433 08f9 cdb0 f51a a933
00000050: 91fe 493f 3e37 373e d83b 713d 8c9c 01be
00000060: 15de c832 9ff6 0e32 3474 7033 aada c2b3
00000070: e0d1 4830 a043 9331 32b5 3d31 1680 ba31
00000080: 4b10 b032 cf67 6031 4c99 ca32 33b8 b732
00000090: 06d8 1a32 328b e0af a692 e8b0 ba5d 70b1
000000a0: ec04 c2b2 2ff8 3fb2 0f12 04b3 9f15 49b3
000000b0: 1c04 d932 20b7 f432 b276 c432 3114 6bb1
000000c0: 9e19 753d 3f5c e43c 2bc9 e0bf cae2 1840
000000d0: 42a0 9ebe a25a 54bf 2296 683e 224f 98be
000000e0: 2f33 9b32 1df3 8033 9367 7e33 7599 42b3
000000f0: 55f3 3ec0 7522 3d40 4f78 2c3f 290e 7abf
00000100: 3184 dab0 1fb0 2332 b2e9 9e31 de14 a432
00000110: f8e5 dd32 10d2 2033 6dea 8d32 1856 78b0
00000120: a4a7 b3b2 8a3f eeb2 93f2 8bb2 c8c4 3c32
00000130: b37d 9432 65ac 9d32 88be ba31 767e d631
00000140: 672e 22b3 677f 1cb4 a158 4fb3 9fe2 a733
00000150: 1b11 b83c e1bc dd3c 00ec 053f 2a38 333f
00000160: fac8 b8b2 3536 c1b2 918a 50b2 2120 08b2
00000170: c0eb 9b35 d984 d434 dd55 1b34 4795 31b6
00000180: 9d82 0836 a205 dc35 38f4 1535 2a50 50b5
00000190: a152 a6b2 a995 8534 fa76 7f34 eb2d aab4
000001a0: 8489 ac33 91b3 e532 4325 9ab0 f851 6eb3
000001b0: 2240 f3b1 8029 47b2 0212 4fb2 c5d7 4ab2
000001c0: 6821 33be 2ce5 413e a1b3 c13e f88a 14bf
000001d0: 1196 06b3 4514 6bb3 dcc3 b3b2 b5d3 71b3
000001e0: 31ee 51b4 c07a c3b2 c0ad b433 0e35 55b4
000001f0: 5202 87b2 7044 0bb2 6bc3 9a32 78bd d532
00000200: cf87 51bf 3409 523f 9f17 40bf 3a55 7bbf
00000210: 6a5e 51b2 f1bb c431 4163 87b2 5282 0333
00000220: cf03 c0bb 420a 8d3b a806 d23e b085 db3e
00000230: 4b07 beb2 e9ee 83b2 0e69 dcb2 3a7e 37b2
00000240: 2c9b 02bf ad9b a8be 43d0 573d 3ce2 06bd
00000250: 0662 31b3 badb 27b4 08e0 1333 a701 7a33
00000260: bc79 f4b0 3ec8 d731 d8bd f331 a804 4731
00000270: b22f 96b2 5a51 91b2 c027 a1b2 66bd 38b2
00000280: d938 5c33 4d01 cb32 4f41 fa32 6e07 9e32
00000290: b73d 1333 e464 4eb0 19de 0432 0067 6f2f
000002a0: 883e 113f 6df0 0fbf ba98 38bf 6cdb 6d3f
000002b0: d072 fd3d 0a4d 9a3d b0f7 d8be 2051 0cbf
000002c0: d355 81b2 2101 c9b1 6aa5 54b1 777c 9832
000002d0: 3e0b 5633 18ea 5632 ddd6 0633 7356 0832
000002e0: b0fb 6ebc 17d0 acbf 5118 7dbd 8bc8 c03d
000002f0: c960 a9bf f9eb 0b3c acb6 703c 4f68 4bbc
00000300: eed0 f8b3 f93a e934 6c93 60b4 dba4 5734
00000310: f1b8 52bf 2fd1 4e3f 2b8b 393f ecaf 6f3f
00000320: af10 00b3 ebcb 9fb2 300d c8b1 17ea 03b3
00000330: 3f91 d7b3 a896 e2b3 831c 27b4 5306 5034
00000340: 07db 2233 8eb0 9333 a0b8 15b3 786d b833
00000350: fac0 3db1 9136 0832 163f 9bb1 616a eab2
00000360: d969 8733 f158 1eb3 a4b8 87b3 e9c4 21b2
00000370: 228d 3733 840b f730 62a7 35b2 e9e8 2c33
00000380: fe4e 0234 0acf 1634 5810 15b4 180a 9433
00000390: b8c4 91b1 0161 afb2 2cf5 a2b2 09eb dcb2
000003a0: 642b 14bf b527 a1be 3a65 90bd 67f2 25be
000003b0: 08a1 4f34 00ff 33b5 6f15 ce33 0597 0a34
000003c0: 8a4b 0634 1516 9eb4 47a9 f3b3 22e6 d1b3
000003d0: 0cca c8b2 b61e 74b2 2c62 50b2 a79e 02b2
000003e0: 1d5e 40c0 ebc1 3e40 4c7d 44bc e635 b4bb
000003f0: 2592 2633 46b3 f032 6a7f 8032 27db 10b2

bias f4 [100]
1.5707963 -1.5719454 1.5707949 -1.5707965 -1.5707963 -1.4358269 -1.5707963 1.5707964
1.5707964 1.5707964 -1.5707964 1.5707964 -1.5718731 -1.5648825 -1.5707961 1.1895734
1.5707964 -1.5707963 -1.5707964 1.5707964 1.5707959 -1.5692579 1.5707964 -1.5707965
-1.5707966 -1.5707966 1.5707964 -1.5707964 1.5738325 -1.5707963 1.5707965 1.5707964
1.5696055 -1.5707963 -1.5718703 -1.5707964 1.5597683 1.5707964 -1.5707964 -1.5707964
1.5707964 -1.5707963 1.5716773 1.5737064 1.5707964 1.5707964 1.573036 -1.5746293
-1.5707967 1.5714878 -1.5707964 -1.5707966 -1.570796 1.5707964 1.5707961 -1.5707963
-1.5707963 -1.5707964 -1.5691495 1.570796 1.570796 1.5707963 -1.5675505 1.5707964
1.5707965 -1.5707963 1.5707963 0.8697002 -1.5707964 -1.550489 -1.5707964 -1.5707965
1.4981421 1.5735252 -1.5281646 -1.5707964 0.8710051 -1.5707963 -1.5728662 -1.5629587
1.570631 -1.5704495 -1.5723892 -1.0790747 1.5707964 -1.5707963 1.5707964 1.5707964
-1.5707964 1.569249 -1.5707964 1.5707963 -1.5707964 1.5707967 1.5730411 1.5707964
-1.5666139 -1.5707963 1.5707963 -1.5707828
00000000: da0f c93f 8235 c9bf cf0f c93f dc0f c9bf
00000010: da0f c9bf 2dc9 b7bf da0f c9bf db0f c93f
00000020: db0f c93f db0f c93f db0f c9bf db0f c93f
00000030: 2333 c9bf 124e c8bf d90f c9bf f143 983f
00000040: db0f c93f da0f c9bf db0f c9bf db0f c93f
00000050: d70f c93f 71dd c8bf db0f c93f dc0f c9bf
00000060: dd0f c9bf dd0f c9bf db0f c93f db0f c9bf
00000070: 5873 c93f da0f c9bf dc0f c93f db0f c93f
00000080: d5e8 c83f da0f c9bf 0c33 c9bf db0f c9bf
00000090: 7da6 c73f db0f c93f db0f c9bf db0f c9bf
000000a0: db0f c93f da0f c9bf b92c c93f 366f c93f
000000b0: db0f c93f db0f c93f 3e59 c93f 748d c9bf
000000c0: de0f c9bf 8326 c93f db0f c9bf dd0f c9bf
000000d0: d80f c9bf db0f c93f d90f c93f da0f c9bf
000000e0: da0f c9bf db0f c9bf e4d9 c8bf d80f c93f
000000f0: d80f c93f da0f c93f 7fa5 c8bf db0f c93f
00000100: dc0f c93f da0f c9bf da0f c93f aca4 5e3f
00000110: db0f c9bf 6c76 c6bf db0f c9bf dc0f c9bf
00000120: 1fc3 bf3f 4669 c93f e69a c3bf db0f c9bf
00000130: 31fa 5e3f da0f c9bf ae53 c9bf 080f c8bf
00000140: 700a c93f 7d04 c9bf 0d44 c9bf 1f1f 8abf
00000150: db0f c93f da0f c9bf db0f c93f db0f c93f
00000160: db0f c9bf 27dd c83f db0f c9bf da0f c93f
00000170: db0f c9bf de0f c93f 6959 c93f db0f c93f
00000180: ce86 c8bf da0f c9bf da0f c93f 690f c9bf

weight f4 [100, 100]
0.066491954 -0.07766828 -0.06914427 -0.07148013 0.0383323 -0.080270045 0.009252849 0.104930736
-0.088618666 0.03870349 0.032008372 -0.08259489 0.04891114 -0.0695608 -0.0019517973 0.036365505
0.09925592 -0.16517417 -0.01611285 0.162144 0.03619741 0.16662166 -0.202739 -0.10578906
0.03131934 0.10701022 0.04327848 0.1770373 0.14735529 -0.15733883 0.005639673 -0.19583169
0.052150615 -0.09526348 0.067812145 -0.039210215 0.06397733 0.15677162 0.12327841 0.27395427
-0.12612347 -0.023336032 -0.011918445 -0.12049949 -0.16924894 -0.0028523442 -0.08484195 0.058800235
0.08481279 0.033714578 -0.00031994487 0.0850311 0.04471025 -0.17653416 0.09768544 0.037022676
0.023723802 -0.0792339 0.01265026 -0.037048623 -0.3872747 -0.0030499934 0.03933474 -0.04529022
-0.02195708 -0.21942328 -0.13227104 0.018545277 -0.023032911 0.1197521 0.11428893 -0.05273652
0.07984381 0.0021655152 0.0446685 -0.05708169 0.007391702 0.11391661 -0.111871526 0.0049065035
0.11499704 0.0046983175 -0.23196578 -0.022578051 0.05500374 -0.04219618 -0.06391282 0.07469777
0.16005936 -0.12164243 -0.13488437 -0.07275022 -0.2062766 0.037741296 0.13205574 -0.11131649
-0.16236067 -0.063265786 0.117380336 -0.058496293 0.039277617 -0.052503686 0.028311292 -0.014096529
-0.09165959 -0.4047249 0.20106538 0.019487659 -0.04708078 0.02031957 0.012307199 -0.0151127465
0.017788524 -0.35083273 0.09049569 0.23765422 0.10119175 0.05769245 -0.094428524 0.0714001
-0.18183546 -1.1094599 0.06463458 -0.009709265 -0.10529174 0.05184503 0.1532854 -0.0051076584
0.7168314 -0.06843753 0.017800901 0.11333615 -0.044093676 -0.09639773 -0.4693327 0.110174105
0.57542044 -0.01973713 0.014629206 0.017382083 -0.068165086 0.01635509 1.0741334 0.6332698
-0.07978969 -0.09927097 0.3708726 -0.92872036 -0.0021882502 -0.08766259 0.027638262 0.009590799
0.049361162 0.004139445 -0.06183362 -0.035725564 -0.08902414 -0.037115373 -0.59101623 0.06568091
0.059817143 -0.060810328 0.6744257 -0.044113588 -0.061022498 -0.1231053 0.10445958 0.1984337
0.040831007 -0.52859205 0.040799487 0.035551943 0.48736483 0.8584732 -0.5306545 0.047679342
0.20344321 -0.040569354 -0.029126786 -0.15580994 -0.123915724 -0.4554703 -0.7786467 -0.26499605
-0.078548916 -0.0923987 -0.03155327 -0.010916674 -0.039414715 0.70434576 0.067616224 -0.034226034
0.051405672 -0.017663432 0.16188504 -0.0532612 -1.0396441 0.06631088 -0.0014567893 -0.09158954
-0.15836953 0.093984224 0.038716268 -0.11244956 -0.19515865 0.07852528 0.24919985 -0.041823115
0.44331107 -0.04800676 -0.02639419 0.02785728 0.011790132 0.10635912 -0.17074282 -0.0030413072
-0.049176235 0.014957462 -0.1241373 -0.11696062 0.02397755 0.07576438 0.14340852 -0.056329038
-0.14201273 0.1874091 -0.15820692 0.10494043 0.13266893 0.13780868 0.11280281 -0.031913232
-0.005269263 0.006505121 -0.1994245 0.022833884 0.13715753 0.018791106 -0.1630951 0.00015298072
-0.05432229 0.039353896 -0.02025315 0.0038113499 -0.01746158 -0.078057766 0.024482459 -0.06291364
-0.03779481 -0.006737157 0.13286617 0.0024605675 -0.20448041 -0.13985275 -0.044488724 -0.06915189
00000000: ef2c 883d 8c10 9fbd 839b 8dbd 2d64 92bd
00000010: 5402 1d3d 9f64 a4bd 4399 173c ede5 d63d
00000020: b47d b5bd 8d87 1e3d 361b 033d 8227 a9bd
00000030: 0c57 483d e575 8ebd 73d3 ffba fff3 143d
00000040: b046 cb3d 6b23 29be 18ff 83bc 1409 263e
00000050: bc43 143d de9e 2a3e d09a 4fbe efa7 d8bd
00000060: b548 003d 2d28 db3d c744 313d 4449 353e
00000070: 4ee4 163e 6e1d 21be 02cd b83b 1a88 48be
00000080: e29b 553d 8019 c3bd 18e1 8a3d e49a 20bd
00000090: 8c06 833d bd88 203e 6479 fc3d bc43 8c3e
000000a0: 8326 01be 352b bfbc 9545 43bc 70c8 f6bd
000000b0: 984f 2dbe 65ee 3abb 9ec1 adbd 84d8 703d
000000c0: 54b2 ad3d 4c18 0a3d 46be a7b9 c924 ae3d
000000d0: 1822 373d 5fc5 34be 4e0f c83d 17a5 173d
000000e0: 6b58 c23c 6245 a2bd 0943 4f3c 4cc0 17bd
000000f0: df48 c6be 66e2 47bb 771d 213d 3d82 39bd
00000100: 56df b3bc 7fb0 60be 0f72 07be 44ec 973c
00000110: 84af bcbc 9740 f53d 5110 ea3d 4002 58bd
00000120: 2785 a33d 51eb 0d3b 51f6 363d 7dce 69bd
00000130: 1736 f23b 1d4d e93d e61c e5bd bcc6 a03b
00000140: 9183 eb3d 58f4 993b 7088 6dbe 9bf5 b8bc
00000150: 9a4b 613d e7d5 2cbd b9e4 82bd 25fb 983d
00000160: 9ae6 233e ab1f f9bd 211f 0abe 11fe 94bd
00000170: 2c3a 53be 9e96 1a3d 9f39 073e e6f9 e3bd
00000180: e041 26be 7e91 81bd 1a65 f03d cf99 6fbd
00000190: 91e1 203d 1b0e 57bd 15ed e73c 21f5 66bc
000001a0: 06b8 bbbd 1a38 cfbe 15e4 4d3e 95a4 9f3c
000001b0: c7d7 40bd 3a75 a63c 22a4 493c 749b 77bc
000001c0: 3db9 913c 59a0 b3be ce55 b93d a15b 733e
000001d0: 9f3d cf3d eb4e 6c3d be63 c1bd 373a 923d
000001e0: 1333 3abe c802 8ebf 225f 843d 9c13 1fbc
000001f0: 32a3 d7bd 745b 543d d9f6 1c3e 255e a7bb
00000200: 4382 373f fa28 8cbd 32d3 913c c91c e83d
00000210: 929b 34bd 2c6c c5bd 604c f0be f6a2 e13d
00000220: c14e 133f c3af a1bc 56af 6f3c df64 8e3c
00000230: 239a 8bbd 1cfb 853c 347d 893f f81d 223f
00000240: c768 a3bd 944e cbbd 03e3 bd3e 9ec0 6dbf
00000250: bf68 0fbb 7288 b3bd a369 e23c ba22 1d3c
00000260: ee2e 4a3d 2ea4 873b 4045 7dbd f854 12bd
00000270: 4a52 b6bd 4a06 18bd d74c 17bf b783 863d
00000280: d202 753d 4014 79bd 2aa7 2c3f 73b0 34bd
00000290: baf2 79bd a21e fcbd e7ee d53d 3432 4b3e
000002a0: 6a3e 273d cf51 07bf 5d1d 273d ea9e 113d
000002b0: e287 f93e e6c4 5b3f f9d8 07bf 6a4b 433d
000002c0: 6b53 503e 0d2c 26bd 4c9b eebc a48c 1fbe
000002d0: 87c7 fdbd 6733 e9be 6455 47bf 90ad 87be
000002e0: 41de a0bd 883b bdbd 003e 01bd d9db 32bc
000002f0: 5371 21bd 0150 343f 607a 8a3d 9930 0cbd
00000300: c18e 523d e7b2 90bc 31c5 253e 6b28 5abd
00000310: 0f13 85bf 00ce 873d bdf1 beba 4c93 bbbd
00000320: 9f2b 22be cd7a c03d f394 1e3d f44b e6bd
00000330: abd7 47be ddd1 a03d 3f2e 7f3e b74e 2bbd
00000340: abf9 e23e bda2 44bd a138 d8bc f334 e43c
00000350: 662b 413c cfd2 d93d 35d7 2ebe ab50 47bb
00000360: 056d 49bd 2510 753c b23b febd 0d89 efbd
00000370: 916c c43c 5b2a 9b3d afd9 123e 47b9 66bd
00000380: c96b 11be 2ce8 3f3e ff00 22be 02eb d63d
00000390: 5dda 073e b81d 0d3e 2905 e73d 73b7 02bd
000003a0: c8a9 acbb e928 d53b f035 4cbe 200e bb3c
000003b0: 0673 0c3e ceef 993c 6702 27be 7369 2039
000003c0: 0d81 5ebd 8d31 213d efe9 a5bc d7c7 793b
000003d0: 960b 8fbc c0dc 9fbd 708f c83c ded8 80bd
000003e0: bbce 1abd 5ec3 dcbb 120e 083e 7941 213b
000003f0: 5063 51be 8f35 0fbe cf39 36bd 829f 8dbd

bias f4 [100]
0.013796854 0.011676646 0.06660954 -0.05695051 0.079661526 -0.020519054 -0.09137855 -0.009336638
-0.038110506 -0.024176324 -0.05325755 0.09616619 0.008836043 0.015847016 0.09982809 -0.051090825
0.023175979 0.046895172 0.04913819 0.043309964 0.0004207492 -0.025496865 0.088311605 0.039776113
0.012722886 -0.04769173 -0.075505115 -0.046408594 -0.03039558 0.05789423 0.048058808 -0.04223441
-0.07871286 -0.045197822 -0.0659497 0.037424244 -0.02104261 0.068430796 0.05456227 -0.03071915
-0.04474461 -0.06454972 0.0408875 0.059144046 0.0912746 -0.046388544 -0.0013682842 0.09590238
0.098267905 0.022784924 -0.015834486 0.014535225 -0.027824199 -0.04905671 0.09433246 0.0652241
-0.085768454 0.037307408 0.04625262 -0.013959325 -0.08034109 0.097422004 0.08650466 0.038813736
-0.03811499 0.019608105 -0.029454721 0.03544742 -0.08576184 -0.073182635 -0.01949042 0.025363697
-0.03111354 -0.08758755 0.013455451 0.04534092 0.08399248 -0.04953736 0.026399447 -0.033592917
-0.030207051 -0.0029711605 0.018213904 0.070089005 0.09775239 0.045193125 0.035951782 0.061646223
0.059867967 -0.05729848 0.08804045 -0.045464158 0.077629946 -0.08700921 0.09090445 0.093330495
0.036697935 -0.08039105 -0.027845932 0.011451781
00000000: 330c 623c 674f 3f3c 956a 883d f044 69bd
00000010: 9525 a33d 9317 a8bc ad24 bbbd b3f8 18bc
00000020: c319 1cbd 6d0d c6bc 9724 5abd c8f2 c43d
00000030: 0dc5 103c 9ad1 813c ab72 cc3d 9d44 51bd
00000040: 8ddb bd3c 2715 403d 2045 493d ca65 313d
00000050: 0098 dc39 cdde d0bc b7dc b43d 47ec 223d
00000060: a773 503c 6758 43bd 6da2 9abd f016 3ebd
00000070: 2700 f9bc 8022 6d3d 50d9 443d fdfd 2cbd
00000080: 3534 a1bd 5a21 39bd a310 87bd 2a4a 193d
00000090: 8d61 acbc 7225 8c3d b07c 5f3d baa6 fbbc
000000a0: 2046 37bd a532 84bd a779 273d 0741 723d
000000b0: 2dee ba3d ea01 3ebd 0058 b3ba 7868 c43d
000000c0: af40 c93d 73a7 ba3c 53b7 81bc 2725 6e3c
000000d0: 93ef e3bc b0ef 48bd 6031 c13d 3794 853d
000000e0: 5fa7 afbd a7cf 183d 6373 3d3d a7b5 64bc
000000f0: df89 a4bd 3085 c73d 5b29 b13d 27fb 1e3d
00000100: 771e 1cbd 2da1 a03c 074b f1bc 5031 113d
00000110: e7a3 afbd c7e0 95bd 60aa 9fbc 87c7 cf3c
00000120: d3e1 febc 1a61 b3bd 4074 5c3c 67b7 393d
00000130: 4004 ac3d b0e7 4abd a743 d83c ba98 09bd
00000140: c774 f7bc cdb7 42bb 5335 953c d38a 8f3d
00000150: 6832 c83d 6d1c 393d 2d42 133d c080 7c3d
00000160: 1d38 753d d0b1 6abd 8d4e b43d a038 3abd
00000170: 73fc 9e3d e231 b2bd 1d2c ba3d 0f24 bf3d
00000180: 9350 163d 10a4 a4bd 271d e4bc 40a0 3b3c

weight f4 [1, 100]
-0.0055386466 -0.26145932 -7.15137e-05 -0.08737641 0.12943617 -0.08585889 0.22201493 0.009263554
-0.018507393 -0.15064196 0.058453977 0.070936404 0.115697846 0.00011901877 -0.052601237 0.08189162
-0.00011765212 -0.012766079 0.13125606 0.00048362557 -0.009959784 0.00011132833 -0.106467985 0.050618965
0.11667576 -5.508295e-05 -0.071766295 -0.22178552 -0.06630415 -0.1006635 0.028549457 0.03522984
0.025767574 0.0021921888 0.049747486 0.034631923 -0.023745328 -0.0034312073 0.20507017 0.10408504
-0.0005975151 -0.026765062 -0.00034580307 -0.05084295 -3.559549e-05 0.06331891 0.08714833 0.0987881
-0.008147518 0.1825278 -0.003866877 0.07103844 -0.041057125 0.01947852 0.0058174287 0.07756541
0.016963039 0.15780652 0.16970259 -0.18691126 -0.018309297 -0.107071355 0.0018686606 -0.15837844
0.078827485 0.14272746 0.048123404 -0.008691426 -0.14174879 -0.12240629 -0.0005080764 -0.09295566
-0.0001377854 0.1305599 0.0002547268 -0.023948068 0.000108452215 -0.056160312 0.24737568 1.5149816e-05
0.03588489 0.0566368 0.1410894 0.12903357 0.06642313 -0.013926487 -0.092797 0.0016710763
0.036528226 -0.08573985 0.019677546 0.0001372259 -0.06868812 -0.10647596 0.117787115 0.068486616
-0.04128327 -0.079538524 -0.023374239 0.0001697127
00000000: 897d b5bb ffdd 85be a0f9 95b8 67f2 b2bd
00000010: ea8a 043e c9d6 afbd e257 633e 29c6 173c
00000020: d19c 97bc e341 1abe 706d 6f3d 1b47 913d
00000030: fef2 ec3d b799 f938 6574 57bd cbb6 a73d
00000040: 00bc f6b8 d128 51bc fd67 063e 208f fd39
00000050: 5d2e 23bc f178 e938 e30b dabd d555 4f3d
00000060: b3f3 ee3d de08 67b8 35fa 92bd be1b 63be
00000070: 78ca 87bd aa28 cebd 8de0 e93c 2a4d 103d
00000080: 8516 d33c d3aa 0f3b 05c4 4b3d 34da 0d3d
00000090: 9085 c2bc 1bde 60bb eafd 513e 8a2a d53d
000000a0: 8fa2 1cba 6742 dbbc e74c b5b9 b240 50bd
000000b0: 5e4c 15b8 58ad 813d d37a b23d 6a51 ca3d
000000c0: 2b7d 05bc 91e8 3a3e 6e6b 7dbb 9a7c 913d
000000d0: 842b 28bd 6b91 9f3c 21a0 be3b 9dda 9e3d
000000e0: 12f6 8a3c 0898 213e 84c6 2d3e aa65 3fbe
000000f0: 61fd 95bc 3a48 dbbd d8ed f43a f52d 22be
00000100: 4e70 a13d 2627 123e 0c1d 453d 7c66 0ebc
00000110: 9826 11be 26b0 fabd 6e30 05ba 895f bebd
00000120: 7d7a 10b9 7fb1 053e da8c 8539 bd2e c4bc
00000130: d770 e338 5b08 66bd 0d50 7d3e f72b 7e37
00000140: 09fc 123d fdfb 673d bd79 103e 6021 043e
00000150: da08 883d ec2b 64bc 5b0c bebd 0408 db3a
00000160: 9f9e 153d 6098 afbd ce32 a13c 4ce4 0f39
00000170: 5bac 8cbd 1110 dabd 5f3a f13d b642 8c3d
00000180: a518 29bd 18e5 a2bd 557b bfbc e8f4 3139

S f4 [4, 4]
0.0 0.0 1.0 0.0 0.0 0.0 0.0 1.0
-1.0 0.0 0.0 0.0 0.0 -1.0 0.0 0.0
00000000: 0000 0000 0000 0000 0000 803f 0000 0000
00000010: 0000 0000 0000 0000 0000 0000 0000 803f
00000020: 0000 80bf 0000 0000 0000 0000 0000 0000
00000030: 0000 0000 0000 80bf 0000 0000 0000 0000
