Models/DoublePendulum/DoublePendulum_midpoint_50epoch_PAU()_ReLU()_batchsize_64_shape_torch.Size([175000, 4]).pt (torch, 52556 bytes, 8 tensors)

numerator f4 [6]
00000000: 05fe 8838 46c8 23be de34 42bd e2af a03f
00000010: 451f bd3d 850d 19be
6.5323e-05 -0.15994367 -0.0474137 1.2553675 0.0923448 -0.14946564

denominator f4 [4]
00000000: 0fae 48bf 984a 943e 2017 abbf 91cb abbf
-0.7839059 0.2896316 -1.3366432 -1.3421499

weight f4 [100, 4]
00000000: 5512 0bbe 46eb 2dbe d747 8dbc 7bf1 29bd
00000010: fbc7 383e 89ee f93d 99ba f43c cddc 543d
00000020: 80c0 e7bd b891 3ebd 0f54 db3d e278 293e
00000030: ca32 4d3e 5d39 bd3d 2bdb 9fbd 4a3b e5bd
00000040: ac02 48be bb46 4f3e c975 8bbe de99 84be
00000050: 8f0c a1be 9504 a03e c094 193e 2027 5dbe
00000060: e6e6 013d 1e6c afbc d483 843e 0f48 633e
00000070: d616 f2be b129 bbbd 1419 77bd 6716 b13e
00000080: 5e94 07be db2b bc3d 408e 2dbe 270e 683e
00000090: 3ce8 a43d 59bb 023d 012d 213e c38a 7f3d
000000a0: 6560 913d f1f6 9f3d cbe8 84bc f3e9 9c3b
000000b0: 788f 46bc a333 553e 8089 203e 833b 4ebe
000000c0: ddae 98bd 9701 aebe aef5 ddba 89ec 3fbd
000000d0: 507b 4cbe 5de1 32be 73fe 37bd cad7 7cbd
000000e0: 5a56 333c 46c2 843c 725a c5bd b6e1 843e
000000f0: f335 e23e 24a5 86b9 433f 4e3d 505a 08be
00000100: f8a1 5e3e 04b5 253e aca7 dfb9 66d5 853d
00000110: 4e69 c53e 9e5b ab3e fd6f 37be c0ab cebd
00000120: 48d0 00be a2e7 c5be 7d0e 823c 5fbf 06bd
00000130: c3df 0dbe d510 71be f4df a83c fab5 69bd
00000140: 0a1a cabe 4e5c c43e 4f5e 3d3e 9ce4 89be
00000150: 3fcc 913e 71e2 e93d 556e 963c 4952 be3d
00000160: a4d1 133d b514 97be 6af7 30be 77fb 673e
00000170: 72f7 c0be a485 25bd a0e1 63bc 5d71 4c3c
00000180: da04 163f 55c2 be3e f855 0dbd 2159 933e
00000190: 5433 f8be e559 053f cdc7 7b3e 4ec6 afbe
000001a0: cfa0 8d3d 9c79 7b3d c172 c43d 64c2 873e
000001b0: c917 e63d 11a5 933e 3230 f6bc 6651 0a3d
000001c0: 6ff5 f13e d9bf f1be 4952 8d3b 4a17 26bc
000001d0: 2c18 ac3e 1377 a8be 0d55 063f 859c 39bf
000001e0: 93e6 24bf 3f3d 223f 44e2 03bb c518 33bb
000001f0: d189 b1bd 2357 b13d 5e71 43be a613 213e
00000200: 230d 3fbf 5a97 3e3f 9859 86bb 83f3 173c
00000210: 667f 95bc 4409 aebc 23f8 353e 410f 373e
00000220: faeb bf3e b855 243d 1722 9b3c f4b9 80bd
00000230: d5a4 4bbc 3a67 773d 3d51 36be 290d 7f3e
00000240: e23e 48be d98c d53d 5466 68be 56f5 903e
00000250: f379 6cbc aabf 1bbe 0f16 f53d 9eb4 5fbe
00000260: 5791 db3d 2760 273e 74d6 77bd 4790 0e3e
00000270: f196 86bd 88f6 abbe 8cab 99bd 664e e33d
00000280: 6ee0 e33d 5801 a83d 17e1 f33c dab1 d1bd
00000290: 985c 513e b29a 49be bb38 69be 0646 9a3e
000002a0: 6d2e 893e 7360 75be aea6 7b3e ae41 afbe
000002b0: 2c22 a23e 0e52 d73d f0f9 a33b c124 a73d
000002c0: 2b54 79be e7a1 89be 56b8 313b d4b2 4bbd
000002d0: b7e8 ad3e 6dcd a43d 9f21 b43a e56a 153d
000002e0: 9e0d 243f 8cd1 1dbf b6c6 87be f110 c23e
000002f0: b3c0 a1bd 7480 a1be 040d 7ebd 368f a13d
00000300: 2681 6bbe fb0a 883d 1c83 1f3e 03da 17be
00000310: 16f8 fe3e b03d 00bf 680d 713e 8440 b1be
00000320: 633c 9bbd 50b3 103e 9865 a4be 8fdb 76be
00000330: 6380 ffbe b2d4 aebe ad3d 52be 4c62 523e
00000340: 6d08 57be 5fec 613e 024f 4ebe 0e63 913e
00000350: 8183 3d3d 48cc a53e cc6c 483c 7d37 11bc
00000360: 9138 c0be c8d3 78bd 00ba 5dba 0023 38bd
00000370: 5fc8 0d3e 7bf8 e1bd a61d 32bf 72b4 793f
00000380: 9add 673e 1ba4 04be dc86 3b3e ef2c 43be
00000390: 0b3b 213e e7bc 2cbe 3fe6 4ebe 2f2e 903e
000003a0: f8dd d3bd ae1f 08be c5eb c83c 11ac 253e
000003b0: c8a5 d8be c643 de3e 8d3a 863b 394d 6cbc
000003c0: a23e 4f3e 5231 223e 46bb adbc 07e7 c5bc
000003d0: 7261 1abd 3ae8 2cbd 6b55 903d 0a0d 783d
000003e0: 93eb 36bd 4e90 33bd 4a73 953d ac2a 4c3c
000003f0: 986b 343d 927c 983c 9c0e 23be 945b 22be
-0.13581212 -0.16984281 -0.01724617 -0.04149006 0.18045036 0.122037 0.029874133 0.051968385
-0.11316013 -0.046525687 0.10709392 0.1655002 0.20038906 0.09239457 -0.07805475 -0.11192949
-0.19532269 0.20241825 -0.272383 -0.2589864 -0.31454894 0.31253496 0.1499815 -0.21596956
0.031714343 -0.021413859 0.25881827 0.22195457 -0.47283047 -0.091388114 -0.06032665 0.34587404
-0.13240191 0.09188052 -0.16948795 0.22661649 0.08052108 0.03191695 0.15739824 0.062388193
0.07098464 0.07810772 -0.016224286 0.004788631 -0.012119167 0.20820479 0.15677452 -0.2013989
-0.074552275 -0.33985588 -0.001693418 -0.046856437 -0.19968915 -0.17468782 -0.044920396 -0.06172923
0.010945881 0.016205918 -0.09636392 0.25953454 0.44181785 -0.0002568151 0.0503533 -0.13315701
0.21741474 0.16182333 -0.000426588 0.06534843 0.38556904 0.33468336 -0.17913814 -0.100913525
-0.12579453 -0.38653284 0.01587605 -0.03289735 -0.1385489 -0.23541577 0.020614602 -0.057058312
-0.3947299 0.38351673 0.18493007 -0.26932228 0.2847614 0.114201434 0.018363157 0.092930384
0.0360886 -0.29507986 -0.17281881 0.2265452 -0.37688786 -0.040410653 -0.013908774 0.0124782
0.5860115 0.3725764 -0.034505814 0.28778937 -0.4847666 0.52090293 0.24587937 -0.34330982
0.069154374 0.061395273 0.095922 0.26515496 0.112350054 0.28836873 -0.030052278 0.033769034
0.47257563 -0.4721668 0.0043127877 -0.0101373885 0.33612192 -0.32903346 0.5247353 -0.72504455
-0.6441433 0.63374704 -0.0020123878 -0.0027327996 -0.086688645 0.08659198 -0.19086215 0.15730152
-0.7462942 0.74449694 -0.004100036 0.009274366 -0.018249225 -0.021244653 0.17770438 0.17876913
0.37484723 0.04012081 0.018937154 -0.06285468 -0.012429436 0.06040118 -0.17804427 0.24907364
-0.19555238 0.10427255 -0.22695285 0.28312176 -0.014433372 -0.15209833 0.11967098 -0.21846244
0.10721081 0.16345273 -0.060507253 0.13922225 -0.065717585 -0.33586526 -0.07503423 0.11098938
0.11126791 0.08203381 0.029770417 -0.102390006 0.20445478 -0.19687918 -0.22775547 0.3013155
0.26793233 -0.23962574 0.24575302 -0.34229797 0.31666696 0.105136976 0.00500416 0.08161307
-0.24348514 -0.26881334 0.002711793 -0.04973109 0.3396661 0.08046994 0.001374293 0.036478896
0.6408328 -0.6164787 -0.26518792 0.3790355 -0.078980826 -0.31543314 -0.06202413 0.078886434
-0.22998485 0.06642719 0.15577358 -0.14829259 0.4979865 -0.5009413 0.2354027 -0.34619534
-0.07579877 0.14130902 -0.3210876 -0.24107192 -0.4990264 -0.3414665 -0.2053134 0.2054531
-0.20999308 0.22062825 -0.20147327 0.28395885 0.04626799 0.32382417 0.01223297 -0.008863327
-0.37543157 -0.060748845 -0.0008458197 -0.044955254 0.13845967 -0.11033722 -0.6957649 0.9754096
0.22643128 -0.12953226 0.18313164 -0.1906011 0.1574518 -0.16868936 -0.2020502 0.28160235
-0.103450716 -0.13293335 0.024526486 0.1617892 -0.4231398 0.43411082 0.0040963353 -0.014422708
0.20238736 0.15839127 -0.021207463 -0.024158014 -0.037690587 -0.042213656 0.07047542 0.06055931
-0.044658255 -0.04383879 0.0729738 0.012461346 0.044047922 0.018614087 -0.15923542 -0.15855247

bias f4 [100]
00000000: e69b 3abe f1bd 313e adbe 463e 1026 573e
00000010: d5f5 623e caca 073d b400 bbbe a131 02bf
00000020: acb4 763e 2193 39be 5494 54be ca99 57be
00000030: 4121 033e caa2 5a3e c1af 403e 36f4 a2be
00000040: 9858 413e 0650 6b3e 3698 8f3e 191d 5d3e
00000050: b949 9dbd 7804 483e 47d2 90be 617b 813e
00000060: 7f18 883e 3789 553e e745 8bbe fb42 763e
00000070: ac29 3ebe ffb6 3cbe 274b b73e 0771 523e
00000080: 2110 463e 935a 43be f6e2 723e 5ffc 563e
00000090: 448b 86be a77b 80be da00 543e 2638 c3bd
000000a0: ab75 5b3e d3d8 78be 1202 9a3e d3b4 513e
000000b0: b6ef 89be 540f 513e 1976 16be 59a7 25be
000000c0: 7cf0 5fbe fe92 e2bd 9357 1cbf 9c2b 39be
000000d0: a52d 653e 477a 773e 2590 7e3e 8415 a83e
000000e0: 994c 7abe 1ac9 7d3e 8070 683e 1779 f1bd
000000f0: eccf 423e e864 1fbe ffa7 0b3e c6c2 5b3e
00000100: aaf2 a63e d02f 80be c3db 39be 11a8 ac3e
00000110: 4963 5d3e 6f30 473e 207f 673e 9510 3fbe
00000120: cb4e 5b3e d3e0 dfbe 4904 473e 7b7b 993e
00000130: f834 633e 1e8f 3dbe 8ed8 8dbe a276 913e
00000140: 6bd4 8e3e 7eae 8fbe 035d 8fbe ac90 41be
00000150: c9d8 aebe 0df0 78be 2be1 0ebe 9eb9 4dbe
00000160: e845 523e 5b78 8bbe d8f6 bebd 1a92 503e
00000170: fba5 8f3e 45ab 673e 8052 3e3e fc96 18bf
00000180: 425a 71be b517 4dbe 36d7 72bd cf7f 5e3e
-0.18223533 0.17357613 0.19408675 0.21010613 0.2216409 0.03315238 -0.36523974 -0.5085698
0.24092358 -0.18122531 -0.20759708 -0.2105476 0.12805654 0.21351162 0.18817045 -0.31826943
0.18881452 0.22979745 0.28045815 0.21593131 -0.07680077 0.19532955 -0.2828543 0.25289443
0.2658119 0.20853125 -0.2720177 0.24048989 -0.18570584 -0.18429182 0.35799524 0.20550929
0.1934209 -0.1907752 0.23719391 0.2099471 -0.26278126 -0.2509434 0.2070345 -0.09532194
0.21431606 -0.24301462 0.30079705 0.20479135 -0.26940697 0.20416003 -0.14693488 -0.1617712
-0.21869081 -0.11063193 -0.6107113 -0.18083042 0.22380693 0.24167739 0.24859674 0.32828915
-0.24443282 0.24783745 0.22699165 -0.11790674 0.19024628 -0.15565836 0.13638304 0.21461019
0.32607013 -0.25036478 -0.18150239 0.33721974 0.21619906 0.1945207 0.22607088 -0.1865867
0.21416776 -0.43726215 0.19435228 0.2997702 0.22188175 -0.18511626 -0.2770428 0.28410822
0.27896437 -0.28062814 -0.2800065 -0.18902844 -0.3414977 -0.24310322 -0.13953082 -0.20090339
0.2053448 -0.2724026 -0.093244255 0.20368233 0.2805632 0.22623928 0.18586159 -0.59605384
-0.23569587 -0.20028575 -0.059287272 0.21728443

weight f4 [100, 100]
00000000: 1c6f 463d 18b5 a93e 7cce 8abd be4a 473e
00000010: f6b6 da3d 09f4 6abe 9476 3a3e b5ff 01bd
00000020: 0097 ab3c 2575 b1be 5f72 ba3d 9ac0 cc3d
00000030: 8844 c7be 1333 143e cc3c df3e 6c82 d53d
00000040: 4a1f 9c3e 820e 133e b7e2 e53d 6c6b a13e
00000050: e8cb ffbc 08d8 133f 5821 38be 03e9 b53d
00000060: 66a1 7bbd 8b23 a53e 8e66 b4be dbe1 f3bb
00000070: d6f9 9e3e bf0b a23b c2be e43d 5aac 033e
00000080: fd0d 1bbe 07bd 073e 4cea b03e f7ac 3b3e
00000090: 6e73 1ebe 133a 4dbd 0ad8 e63c 91e7 9c3e
000000a0: 90c9 83be 24e7 90bb 887a 673e 9a9e 4e3e
000000b0: 15c7 5abd 0a34 513e afa8 7cbc 6b62 70bd
000000c0: faf4 423c 9a54 183e b547 dcbc ce24 c83e
000000d0: ba36 743d bbe4 9b3d ed7e cd3d 378b 2dbe
000000e0: f736 ea3c 75d9 793e 0d3e 37bd cfe3 f33e
000000f0: 6e39 4e3e 4c41 bdbd dd6a 97bd a6be 10bd
00000100: 6eb9 53be cab0 c33e 8178 1b3d 2e5a 85be
00000110: 59e1 943d fd5d e1bd 1aba b6be b3df 723e
00000120: 08b2 cbbd 04c1 84bc ee5c 0c3b d95e 863d
00000130: f6e2 843e d19c 94be 2caa 43bd c4a3 913c
00000140: 25dc 943e 7c7d bfbc d00a 7f3c 32d9 143e
00000150: 6c81 a83d fdc8 423d 3234 b2be 7758 e83d
00000160: c8a2 933e 771e 183e aa23 c4bd 3b27 223e
00000170: fde6 313c d527 8ebe 311e 0b3e 7237 58be
00000180: ca08 db3c 5aa7 c8bd 8ec0 a03d 002f 23bf
00000190: 82b0 0c3e c9a9 b8bd b265 4dbe c220 913d
000001a0: 62e4 053e e39b ae3d ebed ebbc d7ab bebb
000001b0: 5676 75be 40cb c7be b0f2 7b3d 1e66 a33e
000001c0: b069 12bd d02f 6bbe 86df dcbd cc24 8abc
000001d0: 4546 72be 308d 6cbc 968f 2cbc 551b 763e
000001e0: b366 93be 7239 153e c6f3 ccbb 3bbd cdbd
000001f0: 6ed7 d73c 8c99 a73c 1c24 853c 2495 f0ba
00000200: 0343 603e f1cb 763d f270 5d3d 5fb3 a43e
00000210: b462 ebbd 86eb 923e 6999 b1bd 1b4c 503e
00000220: e03c 72be 38d9 813e a829 0f3d d466 133e
00000230: 1464 b63e e7da 0d3a 31ab b1bd 77a4 da3d
00000240: 2315 89be d054 e63d 60aa 1fbe 8899 04be
00000250: badd c53c 6d5f 10be 07f8 803c 94de 453d
00000260: c8b5 213e 2513 dfbd 4a79 a63d 3748 073d
00000270: cff0 203e 6bde 34be e7fe 30be 4efd 8e3d
00000280: 7f6b a33c dc82 37bd 1d09 213d 377f 0ebe
00000290: 5897 66bd aab7 cc3d 7ed9 edbd 99cf 7ebd
000002a0: 190e 063e 08d8 f5be 4243 7abe 25de 34bd
000002b0: 3b5e 243e b797 e9bd 0980 7dbd 7af9 cb3d
000002c0: 6965 f6bd ca5d 3dbd c12e 36be f442 dd3b
000002d0: eedd 893d ec94 173d 1469 043e ebae e13d
000002e0: b724 d43d dcc2 1dbe 3fd1 e03c 3ede dd3c
000002f0: 813b 853e ffb4 2ebe 6230 24be 46b1 e5bd
00000300: 9ea9 87be a851 81be cbc0 d1bb 2b52 533d
00000310: ca42 41be 7e60 28bd 8244 1f3e 722d 9cbd
00000320: bd85 a3bd 8b10 51be 098d 51be 8d63 9dbc
00000330: 6a3c 0bbe ef70 d6be b7b4 343d c966 57bc
00000340: 6620 dabb dde2 c4bd cac0 b2bb 227b bcbc
00000350: 28ea b3bd 84a4 9d3c 9875 853e e0cc 583e
00000360: d22e 2cbe 79a2 743d 0644 923e 8ec0 3ebe
00000370: 6b79 603e 4a1b 20be 333e 0dbe af34 693d
00000380: a84a 25bd ba30 91be 27fd 3ebc f112 18be
00000390: 2bf8 eebd a3ec 26bd 1d20 31bc dad5 f8bc
000003a0: 7765 533e f6e4 d9be 934f 0b3e fb93 b83d
000003b0: e183 113e eae6 983d f1c4 813d 88a1 f1bd
000003c0: e4c4 92be 052d fbbd 6a21 3b3d a086 273e
000003d0: b883 72bd 5db3 b5bc 196b 9abd 6953 943d
000003e0: 6d41 82bc 262f 86bd 09f3 8fbd 0bae 0ebd
000003f0: c560 cabd 36fd 86be 81e5 bfbd 4667 003e
0.048445806 0.33145976 -0.06777665 0.19462106 0.10679428 -0.22944655 0.18209296 -0.031738
0.020946026 -0.34659687 0.09103846 0.09997673 -0.38919473 0.14472608 0.43601072 0.104252666
0.30492622 0.14361003 0.11224883 0.3152727 -0.03122516 0.5775151 -0.1798147 0.08882334
-0.06143322 0.3225368 -0.35234493 -0.0074426956 0.31049985 0.004945248 0.11169197 0.12858716
-0.15142055 0.13255702 0.34553754 0.183277 -0.1547372 -0.050104212 0.028179187 0.3064542
-0.25739717 -0.0044220854 0.22605336 0.20177689 -0.053412516 0.20430008 -0.015421077 -0.05868761
0.011899227 0.14876023 -0.026889661 0.3909058 0.059622504 0.07611986 0.10033975 -0.16947637
0.028590662 0.2439936 -0.04473691 0.47634742 0.20139095 -0.0924097 -0.073934294 -0.035338067
-0.20676205 0.38220817 0.03795672 -0.26045364 0.07269544 -0.11004255 -0.3568886 0.23718147
-0.09946066 -0.016205318 0.0021417695 0.065610595 0.25954407 -0.2902589 -0.04776971 0.017778285
0.29074207 -0.023375265 0.015566543 0.14535978 0.0822781 0.04755496 -0.34805447 0.11344998
0.2883513 0.14855371 -0.09577115 0.15835278 0.010858295 -0.27764764 0.13585736 -0.211149
0.02673759 -0.09797545 0.07849227 -0.6374359 0.13739207 -0.09016759 -0.20058325 0.07086326
0.13075402 0.08525827 -0.028799972 -0.0058188247 -0.23970923 -0.39022255 0.06151074 0.31913847
-0.035745323 -0.22967458 -0.10784821 -0.01686325 -0.23659618 -0.014437959 -0.01053228 0.24033864
-0.2878929 0.14572695 -0.006254646 -0.100458585 0.026347842 0.020458959 0.01625257 -0.0018354994
0.21900563 0.060253087 0.05406279 0.321681 -0.114934355 0.28695315 -0.08671839 0.20341532
-0.23656034 0.25361037 0.034951836 0.14394695 0.3562323 0.0005411342 -0.0867523 0.106759004
-0.2677394 0.112466455 -0.15592337 -0.12949193 0.024153579 -0.14098902 0.015743269 0.04830797
0.15792 -0.108923234 0.08128603 0.033027854 0.15716861 -0.1766297 -0.17284738 0.06981908
0.01994872 -0.04480253 0.03931533 -0.13915716 -0.056296676 0.09995969 -0.11613749 -0.0622097
0.13091315 -0.4801638 -0.2443972 -0.044157166 0.16051571 -0.114058904 -0.061889682 0.09959693
-0.12031061 -0.046232022 -0.17791273 0.006752366 0.06731783 0.037007257 0.12930709 0.11019691
0.10358565 -0.15406364 0.027443526 0.027083512 0.2602196 -0.17061232 -0.16034082 -0.11215453
-0.26496595 -0.2525761 -0.0064011565 0.051592033 -0.18873134 -0.041107647 0.15553477 -0.076258555
-0.07984493 -0.20416467 -0.20463957 -0.019212509 -0.13597265 -0.41883036 0.044117656 -0.0131470645
-0.006656694 -0.09613583 -0.005455111 -0.023007933 -0.08784896 0.019243486 0.2606628 0.21171904
-0.16814736 0.05972526 0.28567523 -0.18628141 0.21921317 -0.1563541 -0.13793258 0.05693501
-0.0403544 -0.28357488 -0.011657036 -0.14850976 -0.11668428 -0.040753018 -0.010810879 -0.03037541
0.20644175 -0.42557496 0.13604574 0.090126 0.14210464 0.07465918 0.06336392 -0.11798388
-0.2866584 -0.12264446 0.045686163 0.16359949 -0.059207648 -0.022180254 -0.075399585 0.07242472
-0.015900338 -0.065519616 -0.07028777 -0.03483395 -0.098817386 -0.2636506 -0.09369946 0.12539396

bias f4 [100]
00000000: da11 293c da96 7f3c 8d0c 64bc 0744 883c
00000010: 1a09 0bbc 82e6 a33d e79c 193d 6ab1 2fbd
00000020: c37e 113d 27ac 0fbd 4d9a 82bd c302 26bd
00000030: 470e b23d 6ac2 593d 13f8 bbbd 87e2 b43d
00000040: ca31 9bbd 0af5 893d 1ade 513c e782 ebbc
00000050: 676c e1ba 102d 6cbd bfb0 b83d 27db 1dbd
00000060: 073d fbbc 9dd7 a3bd 0522 853d 55b0 a43d
00000070: d3d9 833c 2d6c 89bc 10b5 033d 2d29 36bd
00000080: bf55 ca3d e7e5 fbbc 0307 133d 3792 a83d
00000090: 80db dabc 021b a03d e367 673d 9a23 f1ba
000000a0: 600e 15bd 9b28 9a3d 03ef 0c3d 3370 e13b
000000b0: 7dae 02bd 47f6 bfbd f7f7 afbd 9a91 dbb9
000000c0: 9b88 bbbd 7566 c6bd a0b9 d1bc 7379 14bc
000000d0: 6596 993d 68bf 85bd 355a c6bd 0078 ca39
000000e0: 45aa bdbd 4d14 17bc a8a6 933d cb8c a9bd
000000f0: 40be bc3c e07d dbbc 6a8d cc3d 009e 223b
00000100: 80b7 2abc 6709 b8bc 5a39 48bd b050 933d
00000110: bae0 52bd 2331 bb3d 8563 893d 500a adbd
00000120: ad67 a03d 6732 edba 60aa 7c3d 1017 41bd
00000130: 474a 8e3c cd67 4f3b b3dd d23b 7adf 95bc
00000140: da7d 28bc d78c 52bd 5283 9c3d fd18 3c3d
00000150: 7d55 42bd c001 69bc f71a afbd 0d3f efbc
00000160: 1341 813c 0f7c c53d 1a48 c9bd faef b7bc
00000170: 8f5a 8ebd 8ba4 8d3d 1238 bebd 070a bf3c
00000180: f329 bb3c ddd2 603d a044 aa3c 33cc 5b3c
0.010319198 0.015599931 -0.013919008 0.016634 -0.008486057 0.0800295 0.03750315 -0.042893805
0.03552128 -0.035076287 -0.06377087 -0.040529978 0.086941294 0.053163923 -0.09178176 0.08832269
-0.07577856 0.067361906 0.012809301 -0.028748943 -0.0017198444 -0.057660162 0.09018087 -0.038539078
-0.030668749 -0.08000109 0.06500629 0.08041445 0.016095078 -0.016775215 0.032155097 -0.044472862
0.09879636 -0.030749274 0.03589536 0.08231013 -0.026715994 0.07817651 0.05649556 -0.0018397451
-0.036390662 0.07527276 0.034407627 0.0068798303 -0.031904686 -0.093731456 -0.085922174 -0.00041879417
-0.09156915 -0.09687511 -0.025601208 -0.009062159 0.074993886 -0.065306485 -0.096851744 0.0003861785
-0.09260992 -0.009221149 0.072095215 -0.08278807 0.023039937 -0.02679342 0.0998791 0.0024813414
-0.010419726 -0.02246542 -0.04888282 0.07193124 -0.051483847 0.091402315 0.06708435 -0.084492326
0.078322746 -0.0018096686 0.06168592 -0.047141135 0.017369403 0.0031647563 0.00643512 -0.018295038
-0.010283912 -0.051403847 0.07642235 0.04592227 -0.04744481 -0.014221609 -0.08550065 -0.02920487
0.0157781 0.09642803 -0.098282054 -0.022453297 -0.069508664 0.0691615 -0.09288038 0.023320211
0.022847151 0.054888595 0.020784676 0.013415384

weight f4 [1, 100]
00000000: 0ea6 dd3c 0e31 da38 3e41 9dbc 341a 6d3c
00000010: 4566 203c 569b 4e39 b864 41bb 791c abbc
00000020: a75d f73c 3430 313c 5e8a 0c3d e6b6 56bc
00000030: 76f1 8c3c 6e26 bb3c 1f12 89bc cd00 2cbe
00000040: a62d 973c 9019 c93e c7d5 dcb9 d928 f5bc
00000050: 777a 53bc b863 57bd f4e4 afb9 e196 523d
00000060: 88e8 68b5 6641 1ebd abb8 e63d 414a 32be
00000070: 31b5 a8bc 6297 3e3c 77b5 ac3a e844 acbc
00000080: abdb 8cbe c022 083d 10f7 a23c 07b1 f3bd
00000090: 23cc 2c3d 4b7c efbd 1316 353e 5896 243b
000000a0: 1ea0 003d 6832 343c 6ece e23c 9ab6 153d
000000b0: 338a bc3c 4aac 7dbc cf0a ac3c 24b0 8d3b
000000c0: b78e dfbc 12db 603b 3853 65bb 3221 363c
000000d0: 9c76 36bc adec d63c f7b5 223b 3e25 80bc
000000e0: 2436 0e3c daf6 e6b9 cc57 28be 0e0c 4a3c
000000f0: 74e3 8cbc d9ec 3d3d 2e2e 43be eabc 3a3c
00000100: a6dc f83c 6919 2f3d 07f5 81ba a7ca 843c
00000110: 6e25 693c 058b 79bd 88f1 96bd a2f1 12bc
00000120: 92f4 b93d e266 363d 5b00 ae3d 97cc 4cbc
00000130: 72b7 c93a b25f 943c 55c8 b33c 684e 113d
00000140: 9d70 33bc f872 703b 021e 193b f643 6dba
00000150: 4be9 b73c 3d0c 0a3d 47d9 863d 4f77 383c
00000160: 0897 78bc 3c4f 26bd 9177 26be b812 a33c
00000170: 26cf 66bd ae0d 403b 45df 58bb af14 263c
00000180: 5c6a 20ba 1d3c d73d 80c1 c9bb 9e54 813c
0.02705672 0.00010404187 -0.019196149 0.014471579 0.009790008 0.00019703558 -0.0029509496 -0.0208876
0.030196024 0.010814715 0.034311645 -0.01310513 0.017204981 0.022845473 -0.016732274 -0.1679718
0.018454384 0.39277315 -0.00042120946 -0.029926704 -0.012907616 -0.052585334 -0.00033549184 0.05141342
-8.676511e-07 -0.038636588 0.11265691 -0.17411138 -0.020594211 0.011632772 0.0013176639 -0.02102895
-0.27511343 0.033236265 0.0198932 -0.11899 0.042186867 -0.11693629 0.17684202 0.0025114026
0.0314027 0.010998346 0.027686324 0.036551096 0.023015117 -0.015482971 0.021001248 0.004323976
-0.027289731 0.0034310264 -0.003499223 0.011116313 -0.011136677 0.026235903 0.0024827698 -0.015642758
0.0086799 -0.00044052937 -0.16439742 0.012331976 -0.017198302 0.046368454 -0.19060585 0.01139758
0.03037865 0.042748842 -0.0009914943 0.016209913 0.014230115 -0.060923595 -0.07370287 -0.008968743
0.09079851 0.04453171 0.084961616 -0.01249995 0.0015389754 0.018112037 0.021946112 0.035475165
-0.010952142 0.003668962 0.0023363833 -0.00090509595 0.02245011 0.033703078 0.06584411 0.011258914
-0.015172727 -0.040602908 -0.16256548 0.019906387 -0.056349896 0.0029305029 -0.0033092063 0.010136767
-0.00061193644 0.105095126 -0.0061571 0.015787419

S f4 [4, 4]
00000000: 0000 0000 0000 0000 0000 803f 0000 0000
00000010: 0000 0000 0000 0000 0000 0000 0000 803f
00000020: 0000 80bf 0000 0000 0000 0000 0000 0000
00000030: 0000 0000 0000 80bf 0000 0000 0000 0000
0.0 0.0 1.0 0.0 0.0 0.0 0.0 1.0
-1.0 0.0 0.0 0.0 0.0 -1.0 0.0 0.0
