Models/DoublePendulum/DoublePendulum_symplectic euler_50epoch_PAU()_ReLU()_batchsize_64_shape_torch.Size([175000, 4]).pt (torch, 52660 bytes, 8 tensors)

numerator f4 [6]
000000 ff f5 53 3b 92 df 6a be 06 de 9c bd 20 2b 93 3f
       0.003234267 -0.22936848 -0.07659535 1.1497536
000010 8b c4 38 3f b1 bb 9d bd
       0.721749 -0.07701815

denominator f4 [4]
000000 6b c9 b1 be d2 20 3b bc 47 99 a0 bf 3b e6 be bf
       -0.34723982 -0.011421399 -1.2546777 -1.4914011

weight f4 [100, 4]
000000 03 0b 91 3e ae e3 0e bd 69 8a 06 3e 61 18 1f be
       0.28328714 -0.0348851 0.13138737 -0.15536644
000010 d6 82 fb 3d e0 cd d3 3d e7 00 5c 3c ce 81 b9 3b
       0.12280814 0.10342002 0.0134279495 0.005661226
000020 49 5f 31 3f 0c 17 2f bf b0 e9 8c be 05 d8 c8 3e
       0.6928602 -0.6839454 -0.2752204 0.3922731
000030 61 7e 84 3e 13 77 8c be d6 77 49 be 0b a8 82 be
       0.2587767 -0.27434596 -0.1967462 -0.25518832
000040 69 31 f0 3b 54 0b 75 bc c0 41 4c 3c 1d d8 07 bd
       0.007330109 -0.014956314 0.012466848 -0.033165086
000050 35 b6 83 be 82 17 83 3e c0 1d 35 be 4f 79 76 be
       -0.2572495 0.25603873 -0.1768713 -0.24069713
000060 5a ab 44 3e ed c2 b8 3d e4 a2 8f bc 44 cd bd 3d
       0.1920599 0.09021554 -0.017533727 0.09267667
000070 2f 1e 96 be e0 17 6b be 3f ed 73 3e b3 52 52 3d
       -0.29319903 -0.22958326 0.23820971 0.0513484
000080 15 d1 34 bd 50 79 bb be ca 10 64 38 c2 a4 78 bc
       -0.04414471 -0.36615992 5.4375072e-05 -0.015176
000090 95 5e 42 3f 76 26 3e bf 36 fa ab 3e 04 00 ea be
       0.7592557 -0.74277437 0.33589333 -0.45703137
0000a0 c7 d3 ca bc b8 a6 88 3a 94 bf 2c 3e 50 90 a4 bd
       -0.024759186 0.0010425663 0.16869956 -0.08035338
0000b0 40 b7 05 be f2 9e eb bd 96 a6 00 be 5d 91 82 bd
       -0.13058186 -0.11504926 -0.12563547 -0.06375382
0000c0 64 8e 2d 3e 5b c6 0a be 66 31 5d be 22 21 a2 3e
       0.16948849 -0.13552229 -0.21600875 0.31665903
0000d0 e9 38 ee bb 57 04 88 3c c9 ac 09 3e 14 15 22 3e
       -0.007269968 0.016603632 0.13444819 0.15828353
0000e0 8a c2 ad be f2 b7 a5 3c c4 1b 04 be be ca 1c 3e
       -0.33937484 0.020229314 -0.12901217 0.15311715
0000f0 a0 09 5b bd 86 a8 00 bd 87 78 92 3d 1b 58 29 3e
       -0.053475976 -0.031410716 0.07151895 0.16537516
000100 ba 89 b3 bd 6c 84 95 3d 8d d7 03 bd 26 06 82 3d
       -0.08766504 0.07300648 -0.032187987 0.06348829
000110 87 92 93 bd d9 fc 4e be 48 ef cd bd 45 b2 01 3e
       -0.07205682 -0.20213641 -0.10055405 0.1266566
000120 c7 8e bd 3e ec c5 d5 be 17 3a 39 be 2c fe 77 3e
       0.37022993 -0.41752565 -0.18088566 0.24218053
000130 a8 a2 c4 3b 3d b0 fc bb 69 ad 51 bc 0c 61 9e 3c
       0.0060008354 -0.007711439 -0.012797692 0.019333385
000140 88 ec 86 be 0a 65 8c bd d2 e2 59 3b b5 df 35 bd
       -0.26352334 -0.06855209 0.0033246768 -0.044402797
000150 5c f7 56 bd 7e e4 9c 3e c6 93 25 3e b1 17 64 be
       -0.052481994 0.30643076 0.16169652 -0.22274663
000160 dc 92 95 be 10 9a cf 3c d9 e0 c3 3d a5 5a 08 be
       -0.29213607 0.025342017 0.09564371 -0.13315828
000170 15 45 85 be fb 17 f8 bc 9c 2a 38 3d 2a 54 9a bd
       -0.26029268 -0.030284872 0.04496251 -0.07535584
000180 b8 04 cf 3e 17 52 3b bc 9a fe 19 bd 0a d7 6b 3d
       0.40433288 -0.011433146 -0.037596323 0.057578124
000190 b2 b2 0e be 84 4a 34 3e d5 03 59 3e 90 8b 96 be
       -0.13935354 0.1760655 0.21192868 -0.29403353
0001a0 bc fd 03 3e 1b 22 ac 3d 4e e1 0d 3e 23 24 1b be
       0.1288976 0.084049426 0.13855478 -0.15150504
0001b0 5a 73 f3 3d 4c 89 f3 3c 7f e4 b9 bd 77 e9 3a 3e
       0.11887236 0.029728554 -0.09076785 0.18253122
0001c0 02 30 df 3d 20 9f 22 3d 77 45 82 3d 60 e7 a2 be
       0.10897829 0.039702535 0.063609056 -0.3181715
0001d0 9b dd 1a 3d 3b 02 a8 3e 53 fc b0 bd 5c d9 d4 3d
       0.037808996 0.32814202 -0.08641877 0.103930205
0001e0 48 ed 44 be 6c 6a 2c be 07 33 f3 bd 31 3a f8 3e
       -0.1923114 -0.16837472 -0.11874967 0.48481897
0001f0 c7 eb cd bd f0 c5 b7 bd 31 1b d5 bd a5 75 fe bc
       -0.100547366 -0.089733005 -0.10405577 -0.031061957
000200 f3 2d f2 bd 13 44 b1 3d e9 06 21 3e 4d 57 79 be
       -0.1182517 0.08655562 0.15725292 -0.24349709
000210 75 29 23 bd ce ee 55 bd 8e e4 c6 bd e3 ee 50 3e
       -0.03983446 -0.052229695 -0.09711562 0.20403628
000220 82 76 26 3e ad 8a cd 3d cf be dc bd 1b c5 93 bc
       0.16256145 0.10036216 -0.10778581 -0.018038323
000230 3a 9d b7 be 3e c0 59 be f9 d8 b8 3e bd e5 05 bf
       -0.35862142 -0.21264741 0.36103037 -0.5230368
000240 47 b9 68 3d a8 50 a6 3c 7e d5 83 ba d7 2e 48 3e
       0.05681732 0.020302132 -0.0010058132 0.19549118
000250 f6 cb bc 3d 39 b5 9d 3d 69 a0 8c 3d 21 b4 79 3d
       0.0921859 0.07700581 0.06866533 0.0609628
000260 1b a3 79 3d ce 78 a4 bc 32 33 70 be 60 06 94 be
       0.060946565 -0.020077135 -0.2345703 -0.28911114
000270 27 54 1a 3c 65 f1 e2 3c 57 78 69 bc 16 50 53 bc
       0.009419478 0.027702997 -0.014249883 -0.012897512
000280 19 e7 bb bd 9a 94 7a bd ba 95 84 bc 8e 43 fb bd
       -0.09174938 -0.061176874 -0.016184676 -0.122687444
000290 1b f3 88 3e b1 2f 8a be 41 91 54 3e d7 4b 82 3e
       0.26747975 -0.2698951 0.20758535 0.25448486
0002a0 b8 91 50 3e ac f2 54 bd ca dd 3c be b5 95 7c 3e
       0.20368087 -0.051989242 -0.18443981 0.24666484
0002b0 75 ed 8b bd b3 16 d0 bc 16 40 3b 3d d0 73 0c be
       -0.06832401 -0.025401449 0.045715414 -0.13716054
0002c0 70 16 25 be 53 53 00 be 07 10 27 3d 9f 42 a4 3d
       -0.1612184 -0.12531786 0.04078677 0.080205195
0002d0 63 49 fc 3b bb d5 a1 3b 10 f8 48 bd a2 ab 48 be
       0.007699178 0.0049388087 -0.049064696 -0.19596723
0002e0 e3 91 89 3e 04 7e af be 38 1b 4e be 5f 11 8b 3e
       0.26869115 -0.3427583 -0.2012757 0.2716169
0002f0 22 0d 39 3e f4 6a fb 3d e7 c8 b8 3c 22 f5 f9 bc
       0.18071416 0.12276259 0.022556735 -0.030512396
000300 6b 43 4d 3e 3e aa 65 be 08 ae 4d 3e 4b 51 8e be
       0.20045249 -0.22428223 0.20085919 -0.27796397
000310 79 15 b1 3a 83 4f a7 bc 57 5c fd bb 70 f1 4c bc
       0.0013510428 -0.020423656 -0.007731955 -0.012508735
000320 c5 f8 9d 3e 31 2a 5a 3e fb 9a 73 3e 46 15 2d 3d
       0.3085386 0.21305157 0.23789589 0.042256616
000330 f4 f3 74 bd cb 0b 4f bd 48 ac b7 bd f6 0f 38 3e
       -0.059802964 -0.050548356 -0.08968407 0.17974839
000340 d0 a4 d8 bc c9 47 27 3d 66 2d 33 bd 4e 65 b0 bc
       -0.026445776 0.040839944 -0.043744467 -0.02153268
000350 c7 a1 1d 3d 40 f1 cf bc c9 e2 c3 3c 7a a4 45 bd
       0.03848436 -0.025383592 0.02391185 -0.04825256
000360 9d 80 0d 3d fb 84 14 3c d3 6d f5 bd 22 5e 03 be
       0.034546483 0.009064908 -0.11983838 -0.12828878
000370 02 da 07 3e ff f3 ca 3d 94 c4 dd bd 75 3b bd 3d
       0.13266757 0.0990982 -0.1082851 0.09239856
000380 62 0e 1f 3f fe dc 1d bf 50 ea 4d bd 2a 00 96 3d
       0.6213132 -0.6166533 -0.050272286 0.0732425
000390 76 cf fd bc 59 5e 33 bd 04 cd 0d be 2f dd f5 bd
       -0.030982714 -0.04379115 -0.13847739 -0.12005078
0003a0 52 40 19 3e 4c 8c c7 3d 68 b7 33 be 1e 8c a6 bd
       0.14965943 0.097435564 -0.17550433 -0.08132194
0003b0 d9 ea 86 be 54 01 55 3e b0 1a 45 be be f6 86 3e
       -0.2635105 0.20801288 -0.19248462 0.26360124
0003c0 26 41 37 3e ca 1b ce 3d 64 f9 75 bd f7 28 d5 3c
       0.17895946 0.10063894 -0.06005229 0.02602051
0003d0 58 4c bd be 2e a4 c8 3e dc 49 40 3e 6b 63 86 be
       -0.36972308 0.3918776 0.18778175 -0.26247725
0003e0 8c 36 3f bf 04 d6 40 3f 2c fb a7 be 64 80 e6 3e
       -0.74692607 0.7532656 -0.32808816 0.4501983
0003f0 d2 d1 1a be 04 95 89 bd 5d 98 71 3d 6b 64 97 3d
       -0.15119103 -0.067178756 0.058983196 0.073922

bias f4 [100]
000000 7c 47 88 3e c6 73 34 be 6c 88 b5 3e 04 17 98 be
       0.26617038 -0.17622289 0.35455644 -0.2970506
000010 a3 50 5e be 0f 72 87 be bb f1 52 3e 49 99 22 bf
       -0.21710448 -0.26454207 0.20600025 -0.63515145
000020 b3 b7 6a be 1f be f8 bd 37 e2 70 3e bc d1 4e 3e
       -0.22921638 -0.12145638 0.23523794 0.20197195
000030 b8 91 36 3e b7 f9 63 be f0 dc ad be 02 81 43 be
       0.17829025 -0.22263227 -0.33957624 -0.19092181
000040 c6 7f 44 3e 5c c0 50 3e 3d dd 8d bc 17 11 76 be
       0.19189367 0.2038588 -0.017317409 -0.24029957
000050 e7 60 50 3e 64 eb 7c be ae 6c 94 3e bd fb 75 3e
       0.20349465 -0.2469917 0.28989166 0.24021812
000060 e9 e4 80 3e 39 b5 4e 3e d0 e3 49 3e b8 fa 4a be
       0.25174645 0.20186318 0.1971581 -0.19822204
000070 34 a8 aa be bd 74 90 3e 59 38 1c bf 9f 7c 3d be
       -0.33331454 0.28214064 -0.6102348 -0.1850457
000080 61 9b 25 be 77 b6 56 3e 6e 69 48 3e 2f 0c 26 be
       -0.16172554 0.20968042 0.19571468 -0.16215585
000090 84 07 43 be e3 1e 34 be 25 e2 0d bf bd db 71 3e
       -0.19045836 -0.17589907 -0.55423194 0.2361898
0000a0 a0 ab 36 be cf e5 91 be 30 dd 40 3e ba 6d 5c 3e
       -0.17838907 -0.28495643 0.18834376 0.21526232
0000b0 74 f5 47 3e 94 15 39 be bb d2 75 3e 8d 83 5c 3e
       0.19527227 -0.18074638 0.24006169 0.21534558
0000c0 95 c6 33 be e7 6e 80 be 00 18 1e bf 8d fb 3e be
       -0.17556222 -0.25084612 -0.6175537 -0.18650647
0000d0 67 d2 6a 3e 0d f4 23 3e f1 b6 4d be 17 ec 6f be
       0.22931825 0.16011067 -0.20089318 -0.23429905
0000e0 ef 9a c5 3e 11 96 5b 3e 94 0f c2 be d7 84 86 3e
       0.38594767 0.21443965 -0.3790251 0.26273224
0000f0 00 ca 56 3e 74 27 0e be 80 3f e0 bd f9 67 70 be
       0.20975494 -0.13882238 -0.10949612 -0.23477162
000100 14 d3 b8 3e ab fb 2b be 92 15 3f 3e fc ca 5f 3e
       0.3609854 -0.16795222 0.18660572 0.21854776
000110 85 17 82 be 45 8b 33 be d4 da 2d 3e 3e 47 77 3e
       -0.2540857 -0.17533596 0.16978008 0.2414827
000120 30 d8 9c be 1f 75 70 3e 12 01 7e 3e 22 81 46 3e
       -0.30633688 0.23482178 0.24805096 0.19385198
000130 fe 30 4c be 13 5f 43 be 3d be a0 3e 73 f9 54 be
       -0.19940564 -0.19079237 0.3139514 -0.20798282
000140 be 65 87 3e f6 97 c6 3e f2 75 5e 3e c6 76 6d 3e
       0.2644481 0.38787812 0.2172468 0.2318984
000150 a7 02 88 be 1e bc 7c be aa d7 51 3e 9e 86 5a be
       -0.26564524 -0.24681136 0.20492426 -0.21340415
000160 c7 42 90 3e ad dd 32 be 45 3e 33 be 2f 5c 55 3e
       0.28175947 -0.17467375 -0.17504223 0.20835947
000170 6f df 8e 3e 25 38 e0 bd db db 57 be f4 43 c3 be
       0.2790484 -0.10948209 -0.21079962 -0.38137782
000180 9d 42 93 3e 02 2c 71 3e 73 f5 43 3e ed e2 79 3e
       0.2876176 0.23551944 0.191366 0.24402972

weight f4 [100, 100]
000000 e1 f3 0a be 63 69 23 bc 0c 15 d2 bd 04 13 8c be
       -0.13569595 -0.009973857 -0.102579206 -0.27358258
000010 89 3c b1 bd e4 42 cb bd 26 2a 16 3e d0 d6 8e 3d
       -0.08654124 -0.09924868 0.14664516 0.06974566
000020 2b 8c 0a be ce 63 72 3e a4 4c 0d 3c 52 bc 81 be
       -0.13530032 0.23670885 0.00862423 -0.2533899
000030 a0 df 26 3e 15 e0 d5 3d e8 8e 29 3d 67 ab 70 3e
       0.16296244 0.10443131 0.04139605 0.23502885
000040 57 a5 e7 3d 40 b6 6e 3e 8a 99 a3 3e b8 26 6f 3e
       0.11310833 0.2331171 0.31953079 0.23354614
000050 fe ff 24 be 6e e4 cd bd 60 52 d6 bd e6 7c 7a 3d
       -0.16113278 -0.10053335 -0.104649305 0.06115427
000060 ca a5 49 3e bd e9 3f 3e f2 05 e1 39 62 10 31 3e
       0.1969215 0.18741508 0.00042919774 0.17291406
000070 44 1e be 3d eb 2a 16 3d b8 47 07 3e 51 36 95 bd
       0.092831165 0.036662024 0.13210952 -0.07285751
000080 fd 3d f7 bc e3 bb 0b be 9f 38 13 3d 6d e4 1a 3e
       -0.030180926 -0.13645892 0.03594267 0.151262
000090 75 4c 8f bd 02 71 0b 3e 74 59 c0 3d 04 90 2e be
       -0.06997005 0.13617328 0.09392062 -0.17047125
0000a0 d0 79 07 be dd 90 c5 be c5 bf b4 ba d3 60 2d 3e
       -0.13230062 -0.38587084 -0.0013790062 0.16931467
0000b0 b0 de d3 3d 16 d6 fe bb 7d 79 32 be e4 bc 45 bc
       0.10345209 -0.007776986 -0.17429157 -0.012068961
0000c0 c1 f8 3e bc 85 df e2 bd e7 2e 2c 3e 42 b6 33 3e
       -0.011655987 -0.11077789 0.16814767 0.17549995
0000d0 b6 18 15 be 8f 33 fe 3c 83 a9 7d 3d ac 85 2d 3e
       -0.14560208 0.031030444 0.061929237 0.16945523
0000e0 83 b6 53 3e bb cf e9 3c bc a5 9a 3d a9 9e 20 3e
       0.20675091 0.028541436 0.075511426 0.15685524
0000f0 e7 56 70 bd 52 1e 9f 3d 83 07 40 3e ec 58 94 bd
       -0.058676627 0.07769455 0.18752865 -0.07243523
000100 ba d5 85 b9 d6 a8 5a 3d 22 11 61 3e 16 a6 9a 3d
       -0.00025526976 0.05338367 0.21979192 0.0755121
000110 c9 df 9f bb fb 4c 27 bd d3 31 f9 bd f3 18 c1 bd
       -0.004878972 -0.0408449 -0.12167706 -0.09428587
000120 9d cd b0 bd 27 6f 50 3d b5 e0 c1 3d 25 33 c9 bd
       -0.086329676 0.050887253 0.094666876 -0.09824208
000130 83 7e 6c 3e 95 36 bc bc c0 ce 03 3e b8 3a 3e 3e
       0.23095135 -0.022975245 0.12871838 0.18577087
000140 98 f5 64 3d 19 c5 1b be b6 c8 56 bd 39 af 79 be
       0.05589828 -0.15211906 -0.052437507 -0.24383248
000150 43 65 73 be 11 ee 49 3e 77 a2 f7 bc f4 9b 77 3d
       -0.23769097 0.19719721 -0.030228836 0.060451463
000160 58 e5 61 3d 06 a7 04 be 4a 16 2d be b5 ca 80 be
       0.05515036 -0.1295434 -0.16903034 -0.25154653
000170 9d 1d 54 3d 20 22 99 3e 06 ac d0 3d 3c 4f ff 3d
       0.051786054 0.29908848 0.10189061 0.12466285
000180 ab 0e 21 3d 47 27 83 be aa 52 20 be d7 0c 80 bc
       0.03932063 -0.25615904 -0.15656534 -0.015631123
000190 db 29 55 be 60 61 e4 3c 34 1e d4 bd d5 61 31 be
       -0.20816748 0.027878463 -0.10357323 -0.17322476
0001a0 fc 84 fe bd dd 31 fd bc 03 3d 0e 3e 59 67 84 bb
       -0.124277085 -0.030907566 0.13890462 -0.0040406403
0001b0 c4 a5 21 3e 23 c2 40 3e 35 e4 83 3c e3 8e af be
       0.15785891 0.18824057 0.016100029 -0.342887
0001c0 c2 5b c7 3d f2 23 1e 3e 41 a4 08 3c d6 ec 57 3e
       0.09734298 0.154434 0.008339942 0.2108644
0001d0 53 22 62 be 95 ee 72 bc eb b9 1a 3e 58 96 2e bd
       -0.22083406 -0.01482739 0.15109985 -0.042623848
0001e0 92 74 a0 be 7d 1a e7 3c dc c3 05 3b d4 d4 69 bd
       -0.31338936 0.028210873 0.002041093 -0.057087734
0001f0 b0 44 ff bd fc 1c 39 3d 79 25 01 3e fc b5 19 bd
       -0.12464273 0.045193657 0.12611951 -0.03752707
000200 e4 fb 21 be e0 f5 0c 3e 5f a6 7c 3d be 31 fc 3d
       -0.15818745 0.13765669 0.0616821 0.12314175
000210 e1 8f f9 bd 02 c0 6a 3e 47 7a ff 3d 18 47 c3 bd
       -0.12185646 0.22924808 0.124744944 -0.095350444
000220 87 e8 b0 3d 8b e9 9e be a2 88 26 3e fa 7d cd 3d
       0.08638101 -0.31037554 0.16263059 0.10033794
000230 21 db b2 bd db 44 c9 bd 83 ae dc bc 7d f2 dc 3d
       -0.08733202 -0.09827586 -0.026938682 0.107884385
000240 33 00 27 3d cf 06 5d be 70 31 a0 be 8c fc 2d 3c
       0.040771674 -0.21584629 -0.31287718 0.010619294
000250 b4 7c b6 3d ff 56 62 3d a3 e6 83 3e f6 1a e4 ba
       0.08910504 0.055258747 0.257619 -0.0017403055
000260 41 90 cb 3d 39 5f b1 3d fb 1d 22 bc 41 5d f4 3d
       0.099396236 0.086607404 -0.009894843 0.11931849
000270 f6 a1 2b 3d 6e 98 30 3e 2a c8 07 be aa 8a ea bd
       0.041902505 0.17245647 -0.1325995 -0.11452229
000280 73 46 52 bd 06 66 22 be 75 da 86 be 43 28 66 3d
       -0.051336717 -0.15859231 -0.26338544 0.05619074
000290 c7 fb 4f bd 15 ec 9d 3c 47 0d 10 be ed 1a 3b 3d
       -0.050777223 0.019277612 -0.14067565 0.045679975
0002a0 5c bf 92 3c 5f 96 0a 3e 70 5a 21 3e 84 24 e3 bd
       0.017913513 0.13533925 0.15757155 -0.11090949
0002b0 cf 34 65 bd f9 49 6d 3d 99 75 f2 3d 0b da 64 3e
       -0.055958565 0.057931874 0.11838836 0.22348802
0002c0 58 7b 0b 3e 6e 43 92 3c f8 bc 79 bd 82 0a 72 3e
       0.1362127 0.017854419 -0.06097123 0.23636821
0002d0 82 78 0e bd 7b cb 6f bc 73 63 5c be 4e 24 dc 3d
       -0.034782894 -0.014635916 -0.21522312 0.10749112
0002e0 7f 95 f8 bb 87 6d 8d be ed be e9 bc fb 29 73 bc
       -0.0075861807 -0.27622625 -0.028533423 -0.014841552
0002f0 c7 e1 fe 3b 1b a9 57 bd 20 71 2e 3c 1a 77 24 3e
       0.0077783796 -0.052651506 0.010647088 0.16061059
000300 10 74 d4 bd 3b aa 9a 3c 0e 45 46 be 78 09 b2 bb
       -0.103737 0.01888 -0.1936228 -0.0054332577
000310 fd bc 8b 3d 9c 98 c9 3d 6d 2c 7d 3c c6 2a 75 3e
       0.06823156 0.09843561 0.015452486 0.23942098
000320 a7 94 08 be ce 6d 85 3e a6 27 96 3d 18 e7 32 be
       -0.13337956 0.26060337 0.07331781 -0.17470968
000330 15 d6 1e 3e 04 ce 98 bd 5d 0a db be c9 e0 22 3e
       0.15511353 -0.07461169 -0.42781344 0.15906061
000340 43 67 1b 3e 51 bd 0e 3e 5a e0 70 3d 1a fd 99 be
       0.1517611 0.13939406 0.05880771 -0.30075914
000350 73 0d 37 be da b6 8a 3e 17 1c 78 3e b5 00 77 3d
       -0.17876224 0.2709263 0.24229465 0.06030341
000360 67 54 db bc bf 2d 40 be 3b 2a 9a 3d 92 58 d0 3d
       -0.026773645 -0.18767451 0.07527586 0.101731434
000370 39 a9 92 be 68 ea 41 3d e0 8d 5d be 8d f5 d7 bd
       -0.28644732 0.047342688 -0.21636152 -0.10544882
000380 c8 df 67 be bc b0 81 be 73 56 23 be ed 72 f5 3d
       -0.2264396 -0.2533015 -0.15950947 0.11984811
000390 66 77 77 3e 79 f4 15 be af de 2f 3e 94 05 d7 3e
       0.2416664 -0.1464404 0.17174791 0.41996443
0003a0 77 94 8a 3e f7 a2 67 be 70 64 7b be 2f be c0 bd
       0.27066395 -0.2262076 -0.24550033 -0.09411275
0003b0 4a de a6 3e 88 2d fc 3d e6 4d 49 3e 3d ef 08 3d
       0.32591468 0.12313372 0.19658622 0.03343128
0003c0 74 13 4a 3e 24 8c 06 be 00 4c 6d be f6 50 ae 3b
       0.19733983 -0.13139397 -0.23173523 0.00531971
0003d0 38 c9 b4 be 54 97 20 3e 6a 7a 64 be 6a 2a a0 be
       -0.35309768 0.15682727 -0.22312322 -0.3128236
0003e0 3c 78 46 3e 54 1c 12 3e 95 ad 09 3e a7 74 84 3e
       0.19381803 0.14268619 0.13445123 0.2587025
0003f0 70 3b 6e 3d 46 5e b6 bb fe 01 96 3e a2 03 cb bd
       0.058162153 -0.0055654375 0.29298395 -0.09912802

bias f4 [100]
000000 00 98 dc 39 cd de d0 bc b7 dc b4 3d 47 ec 22 3d
       0.0004207492 -0.025496865 0.088311605 0.039776113
000010 a7 73 50 3c 67 58 43 bd 6d a2 9a bd f0 16 3e bd
       0.012722886 -0.04769173 -0.075505115 -0.046408594
000020 27 00 f9 bc 80 22 6d 3d 50 d9 44 3d fd fd 2c bd
       -0.03039558 0.05789423 0.048058808 -0.04223441
000030 35 34 a1 bd 5a 21 39 bd a3 10 87 bd 2a 4a 19 3d
       -0.07871286 -0.045197822 -0.0659497 0.037424244
000040 8d 61 ac bc 72 25 8c 3d b0 7c 5f 3d ba a6 fb bc
       -0.02104261 0.068430796 0.05456227 -0.03071915
000050 20 46 37 bd a5 32 84 bd a7 79 27 3d 07 41 72 3d
       -0.04474461 -0.06454972 0.0408875 0.059144046
000060 2d ee ba 3d ea 01 3e bd 00 58 b3 ba 78 68 c4 3d
       0.0912746 -0.046388544 -0.0013682842 0.09590238
000070 af 40 c9 3d 73 a7 ba 3c 53 b7 81 bc 27 25 6e 3c
       0.098267905 0.022784924 -0.015834486 0.014535225
000080 93 ef e3 bc b0 ef 48 bd 60 31 c1 3d 37 94 85 3d
       -0.027824199 -0.04905671 0.09433246 0.0652241
000090 5f a7 af bd a7 cf 18 3d 63 73 3d 3d a7 b5 64 bc
       -0.085768454 0.037307408 0.04625262 -0.013959325
0000a0 df 89 a4 bd 30 85 c7 3d 5b 29 b1 3d 27 fb 1e 3d
       -0.08034109 0.097422004 0.08650466 0.038813736
0000b0 77 1e 1c bd 2d a1 a0 3c 07 4b f1 bc 50 31 11 3d
       -0.03811499 0.019608105 -0.029454721 0.03544742
0000c0 e7 a3 af bd c7 e0 95 bd 60 aa 9f bc 87 c7 cf 3c
       -0.08576184 -0.073182635 -0.01949042 0.025363697
0000d0 d3 e1 fe bc 1a 61 b3 bd 40 74 5c 3c 67 b7 39 3d
       -0.03111354 -0.08758755 0.013455451 0.04534092
0000e0 40 04 ac 3d b0 e7 4a bd a7 43 d8 3c ba 98 09 bd
       0.08399248 -0.04953736 0.026399447 -0.033592917
0000f0 c7 74 f7 bc cd b7 42 bb 53 35 95 3c d3 8a 8f 3d
       -0.030207051 -0.0029711605 0.018213904 0.070089005
000100 68 32 c8 3d 6d 1c 39 3d 2d 42 13 3d c0 80 7c 3d
       0.09775239 0.045193125 0.035951782 0.061646223
000110 1d 38 75 3d d0 b1 6a bd 8d 4e b4 3d a0 38 3a bd
       0.059867967 -0.05729848 0.08804045 -0.045464158
000120 73 fc 9e 3d e2 31 b2 bd 1d 2c ba 3d 0f 24 bf 3d
       0.077629946 -0.08700921 0.09090445 0.093330495
000130 93 50 16 3d 10 a4 a4 bd 27 1d e4 bc 40 a0 3b 3c
       0.036697935 -0.08039105 -0.027845932 0.011451781
000140 8d 42 19 3d 0b 0a 90 bd 1a a6 c8 3c 00 37 2f bb
       0.037416983 -0.070331655 0.024493266 -0.0026735663
000150 33 cf 09 bd 72 9d 9a 3d 2d 43 51 bd 63 db 8b bd
       -0.033644866 0.075495616 -0.051089454 -0.06828954
000160 af 61 9c bd 2b de 9c bd 8d 4c 18 bd 5f 15 81 3d
       -0.07635819 -0.07659563 -0.03718238 0.06302904
000170 d0 7d 9f bd 60 4b c0 3d 67 c9 06 bd 35 89 8e bd
       -0.07787669 0.09389377 -0.032906916 -0.06959764
000180 40 f4 3e bc 73 6b a3 bd c0 ad 2c 3c 55 fc 92 3d
       -0.011654913 -0.07979479 0.010539472 0.07177035

weight f4 [1, 100]
000000 19 72 0c 3d 55 23 07 be 61 66 30 be df 28 1b 3d
       0.0342885 -0.13197072 -0.17226554 0.037880775
000010 74 e4 37 be a9 90 23 bd de bc cf 3d 47 db aa 3d
       -0.17958242 -0.03993288 0.101434454 0.08342605
000020 75 bf 34 bd 6c db 8a be c9 a1 96 ba 3d 37 4a 3d
       -0.0441279 -0.2712053 -0.0011492308 0.049369086
000030 a2 e6 6b bc b3 f6 b3 3c d5 52 16 3e 70 cd 10 bd
       -0.014398249 0.021968221 0.14680035 -0.03535217
000040 20 cb b0 3d bb 79 b0 3c 8a f1 39 bb 66 dd 13 3d
       0.08632493 0.02154242 -0.0028372728 0.036099814
000050 67 5c 8a bd 25 24 0d 3c 76 7b 4f be 0c c9 1c b9
       -0.067559056 0.008614575 -0.2026194 -0.00014952215
000060 32 0c c3 bd b8 f4 84 bc 6f 04 99 bb 4b 6f 1f be
       -0.095238104 -0.016229972 -0.004669718 -0.15569799
000070 94 95 25 3a 27 77 3d bd 3b 98 6a 3d fb 5a f2 bd
       0.00063165394 -0.04625621 0.057274085 -0.118337594
000080 02 56 86 3d 32 5c f6 bb e5 78 9b bd d9 c2 81 3d
       0.065593734 -0.0075183148 -0.07591418 0.06335992
000090 b6 9c 72 bc 8c 74 96 3d f0 3a 19 3b dd d4 90 bd
       -0.014807871 0.07346448 0.0023381077 -0.070718504
0000a0 17 7c 91 bc a8 ed eb 3c 42 dc 7e bb e4 6a 3b bd
       -0.017759366 0.028799847 -0.0038888608 -0.045756236
0000b0 c8 fd 8f 3e 54 72 eb bd c1 e9 03 bd c4 f8 09 be
       0.28123307 -0.11496416 -0.032205347 -0.13473803
0000c0 b6 8e 0f bd 1b 3f 0a bd 5e ff 05 3d 58 c8 33 3d
       -0.03504821 -0.03375159 0.03271424 0.043892235
0000d0 c0 e5 86 3d f3 ba 39 3e 85 ff cd 3c 98 22 a5 bb
       0.0658679 0.18137722 0.025146255 -0.0050395243
0000e0 6f a9 c1 bb ff 2e 69 bb e9 88 59 3d ab aa 78 bc
       -0.0059100906 -0.003558099 0.053109083 -0.015177409
0000f0 90 97 7a bc 5f 5d e4 3d 9a 9f b0 bb f8 44 15 3a
       -0.015294924 0.111506216 -0.0053901197 0.0005694176
000100 e3 cb 88 be 1f 37 84 be 63 ce cc ba d4 da 37 be
       -0.26718053 -0.25823304 -0.0015625473 -0.1795457
000110 bb ae 48 3b a4 ed 84 bd 0d 7e 66 be df 0e 8f 3d
       0.0030621726 -0.06490639 -0.22509022 0.06985258
000120 b7 60 b0 bb ff 2e 99 3c 23 89 7c bb b3 9d 50 be
       -0.005382623 0.018699167 -0.0038533888 -0.20372657
000130 b3 bd 73 be d7 5a 92 3d 14 a3 07 3e 41 7b 94 3d
       -0.23802833 0.071462326 0.13245803 0.07250071
000140 d3 00 a7 bb 0a a8 bb 3d 39 e7 13 3d 8f ce 93 3d
       -0.005096534 0.0916291 0.036109183 0.07217132
000150 3d 2a 49 3d a8 52 2a bb 10 2b 02 bc 67 ea dc 3d
       0.049112547 -0.0025989208 -0.007944837 0.10786896
000160 99 1b af 3c 2b 2a 2f 3e f5 cb f7 3c 3f e3 cf b9
       0.021375464 0.1710593 0.030248621 -0.00039651428
000170 84 63 82 3d 6e bf 0b be 67 1a 9b 3d 66 2c ad 3e
       0.06366637 -0.13647243 0.07573395 0.33822936
000180 e2 5e a3 3d af a9 56 bc a1 97 34 3e 75 fa 1a be
       0.07977082 -0.013101979 0.17635967 -0.15134604

S f4 [4, 4]
000000 00 00 00 00 00 00 00 00 00 00 80 3f 00 00 00 00
       0.0 0.0 1.0 0.0
000010 00 00 00 00 00 00 00 00 00 00 00 00 00 00 80 3f
       0.0 0.0 0.0 1.0
000020 00 00 80 bf 00 00 00 00 00 00 00 00 00 00 00 00
       -1.0 0.0 0.0 0.0
000030 00 00 00 00 00 00 80 bf 00 00 00 00 00 00 00 00
       0.0 -1.0 0.0 0.0
