Models/DoublePendulum/DoublePendulum_symplectic euler_50epoch_Tanh()_Softplus(beta=1.0, threshold=20.0)_batchsize_64_shape_torch.Size([175000, 4]).pt (torch, 52363 bytes, 6 tensors)

weight f4 [100, 4]
-0.13785546 0.080061175 0.08834576 -0.08957612 0.20626539 0.19960748 0.22116873 0.29698184
-0.17796026 0.15270482 -0.051043384 0.1856797 0.20083664 0.0016837958 -0.108677685 0.036159687
-0.27793705 0.09076263 0.042494375 -0.1038813 0.3740604 0.092554055 -0.07076997 -0.23870307
-0.027089797 0.04656335 0.34083402 0.4945583 0.11811641 -0.07919224 -0.052292645 0.19391313
1.0996413 -1.0518503 -0.39885306 0.21867086 1.0916659 -1.0155308 0.4517508 -0.22423913
0.05397927 0.06454425 0.10618045 0.20138566 0.11829741 0.23334329 -0.24122502 0.052438825
-0.22617435 -0.08934255 -0.16707768 0.008597681 -0.13358429 -0.6314672 -0.034802116 -0.095548585
0.020445628 -0.47068214 0.21907657 -0.1251537 -0.20217751 0.2285937 0.41790718 -0.17844039
-0.27348766 -0.09498062 0.0668063 0.028302558 -0.2687227 -0.12811854 0.5412559 -0.026083091
0.22685029 -0.01665293 0.023266744 -0.080009244 -0.4706113 0.067359105 -0.19304818 0.19872923
-0.1479432 -0.32870027 0.15380841 0.09717576 0.093399405 -0.6506877 -0.2533045 0.23935819
-0.008985998 -0.04876083 0.19938697 0.17453031 0.29178146 0.04599439 0.041868933 0.008378732
0.13578789 -0.09014854 0.024538625 -0.06643025 -0.33915666 -0.15767576 0.056728214 0.08506182
-0.088886864 -0.34429705 -0.0243494 0.17628568 -0.45788628 0.046799872 -0.027449062 -0.050058007
-0.63563746 -0.026518773 0.12928404 -0.14855728 0.67342436 -0.009997119 0.23719102 -0.15092573
0.24969666 -0.1278567 0.24670056 -0.09439526 0.14932013 -0.13257578 0.053499218 -0.11338448
-0.110036284 -0.2528262 -0.029346336 -0.036796942 -1.4376401 1.3852826 0.19970748 -0.38622048
0.09318304 0.0750368 0.5196972 0.06585886 0.002760503 -0.33953267 -0.1534752 0.15909113
-0.17910266 -0.50827247 0.13827458 -0.07035726 -0.14790623 -0.025693811 -0.03125595 -0.0684541
-0.12307745 -0.10822769 0.16677938 0.11038718 0.18829788 0.13154325 -0.30964708 -0.078233585
0.18443653 -0.16379966 0.093038365 -0.14038871 0.06094986 0.06651422 0.114625484 0.25807086
0.097164184 -0.024130894 0.20091659 0.18381175 0.14364232 0.04594794 -0.36239043 -0.24196018
0.4115966 -0.11358247 -0.20313267 0.3287928 -0.03265878 -0.30052066 0.027436819 -0.114690416
-0.0011292953 -0.047918964 0.008983036 0.083184354 0.13418719 -0.041668765 -0.006198859 0.08108209
-0.12919186 -0.13099016 -0.056555245 0.10976599 -0.34174636 0.042618673 0.10235106 -0.13096508
-0.18219222 0.2765694 0.1932499 -0.28862095 0.4147335 -0.27127287 -0.24697968 0.20313132
-0.07257651 0.46669713 0.25596806 -0.04976197 0.17764087 -0.102371596 0.04651916 -0.14934516
-0.052361675 0.056794077 0.25593355 0.6673532 0.14337936 0.06051628 0.30892572 0.40219584
-0.7624812 0.6707964 0.29074782 -0.36481035 0.038255233 -0.17494242 0.06319435 -0.14969295
-0.36562473 -0.004388547 -0.1629045 0.012138726 0.19429909 -0.16996752 -0.03388935 0.142949
-0.47744226 1.0136926 -0.33497763 0.38180494 0.15220284 0.0039263214 0.07477285 0.04098958
-1.4032319 1.4564663 -0.30643913 0.46596032 0.10030539 0.62527966 0.0053602247 0.10192297
00000000: fb29 0dbe 1df7 a33d 9fee b43d af73 b7bd
00000010: 3c37 533e e765 4c3e 0e7a 623e 010e 983e
00000020: 373b 36be a75e 1c3e de12 51bd d222 3e3e
00000030: 1fa8 4d3e d0b2 dc3a 6892 debd 2e1c 143d
00000040: c44d 8ebe c2e1 b93d 950e 2e3d b8bf d4bd
00000050: d884 bf3e fb8c bd3d d9ef 90bd 946e 74be
00000060: 6ceb ddbc 36b9 3e3d cc81 ae3e bf36 fd3e
00000070: 04e7 f13d 8b2f a2bd d030 56bd 2a91 463e
00000080: 0cc1 8c3f 08a3 86bf 7836 ccbe 41eb 5f3e
00000090: b5bb 8b3f eafc 81bf e14b e73e f19e 65be
000000a0: 5e19 5d3d c72f 843d 2375 d93d 0b38 4e3e
000000b0: ea45 f23d 8bf1 6e3e b103 77be 18ca 563d
000000c0: 409a 67be 3af9 b6bd 6916 2bbe 4add 0c3c
000000d0: 52ca 08be d6a7 21bf aa8c 0ebd faae c3bd
000000e0: 977d a73c 40fd f0be 9c55 603e 4b28 00be
000000f0: 9f07 4fbe 7814 6a3e eef7 d53e 14b9 36be
00000100: 9306 8cbe 3385 c2bd bed1 883d c4da e73c
00000110: 0696 89be 8231 03be bf8f 0a3f 35ac d5bc
00000120: 714b 683e ba6b 88bc e699 be3c e3db a3bd
00000130: f7f3 f0be 92f3 893d 6cae 45be ad7f 4b3e
00000140: 6c7e 17be 674b a8be f47f 1d3e 1604 c73d
00000150: 3048 bf3d 7893 26bf 21b1 81be 501a 753e
00000160: 023a 13bc 70b9 47bd 192c 4c3e 13b8 323e
00000170: 6164 953e 9d64 3c3d c27e 2b3d f346 093c
00000180: fb0b 0b3e cc9f b8bd 3a05 c93c 950c 88bd
00000190: f1a5 adbe c175 21be d85b 683d e434 ae3d
000001a0: 510a b6bd b447 b0be 6578 c7bc 3c84 343e
000001b0: 1270 eabe 39b1 3f3d dbdc e0bc a009 4dbd
000001c0: 23b9 22bf e63d d9bc 0963 043e 661f 18be
000001d0: 8a65 2c3f f5ca 23bc 34e2 723e 468c 1abe
000001e0: 7bb0 7f3e deec 02be 129f 7c3e 4d52 c1bd
000001f0: 60e7 183e f2c1 07be ff21 5b3d 1f36 e8bd
00000200: b45a e1bd 7072 81be ba67 f0bc 64b8 16bd
00000210: 9704 b8bf f150 b13f 1e80 4c3e b1be c5be
00000220: c0d6 be3d e5ac 993d e00a 053f 03e1 863d
00000230: 8ee9 343b 3ad7 adbe 9a28 1dbe c9e8 223e
00000240: b066 37be 251e 02bf da97 0d3e 7817 90bd
00000250: bb74 17be d47b d2bc 3d06 00bd aa31 8cbd
00000260: 0810 fcbd 7ba6 ddbd 37c8 2a3e ac12 e23d
00000270: 29d1 403e 46b3 063e 108a 9ebe ee38 a0bd
00000280: eedc 3c3e 19bb 27be e68a be3d 0fc2 0fbe
00000290: 8fa6 793d 9b38 883d c4c0 ea3d dd21 843e
000002a0: 04fe c63d 27ae c5bc 14bd 4d3e 2639 3c3e
000002b0: f916 133e e833 3c3d 3d8b b9be 69c4 77be
000002c0: cabc d23e ed9d e8bd 0302 50be 8857 a83e
000002d0: 37c5 05bd d8dd 99be 2ec3 e03c cfe2 eabd
000002e0: dd04 94ba ad46 44bd 952d 133c 8f5c aa3d
000002f0: 5e68 093e deac 2abd cc1f cbbb 5e0e a63d
00000300: df4a 04be 4922 06be 79a6 67bd fecc e03d
00000310: 61f9 aebe eb90 2e3d 6f9d d13d b61b 06be
00000320: 9990 3abe 819a 8d3e 4de3 453e 20c6 93be
00000330: f357 d43e 47e4 8abe 3ee8 7cbe a801 503e
00000340: fea2 94bd edf2 ee3e 3f0e 833e 35d3 4bbd
00000350: 7de7 353e 33a8 d1bd e08a 3e3d f0ed 18be
00000360: 3279 56bd e8a0 683d b909 833e a9d7 2a3f
00000370: 0ad2 123e ebdf 773d 832b 9e3e 9dec cd3e
00000380: f831 43bf 50b9 2b3f e6dc 943e 6cc8 babe
00000390: 85b1 1c3d 1b24 33be 0a6c 813d 1c49 19be
000003a0: 2a33 bbbe cdcd 8fbb 70d0 26be 82e1 463c
000003b0: 57f6 463e f70b 2ebe 8fcf 0abd 3961 123e
000003c0: 5073 f4be aec0 813f 3082 abbe f07b c33e
000003d0: 10db 1b3e 5fa8 803b 8222 993d b1e4 273d
000003e0: 1a9d b3bf 7d6d ba3f 97e5 9cbe 5a92 ee3e
000003f0: ea6c cd3d 5412 203f d3a4 af3b fdbc d03d

bias f4 [100]
0.1995523 -0.577872 0.3842704 -0.17725061 -0.24725358 -0.18200013 -0.21223135 0.2551247
0.01334015 0.011391545 -0.21199693 0.40837553 -0.2788818 -0.06982417 -0.36724705 0.5235553
0.3298961 0.05140962 -0.024129556 0.14253682 0.32070774 -0.13223074 0.3306682 -0.18731308
-0.2885253 -0.42995837 0.2987102 -0.4018819 -0.12654826 -0.07427348 0.42193648 0.23707959
0.020037685 0.015643325 -0.51505643 -0.27232307 0.56248367 0.300371 -0.04790451 -0.2858531
0.2513403 -0.32773456 0.45851898 0.4662545 0.3132495 0.17855239 0.10551089 -0.24227966
-0.3978981 0.3779051 -0.40210602 -0.18357995 -0.053315863 0.22062065 0.23461732 -0.3713612
-0.089948505 -0.12924771 -0.45264554 0.09368583 -0.069527596 0.16551754 0.0347954 0.21765697
0.23762478 -0.11503282 0.30547398 0.39913303 -0.10236858 -0.54961985 -0.28104928 -0.42098013
0.4748201 0.18935299 -0.35440752 -0.2681264 0.34141797 0.0048905453 -0.3375204 -0.04501731
0.35994762 -0.13758117 -0.13936016 -0.63334656 0.43361208 -0.09476825 0.14109348 0.35103282
-0.35884732 -0.060990114 0.16462956 0.46046814 -0.49122116 0.3777934 0.3753121 0.11996582
-9.495775e-05 -0.27117828 0.41203013 -0.33919248
00000000: 7057 4c3e 6bef 13bf 17bf c43e 2f81 35be
00000010: 0b30 7dbe 3e5e 3abe 2d53 59be b49f 823e
00000020: a590 5a3c 9aa3 3a3c b915 59be 9916 d13e
00000030: 98c9 8ebe f9ff 8ebd ce07 bcbe b807 063f
00000040: 24e8 a83e e592 523d 59ab c5bc 2cf5 113e
00000050: ce33 a43e 7f67 07be 584d a93e 00cf 3fbe
00000060: 97b9 93be 8123 dcbe 8bf0 983e 77c3 cdbe
00000070: de95 01be b21c 98bd 0f08 d83e fec4 723e
00000080: 1226 a43c 6e26 803c bdda 03bf ee6d 8bbe
00000090: eefe 0f3f 3aca 993e 8537 44bd 565b 92be
000000a0: adaf 803e d3cc a7be 00c3 ea3e e9b8 ee3e
000000b0: 3d62 a03e 70d6 363e 1816 d83d 2918 78be
000000c0: 4db9 cbbe c77c c13e d7e0 cdbe 62fc 3bbe
000000d0: bc61 5abd 61ea 613e 863f 703e 0e23 bebe
000000e0: ec36 b8bd 8359 04be 28c1 e7be 5bde bf3d
000000f0: 7c64 8ebd 6e7d 293e 9f85 0e3d 78e1 5e3e
00000100: e953 733e 5496 ebbd 1667 9c3e 2a5b cc3e
00000110: 9ea6 d1bd e3b3 0cbf b1e5 8fbe b58a d7be
00000120: 9f1b f33e c0e5 413e e774 b5be dd47 89be
00000130: 56ce ae3e de40 a03b 79cf acbe 1264 38bd
00000140: 0e4b b83e 14e2 0cbe 6eb4 0ebe 0023 22bf
00000150: 6702 de3e db15 c2bd cf7a 103e 93ba b33e
00000160: d6ba b7be c5d0 79bd a794 283e 7bc2 eb3e
00000170: 5781 fbbe 236e c13e e828 c03e a4b0 f53d
00000180: 0e24 c7b8 e1d7 8abe 9df5 d23e a3aa adbe

weight f4 [100, 100]
0.011220027 -0.027739111 -0.21299711 -0.039028555 0.009807859 0.07283995 0.008719691 0.07892619
-0.07117406 -0.057718962 0.10284693 -0.2579934 0.023884963 -0.15052636 -0.089685716 0.028443003
0.029879542 -0.1615237 0.089817375 0.08443815 -0.13775486 -0.014261767 -0.28906354 -0.007769963
0.096942104 -0.033983443 -0.066228725 0.13298261 0.0237243 -0.05958964 0.10059958 -0.15633094
-0.056042116 -0.06282431 0.07174858 0.016961342 0.07919 -0.13533804 0.12822895 0.13449563
-0.018398657 0.04497517 -0.10885954 -0.01895064 -0.06917146 -0.05821551 -0.061263375 0.06943963
0.2547973 -0.121459775 0.063976735 0.043426365 0.05313251 -0.1856682 0.11389511 0.063391365
-0.041066177 -0.02684711 0.07361148 0.0066960654 -0.12058527 -0.058685478 0.01723233 0.013142205
-0.047365203 -0.264989 -0.23338287 -0.042059667 0.07763641 0.0070863934 0.034679852 0.16455524
-0.10211326 0.027544815 0.024028894 0.0021295645 0.16406055 0.042849947 0.046872027 -0.05807266
-0.06621897 -0.023179596 -0.21641362 0.14017105 -0.02303365 -0.05554403 -0.18989994 -0.09202115
0.35735637 -0.014644931 -0.07766533 -0.31773776 -0.032997124 -0.049000356 -0.15009955 -0.041354034
0.04510118 -0.097039714 -0.08587795 0.035849515 -0.052965716 -0.113822855 -0.116581835 0.079620995
0.08138333 0.0065254057 -0.014311949 -0.03219574 0.03601698 0.05729338 0.21247233 -0.058802716
0.056149896 0.063255 0.11020728 -0.106785186 0.06918645 0.104208075 -0.16749337 0.038236402
-0.11214187 -0.1105984 -0.07183569 -0.025921408 0.08102249 -0.0067295507 0.12144605 0.033454824
-0.024656113 -0.14386664 0.040692955 0.10137378 0.15541537 0.03371103 -0.0148265725 0.1578997
0.11715141 -0.24694131 -0.044359926 0.11696321 -0.049346298 0.093846165 -0.02277292 -0.03442227
-0.11927051 -0.2763223 -0.08539077 0.06742369 0.16516498 -0.19636457 0.13940732 -0.03247479
0.12747675 -0.090497725 -0.085236914 -0.04843052 -0.11006125 -0.072763085 -0.00219723 0.12378017
0.029634323 -0.24577245 0.006276811 -0.022635587 -0.14215459 -0.2353008 -0.06106653 0.15646647
0.026988817 0.11442552 0.03583486 0.13446581 0.08035234 0.013301207 -0.14305101 0.0920195
0.18828566 -0.071753785 -0.02856779 -0.2863243 -0.1773787 -0.11177588 0.05650139 0.025758838
-0.18792526 -0.06398866 -0.03762695 -0.089362405 0.036689986 -0.07360152 -0.028462382 -0.15893744
0.14728202 -0.079896726 -0.11516118 -0.016252536 -0.05906206 0.08513045 -0.07639901 -0.037735946
-0.23953497 0.27523383 -0.21554233 -0.024645777 0.048572775 0.066808544 0.46311992 -0.048127253
0.0534632 -0.07266773 0.070421524 -0.25832525 0.29632688 0.1433886 0.057133 0.03214087
-0.24068004 -0.10884709 -0.018929286 -0.16474754 -0.108078174 -0.037777327 -0.20541774 -0.017347213
0.122903645 0.36892638 -0.27269402 0.14657344 0.1083799 0.20204915 -0.023447042 -0.12893246
-0.025842052 -0.043737903 0.14075564 0.077495 -0.13717273 -0.2758725 0.02456064 0.15327856
-0.13695474 0.2102005 -0.28645545 -0.25510982 -0.0898277 -0.19426228 0.10305682 0.18611215
0.237643 -0.010836586 0.07300145 0.0026307667 -0.1831788 -0.19861625 -0.2496527 0.08014698
00000000: 34d4 373c 223d e3bc ea1b 5abe 68dc 1fbd
00000010: 24b1 203c 1d2d 953d 09dd 0e3c 0ea4 a13d
00000020: b5c3 91bd b86a 6cbd 69a1 d23d b617 84be
00000030: 66aa c33c 9523 1abe 25ad b7bd 4d01 e93c
00000040: f1c5 f43c 7866 25be 2cf2 b73d e9ed ac3d
00000050: 9c0f 0dbe 30aa 69bc 2300 94be 2c9b febb
00000060: 9589 c63d 3932 0bbd eda2 87bd 982c 083e
00000070: 7759 c23c 4414 74bd 2707 ce3d 3815 20be
00000080: 6b8c 65bd 08aa 80bd ebf0 923d 83f2 8a3c
00000090: 5e2e a23d 0e96 0abe 734e 033e 39b9 093e
000000a0: c8b8 96bc e237 383d c0f1 debd 5f3e 9bbc
000000b0: c4a9 8dbd 6373 6ebd 4eef 7abd 5d36 8e3d
000000c0: cb74 823e e7bf f8bd 3c06 833d d8df 313d
000000d0: 7aa1 593d ce1f 3ebe d741 e93d 55d3 813d
000000e0: 0235 28bd 78ee dbbc 9ec1 963d ab6a db3b
000000f0: 69f5 f6bd 2f60 70bd d12a 8d3c 6752 573c
00000100: 0402 42bd a3ac 87be ebfb 6ebe c246 2cbd
00000110: d7ff 9e3d fa34 e83b 760c 0e3d 2b81 283e
00000120: c220 d1bd aaa5 e13c 3ed8 c43c 2a90 0b3b
00000130: 7dff 273e 6d83 2f3d e2fc 3f3d 99dd 6dbd
00000140: d09d 87bd 23e3 bdbc 889b 5dbe 0089 0f3e
00000150: 11b1 bcbc 2382 63bd 2175 42be 9675 bcbd
00000160: 6af7 b63e 4bf1 6fbc 000f 9fbd 86ae a2be
00000170: fe27 07bd 99b4 48bd b2b3 19be d962 29bd
00000180: 04bc 383d c2bc c6bd c7e0 afbd f1d6 123d
00000190: 94f2 58bd f51b e9bd 75c2 eebd 5510 a33d
000001a0: 4eac a63d 12d3 d53b aa7c 6abc aedf 03bd
000001b0: 8a86 133d 77ac 6a3d 5992 593e 1edb 70bd
000001c0: 6ffd 653d d68b 813d 5bb4 e13d 31b2 dabd
000001d0: a0b1 8d3d 0b6b d53d 6283 2bbe c69d 1c3d
000001e0: a3aa e5bd 6a81 e2bd 971e 93bd 2259 d4bc
000001f0: 1fef a53d 9083 dcbb b5b8 f83d ed07 093d
00000200: 9efb c9bc c751 13be a8ad 263d 0e9d cf3d
00000210: 3525 1f3e 9414 0a3d 27eb 72bc 75b0 213e
00000220: 14ed ef3d 2fde 7cbe c1b2 35bd 688a ef3d
00000230: 581f 4abd 6b32 c03d 468e babc 5efe 0cbd
00000240: 1944 f4bd 1e7a 8dbe 5be1 aebd 6e15 8a3d
00000250: 0221 293e cb13 49be cbc0 0e3e 4904 05bd
00000260: 4489 023e df56 b9bd b190 aebd 155f 46bd
00000270: cb67 e1bd d004 95bd 67ff 0fbb 7580 fd3d
00000280: aec3 f23c c6ab 7bbe b5ad cd3b 446e b9bc
00000290: f990 11be b1f2 70be e620 7abd bf38 203e
000002a0: a717 dd3c ed57 ea3d 93c7 123d 68b1 093e
000002b0: c58f a43d 4eed 593c f77b 12be b874 bc3d
000002c0: f5cd 403e a6f3 92bd ff06 eabc 1999 92be
000002d0: c3a2 35be c1ea e4bd 006e 673d 3304 d33c
000002e0: 7b6f 40be 7d0c 83bd b71e 1abd a303 b7bd
000002f0: 3d48 163d 65bc 96bd f129 e9bc 7fc0 22be
00000300: 19d1 163e e5a0 a3bd a0d9 ebbd 0a24 85bc
00000310: 0feb 71bd e058 ae3d 1677 9cbd 0291 1abd
00000320: a848 75be 73eb 8c3e 21b7 5cbe f1e5 c9bc
00000330: 3ff4 463d ebd2 883d 0e1e ed3e 1521 45bd
00000340: 3afc 5a3d d2d2 94bd 2939 903d 3543 84be
00000350: 28b8 973e 76d4 123e 4b04 6a3d 25a6 033d
00000360: d474 76be 39eb debd 9711 9bbc 94b3 28be
00000370: 1758 ddbd 66bc 1abd 0759 52be be1b 8ebc
00000380: e8b4 fb3d ebe3 bc3e 8d9e 8bbe 5917 163e
00000390: 48f6 dd3d f9e5 4e3e 0314 c0bc df06 04be
000003a0: b6b2 d3bc 8426 33bd 3f22 103e b3b5 9e3d
000003b0: 0277 0cbe 293f 8dbe 6533 c93c 0ef5 1c3e
000003c0: dd3d 0cbe cd3e 573e 4aaa 92be c19d 82be
000003d0: 96f7 b7bd b1ec 46be 740f d33d 2f94 3e3e
000003e0: b058 733e f08b 31bc c981 953d f168 2c3b
000003f0: 3993 3bbe 0f62 4bbe f5a4 7fbe 1a24 a43d

bias f4 [100]
-1.7885938 -1.5834103 -0.876093 -1.742103 -0.004542807 -1.757971 -0.028102636 -0.05278317
-0.36829075 -0.12748824 -0.00976001 0.09969474 -0.005059981 -1.7113562 -0.1420712 -0.12544422
-0.08074934 -1.749124 0.03177482 -1.4781039 -1.709634 -0.99282074 -1.3751876 -0.3139069
0.068631575 -0.6078222 -0.24779148 -1.6351529 -1.493386 -0.4449975 0.048963886 -1.8554797
-0.082547806 -2.124898 -0.15719731 -1.3240436 -0.15035577 -1.2600999 0.0640165 -0.12652206
-0.11904926 -0.38302627 -0.02868013 -1.6391671 -1.7044815 -0.2238565 -0.0126977945 -1.6067455
-0.62213033 -0.051106744 -0.02974302 0.024531433 -1.4788053 -0.036778264 -1.0256871 -0.030601148
-1.9461704 -0.10619957 -0.009686265 -0.29351833 -1.8755752 -0.006596392 -0.014190581 -0.29716647
-0.010729248 -0.34161448 -0.09746547 -1.9207797 -1.2898686 -1.3289536 -0.17816658 -1.8953093
0.058799982 -0.084473975 -1.771074 -1.011854 -1.1423446 -1.0765128 -0.02099448 -0.06884333
-0.07796378 0.030835183 -0.262126 0.01578523 -0.11930493 0.10889012 -1.425535 0.07258056
-1.8532072 -1.2143923 -1.5790341 -1.5849136 -1.2146516 -0.13451096 0.046484206 -1.5291678
-1.6326214 -0.16464172 -1.5703057 -0.38309702
00000000: a4f0 e4bf 30ad cabf a147 60bf 3bfd debf
00000010: d4db 94bb 3205 e1bf 8037 e6bc 2a33 58bd
00000020: 9b90 bcbe 478c 02be 73e8 1fbc c12c cc3d
00000030: 32ce a5bb b80d dbbf 1d7b 11be 7374 00be
00000040: e95f a5bd 4ce3 dfbf 5026 023d 8232 bdbf
00000050: 49d5 dabf 8029 7ebf 2606 b0bf 68b8 a0be
00000060: b68e 8c3d 3c9a 1bbf 0dbd 7dbe b14c d1bf
00000070: 4627 bfbf b6d6 e3be 5b8e 483d 5c80 edbf
00000080: d30e a9bd 54fe 07c0 55f8 20be 437a a9bf
00000090: ddf6 19be f44a a1bf 151b 833d 008f 01be
000000a0: 19d0 f3bd 051c c4be 98f2 eabc 3ad0 d1bf
000000b0: 732c dabf a33a 65be 690a 50bc d6a9 cdbf
000000c0: ef43 1fbf 4e55 51bd a2a7 f3bc 25f6 c83c
000000d0: 7e49 bdbf cea4 16bd b749 83bf 42af fabc
000000e0: 1d1c f9bf 297f d9bd 24b3 1ebc 0948 96be
000000f0: d912 f0bf 8c26 d8bb 9c7f 68bc 3426 98be
00000100: bac9 2fbc 18e8 aebe fa9b c7bd 1cdc f5bf
00000110: 6a1a a5bf 271b aabf 4d71 36be 7f99 f2bf
00000120: 40d8 703d b100 adbd 8eb2 e2bf 6f84 81bf
00000130: 5938 92bf 2ccb 89bf 9efc abbc bbfd 8cbd
00000140: 79ab 9fbd 119a fc3c 6135 86be 0750 813c
00000150: 2556 f4bd c901 df3d ee77 b6bf 1ea5 943d
00000160: e535 edbf 3571 9bbf ca1d cabf 73de cabf
00000170: b479 9bbf 3ebd 09be 3966 3e3d c5bb c3bf
00000180: bdf9 d0bf d797 28be c7ff c8bf 4b25 c4be

weight f4 [1, 100]
-0.0011152116 -0.0002406895 -0.005543934 -5.331596e-05 0.18346599 -0.0009159847 0.32713643 0.15722801
-0.0049032196 -0.119054 0.16205007 0.17865585 0.18346529 0.00010108651 -0.011359042 0.36049992
0.332623 -0.00054397597 0.30066872 -0.00066651567 0.0009205434 -5.969593e-05 -0.001992744 -0.0031551395
0.21320489 -0.00033173957 -0.09629443 -7.734794e-05 -3.951604e-05 -0.0006510404 0.1469047 -0.0001363702
0.15860614 -0.0013230467 0.15136945 -0.00094206946 0.085129395 -0.0023835814 0.29255074 0.19026297
0.11989386 -0.016996616 0.12618966 -0.0006330062 2.3085522e-05 0.045483746 0.16167846 0.00034475955
-0.0047753453 0.22670718 0.18137556 0.16768388 0.00037782197 0.1469013 -0.00086374156 0.11936631
0.00021703151 0.10566912 0.076021105 -0.007081597 -0.0008588368 0.040156145 0.09120117 -0.0027705187
0.15444197 -0.0053436374 0.17270921 -0.0011006952 0.00042490102 -0.0009897283 0.1077439 -0.0010396298
0.17920947 0.29749814 0.00044618553 -0.0052384096 -0.00046831154 -0.004250919 0.3073048 0.08330056
0.22529107 0.09718317 -0.001349522 0.11375747 0.0068668076 0.17983463 -7.005804e-05 0.10035757
-0.00046543588 -0.0030918822 -0.0014893432 -0.00077623496 0.00016571223 0.20398626 0.19278072 0.00013822294
0.00015227516 0.19238488 -0.0014308424 -0.0010859632
00000000: 4b2c 92ba 9861 7cb9 e4a9 b5bb 939f 5fb8
00000010: 82de 3b3e b11e 70ba 6d7e a73e 6100 213e
00000020: 30ab a0bb 95d2 f3bd 74f0 253e 8ff1 363e
00000030: 53de 3b3e 68fe d338 461b 3abc 7293 b83e
00000040: 904d aa3e 9c99 0eba 40f1 993e 1cb9 2eba
00000050: 9f50 713a 0462 7ab8 b298 02bb 75c6 4ebb
00000060: 6252 5a3e 55ed adb9 0436 c5bd dc35 a2b8
00000070: 06be 25b8 95aa 2aba 306e 163e 99fe 0eb9
00000080: a669 223e 156a adba 9800 1b3e 36f5 76ba
00000090: 5258 ae3d dc35 1cbb 36c9 953e 4cd4 423e
000000a0: e98a f53d 7d3c 8bbc dd37 013e 54f0 25ba
000000b0: c8a7 c137 2a4d 3a3d 0a8f 253e d8c0 b439
000000c0: 807a 9cbb ed25 683e 84ba 393e 53b5 2b3e
000000d0: 6816 c639 4b6d 163e b76c 62ba 5376 f43d
000000e0: f492 6339 0d69 d83d f4b0 9b3d be0c e8bb
000000f0: 9023 61ba c57a 243d aec7 ba3d 9791 35bb
00000100: 0926 1e3e ae19 afbb afda 303e 3445 90ba
00000110: 40c5 de39 c5b9 81ba d5a8 dc3d 3044 88ba
00000120: b082 373e ad51 983e 02ee e939 f7a6 abbb
00000130: b687 f5b9 4b4b 8bbb 0e57 9d3e 7c99 aa3d
00000140: b4b2 663e f807 c73d 72e2 b0ba adf9 e83d
00000150: f502 e13b 9226 383e 20ec 92b8 4588 cd3d
00000160: bf05 f4b9 2da1 4abb 1136 c3ba 3f7c 4bba
00000170: 0ac3 2d39 c6e1 503e 4f68 453e f0ef 1039
00000180: 0dac 1f39 8b00 453e 1b8b bbba e156 8eba

S f4 [4, 4]
0.0 0.0 1.0 0.0 0.0 0.0 0.0 1.0
-1.0 0.0 0.0 0.0 0.0 -1.0 0.0 0.0
00000000: 0000 0000 0000 0000 0000 803f 0000 0000
00000010: 0000 0000 0000 0000 0000 0000 0000 803f
00000020: 0000 80bf 0000 0000 0000 0000 0000 0000
00000030: 0000 0000 0000 80bf 0000 0000 0000 0000
