Models/DoublePendulum/DoublePendulum_midpoint_50epoch_Tanh()_Softplus(beta=1.0, threshold=20.0)_batchsize_64_shape_torch.Size([175000, 4]).pt (torch, 52019 bytes, 6 tensors)

weight f4 [100, 4]
0	0xbec59649	-0.3859122
1	0xbc6897e1	-0.014196367
2	0xbd759e50	-0.05996543
3	0xbd6d8292	-0.05798585
4	0xbe8e0682	-0.2773934
5	0xbd4958d4	-0.04915698
6	0x3ef8bad4	0.4858004
7	0x3d42354e	0.047414117
8	0x3c1930f7	0.009350053
9	0x3cb67795	0.022273818
10	0xbe266825	-0.16250665
11	0xbe1d3d3d	-0.15355392
12	0xbdc5d6e6	-0.09660129
13	0x3d9594aa	0.07303746
14	0xbdbb3751	-0.0914141
15	0xbe0644ee	-0.13112232
16	0x3e50892c	0.20364827
17	0x3d7045ae	0.0586602
18	0xbe153b92	-0.14573506
19	0xbe8bfc2f	-0.27340838
20	0x3e54d670	0.20784926
21	0xbf0328c0	-0.51234055
22	0x3eb56ad1	0.35433057
23	0xbeb50183	-0.35352716
24	0xbe55b87d	-0.20871158
25	0xbd76acbe	-0.060223334
26	0xbcf5a632	-0.029986475
27	0x3d0c65e1	0.034276847
28	0x3c14e330	0.009087369
29	0x3d2e779d	0.04259454
30	0x3e809fb3	0.2512184
31	0x3e2a74cb	0.16646115
32	0x3c21825d	0.009857741
33	0xbc6677bc	-0.014066633
34	0x3c0e6afc	0.008692499
35	0xbe3aa96f	-0.18228696
36	0xbe2a80ef	-0.16650747
37	0xbd41e4ac	-0.04733722
38	0xbdd4049a	-0.1035244
39	0x3c66dc2d	0.01409058
40	0x3b0375d8	0.0020059254
41	0xbbac734e	-0.005262769
42	0x3adbaa0c	0.0016759052
43	0xb9f7038a	-0.00047114148
44	0x3ddd70d6	0.10812537
45	0xbd8cfda2	-0.06884314
46	0x3d1b16ee	0.037863664
47	0x3e30871e	0.17239043
48	0x3ec9ca6c	0.39412248
49	0x3d9125d1	0.07087291
50	0x3d8e53ef	0.06949603
51	0x3d84fbc1	0.06493331
52	0xbda451b7	-0.08023398
53	0x3ea4a3f5	0.3215634
54	0x3dd4da26	0.10393171
55	0xbe1aa4c0	-0.1510191
56	0xbfae2f4a	-1.3608181
57	0x3fb64481	1.4239656
58	0xbe92c8b6	-0.28668755
59	0x3ed982e9	0.4248269
60	0xbe86ac16	-0.26303166
61	0xbeee871b	-0.46587452
62	0x3d80287a	0.0625772
63	0x3cd68dbf	0.026190637
64	0x3b85c6bc	0.004082529
65	0xbc2d294f	-0.010568931
66	0xbcfc65b4	-0.030810215
67	0xbe533316	-0.20624956
68	0x3ca3797a	0.019955385
69	0xbe92a85f	-0.28644082
70	0x3d016b6b	0.031596582
71	0x3d12503c	0.03572105
72	0x3d981d74	0.07427493
73	0x3dbd44a9	0.092416115
74	0xbdcb23a2	-0.09918906
75	0xbe2f210d	-0.17102452
76	0x3e03c2f0	0.12867332
77	0x3e053021	0.13006641
78	0x3dc3cc9e	0.09560512
79	0x3d7605ad	0.060064007
80	0xbe129117	-0.1431316
81	0x3e18e087	0.149294
82	0xbc80fd42	-0.015745763
83	0xbe12f0d4	-0.14349681
84	0x3db3d735	0.08781282
85	0x3e83e7e2	0.2576285
86	0x3ef08ee1	0.46984008
87	0x3c595f24	0.013267312
88	0xbdd08630	-0.10181844
89	0xbd75fd0f	-0.06005579
90	0xbbede10a	-0.0072594928
91	0xbc1766c3	-0.009240809
92	0xbd6090e4	-0.05482568
93	0xbe1a8f68	-0.15093768
94	0x3d308be2	0.043102153
95	0xbe135a33	-0.14389877
96	0x3e692558	0.22768152
97	0x3f0b8407	0.5449833
98	0xbc55785b	-0.013029183
99	0xbe0a90f6	-0.1353186
100	0x3e46e2fe	0.19422528
101	0x3e4a6927	0.19766675
102	0x3dadd664	0.084881574
103	0xb8f3ed6c	-0.00011631366
104	0xbf2bffc2	-0.6718713
105	0xbe02d174	-0.12775213
106	0xbd85fc63	-0.065422796
107	0x3d55b9ab	0.05217902
108	0x3d9f7040	0.07785082
109	0xbdd148a3	-0.102189325
110	0xbc86eeba	-0.016471256
111	0x3e8195ca	0.25309592
112	0xbf19c602	-0.6006776
113	0xbdacf56d	-0.08445249
114	0x3ca5edbd	0.020254964
115	0xbc1765b1	-0.009240554
116	0x3e1f93eb	0.1558377
117	0x3ea15518	0.31510234
118	0x3e031897	0.12802349
119	0x3de0564b	0.10953959
120	0x3f2f4505	0.6846469
121	0xbf3c5caf	-0.73578924
122	0xbeecb688	-0.4623301
123	0x3e6b8607	0.23000346
124	0xbc7a5420	-0.015278846
125	0x3d87bcf9	0.066278405
126	0x3e07b286	0.13251695
127	0x3e8ab6a5	0.27092472
128	0xbe38f393	-0.18061666
129	0xbe2d3790	-0.16915727
130	0x3e916ccb	0.28403315
131	0x3e4e9dc3	0.20177369
132	0x3f0fcfd1	0.5617648
133	0x3d5113df	0.05104434
134	0xbe0771fe	-0.13227078
135	0x3cd2ecb2	0.02574763
136	0x3edb21cc	0.42799222
137	0xbe8436b6	-0.2582299
138	0xbe83ff4d	-0.25780717
139	0x3dfe2453	0.12409272
140	0xbe77e7d2	-0.24209526
141	0x3e9cac08	0.306
142	0xbe48681e	-0.19570968
143	0x3e798f23	0.24371009
144	0x3e4dbce4	0.20091587
145	0x3f0a58c0	0.5404167
146	0xbd8c4b57	-0.068503074
147	0xbbf9fb5a	-0.0076288404
148	0xbf9c3097	-1.2202328
149	0x3f91a169	1.1377383
150	0xbec7c44e	-0.39016956
151	0x3ea5e981	0.32404712
152	0x3e41cf98	0.18926847
153	0x3ccf6d6d	0.025320733
154	0x3e20ec81	0.15715219
155	0xbca6ce43	-0.020362025
156	0xb90167f8	-0.0001234113
157	0x3be8bc09	0.0071024937
158	0x3f0a6337	0.5405764
159	0x3e93535b	0.28774533
160	0x3e3ea9dd	0.18619485
161	0x3e16e31b	0.14735071
162	0x3d0ab527	0.033864167
163	0x3e3d4d58	0.18486536
164	0xbe9dd02e	-0.3082289
165	0x3d66e7d6	0.05637344
166	0xbddde1fd	-0.108341195
167	0x3e226b16	0.15861163
168	0x3e8190ad	0.2530569
169	0xbe81e428	-0.25369382
170	0x3e8279ff	0.254837
171	0xbe4e73a2	-0.20161298
172	0x3de7e673	0.113232516
173	0x3e16f5c6	0.14742193
174	0x3ded6526	0.11591558
175	0x3ea69bf0	0.32540846
176	0xb99888ba	-0.00029093568
177	0xbadd5d3e	-0.001688875
178	0x3b1b9a25	0.0023743
179	0x3b1b6868	0.0023713354
180	0x3f6231db	0.88357323
181	0xbf8403fe	-1.0313718
182	0xbe84f88f	-0.25970885
183	0x3ef0cbcb	0.47030482
184	0xbe24d723	-0.16097693
185	0x3e9f8f03	0.31163797
186	0xbe168df9	-0.14702596
187	0x3e76c9f9	0.24100484
188	0x3df77801	0.12083436
189	0xbea520aa	-0.32251483
190	0x3f315e66	0.69284666
191	0xbf591d77	-0.84810585
192	0xbe0eaab0	-0.139323
193	0xbe09b9c9	-0.13449778
194	0x3e185e38	0.14879692
195	0xbaa181f2	-0.0012322052
196	0xbea9d149	-0.33167484
197	0xbcf94f5a	-0.030433346
198	0xbdd011b5	-0.10159627
199	0x3d94d0bb	0.07266375
200	0xbf15f061	-0.58569914
201	0xbceafcfa	-0.028685082
202	0xbe49f1f2	-0.19721201
203	0x3ddc748e	0.107644185
204	0x3dfd8660	0.123791456
205	0x3cea5414	0.028604545
206	0x3e6e2a55	0.23258336
207	0x3ea1e5c5	0.31620613
208	0xbe63a391	-0.22230364
209	0x3d9bef9c	0.07614061
210	0x3e6b8415	0.22999604
211	0xbdb6aa92	-0.089192525
212	0x3df1bf45	0.1180406
213	0x3da1495c	0.0787532
214	0xbd9214ab	-0.07132848
215	0x3c059e0e	0.008155359
216	0x3ec4c969	0.38434914
217	0x3dcb1ebe	0.09917973
218	0x3c540161	0.012939782
219	0x3d6dddd9	0.0580729
220	0xb8806484	-6.122238e-05
221	0xbd7992e3	-0.060931098
222	0xbeb067a1	-0.34454063
223	0xbe92fd17	-0.28708717
224	0x3e38e79f	0.18057106
225	0xbdb9c077	-0.09069913
226	0x3c8486b7	0.016177518
227	0x3d213c80	0.039364338
228	0x3e7fbc60	0.24974203
229	0x3daf2789	0.085524626
230	0x3d6fcfaa	0.058547653
231	0x3e0edf86	0.13952455
232	0x3d7f2699	0.06229267
233	0x3cb78271	0.022401066
234	0xbe4197f9	-0.18905629
235	0xbe9037d3	-0.2816759
236	0xbeaa8dc6	-0.3331129
237	0xbd95e397	-0.073188
238	0xbe2aebb6	-0.16691479
239	0xbcdbe1ef	-0.026841132
240	0xbe433255	-0.19062169
241	0xbd106582	-0.035253055
242	0xbcefdb34	-0.029279329
243	0xbd0ce9ef	-0.034402784
244	0x3e245a46	0.16050062
245	0xbe2e8016	-0.17041048
246	0xbd95bb9a	-0.07311173
247	0x3d4453c0	0.047931433
248	0x3d29bea7	0.041441586
249	0x3d3acd28	0.04560581
250	0xbc2cfd5e	-0.010558454
251	0xbe1463a8	-0.14491141
252	0x3cc18d83	0.023627048
253	0xbe34bbc8	-0.17649758
254	0xbd474dab	-0.048658054
255	0x3d8a5c2a	0.0675586

bias f4 [100]
0	0xbe434017	-0.19067417
1	0x3ef1c742	0.47222334
2	0x3d82852f	0.06373059
3	0xbecbe4eb	-0.39823088
4	0xbe515d21	-0.20445682
5	0xbf07a8ec	-0.5299213
6	0xbe9b9706	-0.3038866
7	0xbea2b2c9	-0.31777027
8	0x3eb4a9a7	0.35285684
9	0xbe2fb3ec	-0.17158478
10	0xbb54b364	-0.0032455558
11	0x3e9c2fce	0.30505222
12	0x3e04c945	0.12967403
13	0xbe6c4c4b	-0.23075978
14	0x3cf5285c	0.029926471
15	0x3e1fb0f7	0.1559485
16	0xbe970133	-0.29493102
17	0x3eec4595	0.46146837
18	0xbe475ef8	-0.19469821
19	0xbe08f404	-0.13374335
20	0xbebecc53	-0.37265262
21	0x3ef7434d	0.48293534
22	0x3d0a6bb0	0.033794105
23	0x3ea2e2a4	0.31813538
24	0x3bd7af28	0.0065821595
25	0x3ea947bd	0.33062544
26	0xbd51959b	-0.051168066
27	0xbebb8c6c	-0.3663057
28	0xbd1d0a89	-0.038340125
29	0xbe1eed84	-0.15520293
30	0xbdea8078	-0.11450285
31	0xbe804c7b	-0.2505835
32	0xbca84209	-0.0205393
33	0x3e28cdf6	0.16484818
34	0x3e3338d4	0.17502147
35	0xbe8edbea	-0.27902156
36	0x3e5277c2	0.20553496
37	0x3dcbfa17	0.0995981
38	0x3ecced3e	0.4002475
39	0x3e821b57	0.25411484
40	0xbeba5713	-0.36394557
41	0x3ef8ecd6	0.4861819
42	0xbf0432e0	-0.5164013
43	0x3ed76162	0.42066485
44	0xb8902e26	-6.875051e-05
45	0x3da06346	0.07831435
46	0xbea460af	-0.32105014
47	0x3e02e07c	0.12780946
48	0xbe7cbc3c	-0.2468118
49	0xbee25525	-0.44205585
50	0x3e016459	0.12635936
51	0x3e7784e5	0.24171789
52	0x3ee2e03d	0.44311705
53	0x3c36fabd	0.011168179
54	0x3ec372c9	0.38173512
55	0x3ed77cf0	0.42087507
56	0xbe97bb4a	-0.29635078
57	0xbec65a46	-0.38740748
58	0x3e991f2e	0.299066
59	0xbeba0fe7	-0.36340258
60	0x3e239e86	0.1597844
61	0xbed4d251	-0.4156671
62	0x3eac006c	0.33594072
63	0x3e12ffc4	0.1435538
64	0xbd6bf2ee	-0.057604723
65	0x3e36379e	0.17794654
66	0xbebd9e73	-0.3703495
67	0xbadfcb73	-0.0017074182
68	0xbd6be4cd	-0.05759125
69	0xbeabdac2	-0.33565336
70	0xbdd86c43	-0.10567524
71	0xbe46d9c0	-0.19419003
72	0x3f14443c	0.5791662
73	0x3f091f87	0.5356373
74	0x3f24e598	0.6441283
75	0x3eb2764b	0.34855875
76	0xbede20c9	-0.43384388
77	0x3e4ffee5	0.20312078
78	0x3e35e55b	0.17763273
79	0xbed48c86	-0.4151346
80	0x3d372e86	0.044722103
81	0xbed07d46	-0.40720576
82	0xbcd07309	-0.025445478
83	0x3d2f343b	0.04277442
84	0x3ec3f7df	0.38275048
85	0xbe2aa0eb	-0.16662948
86	0xbeb98176	-0.36231583
87	0x3f230e11	0.6369334
88	0x3e0d2444	0.13783365
89	0x3ec0f30c	0.3768543
90	0x3df29eb6	0.11846678
91	0xbe9aac73	-0.30209693
92	0x3e9dc38e	0.3081326
93	0xbec538a9	-0.3851979
94	0x3dd4efe5	0.10397319
95	0x3e278d9b	0.16362612
96	0x3ec16344	0.37771046
97	0xbdee5f31	-0.1163925
98	0xbe8b2380	-0.27175522
99	0x3e270fe7	0.1631466

weight f4 [100, 100]
0	0x3e0bcccd	0.13652344
1	0xbde49ff9	-0.11163325
2	0xbd939bde	-0.07207464
3	0x3e5ab64b	0.21358602
4	0x3e136dbc	0.14397329
5	0x3de82b1a	0.11336346
6	0x3ea016a6	0.3126728
7	0x3e6f0970	0.23343444
8	0xbe3b63c9	-0.18299784
9	0x3e7c09ad	0.24613066
10	0xbce291aa	-0.027657349
11	0xbe80405c	-0.25049102
12	0xbdd1ab03	-0.10237696
13	0x3dc9e4d4	0.098580986
14	0xbc9f9dd6	-0.019484442
15	0x3d478ca7	0.04871812
16	0x3ed2e243	0.4118825
17	0xbe1d1237	-0.1533898
18	0x3e568cf0	0.20952201
19	0x3e266913	0.1625102
20	0x3dbb6ad1	0.09151233
21	0xbe5dad5c	-0.21648163
22	0xbe47c9d9	-0.19510593
23	0xbe98bcca	-0.29831535
24	0x3c7eb01f	0.01554492
25	0xbe267af5	-0.16257842
26	0xbde5f082	-0.11227514
27	0x3ddbc79e	0.10731433
28	0x3d8fa1de	0.070132956
29	0xbcd10598	-0.025515363
30	0x3e017732	0.12643126
31	0x3e920139	0.28516558
32	0x3e609e77	0.2193545
33	0x3e334079	0.17505063
34	0x3defd7e7	0.11711102
35	0x3e3c2268	0.183725
36	0xbe322d91	-0.17400195
37	0xbda74ac4	-0.08168557
38	0xbe8b1b38	-0.27169204
39	0xbcb23c01	-0.021757128
40	0x3ecafb3b	0.396448
41	0xbee91b47	-0.45528623
42	0x3d3e7adc	0.046503887
43	0xbe77e8df	-0.24209927
44	0x3dc1c964	0.0946224
45	0xbddce6a2	-0.10786177
46	0xbd3c2a82	-0.045938976
47	0x3d636651	0.0555175
48	0x3e1e0960	0.15433264
49	0x3e7eb5cb	0.24874036
50	0xbcf37360	-0.029718101
51	0xbda3da68	-0.08000642
52	0xbd6adae5	-0.05733766
53	0x3d1c1da2	0.038114198
54	0xbe1b9bfb	-0.1519622
55	0xbe873c93	-0.26413402
56	0x3db627c2	0.08894302
57	0x3e3f3cc7	0.18675528
58	0xbe11be1b	-0.14232676
59	0x3e4fe03f	0.20300387
60	0xbcfd25b3	-0.030901765
61	0x3e8203ef	0.25393626
62	0xbe5e24c6	-0.21693715
63	0xbd563141	-0.052293066
64	0x3dc1f9f7	0.09471505
65	0x3e5a31dd	0.21308084
66	0x3e622b92	0.22086933
67	0xbdb0bccd	-0.08629761
68	0xbd99bc50	-0.07506621
69	0x3e7371a0	0.23773813
70	0x3ded5a11	0.115894444
71	0x3d79353b	0.06084178
72	0xbd97b58d	-0.07407675
73	0xbe10827c	-0.14112276
74	0xbefe1aee	-0.4962992
75	0xbe6b63ec	-0.22987336
76	0x3e12487a	0.1428546
77	0x3e2c13d3	0.16804437
78	0x3e0439fc	0.12912744
79	0x3e41c7e7	0.18923913
80	0xbce15b0c	-0.027509235
81	0x3eb945dc	0.3618611
82	0xbde4317f	-0.11142253
83	0x3bf42818	0.0074510686
84	0xbe4bf2d7	-0.19916855
85	0x3c4f06b3	0.012635875
86	0x3e0073b6	0.1254414
87	0xbeedcccf	-0.4644532
88	0xbe100443	-0.14064126
89	0xbe5f1270	-0.21784377
90	0xbe6a6289	-0.2288915
91	0x3e495af4	0.19663602
92	0xbdcfcbcd	-0.10146294
93	0x3eded53e	0.43522066
94	0x3df4e2a5	0.119572915
95	0x3ddca951	0.10774482
96	0xbea147ae	-0.315
97	0x3ea67eb6	0.32518548
98	0x3ebdae54	0.37047064
99	0xbe2b4c44	-0.16728312
100	0x3ebbde8a	0.3669322
101	0xbbe5e107	-0.0070153507
102	0xbe5726e4	-0.2101093
103	0x3e3e58d7	0.18588577
104	0x3d0ab806	0.033866905
105	0x3e541059	0.20709361
106	0x3ed91d8b	0.42405352
107	0x3bcbf188	0.006223861
108	0xbd1f1e0c	-0.038847014
109	0x3e344c97	0.17607342
110	0xbe05d4fb	-0.13069527
111	0xbe165f4f	-0.14684795
112	0xbe6366ae	-0.22207138
113	0x3e4ff096	0.2030662
114	0xbed814ea	-0.42203456
115	0x3c271584	0.010198001
116	0x3d884d09	0.06655318
117	0xbe19b9a2	-0.1501222
118	0x3cdd51bb	0.027016511
119	0xbd18132c	-0.03712766
120	0x3d3094a2	0.043110497
121	0xbe9742e0	-0.2954321
122	0xbe1202c8	-0.14258873
123	0xbd87ae62	-0.06625058
124	0xbe36760a	-0.17818466
125	0xbf09e5ea	-0.53866446
126	0x3df2b24e	0.11850415
127	0xbd0f521f	-0.034990426
128	0x3ed2064a	0.41020423
129	0xbd2394a1	-0.039936665
130	0x3ebc9453	0.36831912
131	0xbc5af89f	-0.01336494
132	0x3e0621b5	0.13098796
133	0xbe90e395	-0.2829863
134	0xbdc9251c	-0.09821531
135	0x3b48e837	0.003065599
136	0xbef96200	-0.4870758
137	0x3d069333	0.032855224
138	0xbe5947cd	-0.21218796
139	0xbdd99f9d	-0.10626147
140	0xbdf2fcbc	-0.118646115
141	0xbe415783	-0.1888104
142	0x3e386381	0.18006708
143	0xbe5d54ff	-0.21614455
144	0x3ddf9301	0.10916711
145	0x3e1e33a1	0.15449382
146	0x3d88d006	0.06680302
147	0xbd8ea7a5	-0.069655694
148	0x3ef82ec1	0.4847317
149	0x3e4946ea	0.19655958
150	0x3eb0c414	0.34524596
151	0xbd0272b1	-0.03184766
152	0xbd8c7490	-0.0685817
153	0xbdaafa47	-0.08348518
154	0xbf0970cb	-0.53687733
155	0xbe14e4da	-0.14540425
156	0xbda1eb97	-0.07906263
157	0xbdb93890	-0.090439916
158	0xbd8312f9	-0.06400103
159	0x3eb7e1e8	0.3591454
160	0x3d0a65b7	0.03378841
161	0x3e595b8e	0.21226332
162	0xbdc8b3b1	-0.097998984
163	0x3d80e0ef	0.06292903
164	0xbd8ab585	-0.06772903
165	0xbdb502cb	-0.08838423
166	0xbcc82a2f	-0.024434177
167	0x3d4f484d	0.05060606
168	0xbde5015f	-0.11181902
169	0x3e6778ca	0.22604671
170	0xbc982661	-0.018572988
171	0x3d1b038f	0.03784519
172	0xbe3a87ff	-0.18215941
173	0xbee13a88	-0.43989968
174	0xbe28b40e	-0.16474935
175	0x3e5838bb	0.21115391
176	0x3ef001ed	0.4687647
177	0xbe17589b	-0.14779894
178	0xbe9b1c6e	-0.30295128
179	0x3eb26ad9	0.34847143
180	0x3e7ebcfe	0.24876782
181	0x3ea2a606	0.3176729
182	0x3ce7a05e	0.028274711
183	0xbbf313f7	-0.0074181515
184	0xbd8deb12	-0.06929602
185	0xbb88e27b	-0.004177389
186	0x3ee9f202	0.4569245
187	0xbe5cc10f	-0.21558021
188	0xbde93df3	-0.11388769
189	0xbe1096f8	-0.1412009
190	0x3e38a0b0	0.18030047
191	0x3c9a279d	0.018817717
192	0xbcdb7f3f	-0.026794074
193	0xbd110e4e	-0.035414033
194	0x3dca1fb0	0.09869325
195	0x3d433511	0.04765803
196	0x3d6c7e66	0.05773773
197	0x3e35e7df	0.17764233
198	0xbcf33dbe	-0.029692527
199	0xbe1d5189	-0.15363134
200	0xbd2f6ab0	-0.042826355
201	0xbb7b5b72	-0.0038354066
202	0xbe62a5cc	-0.22133559
203	0x3e120805	0.14260872
204	0x3e32a79c	0.1744675
205	0xbcf8f2a4	-0.030389138
206	0x3e32e917	0.17471729
207	0x3e436758	0.19082391
208	0xbe869d4f	-0.26291892
209	0xbd044a5e	-0.032297485
210	0xbe6c94fc	-0.23103708
211	0xbdd436bf	-0.103620045
212	0xbcdb2781	-0.026752235
213	0xbd5473d7	-0.051868286
214	0x3c51c489	0.012803205
215	0xbd4555f1	-0.048177663
216	0x3df29b8f	0.11846077
217	0xbdae9ea3	-0.08526351
218	0x3e44bd3d	0.19212814
219	0x3cf6f709	0.030147092
220	0xbcb6de0b	-0.022322675
221	0xbc558efe	-0.01303458
222	0x3d3fa4c3	0.04678799
223	0xbe254cef	-0.16142629
224	0x3da2dde2	0.07952477
225	0xbca9904f	-0.020698695
226	0xbd9e01b7	-0.07715171
227	0xbd080b8b	-0.033214133
228	0x3b372168	0.0027943496
229	0xbc18e7cb	-0.0093326075
230	0xbd2a6773	-0.041602563
231	0xbe3e940b	-0.18611161
232	0x3e99e1d7	0.30055115
233	0xbd69d89b	-0.057091337
234	0x3dc6ec58	0.09713048
235	0x3de2459c	0.11048433
236	0xbd5d1cda	-0.053982593
237	0xbc0e05c4	-0.008668367
238	0xbd976742	-0.07392742
239	0xbe195f44	-0.14977747
240	0xbdef399a	-0.116809085
241	0x3c72620c	0.014793884
242	0x3d34936c	0.044085905
243	0x3db0435a	0.08606596
244	0x3cda1b32	0.026624296
245	0xbda75fe5	-0.08172587
246	0xbd3d0340	-0.046145678
247	0x3d27d3ac	0.04097335
248	0x3d00b69b	0.031424146
249	0x3d2611d7	0.040544357
250	0xbd8f0784	-0.06983855
251	0x3d925573	0.071452044
252	0xbd347841	-0.044059996
253	0xbde6ab97	-0.11263197
254	0xbd11a040	-0.035553217
255	0x3d8d5208	0.06900412

bias f4 [100]
0	0xbf50ccb3	-0.81562346
1	0xbe009f6e	-0.12560818
2	0xc00a2926	-2.1587615
3	0xbda09d50	-0.07842505
4	0xbf9c7c57	-1.2225446
5	0xbe20827d	-0.15674777
6	0x3d1df230	0.038561046
7	0xbccd60bc	-0.02507054
8	0xbfd9f8be	-1.7029035
9	0xc00232d8	-2.0343533
10	0xbded7e1c	-0.11596319
11	0xbfda6e4a	-1.7064908
12	0xbf16ecf6	-0.58955324
13	0xbf11158e	-0.56673515
14	0xbfd628b9	-1.6731178
15	0xbf073913	-0.52821463
16	0xbd9cf04f	-0.07663023
17	0xbe088ce5	-0.13334997
18	0xbd43d043	-0.047806036
19	0xbfb6f119	-1.4292327
20	0xbd8b38e5	-0.06797961
21	0xbfe494ef	-1.7857951
22	0xc0027a65	-2.0387204
23	0xbdf33a65	-0.11876372
24	0xbff3d272	-1.9048598
25	0x3bd57e08	0.0065152682
26	0x3d1824be	0.037144415
27	0xbdf66808	-0.12031561
28	0x3df964b0	0.12177408
29	0xbecd5378	-0.40102744
30	0xbd3e5018	-0.046463102
31	0xc00ade30	-2.1698112
32	0x3e26bd54	0.1628316
33	0x3d8374df	0.06418776
34	0xbe88c1f1	-0.26710466
35	0x3e12ada7	0.14324056
36	0xbfc9be7c	-1.5761256
37	0x3c7d2a67	0.015452004
38	0xbe020a7b	-0.1269931
39	0xbe474f43	-0.1946383
40	0xbe25576c	-0.1614663
41	0xbff81861	-1.938244
42	0x3dce0002	0.10058595
43	0xbdd94a5e	-0.106098875
44	0x3c540f4e	0.012943102
45	0xbf28b416	-0.6589979
46	0x3d79e85a	0.061012603
47	0xbfcd50bc	-1.6040263
48	0xbf4695f1	-0.7757254
49	0xbf09f46c	-0.53888583
50	0xbddacf1d	-0.10684035
51	0xbd31b664	-0.043386832
52	0xbe2aa0a9	-0.1666285
53	0xbccf4b53	-0.025304472
54	0xbf323373	-0.69609755
55	0xbfcc704a	-1.5971768
56	0xbd141708	-0.036154777
57	0xbb360458	-0.0027773585
58	0xbdbdcd65	-0.092676915
59	0x3cafcdee	0.0214605
60	0x3c8790db	0.016548565
61	0xbfc02447	-1.5011071
62	0xbdc6f620	-0.09714913
63	0xbc623e74	-0.013808835
64	0xc005b791	-2.089329
65	0xbff41fed	-1.9072243
66	0xbd1bd15e	-0.038041465
67	0xbcd29b42	-0.025708798
68	0xc009f0e6	-2.1553283
69	0xbfeb7990	-1.8396473
70	0xbfcbb25e	-1.5913808
71	0xbfd4625a	-1.6592515
72	0xbd3ff901	-0.046868328
73	0xc00084c9	-2.0081046
74	0xbefb6ec0	-0.49107933
75	0xbe2d5979	-0.16928662
76	0xbeca2f69	-0.39489296
77	0xbe9da1a0	-0.30787373
78	0xbff6786e	-1.9255502
79	0xbfd98e28	-1.6996508
80	0xbd6eacaf	-0.058270153
81	0xbffdc4c5	-1.9825674
82	0xbffc5978	-1.9714804
83	0xbda4783e	-0.08030747
84	0xbd8142e4	-0.063115865
85	0xbdb2e847	-0.0873571
86	0xbdc78231	-0.09741629
87	0xbe41862d	-0.1889884
88	0xbfd50c87	-1.6644448
89	0xbf4c3368	-0.7976594
90	0xbdef3454	-0.11679903
91	0xbff770da	-1.9331315
92	0xbe1d3144	-0.15350825
93	0xbe3a7783	-0.18209653
94	0x3d781f51	0.06057674
95	0xc0023571	-2.0345118
96	0xbfcf00a1	-1.6172067
97	0xbfcee5d0	-1.6163883
98	0xbe3214f4	-0.17390805
99	0xbfe2ce40	-1.7719193

weight f4 [1, 100]
0	0xbc0cf893	-0.008604187
1	0x3d4de7b3	0.050269794
2	0xba7de7b2	-0.00096857094
3	0x3e05771d	0.1303372
4	0xbb173615	-0.0023073007
5	0xbdc170e8	-0.09445363
6	0x3e4af665	0.19820555
7	0x3e111974	0.14169866
8	0x382a625b	4.062276e-05
9	0xba0b85a0	-0.0005322341
10	0xbe2705e1	-0.16310836
11	0xbb03371d	-0.0020021864
12	0xbbd2b554	-0.0064303074
13	0xba45aadc	-0.00075404136
14	0xbaa4f839	-0.0012586183
15	0xbaa60ff3	-0.0012669548
16	0x3e1c34bb	0.1525449
17	0x3e81523d	0.25258055
18	0x3e35d751	0.17757918
19	0x3984b280	0.00025309995
20	0x3e01e532	0.12685087
21	0xba7462fa	-0.000932261
22	0x37745e40	1.4565478e-05
23	0xbdd9d38b	-0.10636052
24	0xba019929	-0.0004943782
25	0x3eb987ed	0.36236516
26	0x3e41d1ce	0.1892769
27	0x3e08478e	0.13308546
28	0x3e4006bf	0.18752573
29	0xbb11fc16	-0.00222755
30	0x3e27f81f	0.16403244
31	0x3a56a72e	0.0008188364
32	0x3e25a889	0.16177572
33	0x3e7badc5	0.24578007
34	0x3caf35df	0.021387992
35	0x3dcbabb9	0.09944863
36	0xba10eca0	-0.0005528424
37	0x3da9d43d	0.08292434
38	0x3ce2bf77	0.027679188
39	0xbd2aacae	-0.041668586
40	0x3d52f6c7	0.051504876
41	0xba9df217	-0.0012050298
42	0x3dd20905	0.102556266
43	0x3e26b4df	0.16279934
44	0x3e389622	0.18026021
45	0xbb17c8e2	-0.0023160507
46	0x3eb18a23	0.34675702
47	0xbaaa91f7	-0.0013013472
48	0xbbbe07ab	-0.005799254
49	0xbc3a81c2	-0.011383476
50	0x3da9ebee	0.08296953
51	0x3e7b17f6	0.24520859
52	0xbd954df2	-0.072902575
53	0x3e91b06e	0.28454918
54	0xbacb999a	-0.0015533448
55	0xba0e5494	-0.0005429473
56	0x3e657c6f	0.22410749
57	0x3eaf3d3d	0.3422641
58	0x3deee3f5	0.11664573
59	0x3ea96451	0.33084348
60	0x3e460883	0.19339184
61	0xba3cd414	-0.0007203233
62	0x3e3dfea1	0.18554164
63	0x3d953826	0.072861
64	0xbabfe60c	-0.0014640703
65	0xbacf790b	-0.001582892
66	0xbdeb6e07	-0.114955954
67	0x3e88cd11	0.26718953
68	0xba6af21f	-0.00089624705
69	0xba196e56	-0.0005852928
70	0x3a82fc1b	0.0009993346
71	0xbb055be1	-0.0020348954
72	0x3d2d5240	0.042314768
73	0xbacf3d25	-0.0015811069
74	0xbd06e2a8	-0.032931
75	0x3d51a500	0.051182747
76	0x3ad07159	0.0015902921
77	0xba232d18	-0.0006224676
78	0xba9b4b60	-0.0011848025
79	0xba307fdd	-0.00067329203
80	0x3e23acad	0.1598384
81	0xba00c94b	-0.00049128075
82	0xbadc1c86	-0.0016793169
83	0x3e54573d	0.20736404
84	0x3e6a5484	0.22883803
85	0x3e1224e6	0.14271888
86	0x3e8a2c77	0.2698705
87	0x3dbaa91f	0.091142885
88	0xb9dd6705	-0.0004222916
89	0xbc3a72fd	-0.011379954
90	0x3d4e4b0a	0.05036453
91	0xbb070bc2	-0.0020606373
92	0xbe11945e	-0.14216754
93	0x3d034024	0.03204359
94	0x3e88fb59	0.26754263
95	0xb9dd7e49	-0.00042246495
96	0xbb02de16	-0.00199688
97	0xba380053	-0.0007019091
98	0x3e3e909d	0.18609853
99	0xba7114ae	-0.0009196502

S f4 [4, 4]
0	0x00000000	0.0
1	0x00000000	0.0
2	0x3f800000	1.0
3	0x00000000	0.0
4	0x00000000	0.0
5	0x00000000	0.0
6	0x00000000	0.0
7	0x3f800000	1.0
8	0xbf800000	-1.0
9	0x00000000	0.0
10	0x00000000	0.0
11	0x00000000	0.0
12	0x00000000	0.0
13	0xbf800000	-1.0
14	0x00000000	0.0
15	0x00000000	0.0
