Models/DoublePendulum/DoublePendulum_midpoint_50epoch_Tanh()_ReLU()_batchsize_64_shape_torch.Size([175000, 4]).pt (torch, 51647 bytes, 6 tensors)

weight f4 [100, 4]
-0.06925274 -0.07967785 -0.035011634 -0.025324838 -0.30263284 -0.21213542 0.21348952 -0.15023522
0.00018094353 -0.0008526116 0.0002921329 -5.6075805e-07 -0.044151112 -0.027717981 -0.13850681 -0.123249955
0.15788193 0.021380467 -0.4228788 -0.3094363 0.9265603 -0.9433099 0.41565728 -0.57634586
-0.23803176 -0.12472823 -0.13503185 0.046624247 -0.000230654 0.0005256709 -0.00016785345 0.00023814841
-0.0016614065 0.00058169966 -0.00020174179 0.00067024335 -0.18720806 -0.21099582 -0.24533793 -0.15606655
0.0002593813 -0.0016591181 0.00026621326 -0.00018326094 0.088700935 0.04562556 0.057689887 0.18238139
-0.00086096034 0.0009976029 -0.00074289384 0.0005008441 -0.071533516 0.067675784 0.2805694 -0.31754118
0.001990215 -0.0006655637 0.0008472819 -0.0009773459 -0.000803442 -0.00033500555 -0.00021470095 0.00043469772
0.00023949725 0.00030288968 5.634534e-05 7.0303664e-05 -0.014320556 -0.19626892 0.061266072 0.13471517
-1.7043301 1.7200955 0.9498339 0.9791289 3.9946288e-05 0.00023256731 0.0001732916 -0.00011106568
-0.36064178 0.41106072 0.4656495 -0.56387717 -0.00075571076 -0.00040530748 0.00048272667 0.00017315065
-0.0008103416 -0.0010987119 -0.00026743044 0.00055033405 -0.0002019749 -0.0015909226 7.263007e-05 0.0003407969
0.0023947207 -0.00024068194 -0.00018428327 -0.000786554 0.13782623 0.68074214 0.05638935 -0.07894585
0.07807488 -0.22748947 0.25456133 0.13511948 0.12712528 -0.061036654 -0.20143566 0.3682632
6.7045046e-05 -0.0022966198 0.0002924945 0.000101885686 0.031963676 0.41661933 -0.14485632 0.32910258
0.00015686042 0.0014329451 -0.00016782439 -6.344781e-05 0.00030643013 -0.0011950245 0.00075778336 -0.00026874844
-0.01614745 -0.06517382 0.40029213 -0.16056436 0.00071684824 0.00013638062 0.0005128938 -0.00041182776
0.0076550553 0.0035895796 -0.0052252486 0.004063664 0.00017200886 -0.0013173566 0.0004499779 -3.7520207e-05
0.00048575926 0.0009690411 9.9219964e-05 -0.00020520222 0.0010650072 0.0005163057 -0.00041035376 -0.00035331896
0.0013893148 0.0012324996 -0.00013807583 -0.00033961155 -0.00012845753 5.6392062e-05 0.00020771805 1.8154587e-05
0.0015975758 0.00061318424 0.00033485753 -0.0006737971 -0.55696106 -0.042230915 -0.0587558 0.040550902
0.0004133171 -0.0010406835 0.00041449137 -0.00028094035 0.19847783 0.09435957 -0.063863076 0.35545814
7.012451e-05 -0.0015814295 0.00031479367 -0.0001471275 0.002505701 -0.30805138 -0.2543966 0.3156704
-0.29683465 0.3116425 -0.39932713 0.61529726 -0.00081969943 -0.0015528982 -2.1146683e-05 0.00053590233
-0.00064707926 0.0018658977 -0.0008013993 0.00030419597 -0.0009448153 -0.0019187068 -0.00054002885 0.0006272537
-0.75894445 0.00058476854 -0.01337012 -0.037086636 0.2379061 0.08036158 -0.070719056 0.27507016
-0.9115062 0.9258913 0.40901738 -0.5573823 -0.00053662184 0.00079357484 -0.0006637608 0.00017805363
-0.0009580884 0.0022433102 -0.0009668543 0.0003608001 -0.039563708 0.032250803 0.10949862 -0.5526818
0.0007986629 -0.0014591629 0.00016074043 0.00010687404 0.0007186303 -0.0015264677 0.00036155243 -0.00027565175
-0.0016902764 0.0016407963 0.00033441576 0.00021688474 -0.6764682 -0.08005878 -0.05507586 0.062385153
-0.00017551474 0.0011741229 4.8069618e-05 4.4925575e-05 0.0004088597 -0.0014151586 0.00020834248 1.2895325e-06
-0.00037795232 -0.0014135306 0.00016021174 0.00019484645 -0.00020012936 0.0004773781 -3.3031392e-07 9.2915056e-05
00000000: 61d4 8dbd 242e a3bd 5c68 0fbd 0976 cfbc
00000010: b1f2 9abe 073a 59be ff9c 5a3e 43d7 19be
00000020: a9bb 3d39 cc81 5fba 6a29 9939 0087 16b5
00000030: ccd7 34bd d210 e3bc bbd4 0dbe 796a fcbd
00000040: cdab 213e 1726 af3c 9283 d8be 6f6e 9ebe
00000050: 0e33 6d3f c27c 71bf 08d1 d43e 678b 13bf
00000060: 99be 73be 8471 ffbd ca45 0abe 11f9 3e3d
00000070: b6db 71b9 2dcd 093a d101 30b9 7ab7 7939
00000080: 8dc3 d9ba 347d 183a a68a 53b9 45b3 2f3a
00000090: 78b3 3fbe 4a0f 58be de39 7bbe e9cf 1fbe
000000a0: 92fd 8739 c476 d9ba 8a92 8b39 bc29 40b9
000000b0: d6a8 b53d dee1 3a3d 3b4c 6c3d 30c2 3a3e
000000c0: 12b2 61ba 00c2 823a c3be 42ba 144b 033a
000000d0: 2a80 92bd 9a99 8a3d cba6 8f3e c294 a2be
000000e0: 446e 023b 3979 2eba 201c 5e3a 491a 80ba
000000f0: 149e 52ba afa3 afb9 5921 61b9 24e8 e339
00000100: 8e21 7b39 2acd 9e39 5954 6c38 fe6f 9338
00000110: c4a0 6abc b8fa 48be 22f2 7a3d c6f2 093e
00000120: 7d27 dabf 172c dc3f 5128 733f 31a8 7a3f
00000130: 008c 2738 50dd 7339 9cb5 3539 efeb e8b8
00000140: 0aa6 b8be 8d76 d23e 9c69 ee3e 415a 10bf
00000150: e41a 46ba 737f d4b9 7a16 fd39 c68f 3539
00000160: 1b6d 54ba a702 90ba e835 8cb9 4b44 103a
00000170: 39c9 53b9 8186 d0ba f950 9838 fcac b239
00000180: bff0 1c3b 915f 7cb9 2a3c 41b9 bf30 4eba
00000190: 5222 0d3e 1e45 2e3f 85f8 663d 5dae a1bd
000001a0: b9e5 9f3d 00f3 68be dd55 823e c35c 0a3e
000001b0: 212d 023e 9201 7abd 2645 4ebe ff8c bc3e
000001c0: 899a 8c38 e382 16bb f259 9939 76ab d538
000001d0: 58ec 023d 214f d53e 3755 14be 2280 a83e
000001e0: e67a 2439 a9d1 bb3a 04fa 2fb9 490f 85b8
000001f0: 5ba8 a039 5ea2 9cba fba5 463a cee6 8cb9
00000200: a847 84bc da79 85bd 17f3 cc3e fc6a 24be
00000210: dfea 3b3a 6501 0f39 b873 063a 96ea d7b9
00000220: 42d7 fa3b 273f 6b3b 9038 abbb 7c28 853b
00000230: 475d 3439 27ab acba 03eb eb39 045f 1db8
00000240: 81ad fe39 3f07 7e3a 5014 d038 8d2b 57b9
00000250: b697 8b3a b058 073a c024 d7b9 ab3d b9b9
00000260: ab19 b63a d38b a13a 73c8 10b9 e40d b2b9
00000270: 8eb2 06b9 8486 6c38 e4ce 5939 ae4a 9837
00000280: c065 d13a 19be 203a d18f af39 c2a1 30ba
00000290: 0095 0ebf 53fa 2cbd eca9 70bd b418 263d
000002a0: 7bb2 d839 8b67 88ba 1750 d939 2d4b 93b9
000002b0: c63d 4b3e 973f c13d a5ca 82bd 9cfe b53e
000002c0: cf0f 9338 f847 cfba e40a a539 3d46 1ab9
000002d0: b036 243b e9b8 9dbe 4540 82be 8d9f a13e
000002e0: b6fa 97be 9b8f 9f3e 9b74 ccbe 1f84 1d3f
000002f0: 19e1 56ba 9e8a cbba 2864 b1b7 cc7b 0c3a
00000300: c1a0 29ba 2391 f43a ff14 52ba 7e7c 9f39
00000310: 7bad 77ba 1e7d fbba b990 0dba 496e 243a
00000320: 2f4a 42bf 274b 193a 590e 5bbc 28e8 17bd
00000330: a89d 733e 9d94 a43d 27d5 90bd ffd5 8c3e
00000340: 7858 69bf 3607 6d3f ba6a d13e 9bb0 0ebf
00000350: 15ac 0cba e807 503a 3c00 2eba e8b3 3a39
00000360: 3928 7bba 8004 133b 7e74 7dba c529 bd39
00000370: 8e0d 22bd 6b19 043d d040 e03d 8e7c 0dbf
00000380: 5c5d 513a 6241 bfba 6e8c 2839 9021 e038
00000390: 7762 3c3a c213 c8ba bf8e bd39 5a85 90b9
000003a0: 448c ddba fd0f d73a 8654 af39 8e6b 6339
000003b0: 052d 2dbf dcf5 a3bd 3a97 61bd 9387 7f3d
000003c0: 610a 38b9 07e5 993a 5c9e 4938 786e 3c38
000003d0: 385c d639 d87c b9ba 8276 5a39 0014 ad35
000003e0: e727 c6b9 3746 b9ba 83fe 2739 b24f 4c39
000003f0: d1d9 51b9 9b48 fa39 0056 b1b4 64db c238

bias f4 [100]
-0.9982699 0.90643007 2.659056 -0.99960065 -1.0311847 -0.50632083 -0.7528637 -2.7477367
3.1374798 -0.99188024 2.7596343 0.7985039 2.769563 -0.7436977 3.0245972 2.923976
-2.8590262 0.99295354 -3.0101845 -2.7406023 0.15625739 2.9290867 2.8617663 2.5881588
3.2286744 0.613612 -2.345716 -0.84940916 -2.6044524 -0.29781517 -2.800565 -2.5470133
-1.2413969 2.4754956 0.9686987 -2.7142262 2.658556 -2.663368 2.777679 2.8123577
-2.7444348 0.5963322 -2.6112876 0.547751 -2.8041503 0.5861944 0.23518251 2.9279177
-2.8406065 -2.6547806 0.53440136 0.62590146 0.48738575 -2.8347666 2.7586703 1.0245032
-2.949105 -2.558675 2.8104422 -0.6187855 2.7699823 -2.1899226 2.7591255 2.882447
2.8358822 3.0116975 -0.83583915 2.853742 -0.72581285 -0.51332986 -0.5114646 -2.806452
1.0266304 0.87891126 0.9932056 2.76469 -1.82455 2.6937118 2.766928 -0.71466124
2.982835 -0.90891147 2.7677102 1.8993958 1.6401104 -2.863369 -2.6824844 0.7991005
2.749049 0.9928823 2.8924072 -2.6475644 0.8247537 -3.1413093 2.6442282 2.7928848
0.85480535 -2.793924 -2.800506 2.7711155
00000000: 9e8e 7fbf cd0b 683f f92d 2a40 d4e5 7fbf
00000010: dcfd 83bf 3e9e 01bf adbb 40bf ebda 2fc0
00000020: 78cc 4840 ddeb 7dbf d99d 3040 c06a 4c3f
00000030: 8540 3140 f962 3ebf 0093 4140 6c22 3b40
00000040: 49fa 36c0 3432 7e3f dda6 40c0 0766 2fc0
00000050: f001 203e 2876 3b40 2e27 3740 65a4 2540
00000060: 9aa2 4e40 ad15 1d3f 3620 16c0 e172 59bf
00000070: 59af 26c0 3b7b 98be 753c 33c0 4402 23c0
00000080: 18e6 9ebf 856e 1e40 a3fc 773f e2b5 2dc0
00000090: c825 2a40 9f74 2ac0 7ec5 3140 abfd 3340
000000a0: d2a4 2fc0 3aa9 183f 561f 27c0 6939 0c3f
000000b0: 3377 33c0 d610 163f afd3 703e 0163 3b40
000000c0: 7fcc 35c0 ede7 29c0 87ce 083f 143b 203f
000000d0: a08a f93e d16c 35c0 0e8e 3040 ec22 833f
000000e0: 23be 3cc0 55c1 23c0 49de 3340 ba68 1ebf
000000f0: 6447 3140 b127 0cc0 8395 3040 037a 3840
00000100: 187f 3540 a7bf 4040 8ef9 55bf b5a3 3640
00000110: dfce 39bf 9669 03bf 58ef 02bf e99c 33c0
00000120: a068 833f 5400 613f b942 7e3f aef0 3040
00000130: db8a e9bf c665 2c40 5915 3140 0af4 36bf
00000140: c5e6 3e40 6cae 68bf 2a22 3140 671f f33f
00000150: 23ef d13f 7041 37c0 d3ad 2bc0 da91 4c3f
00000160: 6bf0 2f40 892d 7e3f 331d 3940 b271 29c0
00000170: 0f23 533f 360b 49c0 093b 2940 a0be 3240
00000180: 86d4 5a3f a7cf 32c0 7e3b 33c0 f559 3140

weight f4 [100, 100]
0.06564152 0.051157594 -0.042677972 -0.14068252 0.057925563 0.18599924 0.14266258 -0.19386955
0.085448936 0.103036836 -0.06826943 -0.0385106 -0.031046104 0.019030102 -0.029715396 0.103226595
0.20796704 0.27160078 -0.016285984 0.20365986 -0.11204482 -0.0393129 -0.12872064 -0.12983046
-0.06681057 0.053152062 -0.12554312 0.0015104136 0.11573826 -0.04918766 0.10801894 0.15306218
0.1857703 0.19675264 0.1235986 0.06338576 -0.08149586 -0.08269014 -0.060870036 0.23883317
0.10886904 -0.24293318 -0.047283947 0.004662215 0.040458474 -0.065934286 -0.12023445 0.03706888
-0.068157025 0.07562719 -0.014042819 0.104067534 0.11245516 0.15846644 0.05635742 -0.08163184
-0.05565493 0.041543014 0.09881637 0.07243082 0.07270304 0.082986884 -0.025158543 0.1445262
0.049044617 0.24066973 0.008273839 -0.098499924 -0.04456626 0.07558027 0.17452177 0.047295336
-0.0140498625 0.00078136765 -0.24057063 0.04534077 -0.13166356 0.16316119 0.052271366 -0.07729972
-0.020138737 0.20805481 -0.025991764 0.13650095 0.04594431 -0.051768143 -0.025095263 -0.18292499
0.06785177 0.15533563 -0.1389846 0.10735654 0.05474969 0.25726098 0.15044188 0.11261597
-0.14260869 0.2444148 0.012399461 -0.106972516 0.07669374 0.031774964 -0.12897846 -0.07920479
0.10366427 0.05162387 0.14025907 -0.18986647 0.08221056 -0.11401048 -0.05666398 0.08933354
-0.015032546 0.13821918 -0.08891471 -0.03132765 0.08673431 0.18234158 0.01764593 -0.04335932
-0.24984595 0.0056082048 -0.15788452 -0.12860827 -0.048518855 -0.1047282 -0.059400227 -0.15039879
0.19484639 0.14574745 0.31490073 -0.111210845 -0.14414029 -0.035221443 0.054222595 -0.18206058
-0.1722248 0.117168956 0.022273872 -0.0043770517 -0.051730983 -0.2692636 0.17267606 0.07828049
0.031119002 0.16872555 -0.032509953 0.10447385 0.18408304 -0.100446545 0.174659 0.24298158
0.21362038 -0.067357615 -0.19748601 -0.06104143 -0.14663817 0.021729881 0.14746578 0.073845744
0.061903223 0.14912848 0.05123555 0.092827745 0.019462984 0.14336593 0.06619296 0.0018136676
-0.22363041 -0.1877335 -0.1123796 -0.07328936 -0.07740598 -0.19477224 -0.1410596 0.17844753
0.015397032 0.020724872 -0.146156 0.23876527 0.24434184 -0.047906023 0.1495738 0.03032708
-0.1518725 -0.060033586 0.15031882 -0.23160222 -0.017625758 -0.14004472 0.061578847 0.010148472
-0.18084605 0.11348845 -0.06733029 0.078131445 0.09692485 0.18843928 -0.044485975 -0.030354192
-0.047484796 0.14941736 -0.23917471 -0.007197603 -0.0034395377 -0.23593459 0.03874584 0.06388082
-0.1064523 -0.151215 -0.22303222 0.035968296 -0.007757035 -0.180384 -0.079204306 -0.08121134
-0.09212301 0.07884622 0.039092217 0.057089124 -0.29064128 0.024757802 0.09044427 -0.0019102646
0.06457396 0.20811383 -0.05312016 -0.15133353 -0.026789257 -0.14390375 0.018017514 -0.21406464
0.20345409 -0.049995903 0.09071941 0.06695273 -0.07532848 -0.17026769 0.04291858 -0.09484252
-0.13614348 0.16531515 -0.0054795183 0.31677303 0.07528599 -0.010840956 -0.2592389 -2.0066613e-05
-0.12496282 -0.02388603 0.02424282 0.21319242 0.25430515 -0.1303884 0.035843566 0.25716466
00000000: 106f 863d a08a 513d 19cf 2ebd 140f 10be
00000010: 5b43 6d3d 9676 3e3e 2416 123e bd85 46be
00000020: daff ae3d fa04 d33d d8d0 8bbd 4abd 1dbd
00000030: 6654 febc 04e5 9b3c b46d f3bc 7768 d33d
00000040: 50f5 543e 420f 8b3e 2f6a 85bc 368c 503e
00000050: c177 e5bd 9006 21bd 58cf 03be 47f2 04be
00000060: fbd3 88bd fab5 593d 608e 00be 12f9 c53a
00000070: 2e08 ed3d 0079 49bd 0939 dd3d 55bc 1c3e
00000080: 923a 3e3e 8679 493e 4321 fd3d 65d0 813d
00000090: 4de7 a6bd 7359 a9bd dc52 79bd af90 743e
000000a0: bbf6 de3d 7ac3 78be d0ac 41bd 7ec5 983b
000000b0: c9b7 253d 8e08 87bd 7b3d f6bd 8ad5 173d
000000c0: e995 8bbd 6ee2 9a3d da13 66bc 5c21 d53d
000000d0: e44e e63d 0745 223e 0ad7 663d 982e a7bd
000000e0: 6df6 63bd 0229 2a3d 3d60 ca3d 9c56 943d
000000f0: 55e5 943d 07f5 a93d 4a19 cebc adfe 133e
00000100: 02e3 483d 2072 763e ff8e 073c 54ba c9bd
00000110: 1c8b 36bd d4c9 9a3d d6b5 323e c1b8 413d
00000120: 6531 66bc b2d4 4c3a 2658 76be 3eb7 393d
00000130: d0d2 06be ba13 273e 801a 563d 514f 9ebd
00000140: fef9 a4bc 520c 553e aeec d4bc e8c6 0b3e
00000150: 1a30 3c3d d50a 54bd 9594 cdbc b050 3bbe
00000160: def5 8a3d 4e10 1f3e fb51 0ebe bfdd db3d
00000170: 3641 603d b6b7 833e 700d 1a3e 34a3 e63d
00000180: 0308 12be e047 7a3e 1c27 4b3c 6814 dbbd
00000190: 9c11 9d3d 7726 023d ee12 04be 1f36 a2bd
000001a0: ef4d d43d 8d73 533d 13a0 0f3e 5b6c 42be
000001b0: 035e a83d 547e e9bd 7d18 68bd 81f4 b63d
000001c0: 114b 76bc 5489 0d3e ea18 b6bd 6c51 00bd
000001d0: c2a1 b13d c0b7 3a3e 338e 903c 8b99 31bd
000001e0: 9ed7 7fbe 08c5 b73b 7bac 21be e3b1 03be
000001f0: b5bb 46bd bd7b d6bd a74d 73bd 2402 1abe
00000200: d085 473e d23e 153e ab3a a13e 83c2 e3bd
00000210: 8399 13be 5c44 10bd 8318 5e3d 176e 3abe
00000220: b35b 30be 47f6 ef3d b277 b63c 5f6d 8fbb
00000230: dee3 53bd ebdc 89be fed1 303e 8651 a03d
00000240: 47ed fe3c 64c6 2c3e 2829 05bd 63f6 d53d
00000250: 4480 3c3e ebb6 cdbd cfd9 323e 2ad0 783e
00000260: 4dbf 5a3e caf2 89bd c639 4abe 9406 7abd
00000270: 5128 16be dd02 b23c 4501 173e 703c 973d
00000280: 3c8e 7d3d 23b5 183e 5edc 513d 791c be3d
00000290: d670 9f3c 85ce 123e 2d90 873d 96b8 ed3a
000002a0: 5fff 64be 363d 40be 4727 e6bd bb18 96bd
000002b0: 0787 9ebd 6072 47be ee71 10be f3ba 363e
000002c0: d543 7c3c 35c7 a93c eba9 15be e27e 743e
000002d0: bf34 7a3e 1b39 44bd e029 193e 7f70 f83c
000002e0: 7784 1bbe c7e5 75bd 2ded 193e 2229 6dbe
000002f0: e563 90bc e267 0fbe 1a3a 7c3d c745 263c
00000300: b52f 39be a26c e83d 77e4 89bd 6103 a03d
00000310: 8980 c63d 3af6 403e ed36 36bd 5ba9 f8bc
00000320: 6b7f 42bd dd00 193e 37ea 74be dfd9 ebbb
00000330: de69 61bb d698 71be f5b3 1e3d f3d3 823d
00000340: aa03 dabd 1bd8 1abe 8f62 64be 7e53 133d
00000350: ba2e febb 95b6 38be de35 a2bd 2252 a6bd
00000360: fdaa bcbd 217a a13d 291f 203d 49d6 693d
00000370: efce 94be e0d0 ca3c d83a b93d d861 faba
00000380: 5a3f 843d cb1b 553e 8694 59bd 2df7 1abe
00000390: 2575 dbbc 815b 13be 7799 933c c333 5bbe
000003a0: 4556 503e 81c8 4cbd 19cb b93d 831e 893d
000003b0: d145 9abd a75a 2ebe 65cb 2f3d cc3c c2bd
000003c0: 3269 0bbe 6048 293e 888d b3bb 1330 a23e
000003d0: 8b2f 9a3d 449e 31bc f6ba 84be b954 a8b7
000003e0: 82ec ffbd a3ac c3bc e198 c63c 1d4f 5a3e
000003f0: 4934 823e 8984 05be b4d0 123d 16ab 833e

bias f4 [100]
-0.0018187047 0.015603495 -0.09285053 -0.031980183 0.009984207 0.04113685 0.07332497 0.04628855
0.07082088 -0.09779805 0.04510924 0.01931814 -0.048453104 -0.09998697 0.09360939 -0.03374951
-0.08900336 -0.07207596 0.024816943 0.061488785 0.010319198 0.015599931 -0.013919008 0.016634
-0.008486057 0.0800295 0.03750315 -0.042893805 0.03552128 -0.035076287 -0.06377087 -0.040529978
0.086941294 0.053163923 -0.09178176 0.08832269 -0.07577856 0.067361906 0.012809301 -0.028748943
-0.0017198444 -0.057660162 0.09018087 -0.038539078 -0.030668749 -0.08000109 0.06500629 0.08041445
0.016095078 -0.016775215 0.032155097 -0.044472862 0.09879636 -0.030749274 0.03589536 0.08231013
-0.026715994 0.07817651 0.05649556 -0.0018397451 -0.036390662 0.07527276 0.034407627 0.0068798303
-0.031904686 -0.093731456 -0.085922174 -0.00041879417 -0.09156915 -0.09687511 -0.025601208 -0.009062159
0.074993886 -0.065306485 -0.096851744 0.0003861785 -0.09260992 -0.009221149 0.072095215 -0.08278807
0.023039937 -0.02679342 0.0998791 0.0024813414 -0.010419726 -0.02246542 -0.04888282 0.07193124
-0.051483847 0.091402315 0.06708435 -0.084492326 0.078322746 -0.0018096686 0.06168592 -0.047141135
0.017369403 0.0031647563 0.00643512 -0.018295038
00000000: 9a61 eeba cda5 7f3c 6b28 bebd a7fd 02bd
00000010: cd94 233c 1d7f 283d 672b 963d 1099 3d3d
00000020: 8a0a 913d 584a c8bd 77c4 383d 1341 9e3c
00000030: c376 46bd f8c5 ccbd 48b6 bf3d ed3c 0abd
00000040: 6547 b6bd 909c 93bd e74c cb3c aadb 7b3d
00000050: da11 293c da96 7f3c 8d0c 64bc 0744 883c
00000060: 1a09 0bbc 82e6 a33d e79c 193d 6ab1 2fbd
00000070: c37e 113d 27ac 0fbd 4d9a 82bd c302 26bd
00000080: 470e b23d 6ac2 593d 13f8 bbbd 87e2 b43d
00000090: ca31 9bbd 0af5 893d 1ade 513c e782 ebbc
000000a0: 676c e1ba 102d 6cbd bfb0 b83d 27db 1dbd
000000b0: 073d fbbc 9dd7 a3bd 0522 853d 55b0 a43d
000000c0: d3d9 833c 2d6c 89bc 10b5 033d 2d29 36bd
000000d0: bf55 ca3d e7e5 fbbc 0307 133d 3792 a83d
000000e0: 80db dabc 021b a03d e367 673d 9a23 f1ba
000000f0: 600e 15bd 9b28 9a3d 03ef 0c3d 3370 e13b
00000100: 7dae 02bd 47f6 bfbd f7f7 afbd 9a91 dbb9
00000110: 9b88 bbbd 7566 c6bd a0b9 d1bc 7379 14bc
00000120: 6596 993d 68bf 85bd 355a c6bd 0078 ca39
00000130: 45aa bdbd 4d14 17bc a8a6 933d cb8c a9bd
00000140: 40be bc3c e07d dbbc 6a8d cc3d 009e 223b
00000150: 80b7 2abc 6709 b8bc 5a39 48bd b050 933d
00000160: bae0 52bd 2331 bb3d 8563 893d 500a adbd
00000170: ad67 a03d 6732 edba 60aa 7c3d 1017 41bd
00000180: 474a 8e3c cd67 4f3b b3dd d23b 7adf 95bc

weight f4 [1, 100]
0.0780023 -0.07458943 -0.39704663 -0.0019266529 0.11361996 -0.13388902 0.12787531 0.0014330914
-0.49702516 -0.1936363 -0.39694673 -0.07050416 0.102554366 -0.19105287 -0.06905201 0.05006629
-0.03230427 0.10388326 0.11421312 -0.05139706 0.057071734 -0.11365204 -0.4003421 -0.07940038
-0.016371844 -0.0014094599 0.05172404 0.15061276 0.050129782 -0.09404033 0.15000604 0.06821233
-0.057489354 0.09057618 0.005034927 -0.038043234 0.0038158195 -0.0023447191 0.0031670285 -0.54449487
-0.07351129 -0.085416734 0.047226463 0.11364281 0.0013024616 -0.06826661 0.04015792 -0.13517405
-0.0013476209 0.03568981 0.00074371754 -0.0037714145 0.0043287715 0.14960596 -0.59220856 -0.3476833
0.00036328883 0.13416229 0.0032014374 0.09884119 0.07706253 -0.305857 0.21724394 -0.011514829
-0.6685971 -0.09701478 0.12568252 0.17821757 -0.1369827 0.012597195 -0.41579401 -0.30741698
0.020661617 -0.47031936 -0.057877604 -0.19906327 -0.11617582 0.16868033 -0.07481678 -0.0075939773
0.0038525779 -0.50143045 -0.06641123 0.008369912 0.07988502 0.16032185 0.13547671 0.13195503
-0.043320365 -0.10139126 -0.0029557715 -0.19475824 0.033273097 0.09328413 0.08652609 -0.07315786
-0.062203668 -0.0055119176 0.0012760482 -0.13034
00000000: abbf 9f3d 58c2 98bd b249 cbbe be87 fcba
00000010: 95b1 e83d 341a 09be bff1 023e 91d6 bb3a
00000020: 157a febe 9848 46be 9a3c cbbe 7c64 90bd
00000030: 0608 d23d 5da3 43be 246b 8dbd 4f12 4d3d
00000040: 7b51 04bd bfc0 d43d 91e8 e93d b985 52bd
00000050: 0dc4 693d 67c2 e8bd a4f9 ccbe ab9c a2bd
00000060: 3f1e 86bc a0bd b8ba 96dc 533d 3b3a 1a3e
00000070: e354 4d3d 3798 c0bd 2f9b 193e e8b2 8b3d
00000080: f579 6bbd 0180 b93d 07fc a43b 39d3 1bbd
00000090: d412 7a3b dca9 19bb ec8d 4f3b 0464 0bbf
000000a0: 168d 96bd f8ee aebd 8970 413d 90bd e83d
000000b0: 5cb7 aa3a 5dcf 8bbd a27c 243d 116b 0abe
000000c0: a7a2 b0ba 7a2f 123d 0af6 423a d629 77bb
000000d0: 5ed8 8d3b 4e32 193e fb9a 17bf 8c03 b2be
000000e0: cd77 be39 d761 093e 35cf 513b 406d ca3d
000000f0: f6d2 9d3d 4a99 9cbe 3275 5e3e b1a8 3cbc
00000100: 2e29 2bbf afaf c6bd ebb2 003e ab7e 363e
00000110: 3145 0cbe 7764 4e3c f4e2 d4be c265 9dbe
00000120: 8d42 a93c b3cd f0be 1111 6dbd 3ed7 4bbe
00000130: 97ed edbd 89ba 2c3e 8a39 99bd e6d6 f8bb
00000140: 887b 7c3b bf5d 00bf 9c02 88bd f521 093c
00000150: c29a a33d 692b 243e 68ba 0a3e 381f 073e
00000160: b270 31bd 39a6 cfbd 9eb5 41bb b46e 47be
00000170: 5f49 083d c00b bf3d 9734 b13d cad3 95bd
00000180: 46c9 7ebd 519d b4bb 1341 a73a d977 05be

S f4 [4, 4]
0.0 0.0 1.0 0.0 0.0 0.0 0.0 1.0
-1.0 0.0 0.0 0.0 0.0 -1.0 0.0 0.0
00000000: 0000 0000 0000 0000 0000 803f 0000 0000
00000010: 0000 0000 0000 0000 0000 0000 0000 803f
00000020: 0000 80bf 0000 0000 0000 0000 0000 0000
00000030: 0000 0000 0000 80bf 0000 0000 0000 0000
