Models/DoublePendulum/DoublePendulum_symplectic midpoint_50epoch_PAU()_ReLU()_batchsize_64_shape_torch.Size([549500, 4]).pt (torch, 52763 bytes, 8 tensors)

numerator f4 [6]
-0.013255891 -0.1603175 -0.0983387 1.2998364 0.43431926 -0.6111868
00000000: 3d2f 59bc 452a 24be cd65 c9bd 0a61 a63f
00000010: 185f de3e bd76 1cbf

denominator f4 [4]
0.109982476 0.6588791 -1.2377361 0.2324744
00000000: 7e3e e13d 4dac 283f 236e 9ebf c50d 6e3e

weight f4 [100, 4]
0.014061034 -0.09564632 -0.093998566 0.07132383 -0.48652586 -0.0116323335 -0.0056802207 0.00018901014
-0.30234066 0.29174647 -0.1658197 -0.15631422 -0.58478355 0.57855237 -0.002368125 0.0120308045
-0.049013898 0.011612548 -0.1393275 0.21681254 -0.13541628 0.15509474 0.11313686 -0.14714178
0.3408105 -0.35549557 -0.23978075 -0.32383907 -0.10196195 -0.029211996 0.19535264 0.20077658
0.20062566 0.17367406 0.008056403 0.07421599 0.15790886 0.0037189377 -0.17511931 -0.2191536
-0.19376048 0.11466782 -0.17045361 0.17560288 -0.42159608 -0.18768372 -0.06328779 0.10907693
-0.36123595 -0.090868056 -0.052674577 -0.032604787 -0.008729288 0.009484014 -0.1593951 -0.12940302
0.22499909 -0.12909736 -0.1373432 0.135863 -0.09686445 0.103085294 0.051185343 -0.29098418
0.53406346 -0.48344418 -0.4909461 0.69897634 -0.29212925 -0.10171055 -0.13045464 0.24340834
0.14613178 -0.20086093 -0.14060214 0.20173809 -0.05782294 -0.046529964 0.13984576 -0.108573064
0.044339743 -0.10904423 0.12281398 -0.20260128 -0.13534257 -0.041788038 -0.13234174 0.21792363
-0.17127262 0.09064184 0.14927521 -0.24042322 -0.025192058 -0.020848837 0.29625314 -0.4193341
0.12801982 -0.1318883 0.11720875 -0.17009425 0.63909847 -0.63109416 -0.013956428 0.015337143
-0.54015523 0.54139704 0.22070193 -0.31868705 0.29816857 -0.25555375 -0.19873348 0.2768097
-0.17227462 0.29370254 0.14985164 -0.19588888 0.5649726 -0.5544121 0.23915526 -0.3431023
-0.24537009 -0.19518997 0.040080953 -0.10068426 -0.035720672 0.003362802 0.11048894 0.19960113
0.101821505 -0.10018057 0.10349274 -0.102133885 -0.34209633 -0.11818865 0.0105286185 0.040149003
-0.2085002 0.20278165 0.18182576 -0.2668092 -0.067164116 0.09353019 0.21043077 -0.20853388
-0.093162656 0.019140432 0.09274207 0.06827214 -0.08157407 0.07363225 0.118338816 -0.27670762
0.2511547 0.19149418 0.030330561 0.10811964 -0.057888478 -0.067943 -0.17933783 -0.14774327
-0.12378909 0.07160653 -0.21932553 0.34941825 0.3832315 0.15955083 -0.041221224 0.18234475
-0.37090892 0.19293897 0.21137336 0.3162368 0.16674377 -0.15557678 -0.18754597 0.20926633
-0.005977201 -0.013729445 -0.13802993 -0.16378617 -0.15501761 0.17227104 -0.13368575 0.16175361
-0.58524096 0.5721642 -0.25309414 0.35257596 -0.28260198 0.36156595 -0.17571172 0.24800134
0.38277435 -0.39143744 0.2527971 0.3347651 0.35466406 -0.029682072 -0.010173546 -0.0047421604
0.00508294 -0.012676181 -0.14337765 -0.21482743 -0.16982064 0.07928066 -0.16399956 0.19680253
0.005648251 0.014306823 0.02437729 0.011010279 -0.24109769 0.20319623 0.18830173 -0.2836373
-0.32786137 -0.19369169 0.033636115 -0.17588192 -0.018026061 -0.3523466 0.0043636737 0.007550504
-0.018230697 -0.039492834 -0.18067901 -0.18468152 -0.16347322 0.0409742 0.08712917 -0.18240911
0.050357766 0.038384594 0.10224552 0.12247962 -0.21744695 -0.23131686 -0.08787902 0.20267835
0.2979709 0.07850664 0.11769228 -0.103066646 0.19924724 0.14284623 -0.021798728 0.06332812
0.27640536 0.011987007 0.014969382 -0.0023062346 0.170463 -0.030604402 -0.03015589 0.14936663
00000000: 4060 663c 38e2 c3bd 5282 c0bd 3a12 923d
00000010: eb19 f9be 8b95 3ebc 2521 babb 0631 4639
00000020: 65cc 9abe cb5f 953e a4cc 29be d610 20be
00000030: 60b4 15bf 021c 143f 8b32 1bbb da1c 453c
00000040: ccc2 48bd 8e42 3e3c deab 0ebe 1b04 5e3e
00000050: 91aa 0abe 28d1 1e3e 4cb4 e73d 56ac 16be
00000060: b77e ae3e 8403 b6be 1689 75be 3cce a5be
00000070: 6dd1 d0bd ff4d efbc 860a 483e 6098 4d3e
00000080: d070 4d3e 9dd7 313e 01ff 033c 8efe 973d
00000090: dcb2 213e 6cb9 733b 7a52 33be cd69 60be
000000a0: 2669 46be f6d6 ea3d 648b 2ebe 3ed1 333e
000000b0: 71db d7be 2930 40be 079d 81bd ba63 df3d
000000c0: ebf3 b8be 0819 babd 4cc1 57bd 998c 05bd
000000d0: 4a05 0fbc d662 1b3c 7838 23be 3a82 04be
000000e0: 2966 663e 1932 04be b2a3 0cbe ac1f 0b3e
000000f0: de60 c6bd 621e d33d b9a7 513d e1fb 94be
00000100: 62b8 083f ff85 f7be 4a5d fbbe 1df0 323f
00000110: f791 95be 9f4d d0bd e795 05be 0940 793e
00000120: 92a3 153e 7dae 4dbe 02fa 0fbe 6e94 4e3e
00000130: bfd7 6cbd 3496 3ebd ba33 0f3e 8e5b debd
00000140: 979d 353d 9552 dfbd e585 fb3d b676 4fbe
00000150: 3e97 0abe ef29 2bbd 9884 07be 5f27 5f3e
00000160: 1762 2fbe 6ea2 b93d 9adb 183e 8131 76be
00000170: 935f cebc 2ecb aabc 7eae 973e f6b2 d6be
00000180: a117 033e ba0d 07be 240b f03d 302d 2ebe
00000190: f59b 233f 638f 21bf 80a9 64bc a448 7b3c
000001a0: 9d47 0abf ff98 0a3f b0ff 613e f32a a3be
000001b0: 8da9 983e f1d7 82be ca80 4bbe 00ba 8d3e
000001c0: c268 30be 2e60 963e b572 193e 1897 48be
000001d0: 0ba2 103f f4ed 0dbf 1ee5 743e 1bab afbe
000001e0: 4c42 7bbe e1df 47be ed2b 243d 8d33 cebd
000001f0: d74f 12bd 7562 5c3b 0648 e23d 3d64 4c3e
00000200: cb87 d03d 782b cdbd 00f4 d33d 922b d1bd
00000210: 4027 afbe e40c f2bd 3a80 2c3c 4873 243d
00000220: 1481 55be fea5 4f3e 8830 3a3e 379b 88be
00000230: 578d 89bd c28c bf3d 2a7b 573e e889 55be
00000240: 10cc bebd 65cc 9c3c 8eef bd3d 44d2 8b3d
00000250: 4e10 a7bd 81cc 963d 9f5b f23d 9fac 8dbe
00000260: 5997 803e 0d17 443e cc77 f83c d46d dd3d
00000270: 781c 6dbd b325 8bbd 56a4 37be 034a 17be
00000280: 2285 fdbd 72a6 923d df96 60be f3e6 b23e
00000290: eb36 c43e 4b61 233e 96d7 28bd 95b8 3a3e
000002a0: c6e7 bdbe cb91 453e 4272 583e cae9 a13e
000002b0: e1be 2a3e 854f 1fbe 0d0c 40be ea49 563e
000002c0: 65dc c3bb 77f1 60bc b857 0dbe 90b7 27be
000002d0: f0bc 1ebe d267 303e ebe4 08be bda2 253e
000002e0: 5ad2 15bf 5a79 123f 8e95 81be d684 b43e
000002f0: 35b1 90be 2c1f b93e c6ed 33be 10f4 7d3e
00000300: 00fb c33e 7d6a c8be 9f6e 813e 5566 ab3e
00000310: 8796 b53e d127 f3bc f2ae 26bc 2064 9bbb
00000320: cb8e a63b c2af 4fbc 97d1 12be b9fb 5bbe
00000330: 76e5 2dbe e65d a23d 80ef 27be 9a86 493e
00000340: f714 b93b 2a67 6a3c e2b2 c73c 7564 343c
00000350: 50e2 76be ac12 503e 2bd2 403e e838 91be
00000360: 72dd a7be 1d57 46be 06c6 093d 641a 34be
00000370: 64ab 93bc c666 b4be 26fd 8e3b 386a f73b
00000380: 8b58 95bc 3dc3 21bd eb03 39be 271d 3dbe
00000390: 8665 27be 90d4 273d c770 b23d 74c9 3abe
000003a0: f243 4e3d 2a39 1d3d 1966 d13d 98d6 fa3d
000003b0: 6aaa 5ebe 54de 6cbe eaf9 b3bd ea8a 4f3e
000003c0: a48f 983e 17c8 a03d a608 f13d 9b14 d3bd
000003d0: 7807 4c3e 4846 123e 3f93 b2bc 2cb2 813d
000003e0: 0185 8d3e 2765 443c 2442 753c 3224 17bb
000003f0: da8d 2e3e 15b6 fabc 7c09 f7bc 91f3 183e

bias f4 [100]
-0.14053355 -0.16693398 0.1963766 -0.40984195 0.16411144 -0.092373334 -0.08708172 0.24503694
0.18218458 0.24942796 -0.22906712 0.33113727 0.08472587 0.21137646 -0.20402166 0.2350827
-0.27713367 0.26659194 -0.13806593 0.2235497 -0.13090152 0.23110962 0.18400374 0.38078046
-0.12222216 -0.3845608 -0.3158974 0.18212947 -0.20045124 -0.29114807 -0.86332726 -0.15860897
-0.1124308 0.24479772 -0.14292051 0.24944064 -0.19257417 -0.17043194 0.3968755 0.19737144
0.2397625 0.29815596 -0.23159224 0.23319605 -0.14696415 -0.13030398 -0.31052098 -0.2698446
-0.003942255 -0.14461805 -0.15003885 -0.17293426 0.3399113 -0.120097175 0.3289512 -0.15490724
0.206985 0.21414503 0.17127618 -0.18091983 0.26081026 0.18094338 -0.12008101 0.11652401
0.1231801 -0.26334542 0.24970792 -0.2281409 -0.1567215 0.034232847 -0.16630274 0.26660034
-0.31089023 -0.10308681 -0.22291201 0.20697387 0.32444492 -0.5418706 0.34095618 0.22069027
-0.22047625 0.2932596 -0.7049529 -0.16040717 -0.24639612 -0.11402779 0.19609809 0.25526297
-0.14982644 -0.12837209 -0.2569136 -0.17498559 -1.0123008 0.22461447 -0.17127754 -0.25516614
-0.17983082 0.17545754 -0.262454 0.27927333
00000000: 07e8 0fbe bef0 2abe f316 493e ced6 d1be
00000010: d40c 283e 3b2e bdbd e757 b2bd f7ea 7a3e
00000020: 988e 3a3e 0b6a 7f3e 9290 6abe d38a a93e
00000030: c284 ad3d 1273 583e 0eeb 50be 85b9 703e
00000040: 77e4 8dbe bd7e 883e 2861 0dbe 36ea 643e
00000050: 0c0b 06be 00a8 6c3e 7a6b 3c3e a8f5 c23e
00000060: 9d4f fabd 27e5 c4be 4ebd a1be 2680 3a3e
00000070: 1743 4dbe 5c11 95be 0403 5dbf 646a 22be
00000080: 1f42 e6bd 41ac 7a3e c159 12be 5e6d 7f3e
00000090: 2a32 45be b685 2ebe 4433 cb3e bd1b 4a3e
000000a0: 4d84 753e e6a7 983e 8426 6dbe f2ca 6e3e
000000b0: c57d 16be 686e 05be 9bfc 9ebe 1229 8abe
000000c0: 082e 81bb c116 14be c9a3 19be ae15 31be
000000d0: db08 ae3e 82f5 f5bd 4b6c a83e 01a0 1ebe
000000e0: e0f3 533e d648 5b3e 0663 2f3e 0c43 39be
000000f0: ec88 853e 3949 393e 08ed f5bd 24a4 ee3d
00000100: d945 fc3d 36d5 86be 6fb3 7f3e c59d 69be
00000110: 9a7b 20be be37 0c3d 444b 2abe d77f 883e
00000120: 012d 9fbe 2d1f d3bd 0c43 64be f5f0 533e
00000130: a51d a63e 08b8 0abf cf91 ae3e a1fc 613e
00000140: 87c4 61be 1f26 963e cb77 34bf c741 24be
00000150: 444f 7cbe 6787 e9bd f0cd 483e d4b1 823e
00000160: 1a6c 19be f973 03be 2e8a 83be 6c2f 33be
00000170: 1393 81bf 5601 663e 6163 2fbe 23a5 82be
00000180: 9225 38be 24ab 333e 5f60 86be eafc 8e3e

weight f4 [100, 100]
0.029478395 -0.081398934 0.07281791 0.122429706 -0.074664205 0.13368832 0.13580237 0.034355935
-0.039076757 0.11712825 -0.05534543 0.063428864 0.07350962 -0.04205538 0.0014479326 -0.15490763
-0.0036707984 -0.009762963 0.049994975 0.108669445 0.06516599 -0.058678657 0.12575199 0.02597279
-0.056201365 0.09309608 0.049793407 0.042796526 -0.1541935 0.002577605 -0.090545654 0.074944146
-0.061508596 -0.013604783 -0.08452664 0.007876415 0.09063064 0.10943131 -0.03906831 0.07199696
-0.051887527 -0.031009194 0.014673476 0.1651258 -0.027018204 -0.08027795 0.112127654 -0.09926567
-0.032474797 0.042766236 0.022465289 0.05896611 0.07313614 0.025724351 0.03818852 0.075069346
0.008383606 0.05658876 0.037603457 0.17081383 -0.0078050215 0.040294968 -0.05127846 0.03540649
0.05539575 -0.03883724 -0.038308587 0.023474513 -0.02400369 0.07114426 0.045791678 0.06922743
0.071636155 -0.13303804 -0.050528392 0.05292071 0.04465452 -0.0048604677 0.038923096 0.12650527
0.017886396 -0.042465515 0.08618684 -0.004960949 0.119028635 0.01874235 0.061006725 0.04187054
0.05726197 -0.020507984 0.031426545 -0.1269118 -0.018186202 0.031052936 0.0886286 0.041063145
-0.12976485 0.04191208 -0.027922561 0.015790325 -0.02138379 -0.032943368 -0.09252021 0.29609412
-0.14735995 0.19462515 0.13118428 0.02991349 0.1640973 0.19091518 -0.06952867 0.05919142
0.070092954 0.024764651 -0.040362176 0.16331942 0.02885701 0.23723194 -0.033645187 -0.016402343
-0.038155917 -0.07076824 0.114585645 -0.26565245 0.060095713 -0.06039979 0.08109997 -0.102420054
0.034158193 0.094837524 -0.037096784 0.016863655 0.07679617 0.040660087 0.10951456 -0.08990495
-0.053710226 -0.111842416 0.252038 0.07342885 0.13722524 0.108442545 0.01768854 -0.096096076
0.14955996 -0.13315511 -0.106309615 -0.0074803056 -0.13463096 0.010623222 -0.06829245 0.13752653
0.07722866 0.10213875 -0.06970714 0.15826392 0.05724559 0.10544402 0.13770062 0.030025965
-0.029106611 0.054628614 -0.21370682 0.009018092 -0.14320736 0.040765066 0.009443262 -0.0014052053
0.20695649 0.17867644 0.09652519 0.09155918 -0.16688275 -0.040923357 0.020785896 0.012094798
-0.13200095 0.14732167 0.034289006 0.18353581 0.04212029 0.1298649 0.2412394 -0.34370524
0.23684211 0.06268827 0.16924562 0.098679565 0.19551583 -0.016666042 -0.048493344 0.06504788
-0.05090079 0.094825886 0.019417547 0.1120021 -0.052266873 -0.073963195 0.1002619 0.09183118
0.12474928 0.19524427 -0.049439847 -0.54261756 -0.021291494 -0.05934713 0.018444989 0.09595912
0.014024483 0.009737597 0.029155554 0.14846253 0.012482407 -0.04966602 -0.25056905 -0.08338878
-0.16759089 -0.02784143 0.03537842 0.16665284 -0.10102324 0.30792692 0.11068467 -0.040388178
0.21914144 -0.20799918 0.27450842 0.05052482 0.106604025 0.124920346 0.022351682 -0.31549934
0.07417409 -0.23319419 0.22186129 -0.15934063 0.2728054 0.11122732 0.07419006 -0.06129407
-0.19621167 -0.049175248 -0.017396398 0.19933102 0.03493131 -0.22111993 0.31492177 -0.0045100125
0.20178798 0.48257747 0.09865084 -0.00906744 0.030876614 0.2303211 0.23748362 0.57780355
00000000: ad7c f13c 7cb4 a6bd 8e21 953d 6dbc fa3d
00000010: 8ce9 98bd 97e5 083e c70f 0b3e cfb8 0c3d
00000020: f30e 20bd f0e0 ef3d e4b1 62bd fee6 813d
00000030: 368c 963d 4342 2cbd 8ec8 bd3a 1ba0 1ebe
00000040: c791 70bb d6f4 1fbc 88c7 4c3d 168e de3d
00000050: bf75 853d 0859 70bd 21c5 003e e3c4 d43c
00000060: 6733 66bd 28a9 be3d 2cf4 4b3d 694b 2f3d
00000070: e7e4 1dbe 09ed 283b 0070 b9bd 517c 993d
00000080: 70f0 7bbd 99e6 5ebc 4e1c adbd 140c 013c
00000090: 8f9c b93d 861d e03d 1806 20bd 2473 933d
000000a0: 0488 54bd fe06 febc 0569 703c bd16 293e
000000b0: 4855 ddbc c468 a4bd 2fa3 e53d cd4b cbbd
000000c0: 4b04 05bd a62b 2f3d 2009 b83c 7386 713d
000000d0: 67c8 953d e0bb d23c 916b 1c3d f5bd 993d
000000e0: 645b 093c 9ec9 673d 1506 1a3d d2e9 2e3e
000000f0: 44c1 ffbb 560c 253d 5d09 52bd 6506 113d
00000100: a7e6 623d cc13 1fbd 77e9 1cbd 9f4d c03c
00000110: 63a3 c4bc 15b4 913d 0e90 3b3d 1cc7 8d3d
00000120: fab5 923d 203b 08be dcf6 4ebd 63c3 583d
00000130: a8e7 363d 8f44 9fbb d36d 1f3d 998a 013e
00000140: 7e86 923c 52f0 2dbd ba82 b03d 758f a2bb
00000150: 49c5 f33d 8f89 993c 30e2 793d 7180 2b3d
00000160: 878b 6a3d 5c00 a8bc 1fb9 003d 2bf5 01be
00000170: 3bfb 94bc ba62 fe3c e982 b53d d431 283d
00000180: 14e1 04be 00ac 2b3d dbbd e4bc b65a 813c
00000190: 0f2d afbc a0ef 06bd 3c7b bdbd a699 973e
000001a0: 87e5 16be d14b 473e 2c55 063e 230d f53c
000001b0: 1f09 283e 457f 433e 0c65 8ebd b472 723d
000001c0: e58c 8f3d 3ddf ca3c cf52 25bd 353d 273e
000001d0: 8965 ec3c eeec 723e 89cf 09bd 355e 86bc
000001e0: 6149 1cbd f0ee 90bd e1ab ea3d 9903 88be
000001f0: ec26 763d c565 77bd be17 a63d 9bc1 d1bd
00000200: 76e9 0b3d 2d3a c23d ccf2 17bd a625 8a3c
00000210: 4f47 9d3d 318b 263d 2b49 e03d 1620 b8bd
00000220: 41ff 5bbd a30d e5bd 200b 813e dd61 963d
00000230: c684 0c3e 2017 de3d 8fe7 903c 05ce c4bd
00000240: 3f26 193e d059 08be dbb8 d9bd 5a1d f5bb
00000250: b3dc 09be 060d 2e3c e9dc 8bbd c1d3 0c3e
00000260: 0f2a 9e3d 1f2e d13d 9ec2 8ebd f00f 223e
00000270: 5a7a 6a3d 09f3 d73d 6401 0d3e 03f9 f53c
00000280: fd70 eebc 41c2 5f3d f6d5 5abe 9fc0 133c
00000290: f3a4 12be 45f9 263d e9b7 1a3c de2e b8ba
000002a0: 67ec 533e f5f6 363e 00af c53d 6183 bb3d
000002b0: 50e3 2abe 409f 27bd 2f47 aa3c 4229 463c
000002c0: 422b 07be 7edb 163e a172 0c3d d0f0 3b3e
000002d0: 5386 2c3d 4efb 043e 7607 773e 22fa afbe
000002e0: bd86 723e b562 803d b94e 2d3e 8318 ca3d
000002f0: 4d35 483e 3987 88bc f5a0 46bd d337 853d
00000300: 597d 50bd 1334 c23d 8c11 9f3c 5b61 e53d
00000310: ca15 56bd 047a 97bd 1c56 cd3d fc11 bc3d
00000320: 8d7c ff3d 1dee 473e 7081 4abd fce8 0abf
00000330: 806b aebc fa15 73bd f219 973c 3786 c43d
00000340: f2c6 653c 718a 1f3c a1d7 ee3c 9006 183e
00000350: 0283 4c3c 996e 4bbd 964a 80be bdc7 aabd
00000360: f29c 2bbe b613 e4bc f6e8 103d 0ba7 2a3e
00000370: 46e5 cebd 99a8 9d3e a5ae e23d 136e 25bd
00000380: 9d66 603e bdfd 54be 5e8c 8c3e 1df3 4e3d
00000390: 3653 da3d 3dd6 ff3d e01a b73c 2189 a1be
000003a0: 96e8 973d 75ca 6ebe 9b2f 633e 312a 23be
000003b0: 26ad 8b3e 26cb e33d f5f0 973d 7e0f 7bbd
000003c0: b6eb 48be fc6b 49bd e482 8ebc 6e1d 4c3e
000003d0: 2214 0f3d 436d 62be 6d3d a13e bac8 93bb
000003e0: 82a1 4e3e 6514 f73e 7409 ca3d 9a8f 14bc
000003f0: f4f0 fc3c 4bd9 6b3e e82e 733e efea 133f

bias f4 [100]
0.059170485 -0.08802887 -0.057088602 0.0063599707 0.09293451 0.099733606 0.0055924775 0.0179006
-0.07373829 0.049326837 0.06510615 -0.029995918 -0.014320469 -0.021242047 0.07200835 -0.05396968
0.007360494 0.086470425 -0.0920436 -0.073528625 -0.099592105 -0.051243283 0.046088494 0.016583323
0.02209692 -0.06338455 -0.005806375 0.08648896 0.088880554 0.0521091 -0.03731228 0.09783053
-0.058591437 -0.08415224 -0.015231371 0.047118794 -0.027173817 -0.037995305 -0.06695493 -0.02682128
-0.097924165 -0.0038581013 0.017787457 -0.036350477 -0.061140586 -0.08668337 0.051723935 -0.08318766
-0.0053004385 0.038151957 0.080574356 0.08251653 0.050260186 -0.01494689 0.057950404 -0.08189779
-0.07737253 0.064596705 0.025286842 -0.07829317 0.0495749 -0.047521543 0.010604739 -0.031669416
-0.0015805006 0.08536396 -0.09877986 0.037396967 -0.075415075 -0.002232921 0.011078668 -0.04724765
-0.012441302 0.008925808 -0.06106124 -0.056334782 -0.01962024 0.009063709 0.027493788 -0.0372522
0.049331903 -0.012807774 -0.015410769 -0.09010799 -0.08042099 -0.054718386 0.021439767 0.07872146
-0.085288025 0.075206876 0.0067607523 0.09599848 0.004192984 0.08820255 0.0755031 0.048349906
-0.095611386 -0.019398713 0.0015855432 -0.08305941
00000000: c05c 723d 7b48 b4bd bdd5 69bd 4d67 d03b
00000010: 7354 be3d 2241 cc3d 1a41 b73b 47a4 923c
00000020: 1a04 97bd f00a 4a3d 6056 853d 00ba f5bc
00000030: 67a0 6abc cd03 aebc 1d79 933d 500f 5dbd
00000040: 4d30 f13b 6817 b13d 5b81 bcbd 2d96 96bd
00000050: f2f6 cbbd 7ae4 51bd 4ac7 3c3d c0d9 873c
00000060: 9a04 b53c c2cf 81bd 6743 bebb 2021 b13d
00000070: 0207 b63d 5a70 553d c3d4 18bd 5f5b c83d
00000080: 93fd 6fbd 0258 acbd 008d 79bc a3ff 403d
00000090: a09b debc f7a0 1bbd ab1f 89bd 4db8 dbbc
000000a0: 778c c8bd 33d8 7cbb 00b7 913c 3de4 14bd
000000b0: 8d6e 7abd 0d87 b1bd 7adc 533d 4b5e aabd
000000c0: 4daf adbb 3a45 1c3d 2b04 a53d 6dfe a83d
000000d0: a0dd 4d3d cde3 74bc 675d 6d3d 07ba a7bd
000000e0: 7d75 9ebd 474b 843d 5a26 cf3c 2b58 a0bd
000000f0: 0d0f 4b3d f3a5 42bd 80bf 2d3c cab7 01bd
00000100: cd28 cfba 4dd3 ae3d 184d cabd 902d 193d
00000110: 3873 9abd 3356 12bb 4d83 353c c086 41bd
00000120: 9ad6 4bbc 8d3d 123c 5a1b 7abd 4dbf 66bd
00000130: a0ba a0bc f37f 143c a73a e13c c395 18bd
00000140: 4010 4a3d b3d7 51bc 737d 7cbc 8a8a b8bd
00000150: c3b3 a4bd 6320 60bd 73a2 af3c b838 a13d
00000160: 7dab aebd 1006 9a3d 4d89 dd3b da9a c43d
00000170: 4d65 893b 8aa3 b43d 5fa1 9a3d 8d0a 463d
00000180: e7cf c3bd 0dea 9ebc 00d2 cf3a 0d1b aabd

weight f4 [1, 100]
0.008898302 0.011425386 -0.018956997 0.011381157 -0.12693809 0.097458884 0.026392339 0.005678211
-0.020162575 0.012421523 0.007041586 0.010956659 0.0030487855 0.008125986 0.0070570484 -0.012314904
0.009379025 0.039822772 -0.014173996 -0.025173584 -0.0037842235 0.031518377 -0.10353012 0.05460212
0.009781086 0.020981837 0.026485957 -0.15812595 -0.14524281 -0.15638842 -0.0062874714 -0.1621633
0.024979437 0.0012997699 0.05090435 0.011156198 -0.0088738 -0.0062274835 0.001008534 0.0055912402
-0.015978187 0.044389352 -0.1293663 0.037527446 8.9914174e-05 -0.0023774477 0.0037335637 0.01256344
-0.0039057836 0.0068089 0.0040630447 -0.06935517 0.009941338 0.00035634305 -0.010082326 -0.0071967216
0.002119745 0.010040696 -0.0014560233 0.055444192 0.0032383318 0.0041811964 0.006405908 0.029244516
0.005857799 -0.1508636 -0.0074799913 0.01817069 -0.0009371848 -0.01582758 0.0067169312 0.00775578
-0.007079184 0.0035717404 0.05514927 0.07947653 0.013827941 0.001971851 0.03421787 0.04917509
-0.134916 0.014831919 0.004894213 -0.011387001 -0.006467622 0.02070265 -0.0083746575 -0.14073661
0.026033508 -0.15234606 0.0013875435 0.0024650907 0.0045395703 -0.14916858 0.4047835 -0.12679633
-0.0065277587 0.011308465 0.026274575 -0.015487265
00000000: 2fca 113c 8b31 3b3c b44b 9bbc 0878 3a3c
00000010: 0ffc 01be 8698 c73d bf34 d83c 4910 ba3b
00000020: fc2b a5bc a583 4b3c 1bbd e63b 8f83 333c
00000030: 22ce 473b db22 053c d03e e73b 73c4 49bc
00000040: 7baa 193c 341d 233d 0c3a 68bc d538 cebc
00000050: bc00 78bb 6a19 013d 9907 d4bd 79a6 5f3d
00000060: d940 203c 1ae2 ab3c 14f9 d83c c5eb 21be
00000070: 88ba 14be 4924 20be 2207 cebb 230e 26be
00000080: ada1 cc3c 0a5d aa3a 1481 503d 7cc8 363c
00000090: 6a63 11bc eb0f ccbb c930 843a b936 b73b
000000a0: b0e4 82bc 9cd1 353d 9978 04be 61b6 193d
000000b0: 4e90 bc38 f4ce 1bbb ceae 743b e3d6 4d3c
000000c0: 2df8 7fbb 311d df3b 4a23 853b 150a 8ebd
000000d0: fee0 223c 8ed3 ba39 5730 25bc 7ad2 ebbb
000000e0: 6beb 0a3b bb81 243c 09d8 beba 7319 633d
000000f0: 313a 543b 6b02 893b a7e8 d13b 3292 ef3c
00000100: c8f2 bf3b fd7b 1abe b71a f5bb b3da 943c
00000110: 68ad 75ba d7a8 81bc b419 dc3b 3324 fe3b
00000120: 80f8 e7bb dc13 6a3b 33e4 613d 97c4 a23d
00000130: 978e 623c 2c3a 013b 0a28 0c3d d26b 493d
00000140: 6b27 0abe 9401 733c a25f a03b 8b90 3abc
00000150: 58ee d3bb 9b98 a93c dc35 09bc 421d 10be
00000160: 3944 d53c 9b00 1cbe 3cde b53a 5c8d 213b
00000170: adc0 943b a6bf 18be c83f cf3e e6d6 01be
00000180: cfe6 d5bb 2447 393c c73d d73c 4cbe 7dbc

S f4 [4, 4]
0.0 0.0 1.0 0.0 0.0 0.0 0.0 1.0
-1.0 0.0 0.0 0.0 0.0 -1.0 0.0 0.0
00000000: 0000 0000 0000 0000 0000 803f 0000 0000
00000010: 0000 0000 0000 0000 0000 0000 0000 803f
00000020: 0000 80bf 0000 0000 0000 0000 0000 0000
00000030: 0000 0000 0000 80bf 0000 0000 0000 0000
