Models/HenonHeiles/HenonHeiles_symplectic midpoint_50epoch_PAU()_ReLU()_batchsize_64_shape_torch.Size([175000, 4]).pt (torch, 52724 bytes, 8 tensors)

numerator f4 [6]
0.0026875695 -0.18283696 0.06959836 1.074305 -0.00016697566 0.0035523192
00000000: ef21 303b 9d39 3bbe 9689 8e3d d482 893f
00000010: 3016 2fb9 07ce 683b

denominator f4 [4]
-0.0007970832 -0.002209169 -0.0030208456 0.0033860202
00000000: 59f3 50ba b5c7 10bb 61f9 45bb fee7 5d3b

weight f4 [100, 4]
0.16812743 -0.05733574 0.17548724 0.38643688 0.13052434 -0.08807182 0.13981004 0.21401662
0.00029032477 -0.0032326148 -0.0012620811 -0.0001666238 0.0056387945 3.1831092e-05 -0.012849349 -0.0038431764
-0.0011476795 -0.008417906 -0.00031183715 -0.00015168627 -0.0055093314 0.0047716214 0.009983212 0.0037102178
-0.025067892 0.03309784 -0.2326398 0.05914319 0.0065762554 -0.0018856819 -0.012206712 -0.005021889
0.097817056 -0.051809963 -0.038608592 -0.03682708 0.033090632 -0.39151555 0.21070516 -0.2167576
0.0016611525 0.0011735349 0.0022542437 -0.00028028197 0.0008809547 -0.0065778214 0.00034889788 -0.00212358
-0.048616022 -0.16554958 -0.28543347 0.2752798 -0.0055252174 -0.1149243 -0.103505895 -0.29273424
0.006801613 -0.0120546715 0.009360403 -0.0021120762 -0.0053263674 -0.0025469286 0.0036966382 -0.0072501237
-0.0008716594 -0.0004934344 0.005761794 0.0020481949 -0.0025783705 -0.00020479542 0.0067292834 0.0027094693
0.09967341 -0.014390817 0.029411014 0.30009753 -0.001153984 -0.00020939084 0.0026983132 -0.00036490793
5.9663704e-05 -0.0050529917 0.0010620101 -0.00012763766 0.028687896 0.13485521 0.41036147 -0.0083402945
-0.08159041 0.017207453 0.25308782 0.37705058 -0.1772656 0.11311675 0.057864357 0.050108377
-0.00072449597 -0.009274052 0.0030702772 -0.0008351169 -0.00092119345 -0.00015975063 0.004763887 0.0018812274
0.0018692453 -0.0011285903 0.003020147 -0.00035281066 -0.001959335 0.0012127254 -0.00890684 0.0005907741
0.005873475 0.1502643 -0.13008374 -0.19769618 0.21268977 -0.06539772 0.08625489 -0.15917157
-0.12794569 -0.096836366 -0.24284332 -0.41254342 -0.060326695 -0.16823953 -0.15035982 0.17670317
-0.0018536951 4.5133074e-05 0.0065679885 0.002279758 0.020496333 0.04507266 -0.16414125 0.28563544
0.006105947 -0.0005087819 -0.0031035272 0.00042440163 0.0027436512 0.007129235 -0.004266473 0.004027281
-0.017149018 0.17582221 0.13839653 0.14716251 0.008897212 0.1068288 -0.1899117 -0.16665763
0.0050788354 0.017307924 -0.002478186 0.0063361763 0.027155414 -0.0781432 0.29668707 -0.28424636
-0.0033806704 0.0014231025 0.009096367 0.0027580047 -0.017726474 0.062285762 0.481187 0.14614008
0.060322843 0.031434365 -0.22315203 0.0677173 0.018876545 -0.0016334663 0.00799308 0.0050880266
0.005712632 -0.012115232 -0.07474304 0.008832076 -0.0055446792 0.018605607 -0.012329915 0.011335149
-0.0017399384 -0.00039169478 0.007095645 0.0020797804 -0.0003602912 -0.0037419812 0.00026696667 -0.00014417664
-0.0019781804 -0.00017334588 0.0070721735 0.0024319068 -0.16436224 0.09050151 0.24251364 0.27122465
0.00038732574 -0.00083783106 -0.014337914 -0.007082981 -0.20991921 -0.12579834 -0.25467366 -0.082869746
-0.12051236 0.025470087 -0.22447012 0.2288568 0.084664874 -0.058888998 0.21754298 -0.24791425
-0.0016816697 0.0006321161 -0.000290356 0.00037347045 0.16785416 0.037430227 -0.059561007 -0.14174096
0.005667225 0.0070493156 0.006908924 -0.002327352 -0.0009182045 0.0041442728 0.01020356 0.0022302403
0.003381849 0.00014125623 -0.011795461 -0.008392314 0.07937838 0.083727665 -0.09794254 0.2568438
-0.018219259 0.78024024 0.04930804 0.0067038713 0.003951731 0.00036265957 -0.0018301363 -0.005452565
0.3002137 0.16279991 -0.3031943 0.008928287 -0.30679864 -0.13722531 -0.22176982 0.2887774
00000000: 9929 2c3e e2d8 6abd edb2 333e 0edb c53e
00000010: 2ca8 053e 005f b4bd 5d2a 0f3e 2c27 5b3e
00000020: bb36 9839 47da 53bb 6a6c a5ba bcb7 2eb9
00000030: a3c5 b83b 6082 0538 1386 52bc cddd 7bbb
00000040: bc6d 96ba 42eb 09bc 137e a3b9 f90d 1fb9
00000050: 9f87 b4bb 435b 9c3b a090 233c 2027 733b
00000060: 2e5b cdbc 9a91 073d 2139 6ebe 2140 723d
00000070: a17d d73b fc28 f7ba a9fe 47bc a98e a4bb
00000080: 4f54 c83d af36 54bd 0b24 1ebd fed7 16bd
00000090: 0b8a 073d ba74 c8be 18c3 573e b4f5 5dbe
000000a0: 07bb d93a 4cd1 993a efbb 133b cff2 92b9
000000b0: dfef 663a c48a d7bb 48ec b639 c32b 0bbb
000000c0: 9821 47bd d485 29be 5624 92be 79f1 8c3e
000000d0: e20c b5bb 6e5d ebbd e6fa d3bd 43e1 95be
000000e0: 11e0 de3b f580 45bc 605c 193c c26a 0abb
000000f0: cf88 aebb 5fea 26bb 4c43 723b 7292 edbb
00000100: 1280 64ba d259 01ba 6ecd bc3b 023b 063b
00000110: e1f9 28bb 5abe 56b9 5281 dc3b 5a91 313b
00000120: 9321 cc3d 76c7 6bbc 5eef f03c 62a6 993e
00000130: 4741 97ba ed8f 5bb9 2fd6 303b 1d51 bfb9
00000140: 6a3f 7a38 9193 a5bb 2533 8b3a 79d6 05b9
00000150: e102 eb3c 7c17 0a3e e61a d23e bba5 08bc
00000160: df18 a7bd a5f6 8c3c ba94 813e c60c c13e
00000170: 1d85 35be c1a9 e73d 2d03 6d3d 713e 4d3d
00000180: 1aec 3dba 32f2 17bc b436 493b bfeb 5aba
00000190: 3f7c 71ba bc82 27b9 611a 9c3b 8493 f63a
000001a0: 7701 f53a 35ed 93ba a9ed 453b 72f9 b8b9
000001b0: 3068 00bb 50f4 9e3a ffed 11bc 2ede 1a3a
000001c0: 4876 c03b e2de 193e ac34 05be de70 4abe
000001d0: 59cb 593e 3def 85bd 67a6 b03d dffd 22be
000001e0: 3204 03be 2552 c6bd ebab 78be e438 d3be
000001f0: 2019 77bd fc46 2cbe edf7 19be adf1 343e
00000200: b0f7 f2ba 454d 3d38 4838 d73b fe67 153b
00000210: ede7 a73c 1c9e 383d a514 28be cf3e 923e
00000220: 6514 c83b c65f 05ba 8c64 4bbb 3982 de39
00000230: d4ce 333b 5c9c e93b c5cd 8bbb 48f7 833b
00000240: 197c 8cbc bd0a 343e d2b7 0d3e c5b1 163e
00000250: 9dc5 113c 0fc9 da3d 3678 42be 4ca8 2abe
00000260: 5c6c a63b 59c9 8d3c 1069 22bb b39f cf3b
00000270: 0875 de3c 8b09 a0bd 5ee7 973e bd88 91be
00000280: 3d8e 5dbb 6587 ba3a ee08 153c a4bf 343b
00000290: 1c37 91bc 5b1f 7f3d 245e f63e bfa5 153e
000002a0: 1615 773d 52c1 003d f781 64be 5eaf 8a3d
000002b0: fca2 9a3c 091a d6ba 68f5 023c 76b9 a63b
000002c0: 0831 bb3b f77e 46bc e112 99bd 69b4 103c
000002d0: 24b0 b5bb c96a 983c 6903 4abc 10b7 393c
000002e0: a50e e4ba 625c cdb9 9682 e83b ed4c 083b
000002f0: 77e5 bcb9 073c 75bb a9f7 8b39 1f2e 17b9
00000300: 5ca4 01bb 2ec4 35b9 b1bd e73b a060 1f3b
00000310: 934e 28be db58 b93d 7f55 783e f5dd 8a3e
00000320: fb11 cb39 e4a1 5bba 92e9 6abc 5a18 e8bb
00000330: 10f5 56be 48d1 00be 9664 82be 9db7 a9bd
00000340: 2fcf f6bd a5a6 d03c 7fdb 65be 7059 6a3e
00000350: c764 ad3d 9735 71bd 96c3 5e3e 3cdd 7dbe
00000360: 796b dcba 98b4 253a ec3a 98b9 5bce c339
00000370: f6e1 2b3e 7050 193d 3ef6 73bd 8b24 11be
00000380: 21b4 b93b f2fd e63b 4164 e23b 7d86 18bb
00000390: a9b3 70ba aecc 873b d52c 273c 3929 123b
000003a0: 03a2 5d3b 2e1e 1439 c041 41bc eb7f 09bc
000003b0: 2291 a23d 6979 ab3d 1996 c8bd 0881 833e
000003c0: 8e40 95bc d3bd 473f 3af7 493d 26ac db3b
000003d0: 867d 813b 5823 be39 2fe1 efba 6eab b2bb
000003e0: 9cb5 993e 05b5 263e 493c 9bbe f347 123c
000003f0: b614 9dbe cb84 0cbe a117 63be a2da 933e

bias f4 [100]
-0.26104227 -0.25349903 0.2375037 0.21992202 -0.25907645 0.22457318 0.19960672 0.21599855
-0.2630287 0.17808792 0.24145366 -0.25960702 0.20112555 0.21596573 -0.26020694 -0.2593602
0.21773116 0.21813788 -0.32759568 -0.2288972 -0.2599737 0.21514557 -0.2511805 0.21565545
-0.25796574 0.21774279 0.23407006 -0.26436862 -0.24976481 -0.25749323 -0.26270208 -0.2836169
0.21855816 -0.25207707 -0.27167666 -0.26204407 -0.23876512 0.27083537 -0.26143664 0.19352198
0.2191911 -0.24821438 0.20264265 -0.26017752 0.2426635 -0.2587376 0.21852154 -0.24535747
0.21840239 0.2084549 0.21594553 -0.24805655 0.19777009 -0.25254008 0.2537734 0.2203164
-0.2646377 0.21660057 0.2157052 -0.26165095 -0.17587368 0.21701854 0.17805533 -0.23232192
-0.3039476 0.25233158 0.21785934 -0.25604612 0.19824028 0.15830028 0.21514603 -0.15116212
0.11964409 0.21472262 0.21716556 -0.25207582 0.21756512 -0.26229635 -0.2639013 -0.26720935
0.21978003 -0.2748437 -0.22566505 -0.26252204 0.2138877 -0.26627395 0.216385 -0.26476693
0.25414717 0.20930937 -0.26174858 0.2155373 -0.26033473 0.21573967 0.20426665 0.21396826
0.2147879 0.21573633 -0.25887522 0.12952764
00000000: 55a7 85be a0ca 81be 2c34 733e 3d33 613e
00000010: aba5 84be 83f6 653e b465 4c3e b92e 5d3e
00000020: b3ab 86be ae5c 363e a13f 773e 36eb 84be
00000030: dbf3 4d3e 1f26 5d3e d839 85be dcca 84be
00000040: ebf4 5e3e 895f 5f3e 9fba a7be 0764 6abe
00000050: 461b 85be 1f4f 5c3e bb9a 80be c8d4 5c3e
00000060: 1614 84be f7f7 5e3e 10b0 6f3e 535b 87be
00000070: 59c2 7fbe 27d6 83be e380 86be 3c36 91be
00000080: b6cd 5f3e 3f10 81be 3419 8bbe a42a 86be
00000090: d87e 74be efaa 8a3e 06db 85be a02a 463e
000000a0: a273 603e e92b 7ebe 8e81 4f3e fd35 85be
000000b0: c87c 783e 4179 84be 1cc4 5f3e fd3e 7bbe
000000c0: e0a4 5f3e 3475 553e d320 5d3e 8902 7ebe
000000d0: 3e84 4a3e ef4c 81be 96ee 813e 9f9a 613e
000000e0: 987e 87be 8acc 5d3e d3e1 5c3e 1df7 85be
000000f0: 3b18 34be 1c3a 5e3e 2354 363e cce5 6dbe
00000100: 059f 9bbe 9b31 813e 8516 5f3e 7a18 83be
00000110: 80ff 4a3e 7819 223e 3e4f 5c3e 3eca 1abe
00000120: f607 f53d 3fe0 5b3e a660 5e3e 1510 81be
00000130: 64c9 5e3e b54b 86be 121e 87be aacf 88be
00000140: 040e 613e 50b8 8cbe bd14 67be 4a69 86be
00000150: 6105 5b3e 0f55 88be 0894 5d3e 888f 87be
00000160: 941f 823e 3255 563e e903 86be cfb5 5c3e
00000170: 984a 85be dcea 5c3e 472b 513e 7f1a 5b3e
00000180: 5cf1 5b3e fce9 5c3e 4b8b 84be e5a2 043e

weight f4 [100, 100]
-0.04710102 -0.025253111 0.21766427 0.20644467 0.0095534 0.034260005 -0.14517273 -0.039606094
-0.0073513635 0.107963085 -0.13037564 0.013655949 -0.061170824 -0.08842708 -0.17215645 0.059192505
-0.007451045 0.14954533 0.026884694 -0.062094234 -0.005446925 0.043156225 0.04891856 -0.017674198
-0.047856797 0.18011312 0.062016565 0.012655503 -0.09135443 -0.08751561 0.081543885 0.12902145
0.10732069 0.060004666 -0.18589717 -0.039780036 -0.039964754 0.0311571 0.111915305 0.09533574
0.20512286 -0.07124972 -0.041411176 -0.1162824 0.04099395 -0.096237905 0.24848579 -0.007910365
0.0649414 0.0011214094 0.10570968 -0.14926681 0.023325639 0.019156635 -0.0915945 -0.10092083
0.022460936 0.14837322 -0.12010243 -0.09826989 0.058521125 0.041516103 0.05809555 -0.10398594
0.12367304 0.02926916 0.00054678053 0.15720414 0.041662082 -0.07255646 -0.049393628 0.1373214
-0.07520932 -0.03328698 -0.0037775168 0.11253046 -0.16205059 0.0156319 -0.20146091 0.010962182
-0.045935385 0.1250951 -0.11587502 0.05129607 0.10045218 -0.07697471 -0.102704555 -0.004508081
-0.22883755 0.1028059 -0.20968302 -0.040877953 -0.019456318 0.15342915 0.076291 0.016747959
-0.08204562 -0.27532813 -0.017266164 -0.067934565 0.031425815 -0.1817277 0.21966943 0.0038002825
0.12174259 -0.06883721 -0.10976568 -0.053649064 0.0009976544 0.11856551 0.16713968 0.025568694
-0.041450683 -0.03710874 -0.10586421 -0.0862853 0.10895647 0.14820369 -0.0031245656 0.03736114
-0.17191118 -0.0034792898 0.039303884 -0.01476547 -0.05349037 0.13508433 0.15341473 -0.018083509
-0.12615643 0.055301208 0.073669 -0.10142898 0.10828165 -0.22487396 -0.053817164 0.22693692
-0.014572377 0.03205816 -0.07736986 -0.07187619 -0.17081241 -0.038742684 0.097321 -0.07213399
-0.054989472 -0.124976665 0.036332652 0.10307644 -0.023886243 -0.11264254 0.05567396 -0.08248883
0.070024125 -0.02367666 0.053273376 -0.0006143972 -0.07724241 -0.018166099 -0.093255706 -0.1663452
-0.04807762 0.05870443 -0.012105467 0.017979538 0.056560006 0.044429824 0.012948439 0.04245658
0.09781572 -0.09971726 -0.07868864 -0.23176621 0.055865817 0.06742875 0.10198907 -0.014348124
-0.044580184 -0.04865766 -0.009407789 -0.10992757 -0.2343555 -0.21290998 -0.18226108 0.0434859
0.19542716 -0.31758824 0.08325931 -0.075156406 0.21060683 0.074086174 0.19896859 0.018117033
-0.16333431 -0.020137833 0.0064775664 0.002159374 0.0214215 0.019493492 -0.01496801 -0.002302377
-0.032653477 -0.0010378276 -0.021540383 -0.1431383 0.04438844 0.03169067 -0.14449729 -0.09533908
-0.15168543 0.020207021 -0.16180684 -0.11806305 -0.1481215 -0.120249726 -0.077215314 0.054279063
0.1788144 -0.0409731 0.0430545 0.029222041 -0.17014274 -0.034777317 -0.0093105715 0.104690075
-0.029436212 -0.118988805 -0.07713235 0.11638755 0.042392276 0.13398425 0.025803382 -0.056195308
-0.21387553 0.056188956 0.15342024 0.21351081 -0.029978413 -0.03390076 0.26910594 0.11500382
-0.07092677 0.012178113 -0.011572423 0.09295744 -0.013418933 -0.08257937 -0.01092895 0.027278041
0.019421248 0.055297602 0.08912168 -0.10444227 -0.08982139 0.018578548 0.062507495 0.04908514
00000000: 00ed 40bd 9ddf cebc 62e3 5e3e 3b66 533e
00000010: dd85 1c3c 3854 0c3d 29a8 14be 003a 22bd
00000020: b5e3 f0bb c01b dd3d 3181 05be 34bd 5f3c
00000030: 428e 7abd 4219 b5bd c849 30be d773 723d
00000040: e527 f4bb 6922 193e 4a3d dc3c 8656 7ebd
00000050: 1e7c b2bb 95c4 303d d45e 483d 7bc9 90bc
00000060: 7d05 44bd 936f 383e 1505 7e3d 0759 4f3c
00000070: 0818 bbbd 623b b3bd 7b00 a73d 331e 043e
00000080: f3ca db3d 74c7 753d d45b 3ebe 64f0 22bd
00000090: 15b2 23bd 2d3d ff3c da33 e53d 623f c33d
000000a0: ba0b 523e 60eb 91bd c49e 29bd 7825 eebd
000000b0: 46e9 273d 6118 c5bd 0f73 7e3e 7a9a 01bc
000000c0: ffff 843d 41fc 923a 517e d83d 66d9 18be
000000d0: 6915 bf3c 60ee 9c3c e695 bbbd 95af cebd
000000e0: ffff b73c 26ef 173e 43f8 f5bd b941 c9bd
000000f0: d9b3 6f3d ca0c 2a3d 99f5 6d3d 95f6 d4bd
00000100: 4a48 fd3d e1c5 ef3c d255 0f3a 1ffa 203e
00000110: dca5 2a3d 7b98 94bd f950 4abd fb9d 0c3e
00000120: 5807 9abd ee57 08bd 3790 77bb 5f76 e63d
00000130: 97f0 25be 780e 803c c54b 4ebe b99a 333c
00000140: be26 3cbd ee18 003e e24f edbd d41b 523d
00000150: dfb9 cd3d eba4 9dbd c456 d2bd 86b8 93bb
00000160: 6454 6abe e68b d23d 25b7 56be a46f 27bd
00000170: db62 9fbc 881c 1d3e 753e 9c3d 0433 893c
00000180: 8907 a8bd cff7 8cbe c571 8dbc 4721 8bbd
00000190: 5bb8 003d d416 3abe 06f1 603e 290e 793b
000001a0: 2e54 f93d 86fa 8cbd d4cc e0bd 1fbf 5bbd
000001b0: bac3 823a 79d2 f23d aa26 2b3e 7075 d13c
000001c0: 31c8 29bd 56ff 17bd 56cf d8bd 59b6 b0bd
000001d0: 9224 df3d b5c2 173e 83c5 4cbb ff07 193d
000001e0: 7c09 30be cc04 64bb 1cfd 203d dfea 71bc
000001f0: b818 5bbd 8c53 0a3e c018 1d3e de23 94bc
00000200: 272f 01be 8583 623d c6df 963d ffb9 cfbd
00000210: c5c2 dd3d 5c45 66be 636f 5cbd 2762 683e
00000220: fbc0 6ebc 6b4f 033d 1774 9ebd d333 93bd
00000230: 73e9 2ebe a6b0 1ebd 3c50 c73d fcba 93bd
00000240: a43c 61bd c4f3 ffbd 8cd1 143d be19 d33d
00000250: 15ad c3bc 22b1 e6bd 610a 643d e7ef a8bd
00000260: cf68 8f3d 8ef5 c1bc 2f35 5a3d 800f 21ba
00000270: 4531 9ebd 12d1 94bc d9fc bebd 6556 2abe
00000280: 0aed 44bd 0e74 703d 0256 46bc d349 933c
00000290: 77ab 673d 0cfc 353d b125 543c f3e6 2d3d
000002a0: 9c53 c83d 9038 ccbd 8227 a1bd 1f54 6dbe
000002b0: 8ed3 643d 1618 8a3d a5df d03d 6514 6bbc
000002c0: b699 36bd 414d 47bd 2123 1abc b521 e1bd
000002d0: e3fa 6fbe 1305 5abe a6a2 3abe 451e 323d
000002e0: 0f1e 483e ed9a a2be db83 aa3d 9aeb 99bd
000002f0: 51a9 573e 7eba 973d 6cbe 4b3e 2c6a 943c
00000300: 1c41 27be 19f8 a4bc c441 d43b 4984 0d3b
00000310: 247c af3c d1b0 9f3c 623c 75bc 7ae3 16bb
00000320: a7bf 05bd b707 88ba 7575 b0bc d992 12be
00000330: a7d0 353d 13ce 013d 19f7 13be 2341 c3bd
00000340: 6d53 1bbe 3289 a53c b1b0 25be 0acb f1bd
00000350: 2aad 17be 7d45 f6bd 1023 9ebd b953 5e3d
00000360: 1f1b 373e 69d3 27bd ea59 303d 1063 ef3c
00000370: e639 2ebe a972 0ebd 5e8b 18bc c067 d63d
00000380: 3624 f1bc 67b0 f3bd 91f7 9dbd 995c ee3d
00000390: 86a3 2d3d 2b33 093e 9d61 d33c 0d2d 66bd
000003a0: 3002 5bbe 6426 663d 321a 1d3e 94a2 5a3e
000003b0: 4a95 f5bc 86db 0abd 41c8 893e 1f87 eb3d
000003c0: 0e42 91bd b586 473c 439a 3dbc 7860 be3d
000003d0: 16db 5bbc 5f1f a9bd 570f 33bc 3376 df3c
000003e0: 4f19 9f3c bd7f 623d 6d85 b63d d4e5 d5bd
000003f0: 47f4 b7bd 0a32 983c ee03 803d 800d 493d

bias f4 [100]
-0.04155704 -0.00745517 -0.058568157 0.027161801 0.09880721 0.019429578 0.026488567 -0.025062455
0.043214153 -0.08541252 -0.03076197 0.09603719 -0.039602198 -0.021298265 0.0009948611 0.0015626907
0.07255416 -0.0098756915 -0.09544887 -0.04323989 -0.08738408 -0.022262383 0.069377355 0.025781
0.015360534 -0.043136157 -0.0474764 0.0095744375 0.057676077 -0.008410359 -0.0286062 -0.07932373
-0.046751738 -0.08400964 0.01736412 0.051666226 -0.014323592 -0.09725314 -0.011636245 0.08045588
-0.0941206 -0.09904666 -0.08503697 0.08759973 0.084665075 0.07105018 0.0622479 -0.015231478
-0.045835923 0.0713552 0.045201816 -0.047095716 0.05457318 -0.09905839 -0.03143611 -0.070068255
-0.08447701 -0.032322563 -0.05608622 -0.021440877 -0.03518293 -0.09444114 0.05165098 -0.092121914
-0.0038531781 0.0045516016 -0.08053736 -0.08566948 -0.022934472 -0.060996737 -0.048435 -0.004197073
0.04169468 0.06493979 0.057746734 0.047395088 0.06413262 0.043966483 0.09352305 -0.061776638
0.073939316 -0.094404854 -0.0006130934 0.02692312 0.02771752 0.02586757 0.022451712 0.027372634
0.043445792 -0.088483445 0.091790594 0.09186908 0.03791931 0.055174887 -0.07132461 0.038745403
-0.06550872 -0.028495861 0.07984289 0.07286423
00000000: b737 2abd 804a f4bb 2ae5 6fbd 6d82 de3c
00000010: 6f5b ca3d c72a 9f3c 8dfe d83c c74f cdbc
00000020: 5301 313d c2ec aebd 8700 fcbc 25af c43d
00000030: ea35 22bd b379 aebc 0066 823a 33d3 cc3a
00000040: 4797 943d a7cd 21bc b27a c3bd 501c 31bd
00000050: 6df6 b2bd 9a5f b6bc b715 8e3d ad32 d33c
00000060: c0aa 7b3c 8aaf 30bd 9d76 42bd 1ade 1c3c
00000070: c03d 6c3d 9acb 09bc 8d57 eabc 7b74 a2bd
00000080: c07e 3fbd 3f0d acbd 333f 8e3c f79f 533d
00000090: 80ad 6abc a72c c7bd f3a5 3ebc 0dc6 a43d
000000a0: 4dc2 c0bd fad8 cabd dd27 aebd 7d67 b33d
000000b0: e264 ad3d c282 913d a7f7 7e3d 738d 79bc
000000c0: 73be 3bbd ad22 923d 8a25 393d 70e7 40bd
000000d0: 2088 5f3d 20df cabd 27c3 00bd f27f 8fbd
000000e0: 4802 adbd aa64 04bd aaba 65bd c7a4 afbc
000000f0: fa1b 10bd 5b6a c1bd fa8f 533d 6aaa bcbd
00000100: 9a85 7cbb 9a25 953b c5f0 a4bd 7b73 afbd
00000110: 13e1 bbbc b7d7 79bd c763 46bd 9a87 89bb
00000120: 0ac8 2a3d 27ff 843d d787 6c3d 5a21 423d
00000130: f757 833d 3316 343d 0389 bf3d 8009 7dbd
00000140: 7f6d 973d 5557 c1bd 00b8 20ba e08d dc3c
00000150: da0f e33c 3ae8 d33c a7ec b73c 933c e03c
00000160: 37f4 313d cf36 b5bd b5fc bb3d db25 bc3d
00000170: 4751 1b3d 10ff 613d a312 92bd 80b3 1e3d
00000180: 7029 86bd 2770 e9bc ab84 a33d d739 953d

weight f4 [1, 100]
-0.10933832 0.0941847 0.04017954 -0.0014600841 0.0017498201 0.002623661 -0.05558831 0.00072890444
0.12854497 0.021955734 0.018843466 0.0012120556 -0.0029942617 0.005470816 -0.0052319407 0.000686534
-0.02091688 0.00047756344 0.14310265 -0.13376957 -0.0999422 0.0047902227 0.12590562 -0.040151577
-0.19289157 -0.043804895 -0.030588532 0.060499143 -0.00031200692 -0.02672056 0.0084518725 -0.037363015
0.0033365644 -0.14424142 -0.000632314 -0.22252555 -0.004050229 0.054624062 0.0032296302 -0.06443788
-0.05356826 0.17459 -0.06829027 -0.1255298 -0.002375753 -0.119587965 -0.15342055 0.0028499318
0.023581186 0.0008223172 -0.119508356 -0.15482515 -0.0015394073 0.06264282 -0.14932281 -0.03689153
0.16374385 -0.1493753 -0.091150574 -0.051162522 -0.16547425 0.18933733 -0.09188226 0.1806842
-0.05635827 0.1050196 0.093504176 0.13475235 0.0032773966 0.11960895 -0.020471063 -0.065283805
-0.000954636 0.11841642 -0.082017824 0.100177154 0.018358553 0.0014286586 0.000447732 -0.064131975
0.0016060106 0.061362445 0.00076895655 0.0010797912 -0.09690275 -0.00042020157 -0.0006276086 -0.110792
0.015203807 -0.00248004 -0.00022164351 0.0012807699 0.00083669194 -0.119882464 0.0015241823 -0.08547493
-0.018242838 -0.01632762 -0.061394665 -0.19286013
00000000: c5ec dfbd e8e3 c03d 4d93 243d 4b60 bfba
00000010: 385a e53a baf1 2b3b 91b0 63bd f313 3f3a
00000020: 4ba1 033e 83dc b33c 9d5d 9a3c d6dd 9e3a
00000030: 603b 44bb 8844 b33b b370 abbb 84f8 333a
00000040: e059 abbc 7b61 fa39 8089 123e e4fa 08be
00000050: 7fae ccbd 4df7 9c3b 67ed 003e fb75 24bd
00000060: 5e85 45be c36c 33bd cd94 fabc f3cd 773d
00000070: dc94 a3b9 13e5 dabc b979 0a3c f609 19bd
00000080: 43aa 5a3b 06b4 13be e0c1 25ba bddd 63be
00000090: c9b7 84bb 7bbd 5f3d 34a8 533b 02f8 83bd
000000a0: 646a 5bbd b9c7 323e c5db 8bbd e28a 00be
000000b0: 85b2 1bbb 89ea f4bd 471a 1dbe ecc5 3a3b
000000c0: 552d c13c c690 573a ccc0 f4bd 7c8a 1ebe
000000d0: f0c5 c9ba e14a 803d 14e8 18be 931b 17bd
000000e0: 78ac 273e d7f5 18be 27ad babd cb8f 51bd
000000f0: 1572 29be a5e1 413e c42c bcbd 4705 393e
00000100: eed7 66bd 8414 d73d 1e7f bf3d 85fc 093e
00000110: 97c9 563b 8af5 f43d eeb2 a7bc 84b3 85bd
00000120: 8a40 7aba 4f84 f23d f6f8 a7bd ae29 cd3d
00000130: ad64 963c d441 bb3a 92bd ea39 a057 83bd
00000140: c680 d23a 3057 7b3d cd93 493a c887 8d3a
00000150: f374 c6bd 804e dcb9 1a86 24ba ebe6 e2bd
00000160: 6319 793c 2b88 22bb fa68 68b9 82df a73a
00000170: 7255 5b3a f084 f5bd 12c7 c73a 7b0d afbd
00000180: 0172 95bc 80c1 85bc f978 7bbd 207d 45be

S f4 [4, 4]
0.0 0.0 1.0 0.0 0.0 0.0 0.0 1.0
-1.0 0.0 0.0 0.0 0.0 -1.0 0.0 0.0
00000000: 0000 0000 0000 0000 0000 803f 0000 0000
00000010: 0000 0000 0000 0000 0000 0000 0000 803f
00000020: 0000 80bf 0000 0000 0000 0000 0000 0000
00000030: 0000 0000 0000 80bf 0000 0000 0000 0000
