Models/HenonHeiles/HenonHeiles_midpoint_50epoch_Sin()_Softplus(beta=1.0, threshold=20.0)_batchsize_64_shape_torch.Size([175000, 4]).pt (torch, 51975 bytes, 6 tensors)

weight f4 [100, 4]
0	0x3cec9c73	0.028883195
1	0xbd075684	-0.033041492
2	0xbcea7896	-0.028621953
3	0xbddb9919	-0.107225604
4	0xbe0e60a7	-0.13904057
5	0xbc5c072a	-0.013429442
6	0x3ea5aad7	0.32356903
7	0x3bf38dbc	0.0074326675
8	0xbcf70a83	-0.03015638
9	0x3cfcf1e0	0.030877054
10	0x3e11eb64	0.1424995
11	0xbdac56a6	-0.084149644
12	0xbd9e51ee	-0.077304706
13	0x3e1eaaea	0.15494886
14	0xbdafab07	-0.08577543
15	0xbe30310f	-0.17206214
16	0x3c971ee9	0.018447356
17	0xbc5227dd	-0.012826887
18	0xbd5845ad	-0.052800823
19	0xbe164244	-0.14673716
20	0xbce84b66	-0.028356265
21	0xbd96745e	-0.07346414
22	0x3d25a5ca	0.040441312
23	0xbeea3918	-0.45746684
24	0xbcaff0ca	-0.021477122
25	0x3d47c50a	0.048771895
26	0xbd9aa0d7	-0.07550209
27	0xbc3669f2	-0.011133658
28	0x3dacda01	0.084400184
29	0xbc362266	-0.0111166
30	0x3e93f9d0	0.2890153
31	0x3e71dfe6	0.23620567
32	0x3d18738d	0.037219573
33	0x3d046707	0.032324817
34	0x3d00c8d7	0.031441536
35	0xbe24b90d	-0.16086216
36	0xbf95a290	-1.1690235
37	0x3f35e728	0.7105584
38	0xbccefa96	-0.025265973
39	0xbdd8792e	-0.10569988
40	0xbcaba516	-0.020952743
41	0x3d99e1ad	0.07513747
42	0x3cad92d7	0.021188183
43	0x3d4d3579	0.050099824
44	0x3da0da78	0.078541696
45	0xbdc4f3c5	-0.09616808
46	0x3dd886e5	0.10572604
47	0x3e67d4e1	0.226398
48	0x3e132d2b	0.14372699
49	0x3de6a34d	0.11261616
50	0x3d5739cd	0.052545357
51	0x3e218367	0.15772782
52	0xbb62e96d	-0.0034623996
53	0x3da68544	0.08130887
54	0x3cecb6df	0.028895793
55	0xbe4aaf67	-0.19793473
56	0x3d2f2bad	0.04276626
57	0x3f39510e	0.72389305
58	0xbe0727fe	-0.1319885
59	0x3e20cb52	0.1570256
60	0xbc808199	-0.015686797
61	0x3c7d2363	0.015450331
62	0xbb1dff49	-0.002410846
63	0xbc5fb402	-0.013653757
64	0x3d6d8fc4	0.057998434
65	0x3d975578	0.07389349
66	0x3e2c0637	0.16799246
67	0xbe0641dc	-0.13111061
68	0x3d080f10	0.03321749
69	0xbd1f65d5	-0.038915474
70	0x3cb41d29	0.02198656
71	0x3d816748	0.063185275
72	0xbc108fa0	-0.008823305
73	0x3d1579aa	0.03649298
74	0x3d5b4636	0.053533755
75	0xbe157abc	-0.145976
76	0x3e5c5fdb	0.21520941
77	0x3e3ac493	0.1823905
78	0x3cd6cf82	0.026221994
79	0xbccb9784	-0.024852522
80	0x3cc4c0be	0.024017688
81	0x3d20c66b	0.039251726
82	0x3e945fa4	0.28979218
83	0xbe6ca8d3	-0.23111276
84	0xbd201ddb	-0.039090972
85	0x3ea17a76	0.31538743
86	0x3e3ea8c6	0.1861907
87	0x3e658b24	0.22416359
88	0xbbb9bbfc	-0.0056681614
89	0x3c663c04	0.014052395
90	0xbb7b0c53	-0.0038306906
91	0xbaccf967	-0.0015638293
92	0xbd1f2500	-0.038853645
93	0x3e165cf5	0.14683898
94	0x3de7adcd	0.11312447
95	0xbe919270	-0.28432035
96	0x3cc032b0	0.02346167
97	0x3e1835be	0.14864251
98	0x3d3785ff	0.044805523
99	0xbda801e9	-0.08203489
100	0x3d75dab5	0.06002303
101	0x3d737317	0.05943593
102	0x3e2bec89	0.1678945
103	0x3c644ca3	0.013934287
104	0xbe6e66b1	-0.23281361
105	0x3dfc9266	0.12332611
106	0x3dd8ad45	0.105799235
107	0x3d6f25ca	0.058385648
108	0xbd923caf	-0.07140481
109	0xbd29f466	-0.041492842
110	0xbe83ece8	-0.25766683
111	0x3efab18f	0.4896359
112	0xbd424afb	-0.04743479
113	0xbe236601	-0.1595688
114	0x3e4f2588	0.20229161
115	0x3d4f55b0	0.050618827
116	0x3d80c156	0.06286876
117	0xbd01ed3c	-0.031720385
118	0xbdbc5cc3	-0.091973804
119	0x3d651add	0.055933822
120	0xbc5efeaa	-0.013610521
121	0xbf31a25b	-0.6938836
122	0x3de8f697	0.11375158
123	0x3e3ffd71	0.18749024
124	0x3d1a0b68	0.037608534
125	0xbbe8b511	-0.007101663
126	0x3db9ff75	0.09081928
127	0x3e99011d	0.29883662
128	0x3dca13ca	0.09867056
129	0xbd5426f3	-0.051794957
130	0x3eadf889	0.3397868
131	0x3e581d9c	0.21105045
132	0x3d39a6fe	0.04532527
133	0xbdc9a59e	-0.09846042
134	0xbe01efec	-0.12689179
135	0x3cb24aed	0.021764243
136	0xbbb13922	-0.005408422
137	0x3d981b6f	0.074271075
138	0xbe0551aa	-0.13019434
139	0x3dd71dcc	0.1050373
140	0xbeb72f4f	-0.3577828
141	0x3ec28d7e	0.37998575
142	0xbe2b9e51	-0.16759612
143	0xbd18e63a	-0.037328936
144	0xbcfc57c2	-0.030803565
145	0x3debf096	0.115204975
146	0x3e25f92e	0.16208336
147	0x3d68db8a	0.056849994
148	0xbf5b16dd	-0.8558176
149	0x3eb5ad7c	0.3548392
150	0x3d30c0ff	0.043152805
151	0x3eb6457a	0.3559988
152	0xbd02c02c	-0.03192155
153	0x3b3f7763	0.0029215447
154	0x3e6152ed	0.2200429
155	0xbd963e96	-0.07336156
156	0xbc02f372	-0.007992612
157	0xbde490a0	-0.111603975
158	0x3db23b71	0.08702744
159	0x3e88fa23	0.2675334
160	0x3f0cd9d4	0.5501988
161	0x3eeec3e3	0.46633825
162	0xbdf907a2	-0.12159659
163	0x3d192018	0.037384123
164	0xbe299b73	-0.16563205
165	0xbe9da8a5	-0.30792728
166	0xbc38fe39	-0.01129108
167	0x3d9e2814	0.07722488
168	0x3d851a40	0.064991474
169	0xbd14913f	-0.03627133
170	0x3d9a0383	0.07520201
171	0xbe0a7f21	-0.13525058
172	0xbd31ce0e	-0.0434094
173	0x3da2bcfe	0.07946204
174	0x3e224f02	0.15850452
175	0x3e7703e9	0.24122585
176	0xbd82919f	-0.06375431
177	0x3e081995	0.13291009
178	0x3ebb36d6	0.36565274
179	0xbe3afeae	-0.18261215
180	0x3d5ccfa5	0.053908963
181	0xbdd3519a	-0.10318299
182	0xbe4134e1	-0.18867828
183	0x3e1a93e8	0.15095484
184	0xbda0bb3b	-0.078482114
185	0x3e6dc619	0.232201
186	0xbbec00e3	-0.007202254
187	0x3e438255	0.19092686
188	0x3dc4c9bc	0.0960879
189	0xbd9073ac	-0.07053313
190	0x3d7f1b80	0.062282085
191	0x3dc45eb1	0.095883735
192	0xbdbab6b9	-0.09116883
193	0xbb89623a	-0.0041926177
194	0x3e9d89a1	0.30769065
195	0xbe5e46ee	-0.21706745
196	0xbe160d2f	-0.14653467
197	0x3dabe5bb	0.08393427
198	0xbe662564	-0.22475201
199	0xbe30cd7e	-0.17265889
200	0xbf9241bf	-1.1426314
201	0xbf495c46	-0.78656423
202	0x3ca7a769	0.02046557
203	0x3cff9c56	0.031202476
204	0xbaa4ffc2	-0.0012588429
205	0x3dc4616a	0.09588893
206	0x3d2238e1	0.039605025
207	0x3ea62ac3	0.324545
208	0x3c8507a7	0.016239
209	0xbc9fa443	-0.019487506
210	0x3e770571	0.2412317
211	0xbd7ae2af	-0.06125134
212	0xbb0e9acf	-0.0021759754
213	0xba18e897	-0.00058329984
214	0xba51c0a7	-0.0008001425
215	0x3b789fa8	0.003793696
216	0x3d3e3c86	0.04644444
217	0xbe15dfbf	-0.14636134
218	0xbdc65010	-0.096832395
219	0x3d8713d3	0.06595578
220	0xbdac75f4	-0.08420935
221	0xbc93b059	-0.018028425
222	0xbe861e3a	-0.26194936
223	0xbea7e741	-0.3279362
224	0x3d8c5620	0.068523645
225	0x3caafccf	0.020872502
226	0xbddb7b63	-0.107168935
227	0x3dc9e896	0.09858815
228	0x3cf0c4e8	0.029390767
229	0x3d0dbefa	0.034605958
230	0xbe328198	-0.17432249
231	0x3de99e7e	0.11407183
232	0x3c100e0a	0.00879241
233	0xbce1e789	-0.027576225
234	0xbe69111a	-0.2276043
235	0xbe982a36	-0.29719704
236	0xbe9d153f	-0.30680272
237	0xbdce2b41	-0.10066844
238	0xbedd90fd	-0.4327468
239	0xbe958394	-0.2920195
240	0xbc5344bc	-0.0128948055
241	0xbe11790c	-0.14206332
242	0x3e815df9	0.25267008
243	0xbd6164e7	-0.05502787
244	0x3dccbb0e	0.09996615
245	0xbe4975a9	-0.1967379
246	0xbeac81fc	-0.3369292
247	0xbdbe87ad	-0.09303222
248	0xbdab0246	-0.08350043
249	0xbd2e011a	-0.04248152
250	0x3dc21979	0.09477515
251	0xbe4c0c0d	-0.19926472
252	0xbcf893f1	-0.030343981
253	0x3e365894	0.17807227
254	0x3da0f39e	0.07858966
255	0x3dd1ac6c	0.10237965

bias f4 [100]
0	0xbe35243d	-0.17689605
1	0x3ef34e81	0.4752083
2	0x3da8531d	0.082189776
3	0xbec1390f	-0.37738845
4	0xbdcd23db	-0.100166045
5	0xbef067e6	-0.46954268
6	0xbe87a070	-0.26489592
7	0xbe901845	-0.28143516
8	0x3ec2b1cd	0.38026276
9	0xbf3ad1f3	-0.7297661
10	0xbd09587f	-0.033531662
11	0x3e936026	0.28784293
12	0x3d6bc81a	0.05756388
13	0xbe390518	-0.1806835
14	0x3e60beb2	0.21947744
15	0x3e1819b9	0.14853562
16	0xbed83b91	-0.42232946
17	0x3ee28a6b	0.4424623
18	0xbe76d777	-0.24105631
19	0xbe58028f	-0.21094726
20	0xbebfb574	-0.37443125
21	0x3f02f9d3	0.5116245
22	0x3d0c0554	0.03418477
23	0x3ea463f9	0.32107523
24	0x3db49aee	0.08818613
25	0x3e8b0f52	0.27160126
26	0xbd76710c	-0.060166404
27	0xbeddefce	-0.4334702
28	0x3d5765ca	0.052587308
29	0xbdd834cf	-0.105569474
30	0xbe279ec7	-0.16369162
31	0xbe82350d	-0.254311
32	0x3d3c73e9	0.046008978
33	0x3df2361c	0.11826727
34	0x3dd8aa4a	0.10579355
35	0xbecbe21f	-0.39820954
36	0x3e2a2217	0.16614567
37	0xbe167fda	-0.14697209
38	0x3eae047c	0.33987796
39	0x3ea2a114	0.31763518
40	0xbefb9197	-0.49134514
41	0x3f0505d5	0.51962024
42	0xbf011206	-0.50418127
43	0x3edcc3e0	0.4311819
44	0x3c2288f9	0.009920352
45	0x3dcb7e0d	0.09936152
46	0xbe80744d	-0.2508873
47	0x3e6a41ce	0.22876665
48	0xbe845295	-0.25844255
49	0xbec7a646	-0.38994044
50	0x3f050ffa	0.51977503
51	0x3e6c40df	0.23071621
52	0x3ec72880	0.38898087
53	0xba8c092d	-0.0010683887
54	0x3eb42937	0.35187694
55	0x3eb4c285	0.35304657
56	0xbe8ba880	-0.27276993
57	0xbec17a88	-0.37788796
58	0x3e42353e	0.18965623
59	0xbe373610	-0.17891717
60	0x3e6969d6	0.2279428
61	0xbedd05b2	-0.43168408
62	0x3eb97385	0.36220947
63	0x3e38c6a7	0.1804453
64	0xbdcdf8e1	-0.100572355
65	0x3e600e68	0.21880496
66	0xbeb50cd3	-0.35361347
67	0xbc411ec4	-0.01178712
68	0xbd392e6d	-0.04521029
69	0xbe9be52e	-0.30448288
70	0xbe077cde	-0.13231227
71	0xbe0510ae	-0.12994644
72	0x3ef225ab	0.47294363
73	0x3efe5856	0.4967677
74	0x3f0adb38	0.5424075
75	0x3ec4de77	0.38450977
76	0xbf090e1a	-0.5353714
77	0x3e0f717e	0.14008138
78	0x3e791c83	0.24327283
79	0xbed1b3ce	-0.40957493
80	0x3e12e52a	0.14345232
81	0xbe8a1ff5	-0.26977506
82	0x3d1b2756	0.03787931
83	0x3e41c29c	0.18921894
84	0x3ee4a28f	0.44655272
85	0xbe765ba6	-0.24058399
86	0xbea147ce	-0.31500095
87	0x3f075f0d	0.5287941
88	0x3e63feec	0.22265214
89	0x3ea5e3c1	0.32400325
90	0x3e058d52	0.1304219
91	0xbe648a88	-0.2231847
92	0x3e617fcc	0.22021407
93	0xbec777d4	-0.3895861
94	0x3ddcfe72	0.10790719
95	0x3e02a007	0.12756358
96	0x3ed539a4	0.4164554
97	0xbe3cacb0	-0.1842525
98	0xbe9264ed	-0.28592625
99	0x3e546c09	0.20744337

weight f4 [100, 100]
0	0x3de86383	0.11347105
1	0x3d8efdff	0.0698204
2	0xbcb8f28c	-0.022576593
3	0xbd36b1bf	-0.044603106
4	0x3ce29128	0.027657107
5	0x3cfb5c07	0.03068353
6	0x3e44e9f0	0.19229865
7	0xbd3dfabf	-0.04638171
8	0xbda4fb4b	-0.08055743
9	0xbc52bde9	-0.012862661
10	0xbcbf7205	-0.023369798
11	0xbd5b0024	-0.05346693
12	0xbe020612	-0.12697628
13	0x3ca6c1b1	0.020356031
14	0x3c61b0e7	0.013775087
15	0x3c3cae06	0.0115161
16	0x3e4262b6	0.18982968
17	0xbda817db	-0.08207675
18	0x3d0211c7	0.031755235
19	0x3d798bcd	0.06092434
20	0xbc586b1b	-0.01320913
21	0xbd27516d	-0.040849138
22	0xbe18342d	-0.14863653
23	0xbe56ad83	-0.20964627
24	0xbdcd58cf	-0.100267045
25	0xbc811813	-0.01575855
26	0xbd9abc1c	-0.0755541
27	0xbcdb57cf	-0.026775269
28	0x3e5b630d	0.21424504
29	0xbdb7d33b	-0.08975836
30	0x3e455714	0.19271499
31	0x3e54fa07	0.20798503
32	0x3e57cc4e	0.2107403
33	0x3dc74257	0.0972945
34	0x3dc45aff	0.09587669
35	0x3e041a57	0.12900673
36	0xbe18f73c	-0.14938062
37	0xbba030a8	-0.004888613
38	0xbdfa525c	-0.1222274
39	0x3e36081d	0.17776532
40	0x3d86e08e	0.06585799
41	0xbe774c49	-0.24150194
42	0x3bfe37b0	0.0077581033
43	0xbcc6496c	-0.024204932
44	0x3d3536ba	0.044241644
45	0xbd924ce1	-0.0714357
46	0xbe0412ac	-0.12897748
47	0xbdbaa6aa	-0.0911382
48	0xbd7887e9	-0.06067649
49	0x3d91e062	0.07122876
50	0x3cac7118	0.021050021
51	0x3c45d170	0.01207386
52	0xbc0a1278	-0.008427255
53	0x3d47e1ff	0.04879951
54	0xbda2bff0	-0.079467654
55	0xbc8bd06d	-0.017067159
56	0x3ca1731f	0.019708214
57	0x3dc9d2c3	0.09854653
58	0x3d53635d	0.051608432
59	0x3d181afb	0.037135106
60	0x3defa6e7	0.11701756
61	0x3dfe35dc	0.124126166
62	0xbdbb5314	-0.09146705
63	0x3c5def47	0.013545818
64	0x3dd27405	0.10276035
65	0x3db88262	0.090092435
66	0xbd4d03b8	-0.050052375
67	0xbda85167	-0.08218651
68	0xbd8e39e6	-0.06944637
69	0x3dc1ad47	0.09456878
70	0x3d4bdf73	0.049773645
71	0x3d48348f	0.04887825
72	0x3ca5e90a	0.020252723
73	0x3cd2401b	0.025665333
74	0xbde702a4	-0.112798005
75	0xbc5fd36f	-0.01366125
76	0xbdb36f47	-0.08761459
77	0x3e156d3e	0.14592454
78	0x3da54137	0.08069079
79	0xbd1a11df	-0.0376147
80	0xbd49433c	-0.049136385
81	0x3e510f56	0.20416006
82	0xbc39dbd0	-0.011343911
83	0x3db108e9	0.086442776
84	0xbc58bfb2	-0.0132292975
85	0x3d058517	0.032597627
86	0x3d9ab1d3	0.075534485
87	0xbdb91cf4	-0.090387255
88	0x3d5bc09c	0.053650483
89	0xbcaad60d	-0.02085402
90	0xbdf8b38e	-0.12143622
91	0x3e02cc7b	0.12773316
92	0x3db9b355	0.09067408
93	0x3e605b9d	0.21909948
94	0x3e218dae	0.15776703
95	0x3d88a16e	0.06671415
96	0xbe3eca0f	-0.18631767
97	0x3e7a567b	0.24447052
98	0x3d881294	0.066441685
99	0xbe1332a5	-0.14374788
100	0x3dfce344	0.12348035
101	0x3ce6aa05	0.028157244
102	0xbe03ec20	-0.12883043
103	0xbc399588	-0.011327155
104	0x3d56cfe1	0.052444343
105	0x3eb5ddc8	0.35520768
106	0x3e80eb04	0.25179303
107	0xbdde736c	-0.10861859
108	0x3d2f008c	0.04272513
109	0xbed27dc3	-0.41111574
110	0x3c0b6c4f	0.0085097095
111	0x3da99eeb	0.08282264
112	0xbe74585b	-0.2386183
113	0x3dec6e1c	0.11544439
114	0xbf2acf0a	-0.66722167
115	0x3d2cee52	0.042219467
116	0x3d566824	0.05234541
117	0x3c0545cb	0.008134316
118	0xbbf1491b	-0.007363451
119	0xbd1ee03d	-0.03878807
120	0xbd96dba1	-0.0736611
121	0xbf058c0c	-0.5216682
122	0xbdae7649	-0.08518655
123	0xbcf54975	-0.029942254
124	0xbf25ec00	-0.6481323
125	0xbec9400d	-0.3930668
126	0xbe3f86d2	-0.18703774
127	0xbd02623d	-0.03183197
128	0x3eba730e	0.36415905
129	0xbd074735	-0.033026893
130	0x3f8a8698	1.0822325
131	0x3e907f7a	0.28222257
132	0x3ded7d8e	0.11596213
133	0xbb6c4784	-0.0036053369
134	0x3b8449f4	0.004037136
135	0xbe7e1786	-0.24813661
136	0xbf054048	-0.5205121
137	0xbda0af5a	-0.07845946
138	0xbd459ad6	-0.048243366
139	0xbd337cf5	-0.04382034
140	0xbe5be8c4	-0.21475512
141	0xbe34a82e	-0.1764228
142	0x3e994a45	0.29939476
143	0xbe55dde3	-0.20885424
144	0x3e2b2066	0.16711578
145	0x3e89d8de	0.2692327
146	0xbe0fa3e2	-0.1402736
147	0x3e901920	0.2814417
148	0x3eb6e861	0.35724166
149	0x3c2ffb85	0.010741119
150	0x3f0c61a1	0.5483647
151	0xbe0e5038	-0.13897789
152	0xbe7e270c	-0.24819583
153	0x3db965ee	0.09052645
154	0xbe9b3bc1	-0.30319026
155	0xbe048e89	-0.12944998
156	0x3cf1baaa	0.029507954
157	0xbddd3182	-0.108004585
158	0x3e1986ea	0.14992872
159	0x3da8d50a	0.08243759
160	0x3d382500	0.04495716
161	0x3ee68d59	0.45029715
162	0xbe17e287	-0.14832507
163	0xbed38eb1	-0.41319802
164	0x3e1c5210	0.1526568
165	0xbf2790ed	-0.65455514
166	0xbe39f82e	-0.1816108
167	0x3e1b4266	0.15162048
168	0x3d7cd0c7	0.061722543
169	0x3df302a1	0.11865736
170	0x3d20e7e4	0.039283648
171	0x3c2395b2	0.009984421
172	0xbe9f7bf9	-0.3114927
173	0xbe851c13	-0.2599798
174	0xbe24a999	-0.16080321
175	0x3e4f599c	0.20249027
176	0x3f215da8	0.63033533
177	0xbe9cbed2	-0.30614334
178	0xbf5e8592	-0.8692256
179	0x3e89136b	0.26772627
180	0x3ea6f720	0.32610416
181	0x3e5995ed	0.21248598
182	0x3da78311	0.08179296
183	0xbdbb32f0	-0.09140575
184	0xbb89e3df	-0.0042080726
185	0xbe6dbff0	-0.2321775
186	0x3ec0f4da	0.37686807
187	0xbd520ee6	-0.05128374
188	0xbd861e92	-0.065487996
189	0xbdd594c9	-0.10428769
190	0x3e8657f1	0.2623897
191	0x3e30abab	0.17252986
192	0x3d3cd1b9	0.046098445
193	0xbdd48cce	-0.10378419
194	0x3da5c147	0.08093505
195	0x3d19d6f0	0.037558496
196	0x3d9e6a6b	0.07735141
197	0x3ead35b2	0.3383003
198	0xbe25fcac	-0.16209668
199	0x3e35254d	0.1769001
200	0xbc81af03	-0.015830522
201	0xbd50d69b	-0.050985914
202	0xbe64da0f	-0.22348808
203	0x3d2d520a	0.042314567
204	0x3e0c8b4f	0.13725017
205	0xbd17f61b	-0.03709994
206	0x3e229e97	0.1588081
207	0x3db7e7b1	0.089797385
208	0xbe583d43	-0.2111712
209	0xbbde163d	-0.0067775534
210	0xbe57fdd8	-0.21092927
211	0xbd2f0034	-0.042724803
212	0xbd2f7512	-0.042836256
213	0xbd31371f	-0.04326546
214	0xbddcc777	-0.107802324
215	0xbde27a19	-0.110584445
216	0x3ccee672	0.02525637
217	0xbd7d6ba1	-0.06187022
218	0x3e0e1a22	0.13877156
219	0x3c24eb92	0.01006593
220	0xbcf2e54a	-0.02965035
221	0xbcc5e790	-0.02415827
222	0x3d57737c	0.05260037
223	0xbd852ab8	-0.065022886
224	0x3d78ae74	0.060713246
225	0x3cb8704a	0.022514481
226	0xbc41149a	-0.011784697
227	0xbca07835	-0.01958857
228	0xbc4f9feb	-0.012672405
229	0xbc3fc24b	-0.011704038
230	0xbd81ca26	-0.06337385
231	0xbe4b6fa9	-0.19866814
232	0x3e93a1b6	0.28834313
233	0xbdc19dfc	-0.09453961
234	0x3d9f2d1d	0.077722766
235	0x3e17f7d0	0.14840627
236	0xbd8d4efe	-0.06899832
237	0xbdbec4ab	-0.09314855
238	0xbd1e5332	-0.03865356
239	0xbe229f51	-0.15881087
240	0xbe2fc40d	-0.17164631
241	0x3d4ce78d	0.05002551
242	0x3d83b895	0.064316906
243	0x3e18836d	0.14893885
244	0x3d2b6655	0.04184564
245	0xbe0a0e71	-0.13482071
246	0xbc88c7fb	-0.01669692
247	0xbda8a4cc	-0.082345575
248	0xbda5ede9	-0.081020184
249	0x3c55b1b4	0.013042856
250	0xbd27bfa6	-0.040954255
251	0x3dc274ee	0.09494959
252	0xbd074d06	-0.03303244
253	0xbdfa4ba6	-0.1222146
254	0xbe066618	-0.13124883
255	0x3cc8dc82	0.024519209

bias f4 [100]
0	0xbf00e605	-0.5035098
1	0xbd4a9edc	-0.049467906
2	0xbf518231	-0.8183928
3	0xbd6bc118	-0.057557195
4	0xbf1076a9	-0.5643106
5	0x3b13be02	0.0022543673
6	0x3d17d885	0.037071723
7	0xbf03a9a8	-0.5143075
8	0xbf03bfb3	-0.51464385
9	0xbf3a32bc	-0.72733665
10	0xbf1bd69a	-0.6087433
11	0xbef6579c	-0.48113716
12	0xbeb6aad1	-0.35677198
13	0xbeff82d3	-0.49904498
14	0xbefae23c	-0.49000728
15	0xbf344e66	-0.70432127
16	0xbf16832a	-0.5879389
17	0xbe235e38	-0.1595391
18	0x393f02f7	0.00018216284
19	0xbf131f6a	-0.5746981
20	0xbd460d54	-0.048352554
21	0xbf09c6a0	-0.538187
22	0xbf087937	-0.5330996
23	0xbf2ec723	-0.6827261
24	0xbf0e0dcc	-0.554898
25	0x3d3b614d	0.04574709
26	0xbe86fe93	-0.263661
27	0xbdc8e8d2	-0.09810032
28	0xbe71e32e	-0.23621818
29	0xbf2d0f14	-0.6760113
30	0xbd990457	-0.07471531
31	0xbf816463	-1.010876
32	0xbcce4afb	-0.025182238
33	0x39f3b76c	0.00046485232
34	0xbf0636e5	-0.5242751
35	0x3d16c5dc	0.036809787
36	0xbf709b70	-0.9398718
37	0xbea30554	-0.31840003
38	0xbd9ea23a	-0.07745786
39	0xbf24d4e0	-0.6438732
40	0xbeea7fd6	-0.45800656
41	0xbf478d8d	-0.77950364
42	0xbee747f2	-0.45172077
43	0xbe0febfb	-0.14054863
44	0xb9d092a8	-0.0003978212
45	0xbf2a10c8	-0.66431856
46	0xbf10dbc0	-0.5658531
47	0xbf065215	-0.52469
48	0xbdd044b2	-0.101693526
49	0xbf103359	-0.5632835
50	0xbcfd2a37	-0.030903919
51	0xbdda5280	-0.10660267
52	0xbf1a7bab	-0.6034495
53	0xbcffa1c3	-0.031205064
54	0xbf1e66db	-0.61875695
55	0xbf28418b	-0.6572501
56	0xbd0af1db	-0.033922058
57	0x39a75e3d	0.00031922935
58	0xbe092082	-0.13391307
59	0xbdd87242	-0.10568668
60	0xbda44745	-0.08021406
61	0xbf0640bd	-0.5244253
62	0xbbae0151	-0.0053102155
63	0xbeb657b4	-0.35613787
64	0xbe318d54	-0.17339069
65	0xbf462416	-0.7739881
66	0xbf34b8ca	-0.70594466
67	0xbdc82113	-0.097719334
68	0xbf31b919	-0.6942306
69	0xbf4bdc5b	-0.7963311
70	0xbf1b78f8	-0.6073146
71	0xbf57d9ce	-0.8431672
72	0xbefcf15a	-0.49402887
73	0xbf30ed0b	-0.691117
74	0xbde48ca2	-0.11159636
75	0xbf15aece	-0.58469856
76	0xbe465d14	-0.19371444
77	0xbf46eb76	-0.77703035
78	0xbf1ed59f	-0.6204471
79	0xbf2f6a0c	-0.6852119
80	0xbdda1045	-0.106476344
81	0xbf26ca5e	-0.6515254
82	0xbf25ab9e	-0.6471499
83	0xbf058361	-0.52153593
84	0xbe951d15	-0.2912375
85	0xbe2fe970	-0.17178893
86	0xbd92d6bb	-0.07169863
87	0x3ca5f6e7	0.020259334
88	0xbf48b627	-0.7840294
89	0xbd8621f3	-0.06549444
90	0xbe5d16d6	-0.21590742
91	0xbf0c1e86	-0.54734075
92	0xbe008e24	-0.12554222
93	0xbe9e7e79	-0.30955866
94	0xbeee8670	-0.46586943
95	0xbf1df4a5	-0.6170142
96	0x3df9b760	0.12193179
97	0xbf4ce7ca	-0.8004118
98	0xbebf68fe	-0.3738479
99	0xbda33613	-0.07969298

weight f4 [1, 100]
0	0xb901b8bc	-0.00012371218
1	0x3eb75e80	0.35814285
2	0xb9e7cf18	-0.0004421405
3	0x3dbe67fe	0.09297179
4	0x38847093	6.315219e-05
5	0xbe30d475	-0.17268546
6	0x3e64d903	0.22348408
7	0xba1e9d6f	-0.0006050681
8	0xb9ab121c	-0.00032629154
9	0xb950ba3e	-0.00019905806
10	0xb987eefd	-0.00025927267
11	0xbb118ed4	-0.0022210376
12	0xbaa23b0a	-0.0012377214
13	0xb7a02998	-1.9092855e-05
14	0xb9b996ff	-0.0003539845
15	0xb8c340c8	-9.310391e-05
16	0xbae040ac	-0.0017109117
17	0x3d872c95	0.066003
18	0x3e3c5f1c	0.18395656
19	0xb8f59f54	-0.000117121876
20	0x3df9de99	0.1220066
21	0x3911154c	0.00013836211
22	0xb9f28ca7	-0.0004626263
23	0xba3037d1	-0.00067221845
24	0x388d03ce	6.7241126e-05
25	0x3e784629	0.24245514
26	0xbc13f939	-0.009031587
27	0x3e25fabb	0.16208927
28	0xba27796f	-0.00063886394
29	0xba2abfa4	-0.0006513542
30	0x3e2546d3	0.16140299
31	0xbb0b7442	-0.0021279012
32	0x3cddbe86	0.027068388
33	0x3e8fef89	0.28112438
34	0xba51fa2c	-0.0008009996
35	0x3ec34c86	0.3814432
36	0xb9b96b78	-0.0003536602
37	0xbdc573bf	-0.096412174
38	0x3db727d7	0.08943146
39	0xb9134eb0	-0.00014048326
40	0xb8f733a6	-0.00011787498
41	0xb9ed5ed2	-0.0004527481
42	0xb8df81f1	-0.00010657672
43	0x3df45b37	0.1193146
44	0x3db85198	0.08999938
45	0xb928c73e	-0.00016095952
46	0xbaa3679f	-0.0012466795
47	0xbaa5727a	-0.0012622618
48	0x3c081f2e	0.008308215
49	0xbaac3036	-0.0013136927
50	0x3de66071	0.112488635
51	0x3e3440dc	0.17602867
52	0xba70dbac	-0.0009188007
53	0x3ea1b3f8	0.31582618
54	0xb9025886	-0.00012430744
55	0xb9cb64b4	-0.00038794207
56	0x3e4d164e	0.2002804
57	0x3e5a1141	0.21295644
58	0x3cabdee2	0.020980302
59	0x3dd1bbb7	0.10240882
60	0x3e4cb936	0.19992527
61	0xb97e0cdd	-0.0002422812
62	0x3e818165	0.25294033
63	0x365d98c0	3.3020478e-06
64	0x34cb2380	3.7837526e-07
65	0xbaa593b3	-0.0012632519
66	0xba43d4e6	-0.0007470384
67	0x3e10dd0b	0.14146821
68	0xb9a23b64	-0.00030943297
69	0xb9aa2ecd	-0.00032459796
70	0xb93a1ca4	-0.00017749012
71	0xba6f76f7	-0.00091348536
72	0xbb007da9	-0.001960615
73	0x3995a66b	0.00028543486
74	0x3eaa7e7c	0.33299625
75	0xba87b027	-0.001035218
76	0x3db78526	0.08960943
77	0xba610733	-0.00085841416
78	0xb9b39592	-0.0003425298
79	0xb75e256e	-1.3240946e-05
80	0x3e344806	0.176056
81	0xb8588cc6	-5.162952e-05
82	0x389b13a5	7.394635e-05
83	0xbac0de5b	-0.0014714705
84	0xbba2aceb	-0.004964461
85	0x3d4410d9	0.04786763
86	0x3e4320fc	0.19055551
87	0x3e2a1513	0.16609602
88	0xbd91694c	-0.07100162
89	0xbe5291e2	-0.20563462
90	0xbc3a33f6	-0.0113649275
91	0x38d41bf0	0.000101141515
92	0xbd4c4cb8	-0.049877852
93	0xbcf49efb	-0.029860964
94	0xb9cae735	-0.00038700705
95	0x38422a76	4.629275e-05
96	0xbe0ef307	-0.13959895
97	0xb98efd67	-0.0002727315
98	0xb88bb7d0	-6.662274e-05
99	0xbe902368	-0.28152013

S f4 [4, 4]
0	0x00000000	0.0
1	0x00000000	0.0
2	0x3f800000	1.0
3	0x00000000	0.0
4	0x00000000	0.0
5	0x00000000	0.0
6	0x00000000	0.0
7	0x3f800000	1.0
8	0xbf800000	-1.0
9	0x00000000	0.0
10	0x00000000	0.0
11	0x00000000	0.0
12	0x00000000	0.0
13	0xbf800000	-1.0
14	0x00000000	0.0
15	0x00000000	0.0
