Models/HenonHeiles/HenonHeiles_symplectic euler_50epoch_Tanh()_ReLU()_batchsize_64_shape_torch.Size([175000, 4]).pt (torch, 51702 bytes, 6 tensors)

weight f4 [100, 4]
00000000: 0379 a2bd 216a 0f3d 8571 df3d 8199 7dbd
00000010: 6742 873e 80aa 5c3e e923 583e ffed f13e
00000020: f1b2 8b3c e27c bf3d 2ddf 43be 7a27 ad3e
00000030: 636a d13c ae8e 593c 99a0 80bd 8e34 cc3c
00000040: 1b2e 21b9 569f f3b8 4d07 c9b8 6063 2ab9
00000050: 3fc5 8e3a c47d db37 9833 9eb9 d4db 103a
00000060: f2f4 faba 1584 8f3d e049 e93d c483 303e
00000070: eba6 06bc 399b 45be 0b37 a7be aea7 4a3e
00000080: fea7 ae37 bad7 5439 39d2 0ab9 5530 0339
00000090: 1690 113d 4cd1 98be 2010 27be ee36 1cbe
000000a0: 789d a838 43f5 87b9 0c76 a039 48ea a9b8
000000b0: 1ab9 813e 5f95 363e 8ba9 cbbe 409c 2b3d
000000c0: b221 f238 bff2 6738 fc13 eab8 da4b 0639
000000d0: 9aed 42bf 5ed3 ddbe 31f3 0cbc 20a1 11bc
000000e0: d3d2 c3bd a080 10be f7f3 9c3d d5a2 68bd
000000f0: 58f8 b2be ccb8 983e 12f6 b13e c562 a03d
00000100: 4ff3 47b9 a2db 8c39 37d2 bdb8 ec1d d5b8
00000110: 66a0 81b9 8789 8bb9 805c 52ba c789 9aba
00000120: 577d ef38 1f75 6a3a c1bd 9539 fb1c 973a
00000130: 147e dfb9 ec58 bbb9 6a11 4a3a b293 2339
00000140: d51c 1d39 b41c eab8 5f89 9139 e7e4 8639
00000150: 70ba 0eb9 50d7 bbb9 9940 423a ca30 bf39
00000160: 5b36 8e38 cc39 4b39 e32f 93b9 0f54 21b9
00000170: 3f5c 343e 4235 313c 8b85 403b dfae 953d
00000180: 6074 b139 5e11 05ba 7f79 553a 086c 6b3a
00000190: bf1e d5be a2fa 7abe 71f3 723d 9a0f ef3c
000001a0: 67d8 0db9 1467 25b8 6aae aeb9 2c64 8db9
000001b0: 7a01 b1be b503 e53c 5ab8 f2bd 0666 56bb
000001c0: 7fe0 b1b8 8314 c539 66ce 8339 8263 ab39
000001d0: 2cd1 023f 0bd7 a2be fb08 f03c dd28 89bd
000001e0: fb6c f03d 6d9d f8bc 0491 f23e da09 88be
000001f0: d12d 7d3a 5785 fb38 e6dd 80b9 1c65 0b3a
00000200: 8124 c8b8 69dc 02b9 789a 33b8 60cb 7db9
00000210: 5abb 91b9 ba3b 53b9 3681 053a e875 0038
00000220: e274 8e3d e1aa 153c d316 0a3f d311 983d
00000230: 162d 25b9 95e5 f8b9 7747 1d3a fc7b 20b9
00000240: b0e4 13be ea7e 13bf 2984 d73d 5c34 973d
00000250: c4fa 8bb8 f9fc 15b8 eafe fab8 dd6e 5bb9
00000260: cc70 62b9 cb40 b1b8 fc7c b1b9 25f8 ecb9
00000270: 2b09 fa3d e72a 263e 3e93 b4be 5440 d7bd
00000280: 2e0f 503d 1173 b9bc 1f52 203e 01d2 37be
00000290: 9bf9 e33d b3d9 693d 3c0d 833d b3cb 7d3e
000002a0: ef42 e43d 43fb 943c 7ef7 563e 99d4 913e
000002b0: fda4 073d 3a1c c53c 2962 5dbe 6bff a2be
000002c0: 60cc f2b8 323f abb9 cdd4 ea39 9ab2 7c39
000002d0: a652 8dbb b9ee 0bbf 6354 743c 69c9 91bd
000002e0: 3f3d 1739 3de5 213a b05e 35ba c42f fa38
000002f0: 88d4 02b8 69a2 60b9 e417 32b9 de27 ce38
00000300: 53f0 beb9 c90a dfb8 f672 5739 f686 3eb9
00000310: 018e fdba 2ee1 a039 08aa 8639 84f6 9bba
00000320: 8199 c63c 3399 233e 92c0 283d c565 15bf
00000330: c297 3b3a ea24 9438 8996 ab3a 8d33 003b
00000340: cf4d d338 8297 b839 6e43 f8b9 dd49 0639
00000350: 3bf1 b4b9 c142 113a 5a21 47ba 845b c7ba
00000360: be34 ee3d c60e eb3d a551 4b3e 3973 8b3d
00000370: 43cc d6b8 b03e e9b8 701a 47b8 371a c1b9
00000380: 4472 b639 6bec 5d39 fe12 d4b9 ea26 2039
00000390: 71f1 2039 a2a9 b539 0759 13ba 981d 5f39
000003a0: e710 b1be 2d9f d5bd fb8f dbbd ccd6 bfbc
000003b0: 645e cfb8 7820 39b9 ab61 82b9 2e76 3cb9
000003c0: 2bb7 ccb9 ec94 6bb9 aff9 1a3a 62ae a439
000003d0: 167d bf3d 82a3 11be c5ba be3e 7f51 313d
000003e0: 6a01 0339 542e 5bb8 22e4 993a 205b 303a
000003f0: 5b4c 99b7 e35c eab8 5de1 d638 c572 2cb8
-0.079332374 0.03501332 0.10910324 -0.06191397 0.26417848 0.21549416 0.21107449 0.4725189
0.0170531 0.093499914 -0.19128104 0.3381918 0.025563424 0.013278646 -0.062806316 0.024927404
-0.00015371332 -0.000116168216 -9.585787e-05 -0.00016249483 0.0010892524 2.6165399e-05 -0.0003017455 0.0005525921
-0.0019146486 0.070076145 0.11391044 0.17237765 -0.008218507 -0.19297494 -0.32659182 0.19790527
2.0820644e-05 0.0002029826 -0.0001323902 0.00012511139 0.0355378 -0.2984718 -0.16314745 -0.15255329
8.040195e-05 -0.0002593194 0.0003060553 -8.102186e-05 0.25336534 0.17830418 -0.3977779 0.04189706
0.000115457355 5.5300767e-05 -0.00011161712 0.00012807493 -0.761438 -0.43325323 -0.008602903 -0.008888513
-0.09561696 -0.14111567 0.0766372 -0.056795914 -0.34955096 0.2982849 0.3475805 0.07831339
-0.00019068758 0.0002686652 -9.051378e-05 -0.00010162205 -0.00024724304 -0.00026614612 -0.0008024648 -0.0011790328
0.000114197544 0.0008943844 0.00028560872 0.0011529023 -0.0004262781 -0.0003573367 0.00077082834 0.00015599912
0.00014983428 -0.00011163336 0.00027758905 0.00025729017 -0.00013611629 -0.0003582784 0.00074101385 0.0003646671
6.781212e-05 0.0001938112 -0.00028073703 -0.00015385471 0.17613314 0.01081592 0.0029376473 0.07308745
0.00033846777 -0.0005076135 0.00081434095 0.00089806365 -0.4162502 -0.24509671 0.059314195 0.029182244
-0.00013527424 -3.9435065e-05 -0.00033317815 -0.0002696825 -0.3457144 0.02795587 -0.118515685 -0.003271462
-8.481833e-05 0.0003759005 0.00025140046 0.000326898 0.5110042 -0.3180469 0.029301157 -0.06697247
0.117395364 -0.030348504 0.47376263 -0.26570016 0.0009658011 0.00011993449 -0.0002457939 0.00053174957
-9.5435425e-05 -0.00012479875 -4.2820786e-05 -0.00024203723 -0.00027796143 -0.00020144778 0.00050928013 3.0627387e-05
0.069558874 0.009134979 0.53941077 0.07425275 -0.00015752422 -0.00047473298 0.0005999724 -0.00015304977
-0.14442706 -0.5761553 0.105232544 0.07383034 -6.674745e-05 -3.5759967e-05 -0.000119684104 -0.00020926767
-0.0002159506 -8.452086e-05 -0.0003385319 -0.0004519831 0.1220878 0.16227303 -0.35268587 -0.105103165
0.050795726 -0.022637876 0.15656327 -0.17951204 0.11131593 0.05709238 0.06399009 0.24784736
0.11145579 0.018186217 0.20992848 0.28482512 0.03311633 0.024061311 -0.21619476 -0.31835493
-0.00011577527 -0.00032662746 0.00044790507 0.00024099127 -0.004312831 -0.54661137 0.0149126975 -0.07118494
0.00014423298 0.0006175822 -0.00069187116 0.00011929826 -3.119235e-05 -0.00021422807 -0.00016984303 9.830271e-05
-0.0003641868 -0.000106354775 0.00020546824 -0.00018170089 -0.0019344689 0.0003068535 0.00025685155 -0.0011899029
0.024243118 0.1597641 0.041199274 -0.58358413 0.00071560976 7.064066e-05 0.0013091128 0.0019561977
0.00010075757 0.00035208097 -0.00047352485 0.00012806752 -0.00034512006 0.0005541258 -0.00075962173 -0.0015209769
0.116311535 0.11477427 0.19855364 0.06809086 -0.00010242362 -0.00011121982 -4.746992e-05 -0.0003683136
0.0003479888 0.00021164275 -0.0004044994 0.00015273286 0.00015348733 0.00034649397 -0.0005620871 0.00021277962
-0.34583208 -0.10430751 -0.107208215 -0.023417853 -9.888111e-05 -0.0001765507 -0.000248683 -0.00017973103
-0.00039046383 -0.00022466824 0.00059118395 0.00031410443 0.0935003 -0.1422253 0.3725187 0.04329061
0.0001249366 -5.2256815e-05 0.0011740963 0.0006727446 -1.8274577e-05 -0.00011175291 0.000102462924 -4.1114883e-05

bias f4 [100]
00000000: 2b93 0e3f b4fd 31bf 8307 3e3f e4b7 53bf
00000010: 6e76 f4bf c6c3 d0bf 4d9e 27bf 36c0 133f
00000020: 54c8 ff3f 16aa 0a3f 00c7 7fbf 3d24 063f
00000030: e319 f3bf 9ed4 c6bc 04ba 30bf c7b2 123f
00000040: f561 fc3f 4d08 01c0 7042 29bf 7ec7 df3f
00000050: 9c33 0240 c377 06c0 c60a f23f 10cd 37bf
00000060: bc23 edbf 60e9 bdbe 0095 0140 e6ed 44bf
00000070: 4de6 02c0 3662 76be fbe5 313f a47d 0240
00000080: b68b 01c0 d1e1 e6bf c21c 25bf c637 fcbf
00000090: ade5 0e3f 7520 f73f d5c6 ffbf 8da4 32bf
000000a0: b5d7 2a3f 20b8 0fbf caf1 3e3f 1296 283f
000000b0: a31c 0340 fae2 8c3e 7ada fd3f 3abb fabf
000000c0: eab0 d6bf a23b e43f 8afe 2cbf 767b f9bf
000000d0: 24d3 e0bf f62a 803f 4caa 0c3f 38c4 93bf
000000e0: 9231 fa3f 6978 e5bf 0003 15bf ddc0 fa3f
000000f0: fb07 ffbf fec0 163f e9be e7bf f13c f5bf
00000100: af0a cf3f 4d41 e6bf 9131 0140 b586 393f
00000110: 8dc8 e6bf 6bbb 3dbf 6380 03c0 b87e efbf
00000120: e688 113f b62f a53e bcb6 e9be 00b7 00c0
00000130: 1d40 573f f35b eabf 2066 6fbf 0c4c d0bf
00000140: b3da 283f 6552 36bf 6e27 e4bf fa46 ef3b
00000150: 493a 413e 3cf2 b0bf 3ff0 ed3f e87e 0140
00000160: 1373 72bf 3a02 1a3f 6a6e ee3f 5fa4 423f
00000170: 7bad 27bf 170c 113f a26b 0440 2719 f23f
00000180: 5bc4 a2bf cae2 0ebd 1d23 103f 50c0 23bf
0.5569331 -0.69527745 0.7423021 -0.8270247 -1.9098642 -1.6309745 -0.6547592 0.57715166
1.998301 0.5416578 -0.99913025 0.52399045 -1.8992275 -0.024271306 -0.6903384 0.5730404
1.9717394 -2.0161316 -0.66117 1.7482755 2.0344 -2.1010597 1.8909538 -0.71797276
-1.852653 -0.37092113 2.0247192 -0.76925504 -2.0453064 -0.24060902 0.6949155 2.0389185
-2.0241523 -1.8037664 -0.64497006 -1.9704521 0.5581921 1.930678 -1.9982554 -0.69782335
0.6673539 -0.5614033 0.7458769 0.6585399 2.0486228 0.2751692 1.9832299 -1.9588387
-1.677274 1.7830698 -0.67575896 -1.9490802 -1.7564435 1.0013111 0.5494735 -1.1544256
1.9546378 -1.7927371 -0.582077 1.9590107 -1.992431 0.5888823 -1.8105136 -1.9159223
1.6175135 -1.7988678 2.0186503 0.7247117 -1.8029953 -0.741141 -2.054711 -1.8710546
0.56849515 0.32262963 -0.45647228 -2.0111694 0.84082204 -1.8309311 -0.93515205 -1.6273208
0.6595871 -0.71219474 -1.7824533 0.0073021622 0.1886989 -1.3823924 1.8588942 2.0233707
-0.9470684 0.6015965 1.8627446 0.7603206 -0.65499085 0.5665907 2.0690694 1.8913926
-1.2716173 -0.03488425 0.5630358 -0.6396532

weight f4 [100, 100]
00000000: d3b4 603d 57e7 34be 2e8e 33bd b4b3 89bd
00000010: 59e8 eebb 6419 933d b9eb fcba 778c 813e
00000020: 7914 1bbe 3a21 033e 19bd bb3c f217 803c
00000030: 48f8 abbc b288 bbbe 3211 ccbd 4886 463e
00000040: d5da bf3d 5e57 47be c4c3 1f3d 6ef6 d13d
00000050: 3504 74bd e6c7 123d 2e13 f2bd eaaa 37bd
00000060: 53c1 95bd b02c 16be 222b be3d d1a6 2d3e
00000070: e80c 763d 28ee 50be 3a6e 3f3e 4eaf 2abe
00000080: 93d3 66bd f327 c7bd 78da 63be 58b6 18bd
00000090: b344 283e 99ee 153e e848 463d 2a7e ab3d
000000a0: 273a 38bd 611f 0fbd 5779 953d 6f23 0d3d
000000b0: 6031 67bc 159e bb3d cb28 aebb 5e70 97bc
000000c0: f761 813d 28c1 c2bd 4cf0 19be fa80 503d
000000d0: 2ae5 bd3c aacc 36be 114b 233e e1f1 ca3c
000000e0: 4d33 b9bb 0162 e4bd f610 413d 6148 383d
000000f0: 0c2b 02be affc 903c 7ddc b6bd f9b5 02bc
00000100: 7dc5 91bc 8ba5 59be 108c f4bd 5564 6bbd
00000110: e113 0b3c 33f0 48be 1bf6 443d 3774 6d3c
00000120: 1f7d 243e a69a 0a3e 0228 12bd a5c4 14be
00000130: 949c 4c3e 6440 393d caea 7ebd 336b 91bc
00000140: c49c e33d e378 0cbe 253d eabd 4b2b 03be
00000150: 078b 5d3e 2d48 383c 0321 dbbd 696a 893d
00000160: 811f 093e 5255 9a3d 56d8 f8bd 1260 1bbe
00000170: 2163 88be a35c cebc b40e 483d 52d9 4539
00000180: 3f01 0e3d 8b54 8bbe be7e ca3d d3f1 01be
00000190: e80f 953d 7a37 443e ebd2 a9bd a80a 903d
000001a0: d83b 6eb9 c6a0 293e 2b9b 55bc 2c5f 94bd
000001b0: 9a9f dcbc 40e1 e73c db27 aa3d 508e 3abc
000001c0: b42f 9b3d cc19 f53d ac80 b3bd 9c38 693d
000001d0: 37c1 163e c275 213d 5d0f 13be 1356 1dbd
000001e0: de49 34be e842 f3bd 711a 853d b667 d33d
000001f0: 1aed 21be 1607 483d e7b6 9d3d de82 ac3e
00000200: 0dc5 a33d 8384 fdbd 86c7 a5bc 7d70 f33d
00000210: 7fe4 d73d 2c6e 543e 97d2 983b 0129 5d3d
00000220: fcfc cf3d 3773 28bd 7d4c 903c 5101 9d3d
00000230: 2824 423c ecfd dd3d 1940 ebbc 1d1e 223e
00000240: a3f1 24be 141f 78be e90a c0bd 2210 a9bd
00000250: 2a86 cfbd 515a 6ebe 3afa 9f3d 2193 acbd
00000260: 0da9 0d3e 8c56 54bc 335c dcbd eb05 fcbb
00000270: 0b59 3fbd 4f1f 49be 2f83 a53e 8dc7 a63d
00000280: c6f9 3b3d a7bd ddbd a90b 423d c420 edbc
00000290: 0f9e 68be 354a a1be cf09 ec3d 415c 8b3e
000002a0: 498d 523d bb8c 43be 5411 563c 9c47 d83d
000002b0: a105 e23d 7348 2bbc 9ded bebd b86b 023d
000002c0: 1b63 7c3d 3014 f9bc e26a bcbd a616 5dbe
000002d0: b8e4 aabd 775c c1bd d8e0 da3d ef6b 96be
000002e0: 51bd 633b 96b0 93be 76ff 283d fbb3 c2bd
000002f0: ed45 27bf 6c36 d43d b11a a2bd 8465 88be
00000300: fafc d0bc 90aa bdbe 03c9 953d 993d 9a3c
00000310: eb8d b8bd c726 563e d148 343e 6a5a fbbd
00000320: a1a1 3bbe 6953 0d3a 2fb0 1ebd cabd 1fbd
00000330: bd2d 03bc bfd4 303d b115 933e 6a30 2abc
00000340: d362 ec3c 696f 70bd 5402 a8bd 05b9 b13a
00000350: c4b6 013e 940c 8cbd c09d 94bd 143b 423e
00000360: 2305 c9bc ad00 9239 08b8 993c 3ebe 3dbe
00000370: 4d4c 24bc be8b 0ebc 9a19 c13d b61a 1fbc
00000380: 3a0d 99bd 8f30 e43d eca6 22be 8160 733d
00000390: 1fd6 123d f7d2 0d3e a901 a63d b917 2f3c
000003a0: bd72 fabc 5951 2e3d 0479 5abd 4784 54bc
000003b0: 4c14 8d3d cea1 333d c6b6 5dbd f9ce 713d
000003c0: 3a06 ddbc a77e e53c 6f4d bd3c 61d4 463d
000003d0: e125 673b fa64 7f3c c8bf 4b3e 163f 5b3d
000003e0: c260 59bd 24f7 ca3d db7a 18bd a1a5 a73b
000003f0: d888 febd 055e b1bd c017 91bb 7116 fcbd
0.054859947 -0.17666374 -0.043836765 -0.06723729 -0.0072908816 0.07182577 -0.0019296325 0.2530248
-0.15144528 0.12805644 0.022917317 0.015636418 -0.020992413 -0.36627728 -0.09964217 0.19387162
0.09367911 -0.19466922 0.039005056 0.10252081 -0.059574325 0.03583517 -0.118200645 -0.04484073
-0.07312264 -0.14665484 0.09285571 0.16958167 0.060070902 -0.2040335 0.18694392 -0.16668436
-0.056354117 -0.097244166 -0.22251308 -0.03728327 0.16432457 0.14641799 0.048409373 0.08373673
-0.044977333 -0.034942035 0.07298534 0.03445762 -0.014110893 0.09161011 -0.0053149215 -0.018486198
0.063175134 -0.09509498 -0.15033072 0.05090425 0.023180563 -0.1785151 0.15946604 0.02477354
-0.0056518675 -0.11151505 0.047135316 0.0449909 -0.12711734 0.017698614 -0.089287736 -0.007977956
-0.017794365 -0.21254556 -0.11940777 -0.05746873 0.008488626 -0.19622879 0.048086267 0.01449304
0.16063355 0.13535556 -0.035682686 -0.14528139 0.19981605 0.045227423 -0.06223563 -0.017751312
0.11113885 -0.1371799 -0.11437444 -0.12809484 0.21635066 0.011247677 -0.10699656 0.06709749
0.13390924 0.07535805 -0.12150638 -0.15173367 -0.2663813 -0.025190657 0.048842147 0.00018868342
0.034669157 -0.2721294 0.098874554 -0.12689905 0.072784245 0.19161788 -0.082921825 0.070332825
-0.00022719742 0.16565236 -0.013037483 -0.07244715 -0.026931573 0.02830565 0.08308383 -0.011386469
0.07577458 0.11967811 -0.087647766 0.056938753 0.14722143 0.039418943 -0.1436133 -0.038412165
-0.17606303 -0.11877996 0.06499184 0.10322516 -0.15813103 0.048834883 0.077009015 0.33693594
0.07996569 -0.1237879 -0.020236742 0.1188669 0.10541629 0.20745152 0.004663776 0.053994182
0.10155675 -0.041125502 0.017614597 0.07666267 0.011849441 0.108394474 -0.028717088 0.158318
-0.16107802 -0.24230605 -0.09377081 -0.0825503 -0.10133012 -0.2327664 0.07811399 -0.084265
0.13834019 -0.0129600875 -0.10759773 -0.007691135 -0.046715777 -0.1964085 0.32326648 0.0814353
0.0458925 -0.10827189 0.0473744 -0.028946288 -0.22716545 -0.31501928 0.11525308 0.27218822
0.05140427 -0.19096653 0.013065655 0.105605334 0.1103623 -0.010454285 -0.09322665 0.03184101
0.06161795 -0.030405134 -0.09200074 -0.21590671 -0.08344406 -0.094414644 0.10687417 -0.29379222
0.0034750293 -0.28845662 0.04125925 -0.09506985 -0.65341073 0.10361943 -0.07915247 -0.2663995
-0.025511254 -0.3704419 0.073137306 0.0188282 -0.09011444 0.2091323 0.17605902 -0.122731045
-0.18323375 0.0005391152 -0.03874224 -0.038999356 -0.00800651 0.04317164 0.28727487 -0.010387519
0.028855717 -0.0587 -0.08203569 0.0013559168 0.12667376 -0.068383366 -0.07256651 0.18967849
-0.024538582 0.00027847794 0.01876451 -0.18529603 -0.010027957 -0.008700309 0.09428711 -0.009710958
-0.07473226 0.11142074 -0.15883988 0.059418205 0.035848733 0.13850008 0.081057854 0.010686808
-0.03057229 0.042558048 -0.053338066 -0.0129709905 0.06888637 0.04385548 -0.054129384 0.059035275
-0.026980508 0.028014494 0.023108212 0.048542384 0.003527038 0.0155880395 0.19897377 0.05352696
-0.05307079 0.099104196 -0.03722654 0.00511618 -0.124284446 -0.08660511 -0.00442788 -0.12308968

bias f4 [100]
00000000: 330c 623c 674f 3f3c 956a 883d f044 69bd
00000010: 9525 a33d 9317 a8bc ad24 bbbd b3f8 18bc
00000020: c319 1cbd 6d0d c6bc 9724 5abd c8f2 c43d
00000030: 0dc5 103c 9ad1 813c ab72 cc3d 9d44 51bd
00000040: 8ddb bd3c 2715 403d 2045 493d ca65 313d
00000050: 0098 dc39 cdde d0bc b7dc b43d 47ec 223d
00000060: a773 503c 6758 43bd 6da2 9abd f016 3ebd
00000070: 2700 f9bc 8022 6d3d 50d9 443d fdfd 2cbd
00000080: 3534 a1bd 5a21 39bd a310 87bd 2a4a 193d
00000090: 8d61 acbc 7225 8c3d b07c 5f3d baa6 fbbc
000000a0: 2046 37bd a532 84bd a779 273d 0741 723d
000000b0: 2dee ba3d ea01 3ebd 0058 b3ba 7868 c43d
000000c0: af40 c93d 73a7 ba3c 53b7 81bc 2725 6e3c
000000d0: 93ef e3bc b0ef 48bd 6031 c13d 3794 853d
000000e0: 5fa7 afbd a7cf 183d 6373 3d3d a7b5 64bc
000000f0: df89 a4bd 3085 c73d 5b29 b13d 27fb 1e3d
00000100: 771e 1cbd 2da1 a03c 074b f1bc 5031 113d
00000110: e7a3 afbd c7e0 95bd 60aa 9fbc 87c7 cf3c
00000120: d3e1 febc 1a61 b3bd 4074 5c3c 67b7 393d
00000130: 4004 ac3d b0e7 4abd a743 d83c ba98 09bd
00000140: c774 f7bc cdb7 42bb 5335 953c d38a 8f3d
00000150: 6832 c83d 6d1c 393d 2d42 133d c080 7c3d
00000160: 1d38 753d d0b1 6abd 8d4e b43d a038 3abd
00000170: 73fc 9e3d e231 b2bd 1d2c ba3d 0f24 bf3d
00000180: 9350 163d 10a4 a4bd 271d e4bc 40a0 3b3c
0.013796854 0.011676646 0.06660954 -0.05695051 0.079661526 -0.020519054 -0.09137855 -0.009336638
-0.038110506 -0.024176324 -0.05325755 0.09616619 0.008836043 0.015847016 0.09982809 -0.051090825
0.023175979 0.046895172 0.04913819 0.043309964 0.0004207492 -0.025496865 0.088311605 0.039776113
0.012722886 -0.04769173 -0.075505115 -0.046408594 -0.03039558 0.05789423 0.048058808 -0.04223441
-0.07871286 -0.045197822 -0.0659497 0.037424244 -0.02104261 0.068430796 0.05456227 -0.03071915
-0.04474461 -0.06454972 0.0408875 0.059144046 0.0912746 -0.046388544 -0.0013682842 0.09590238
0.098267905 0.022784924 -0.015834486 0.014535225 -0.027824199 -0.04905671 0.09433246 0.0652241
-0.085768454 0.037307408 0.04625262 -0.013959325 -0.08034109 0.097422004 0.08650466 0.038813736
-0.03811499 0.019608105 -0.029454721 0.03544742 -0.08576184 -0.073182635 -0.01949042 0.025363697
-0.03111354 -0.08758755 0.013455451 0.04534092 0.08399248 -0.04953736 0.026399447 -0.033592917
-0.030207051 -0.0029711605 0.018213904 0.070089005 0.09775239 0.045193125 0.035951782 0.061646223
0.059867967 -0.05729848 0.08804045 -0.045464158 0.077629946 -0.08700921 0.09090445 0.093330495
0.036697935 -0.08039105 -0.027845932 0.011451781

weight f4 [1, 100]
00000000: e083 dabe a0cc e639 2c02 2038 2d92 44bb
00000010: 755e e13a c9d6 afbd e257 633e 1341 c33a
00000020: cac6 85be e341 1abe 706d 6f3d 0104 ab3d
00000030: 13af 7f3d fd63 05bd 8a8f 8fbd 28e6 aebb
00000040: 9f73 5ebe 8fa0 34be 9372 993c b1bc 94bd
00000050: 8ee0 6abe 180f a4b8 e30b dabd 3da8 24bc
00000060: b3f3 ee3d 877c 96be dbbd a9be be1b 63be
00000070: 2daa 063b 8d2d aabb 0bb9 2bba 5158 adbd
00000080: 4924 cd3d 7865 09bf dbf9 b8bc 5c28 06bf
00000090: 118b f63d c00d ddba 617a d43d 797c 973d
000000a0: 7f42 f6bb 6742 dbbc 59c1 273e b240 50bd
000000b0: 21e4 1bbc 5be7 0c3e 2619 a63a af26 85be
000000c0: 431d 2f3d a3e7 003e f852 c13d 0205 1b3f
000000d0: 842b 28bd 4b3c 703c df70 debd aa1b d53d
000000e0: 17ff a2be 071f ae3d 197b f83a aa65 3fbe
000000f0: 61fd 95bc 485c ccba 7d64 443d 7cc9 27be
00000100: 04ea 763d e5e3 2cbe c65b fe3d bf9a fcbd
00000110: 57f6 4cbe 26b0 fabd ebad 14ba 646d 91be
00000120: f631 e73c 7fb1 053e 4e49 4d3c 67a8 313b
00000130: ee92 77bd 9dc4 163b 723b 733e f6dd 373d
00000140: 09fc 123d b325 3e3b 4363 ca3d 67cd c13d
00000150: ecc8 e7ba 6fe8 d33e 5b0c bebd 0408 db3a
00000160: 5129 44be c378 5cbe 19c4 17be 3c43 57be
00000170: 7b48 47be f9b8 d23c 7a79 903d 4179 3cbe
00000180: 916a c13e d640 d93c 6912 b4be 308c 0aba
-0.42678738 0.00044021476 3.8148995e-05 -0.0029994354 0.0017194288 -0.08585889 0.22201493 0.0014896713
-0.26128227 -0.15064196 0.058453977 0.08350373 0.062422823 -0.03256606 -0.070098 -0.0053374954
-0.21723793 -0.17639373 0.018731391 -0.072625525 -0.22937223 -7.822941e-05 -0.106467985 -0.010049877
0.11667576 -0.29391882 -0.3315266 -0.22178552 0.002054821 -0.0051934184 -0.0006550706 -0.08464111
0.100166865 -0.53670454 -0.022580078 -0.52405334 0.120382436 -0.001686506 0.103749044 0.07396788
-0.007515251 -0.026765062 0.1638235 -0.05084295 -0.009514839 0.1376013 0.001267229 -0.26006076
0.042752516 0.12588362 0.09439653 0.60554516 -0.041057125 0.014662812 -0.10861372 0.10405667
-0.31835243 0.08502012 0.0018957584 -0.18691126 -0.018309297 -0.0015591467 0.047947396 -0.16385454
0.06028177 -0.1688381 0.12419848 -0.12334203 -0.20015846 -0.12240629 -0.0005671668 -0.2840377
0.028222065 0.1305599 0.012529684 0.0027108432 -0.060442857 0.0023005374 0.23753145 0.044889413
0.03588489 0.002901417 0.09882214 0.094630055 -0.0017683781 0.4138827 -0.092797 0.0016710763
-0.19156386 -0.21530442 -0.14820899 -0.21021742 -0.19461243 0.025722967 0.0705442 -0.1840563
0.37776616 0.026520174 -0.35170296 -0.0005285172

S f4 [4, 4]
00000000: 0000 0000 0000 0000 0000 803f 0000 0000
00000010: 0000 0000 0000 0000 0000 0000 0000 803f
00000020: 0000 80bf 0000 0000 0000 0000 0000 0000
00000030: 0000 0000 0000 80bf 0000 0000 0000 0000
0.0 0.0 1.0 0.0 0.0 0.0 0.0 1.0
-1.0 0.0 0.0 0.0 0.0 -1.0 0.0 0.0
