Models/HenonHeiles/HenonHeiles_symplectic midpoint_50epoch_Sin()_Softplus(beta=1.0, threshold=20.0)_batchsize_64_shape_torch.Size([175000, 4]).pt (torch, 52352 bytes, 6 tensors)

weight f4 [100, 4]
000000 f7 29 a8 3d c3 b1 14 bd 0e 72 63 3d 15 24 48 3e
       0.08211129 -0.03630234 0.055528693 0.19545014
000010 a5 24 63 be 9f ff f9 3c 7b 2b cc 3b af b4 f6 3b
       -0.22181948 0.030517397 0.006230769 0.0075288634
000020 5e b8 40 3f ad 59 df be d5 bc 65 3d 5c 76 89 3e
       0.7528132 -0.43623105 0.056088287 0.26848114
000030 63 d1 21 be 66 8b a2 bc 92 b3 54 3e 2a 51 9a ba
       -0.15802531 -0.019841861 0.20771626 -0.0011773456
000040 66 e0 c8 bd 20 31 15 3e 45 cf 2d bb 9b ae 21 be
       -0.098084256 0.14569521 -0.0026521247 -0.15789263
000050 8d 0a 13 3d 25 e7 55 bb 76 4a 02 3e e9 2a 52 3e
       0.035898734 -0.0032638994 0.12723717 0.20524181
000060 de 54 4d 3c 65 b9 33 3c 0f f3 84 3e 6f 31 40 3c
       0.012532441 0.0109694945 0.2596669 0.011730536
000070 b3 18 94 3d 19 21 e7 bc ea 86 88 be 78 21 a4 bc
       0.072312735 -0.028214024 -0.2666543 -0.02003549
000080 b5 0a 6a be c3 60 8c be 9f 97 cb be 27 08 ae bd
       -0.22855647 -0.27417573 -0.39764115 -0.08497649
000090 d1 9d 9b 3c 03 a7 ca bc 82 d1 81 bc 15 36 f0 3d
       0.018996151 -0.02473784 -0.015846971 0.11729065
0000a0 a2 6e 5c 3d 14 a2 8a bc 08 60 0b bd a0 4f 51 3e
       0.053816445 -0.016922988 -0.03402713 0.20440531
0000b0 ab 42 a0 3b a9 b3 ef 3c 1e a5 43 be 6e 0f 45 3e
       0.00489076 0.029260473 -0.19105956 0.19244167
0000c0 03 d4 90 3d 1b 95 c5 3c 50 90 44 be f9 ab ce bd
       0.07071688 0.02411895 -0.19195676 -0.10091395
0000d0 06 05 2b 3f e1 e2 a8 3e 4f a1 25 be b7 d0 15 be
       0.6680454 0.32985595 -0.16174816 -0.146304
0000e0 ae b4 e4 3e ca 9e 67 be 47 70 bc 3e 94 fb 60 3d
       0.44669098 -0.22619167 0.3680441 0.054927424
0000f0 f8 78 a7 be 4b 5e 33 be 88 58 52 bc 0c 7e 58 bd
       -0.3270948 -0.17516439 -0.01283849 -0.052854583
000100 85 f7 a6 3d 46 88 57 bd 7b d1 76 3e fb f4 82 3e
       0.08152679 -0.052620195 0.24103348 0.2557753
000110 94 96 65 3d d2 38 35 bd 0c 7e 4a be be e1 42 3d
       0.056051806 -0.04424364 -0.19774646 0.047578566
000120 67 93 16 b9 54 7e fb ba 04 26 13 ba ff 33 60 ba
       -0.00014360026 -0.0019187429 -0.000561327 -0.000855267
000130 c8 bc e1 3e 1d 76 19 be de df 72 3e 17 82 0e bd
       0.4408934 -0.14986463 0.23718211 -0.034792032
000140 28 03 4b 3d 9b 84 cd bd d1 07 30 be 17 90 6b be
       0.049563557 -0.10035058 -0.17190482 -0.23004185
000150 65 92 33 bd ee a7 9f 3d 3e 6c c9 bd ad 19 27 3e
       -0.043840785 0.07795702 -0.09835099 0.16318388
000160 32 48 c2 3c fa bb 8c 3d 0a 78 2a bd 17 ce 14 3e
       0.023716066 0.06871791 -0.041618384 0.14531742
000170 33 7b 41 3c 08 fc 44 3c 14 c5 25 be b3 6f d0 3e
       0.011809158 0.01202298 -0.1618846 0.4071022
000180 04 b4 31 bf 6f ce ac 3e 8c 6b 71 bd ad 19 96 3d
       -0.6941531 0.33751246 -0.058940455 0.07329116
000190 e5 e6 09 3c de 10 af bc 7f c0 c7 3d 84 44 af be
       0.008416866 -0.021370348 0.097535126 -0.3423196
0001a0 18 d2 34 bb f5 23 0b 3c 09 ab 2f bc 9f 30 95 bc
       -0.0027591046 0.00849246 -0.01072193 -0.01821166
0001b0 6c cd 56 be aa 11 5b bd d9 af 9d 3e f6 49 3c 3e
       -0.209768 -0.053483643 0.30798224 0.18387589
0001c0 96 c3 8c be d0 d2 0c 3e a3 e0 da 3d 21 45 d7 3d
       -0.2749297 0.13752294 0.10687377 0.10511232
0001d0 b2 34 6d bc 71 97 81 bd ee 4b ff bd 7c 9e 0a be
       -0.014477896 -0.06327713 -0.12465654 -0.1353702
0001e0 5e 22 74 bf bc 9b a3 be 83 3f 49 3c e7 79 e7 3d
       -0.9536494 -0.31954753 0.012283209 0.11302548
0001f0 52 85 db 3d 31 e1 89 bd 9f 02 74 bd ce 1a a4 3d
       0.10718788 -0.06732405 -0.059572812 0.08012925
000200 01 9f df 3a 78 ac e2 bc f8 90 46 bd 2d 2a c7 3d
       0.0017060937 -0.02767013 -0.048478097 0.09724841
000210 43 95 15 3d 9d fd ad 3d 00 e7 7e 3d a3 45 2f be
       0.0365193 0.084956385 0.062232018 -0.17116408
000220 26 17 39 3e 19 8c bc bd b2 37 0f 3e 74 25 ce be
       0.18075237 -0.09206409 0.1398609 -0.4026295
000230 98 d7 1c bc 84 32 a7 bd e9 c9 c4 bd ec 85 7a be
       -0.009572886 -0.08163932 -0.09608824 -0.2446515
000240 50 79 4a be ba 43 30 3d 16 69 8c be 0f cf 06 3e
       -0.1977284 0.04303334 -0.27423924 0.13164924
000250 fe e8 27 3b 67 68 87 3c 58 2a cd 3a dc 67 96 3c
       0.0025621052 0.016529275 0.0015652878 0.01836007
000260 ed 24 de bd 0f b9 fb bd 27 fd 55 3e b9 3c 54 3d
       -0.10846887 -0.122911565 0.20897351 0.051815722
000270 41 46 13 3f d3 2f 9c 3e de 60 11 3e fe e6 19 be
       0.57529074 0.30505237 0.14197108 -0.15029523
000280 d7 43 81 3f 8e 9c f0 3e 60 3b ae 3d e5 23 f5 3c
       1.0098828 0.46994442 0.08507419 0.029924342
000290 90 d8 b3 bc 33 c6 8d 3a 5f d0 3a 3d c6 5b c0 3c
       -0.021953851 0.0010816514 0.045608874 0.023481261
0002a0 d8 15 47 3b 19 5c ad 3b 66 64 44 be c4 86 3b 3d
       0.003037801 0.00529052 -0.19178924 0.04578282
0002b0 1e 10 27 b9 74 9a 02 3c 99 22 10 ba 5b 61 58 bc
       -0.00015932365 0.007971395 -0.00054983195 -0.013206805
0002c0 e5 c5 74 3e 17 88 dc 3c 7c 22 26 be 47 f5 c3 3e
       0.23903616 0.026920361 -0.16224092 0.3827307
0002d0 b0 f9 ca bd cf 0c 46 3c f5 ce 06 3e 25 61 b6 3d
       -0.09910905 0.012088015 0.13164885 0.089052476
0002e0 79 76 59 bd 77 0a 7a 3e 45 23 9e bd 14 0e 54 3d
       -0.0530915 0.24418055 -0.07721571 0.05177124
0002f0 a5 80 cd bc 2e b7 46 3c c0 12 8d be fa 38 08 3e
       -0.025085757 0.012128634 -0.27553368 0.13302985
000300 6a 62 83 3d 86 63 69 bc 37 a6 15 bd e8 db 19 3e
       0.06415255 -0.01424492 -0.036535468 0.15025294
000310 90 a5 98 bc da 3e ff bd 1a 8e c3 be b8 37 1b 3e
       -0.018633634 -0.1246316 -0.38194352 0.15157974
000320 d2 ef de 3c 31 b2 b1 bf 90 9a 69 3c 30 f3 65 bd
       0.027213965 -1.3882505 0.014258042 -0.056140125
000330 a9 50 81 3d 69 64 49 3d 08 f7 b8 3b 63 72 df 3e
       0.06314213 0.049168024 0.005644683 0.43641958
000340 64 51 fa bb fb d8 43 bd 75 f6 33 be 58 c7 69 be
       -0.007639097 -0.04781435 -0.17574485 -0.2282995
000350 69 a0 70 3c b2 4f 5d bc 2f b9 44 3c 44 b6 82 3c
       0.014686682 -0.01350777 0.012007042 0.015956052
000360 43 88 7e 3c 6d 34 b7 3d ec ee 41 be 50 bf d1 3e
       0.015535417 0.08945546 -0.18938798 0.40966272
000370 7b 30 cd bc 24 e3 1b bd 68 b2 13 3e 74 9e a9 3b
       -0.025047531 -0.038058415 0.14423525 0.00517636
000380 11 41 83 3d 05 a8 48 bc 6c 52 3c be 0f 10 33 bc
       0.06408895 -0.01224709 -0.18390816 -0.010929122
000390 eb 89 cb bd ff 78 cc bd 48 30 2e bd c8 33 99 3e
       -0.09938415 -0.09984016 -0.042526513 0.29922318
0003a0 82 63 1c be 3a ca de 3d 12 3c 7f 3d 20 4c a6 be
       -0.15272334 0.108784154 0.062313147 -0.32479954
0003b0 d7 41 00 bd cd 99 83 3e 11 d6 14 be ea 00 48 bd
       -0.03131279 0.25703278 -0.14534785 -0.048828997
0003c0 e3 7d b9 bd 4a e4 01 bd 01 47 7e bc 45 da ba 3e
       -0.09057214 -0.031711854 -0.015519858 0.3649465
0003d0 fa 2d 9e 3c 98 a2 7b 3c a8 1c ba 3d 46 93 00 bd
       0.019309033 0.01535859 0.09087497 -0.03139045
0003e0 8b 9a ad bd a6 b0 8d bd ab 3c b0 3e 47 cc 78 be
       -0.08476742 -0.06918459 0.34421286 -0.24296676
0003f0 33 c8 b0 3d ff 30 d4 3c 3b 8f 58 3e 40 81 cd 3d
       0.08631935 0.02590227 0.21148388 0.10034418

bias f4 [100]
000000 54 6c a6 3e fe c6 e1 3e 99 6f a6 3e 87 c6 5d 3e
       0.32504523 0.44097131 0.32507017 0.21657763
000010 37 7b fd 3d dc 69 30 bd 92 29 48 3e 21 d9 cd be
       0.12377017 -0.043069705 0.19547108 -0.4020472
000020 5d 29 85 be 69 67 74 3e f6 f6 e3 3c b7 04 9f be
       -0.2600812 0.23867573 0.027827721 -0.31058285
000030 61 d4 7b 3e cd c6 0d bf 71 d5 c1 3d 6f 66 c8 3e
       0.24592735 -0.5538147 0.09464539 0.3914065
000040 cf 5f 73 bd 70 7e 75 3d 60 6e 42 38 83 7e 73 3e
       -0.059417542 0.059935033 4.6356e-05 0.23778729
000050 49 c3 4c be 4f 28 ae be 4e 83 c2 3e d5 5c c9 3e
       -0.1999637 -0.34015128 0.37990803 0.39328638
000060 c4 e9 c1 be 03 e6 cf 3e ff ad 6f 3d fd 9b 9d 3e
       -0.37873662 0.40605173 0.058515545 0.30783072
000070 a9 56 8d bd be 39 ee 3d f3 52 f4 3e d7 7f 94 be
       -0.06901295 0.11632107 0.47719535 -0.29003784
000080 df 13 1b 3e 1e 17 32 3e 75 15 56 be 61 a0 b7 3d
       0.15144299 0.17391631 -0.20906623 0.08966137
000090 a8 07 b0 3e 90 1f 7a 3d 0d dc db be 17 8c 08 be
       0.3438084 0.061065257 -0.42941323 -0.1333469
0000a0 4d f5 05 bf b5 ab 35 3e 34 93 18 bd 80 5f 83 3d
       -0.52327424 0.17741282 -0.03724976 0.064146996
0000b0 10 00 8b bd 18 13 56 3e 10 b1 df 3e b9 c5 b4 be
       -0.06787121 0.20905721 0.43689775 -0.353071
0000c0 a5 53 ef bd e1 ea 81 be 76 32 fa be 85 d9 f8 be
       -0.11685876 -0.2537451 -0.48866624 -0.48603454
0000d0 d5 e6 7e 3e f5 dc 5a be 85 d0 c3 be 37 d0 4a be
       0.24892743 -0.21373351 -0.38245025 -0.1980599
0000e0 0f a2 13 be 94 d6 c9 3e e5 c7 7e be 5c 7b e3 3d
       -0.14417289 0.39421523 -0.24880941 0.11107513
0000f0 9f 77 d8 3e fc 24 bd bd 8e 97 85 3e e5 96 ae be
       0.42278764 -0.0923557 0.2609219 -0.34099498
000100 8b 71 f3 3e 22 69 0a be 41 7e da 3e ba 33 ea bd
       0.47547564 -0.13516667 0.4267445 -0.11435647
000110 32 74 94 3e 98 70 19 3e 24 8e ad 3e f8 33 89 be
       0.289949 0.14984357 0.33897507 -0.26797462
000120 a1 70 7d 3e 3c 2d 86 be b3 18 c8 3e 64 fc 13 3f
       0.24749996 -0.26206386 0.39081344 0.5780699
000130 9b ff db be 8d 6c df 3e 53 e9 a7 3e 7c a9 a6 be
       -0.4296845 0.43637505 0.327952 -0.3255118
000140 c6 a1 20 bd a5 56 5e 3d d4 ff 11 3e 83 12 e1 bd
       -0.03921678 0.05428185 0.14257747 -0.10989859
000150 ba 60 94 be 3b ef 39 3e 02 14 a2 3e f1 ae 94 be
       -0.28980047 0.18157665 0.3165589 -0.2903972
000160 18 f1 06 3e 3c 38 d5 bc d1 a8 0f 3f 0a dd 03 be
       0.13177907 -0.026027791 0.5611697 -0.12877288
000170 05 20 06 3e 05 66 02 3d 4f fd ee 3e 29 0d 50 be
       0.13098152 0.031835575 0.46677634 -0.2031752
000180 c4 6a b5 3e 14 16 f8 be f1 05 a8 be 91 fb c9 be
       0.35433018 -0.48454344 -0.32817033 -0.39449742

weight f4 [100, 100]
000000 8a 54 f8 ba 51 92 f5 3a f3 19 81 bc d2 7c 8a 3d
       -0.0018946093 0.0018735622 -0.015759444 0.06762089
000010 8c ef 9c bd 17 a9 7b be a4 2b bd 3d 0c 01 28 3d
       -0.076628774 -0.24576221 0.092368394 0.041016623
000020 11 25 03 bc 35 e3 a3 bd 16 b6 0e 3d 88 bf ab 3d
       -0.008004443 -0.08002321 0.03484162 0.08386141
000030 83 d9 1d be b6 54 9a 3c eb b9 84 bc ae 46 da 3d
       -0.15415005 0.018839221 -0.016201934 0.10658012
000040 e7 4e ae 3d 33 9e c1 3d 47 53 2c 3d ec 63 c0 bd
       0.08511143 0.09454002 0.042071607 -0.093940586
000050 1e b8 8e 3b 38 c0 0e 3e 52 c2 f1 3d 28 64 a4 3d
       0.0043554446 0.13940513 0.11804642 0.08026916
000060 31 70 0f be d4 9d 48 bd 54 6d f5 bd 0c a2 fa 3d
       -0.14007641 -0.04897864 -0.11983743 0.12237939
000070 e4 b8 84 bd eb fc bb 3c b4 a6 8d bc a8 80 28 3e
       -0.064805776 0.02294775 -0.017291404 0.16455328
000080 d7 0a 2f be f7 92 a1 3d 80 43 82 bd fc af 25 bd
       -0.17093979 0.078893594 -0.06360531 -0.040451035
000090 cc ee 93 bd 48 11 06 3e 4e 4e 89 bc 5f 2a 1f 3d
       -0.07223281 0.1309253 -0.016760971 0.038858768
0000a0 f1 d3 65 bc 19 02 c3 3d 8d 24 fd bd 63 45 04 3e
       -0.014027582 0.095218845 -0.12360487 0.12917094
0000b0 ad 34 ee bd c9 a4 fd bd d8 f1 3d bd 8c 3a a0 bd
       -0.11631141 -0.12384946 -0.04637322 -0.07823667
0000c0 c7 5b e5 3d 11 96 28 bd d5 b9 f7 bc 06 4c 93 bd
       0.11199146 -0.04115874 -0.030239979 -0.07192235
0000d0 94 7e 88 3d 76 0f ba 3c ce 2d be 3c b0 4c 9b bd
       0.06664768 0.02271245 0.0232152 -0.07582986
0000e0 bc 5d e5 3d 3f 2a ac 3d 8d 42 3c 3e 3b df 39 bd
       0.11199519 0.08406495 0.18384762 -0.045378905
0000f0 f1 d5 5a bc 96 85 d9 bd b8 cd ed bd 30 29 32 3c
       -0.013356672 -0.106211826 -0.11611503 0.010874078
000100 3a ce 85 bb 45 d8 d4 3c f6 d9 4b 3c 98 8f 87 3c
       -0.004083422 0.025982032 0.012442103 0.016547963
000110 27 f5 bf bc 44 df fe 3c bf ed 00 3e ef b9 e8 bb
       -0.023432327 0.03111232 0.12590693 -0.007102243
000120 08 54 8a be 82 f4 5b 39 56 bf ed bd 51 1f 06 bd
       -0.27017236 0.00020976554 -0.1160876 -0.03274471
000130 32 a7 da 3d 6f 93 4a 3d d6 ad 89 bd fa bb 9c bc
       0.10676421 0.04945701 -0.0672261 -0.019132603
000140 d9 c6 9e 3c 9b b1 a1 bc 19 6e a8 bd 90 b9 ce 3d
       0.019381927 -0.01973801 -0.082241245 0.10093987
000150 b9 d7 5f 3e 5d 41 18 bd 39 4b 55 be 23 86 d6 3a
       0.21859635 -0.03717171 -0.20829476 0.001636688
000160 ee e9 a6 3c ed 4e cf 3c f1 dd 10 bd 22 2f 99 bb
       0.020375218 0.02530619 -0.03536791 -0.004674808
000170 0a 69 da 3d ae 70 c8 3d f9 4c 2a bd fb d3 ae bc
       0.10664566 0.09787117 -0.041577313 -0.021341315
000180 75 a4 d2 3d 82 3c dc 3d f7 4c 51 bc dc a2 32 bd
       0.10285274 0.107537284 -0.0127746975 -0.043612346
000190 27 5e 17 bc eb e9 b0 3d f7 b7 ac 3c a0 38 2f bd
       -0.009238756 0.08638366 0.021083815 -0.04277861
0001a0 5e 49 36 3e 41 4c e2 bd 4f 38 5e 3e f5 18 f0 3c
       0.17801425 -0.110497005 0.21701168 0.029308775
0001b0 df 77 d8 3d b5 0a a0 be 6d 70 8d 3d 58 66 41 3a
       0.105697386 -0.3125817 0.06906209 0.0007377616
0001c0 62 28 c9 bd 73 42 92 bd 97 41 39 3d fb de 86 bd
       -0.098221555 -0.071415804 0.045228567 -0.06585499
0001d0 3f e4 35 3c 53 84 40 be 56 47 fb 3c 46 b9 75 bd
       0.011101781 -0.18800478 0.030673664 -0.059991144
0001e0 05 08 36 3d 25 f8 84 3e 99 f8 1a be c6 83 45 be
       0.04444124 0.2597057 -0.15133895 -0.19288549
0001f0 a5 a2 87 3d 5b 58 13 be 22 83 b5 bd 0b ce 1f bd
       0.06622819 -0.14389174 -0.08862902 -0.039014857
000200 c1 21 4f 3e 45 0f 8c bc fc f4 66 bd be 80 c2 3d
       0.2022772 -0.017097125 -0.05638598 0.09497212
000210 11 97 4b be 37 04 ea bd ad ed bc bd 5b 1a 26 be
       -0.19881846 -0.11426585 -0.092250206 -0.16220991
000220 de 40 d1 bc 52 15 81 bd 34 f2 a7 3d 6e a5 93 3c
       -0.025543626 -0.06302895 0.082004935 0.018023219
000230 f0 16 1e bd 9f a9 70 be 9f 53 47 3d 7a 6f f0 bc
       -0.038596094 -0.23502205 0.04866373 -0.029350031
000240 04 79 9b bd ad 57 5e be 63 7f fb bc 92 81 60 3b
       -0.07591441 -0.21713133 -0.030700391 0.0034256917
000250 46 dd 27 bd 49 e8 e0 3d 4f c1 13 3c 3e 79 1f 3d
       -0.040982507 0.10981805 0.009018256 0.038933985
000260 91 0e 5c bd e2 65 f7 bd db 71 e1 3d 17 ae b0 3d
       -0.05372483 -0.120799795 0.11008044 0.08626955
000270 2b db 1b bd 17 a1 30 be eb 9c b6 bd 2b d3 57 3d
       -0.03805081 -0.17248951 -0.089166485 0.05269162
000280 a9 18 42 bd 2e c7 b2 3b c4 8a 61 be 3a d1 cf 3d
       -0.0473868 0.005455873 -0.22025591 0.10147329
000290 ba a5 32 be 7a e5 f1 3d 62 21 2a be 0c 16 c7 bb
       -0.17446032 0.11811347 -0.16614297 -0.0060756262
0002a0 e7 18 ce bc 89 f3 8d bd a0 bf a2 bb 5d 07 14 3d
       -0.025158359 -0.06931216 -0.004966691 0.036139835
0002b0 ce 42 a3 bd 65 80 d8 bb 3b 0a bb 3d de 1e 28 ba
       -0.07971726 -0.0066071027 0.09132811 -0.0006413291
0002c0 0a 15 ba bc 47 53 97 be c4 3c be bd d9 32 1b bd
       -0.02271511 -0.29555723 -0.09288934 -0.03789029
0002d0 6e bf c5 3d f2 45 91 bd bc 57 ef bd 28 2f 08 3d
       0.09655653 -0.07093419 -0.11686656 0.033248097
0002e0 39 fa a4 3d 48 ce e6 bd 28 5a c7 3c 5b c6 45 3e
       0.08055539 -0.11269814 0.024334982 0.19313948
0002f0 86 1b 4b be 45 d6 71 be ef 69 24 bc d6 04 83 be
       -0.19834718 -0.23616894 -0.010035022 -0.25589627
000300 8f c9 7c 3d f9 4c 44 be 4a f9 37 3d 85 55 e5 3d
       0.06171566 -0.19169988 0.044915475 0.11197952
000310 45 72 c8 3d 11 4b bd 3d fa 9c 1b 3d 09 4b 5d bd
       0.0978742 0.092428334 0.0379915 -0.054026637
000320 99 74 39 be ed 1b 3c be 18 79 c6 bd 74 fb d5 bd
       -0.18110885 -0.18370028 -0.096910655 -0.104483515
000330 77 d2 ca bd a7 86 6f 3d 24 ea 0a be 45 7d 16 3e
       -0.09903424 0.058478024 -0.1356588 0.14696224
000340 0a 45 19 3d 55 69 5d be 8d a2 03 be b8 f0 9a 3d
       0.037419356 -0.21622212 -0.12854977 0.07565445
000350 81 ee 39 3d 66 a1 6c bd 27 6d 3f 3e 2d cb 5c bd
       0.04539347 -0.05777111 0.18693982 -0.0539047
000360 77 64 8b 3d 8f f4 91 bc f8 a8 de bd 57 07 c3 bd
       0.068062715 -0.01781681 -0.10872072 -0.09522884
000370 43 69 8a 3d 7e 34 0e 3e 89 10 14 be 6a a1 0f be
       0.06758358 0.13887212 -0.14459433 -0.14026418
000380 75 0f 29 3b 1c 50 65 be 38 75 49 3d e4 75 ac 3d
       0.0025796567 -0.2239384 0.049184054 0.08420923
000390 31 a9 e2 bd dc 61 9e bd 10 96 0d be aa 9b 61 bd
       -0.11067427 -0.07733509 -0.13826776 -0.055080093
0003a0 d5 76 d7 bd 53 1d ed 3d 61 02 0a be ba 50 48 be
       -0.10520712 0.11577859 -0.1347747 -0.19562045
0003b0 d2 16 76 3d a4 73 24 be 3b 3d 2d 3e 79 80 1b bd
       0.060080357 -0.16059738 0.16917889 -0.037964318
0003c0 1d b4 8a bd e3 10 e6 bd 10 5f 8c 3d 64 1a 15 be
       -0.06772635 -0.1123369 0.06854069 -0.14560848
0003d0 bd ef d2 3c 7c 1b 4e be 50 ff 66 3d a0 17 68 3e
       0.025749082 -0.20127672 0.05639583 0.22665262
0003e0 54 73 26 bc 90 6e 43 3a cd 8f 32 bd 6e ec 80 bd
       -0.010159332 0.0007455135 -0.04359417 -0.062950954
0003f0 78 29 88 be 03 2a cb 3d 8b fd 8a 3d f1 66 54 3e
       -0.26594138 0.099201225 0.06786641 0.20742394

bias f4 [100]
000000 33 07 28 bf 9e 51 05 bf 3e 91 1a bf b5 20 25 bf
       -0.65635985 -0.5207766 -0.6037787 -0.6450303
000010 a2 42 5c bf 8b 8a 4e bf b4 44 40 bf c6 65 2a bf
       -0.86039174 -0.8068015 -0.7510483 -0.66561544
000020 7e 00 5f bf 45 6f 02 bf ed 11 9e bd cf 3e 34 bf
       -0.87110126 -0.50951034 -0.07718263 -0.7040834
000030 7d 00 02 bf bb 04 2d bf 41 c2 18 be 57 f6 e9 bc
       -0.50781995 -0.67585343 -0.14917852 -0.028559847
000040 a9 15 76 be 63 e6 46 bf c8 81 5c bf 69 01 aa bd
       -0.240317 -0.7769529 -0.8613553 -0.0830105
000050 d2 06 d0 bd bc 49 da bd b6 87 01 bf db 2a 0b bf
       -0.10157551 -0.10658595 -0.50597703 -0.5436227
000060 4b 1d 2a bf c8 c2 f8 bb 37 ce a5 bc 7e be dd be
       -0.6645095 -0.007591579 -0.020239932 -0.43309397
000070 bc 25 67 be 95 cd 4a be 82 48 a6 bd b8 91 c2 bd
       -0.22572988 -0.19804986 -0.081192985 -0.0950045
000080 26 79 45 bf 86 82 15 bf c5 80 cf bd 8e 5b 0b be
       -0.7713798 -0.5840229 -0.10131983 -0.13609144
000090 f5 9e 03 bf 57 63 a5 bc a0 d8 01 be 43 bc 15 bf
       -0.51414424 -0.02018897 -0.12680292 -0.5849039
0000a0 8c 04 26 be a1 5d f2 bd 07 5c 4a bf 43 6c 36 bf
       -0.16212672 -0.118342645 -0.7904667 -0.71258944
0000b0 51 4f e6 be a5 63 40 bf 74 6f 47 bf ea 59 a0 bd
       -0.4498239 -0.75152045 -0.7790444 -0.0782965
0000c0 43 5d b8 be 29 c5 44 bf 96 45 3a bf 5c f7 2a bf
       -0.36008653 -0.7686334 -0.7276243 -0.6678369
0000d0 81 cc 29 bf ac 76 55 bf d5 77 3f 3d 5b 7d d3 bd
       -0.66327673 -0.83384204 0.04674514 -0.10326644
0000e0 f6 b5 21 bf 2d f1 3a bf 60 ea bb 3b c1 f3 52 bf
       -0.63168275 -0.73024255 0.005734727 -0.8240319
0000f0 c2 bb 44 bf bb 40 44 be 7f fb 2c bf 48 5f 14 bd
       -0.76848996 -0.19165318 -0.6757125 -0.03622368
000100 c7 f7 1c bf a1 b0 86 bd a9 96 8f bf fa 90 c0 bd
       -0.6131558 -0.06576658 -1.1217853 -0.09402652
000110 79 0c 69 bd 8c 6d be be 45 f4 26 bf 21 98 49 be
       -0.05689666 -0.37192953 -0.65216476 -0.19686939
000120 18 b1 4e bf f4 a5 59 bf b4 cd 0e be 8b d0 29 bf
       -0.80738974 -0.8501885 -0.13945657 -0.66333836
000130 93 7b 31 be 25 76 98 bd 75 8a 40 bf 3e c1 3a bf
       -0.17332296 -0.07444409 -0.7521127 -0.72951114
000140 4d 9a 5f be d0 93 67 be a4 36 6b 3b ab 47 52 bf
       -0.21836205 -0.2261498 0.0035890723 -0.82140607
000150 07 cd 06 bf 9f a6 07 bf 0b 8a 9c bd 09 56 41 bf
       -0.52656597 -0.5298862 -0.07643517 -0.75521904
000160 21 e6 47 bf 94 24 26 bf 7e e3 81 be e2 c4 25 bf
       -0.78085524 -0.64899564 -0.25368875 -0.64753544
000170 c5 8e d9 bd 3d 12 c1 be 7e b5 11 bf 83 89 1b bf
       -0.10622934 -0.37709227 -0.5691756 -0.607567
000180 45 0a 7d bf 5c ac 0a bf 6e 27 f5 b8 f3 14 31 bf
       -0.98843795 -0.5416925 -0.00011689855 -0.6917259

weight f4 [1, 100]
000000 a3 99 44 38 4a 34 f2 b9 5d 19 02 ba d4 9d 3c b8
       4.6873127e-05 -0.00046196795 -0.0004962886 -4.496968e-05
000010 ce ca a2 b9 1d d8 9b b8 2a 96 09 bb 96 9d 6a b9
       -0.0003105015 -7.43123e-05 -0.0020994046 -0.00022374684
000020 e7 e6 81 b9 c6 7a b5 b9 63 71 3f 3d f8 dc 05 39
       -0.00024776833 -0.00034614484 0.046738993 0.00012766186
000030 24 89 65 bc 34 d5 1a 37 4e 3f e5 3d 19 32 ef 3d
       -0.014009748 9.2287555e-06 0.11193715 0.11679477
000040 7b d5 f4 bc ab 5a 1f 3a 1c c8 c9 b8 f8 5f 04 3f
       -0.029886952 0.0006078879 -9.6217e-05 0.51708937
000050 26 f8 ac bd 3a b0 c5 3d 9e 25 e9 b9 7e b1 25 b9
       -0.08445768 0.09652753 -0.0004446925 -0.00015801747
000060 d1 f3 3f b9 3c 42 97 3e e7 28 4d 3e 94 ac b2 b9
       -0.00018306008 0.2954272 0.20035134 -0.00034079386
000070 90 bb 56 ba fe 07 a2 3d 9c f9 6c 3e 12 4e 77 3c
       -0.0008191401 0.07911681 0.23142093 0.015094297
000080 f4 36 a6 b8 cb 7d 68 b9 9e 52 13 3e 98 22 07 3d
       -7.925733e-05 -0.00022172106 0.14386985 0.032991976
000090 9b 2e 84 b9 a0 41 35 3e e6 84 4b 3e af 84 8d b9
       -0.00025211726 0.17700815 0.19874915 -0.00026992473
0000a0 55 67 89 3e b0 d4 ea 3d f4 e0 39 b9 b0 fc 49 ba
       0.2683665 0.11466348 -0.00017726776 -0.0007705195
0000b0 63 3d 75 b9 e0 cc 95 b8 af f9 ee b9 53 ca 2d 3e
       -0.00023387889 -7.1430346e-05 -0.00045580926 0.16971712
0000c0 1b f4 01 ba 52 cb 4c b9 3a 2c 51 b9 b9 2f e2 b9
       -0.0004957334 -0.00019530699 -0.00019948269 -0.00043141635
0000d0 5e 94 6a b9 50 f6 fe b9 4d bf 2c 3e 80 11 a8 bd
       -0.0002237125 -0.00048630172 0.1686985 -0.08206463
0000e0 d8 6e e5 37 a0 c8 26 ba 9e bc 83 3e 74 09 17 b7
       2.7350543e-05 -0.0006362293 0.2572984 -9.002502e-06
0000f0 76 e5 1e 39 b3 32 29 3e 88 c2 c7 b9 ae 8e 7e bd
       0.00015153535 0.16523246 -0.00038101175 -0.06214779
000100 75 d4 5f 38 ff 71 12 3e 2b ae 4a bc 35 ea 1a 3e
       5.336521e-05 0.14301299 -0.012370626 0.15128405
000110 9c d0 54 3e f8 77 72 ba 49 41 d2 b9 a7 1d 1f bd
       0.20782703 -0.0009249444 -0.00040102963 -0.038846638
000120 10 db 8e 39 fc c5 5b ba 50 96 07 3e 64 f8 0d b9
       0.00027247565 -0.0008383689 0.13240933 -0.0001353934
000130 91 8b 83 3d c8 54 69 be 59 55 72 ba 67 1b 44 37
       0.064231046 -0.22786248 -0.0009244285 1.16888905e-05
000140 2f 80 b4 bd 98 93 ed 3c ab 01 94 3e 46 fc df b8
       -0.088135116 0.029001042 0.28907523 -0.00010680458
000150 4d 4b 24 b9 a0 19 29 37 40 23 7f 3e cf 88 80 b9
       -0.0001566831 1.0079151e-05 0.2491579 -0.00024515993
000160 1e be e6 b7 4a 2a 0e 39 5a 5e 2b 3e 16 52 c2 b9
       -2.7506667e-05 0.00013557929 0.16735211 -0.00037063722
000170 29 06 9d 3d 64 d3 13 bc e8 37 78 37 0e 24 e6 b9
       0.076671906 -0.009022567 1.4794969e-05 -0.0004389588
000180 ac 37 4c 39 e6 3c 83 39 6e ff ae 3d 2f 3d e2 b9
       0.00019475695 0.0002503164 0.08544813 -0.00043151664

S f4 [4, 4]
000000 00 00 00 00 00 00 00 00 00 00 80 3f 00 00 00 00
       0.0 0.0 1.0 0.0
000010 00 00 00 00 00 00 00 00 00 00 00 00 00 00 80 3f
       0.0 0.0 0.0 1.0
000020 00 00 80 bf 00 00 00 00 00 00 00 00 00 00 00 00
       -1.0 0.0 0.0 0.0
000030 00 00 00 00 00 00 80 bf 00 00 00 00 00 00 00 00
       0.0 -1.0 0.0 0.0
