Models/HenonHeiles/HenonHeiles_symplectic midpoint_50epoch_Tanh()_ReLU()_batchsize_64_shape_torch.Size([175000, 4]).pt (torch, 51735 bytes, 6 tensors)

weight f4 [100, 4]
00000000: 1b48 0638 ab36 2439 558e 9739 09c8 3539
00000010: 95a5 bfbe 3e91 183e 2ff0 5abc ba5d c03d
00000020: 373f 2f3f eb54 f4be e2ad 273b 33fc 9f3d
00000030: d161 8ebd c460 46bd f672 5a3c 92ce 8bbd
00000040: 2ccc 8b38 9f52 2839 a098 bcba d272 dab9
00000050: 77e0 223e d00f 943c e0aa 2d3e bc7a e73e
00000060: 060c 863a cc39 94b9 a199 8c3b 12b4 df3a
00000070: a451 e63d f156 bebc 12d2 52be 9571 39bd
00000080: b94c ddbe 1e8e 91be d95c acbe 3648 87bd
00000090: f5fa c9bd 8639 40be becd 4ebe 9eee fcbd
000000a0: 9603 843e 4342 24bd 404e d83c 15a5 c23e
000000b0: 7357 6eb9 fa1a d839 4ba3 31ba 214d 2f39
000000c0: 7060 473e 62b8 1d3d 59e6 89be 3591 98bd
000000d0: 765c ddb8 3c5e 303a e9ba 8abb 6bb3 9eba
000000e0: 4f17 9239 40bf 14b9 27b0 cb39 8e99 6839
000000f0: dfa1 a7b9 7a89 b539 a635 32ba 66e7 17b8
00000100: 7c37 89b9 65ff 093a 6b1c 8eba 9234 eeb8
00000110: f7d2 0cbd 12b5 b6bd bbde 08be 7199 413d
00000120: 0a29 c138 9845 bbb9 84d5 2b3b 62e5 353a
00000130: 96a5 fc39 aec9 c239 ffad 8eba 7a88 5c39
00000140: cf8d 86ba 8894 14b9 b638 a8ba 7a36 34ba
00000150: 0c2d 85ba 6a97 31b9 b7d3 7aba b04e 3dba
00000160: 831a f33e b349 953e 3382 7fbc 3283 8d3d
00000170: e44c d53d 5a32 a9bc 6367 5dbd b0ab f73e
00000180: ebe6 71b8 fa3d 4ab9 a8ca 673a 6c88 3939
00000190: 4faa 143d 0c0a 23bd fd7d a73d cec4 4bbe
000001a0: aef0 433a 3aad a339 bde6 8d3a e920 353a
000001b0: 7bae a4bd e69a 7ebc 8df3 0b3e 589a 2d3e
000001c0: 2495 6cb8 ebd9 8fb9 13a7 c239 b0e5 1db9
000001d0: 81d0 91b9 c99e 48b9 18a6 a539 f47e afb8
000001e0: aa8b 81be b843 433d faae 913d 4365 813e
000001f0: 68fa ad3a 409f e7b9 e3fe 8c3b d96c f13a
00000200: eeca 51ba ca24 86b9 5d91 22b9 69cf 46ba
00000210: 5bbb 79b9 2289 8f39 a8aa 00bb 8025 1aba
00000220: 7ad0 bdba c48d f0b8 abaa 0bbb a72f e3ba
00000230: 96d6 82bd 2e21 00be 7933 13be 7f32 a1be
00000240: caa8 ffbe d7ff a53e 6035 46be 12db 883d
00000250: 3306 e838 9c4b 9b39 9ff2 233a 00ff 853a
00000260: 6e39 39bf 2ddd e2be 3718 5b3d 208c b23b
00000270: db9e 5cb9 c81a c1b9 33e5 ac3a 895e 9438
00000280: 61dc a93e 5387 e7bd 2df7 b8bd 52f1 b23c
00000290: 53d5 1a3a 2936 2839 989f fc3a 60f3 553a
000002a0: 4ed0 98ba 54cf 4f3a 3a95 f2ba ba9b 1bba
000002b0: 7468 6139 5809 18ba 6dd0 ba3a b121 a939
000002c0: 548e b8bc 6d9e ffbd 9133 883d e672 543e
000002d0: 41b0 0ebf b85d a23e 62bc 4e3e 7f86 0a3e
000002e0: ac8d 85be d961 8e3e 683b fd3b 45e1 493d
000002f0: 2e14 493d ec81 bb3c 5ccd 7abe c4e8 f93d
00000300: 6168 c939 b993 103a 5193 06bb 4bf4 a5b9
00000310: 3887 b53a 5d01 9f3a 4eeb 75ba 7969 8339
00000320: 2695 1abd 00a1 c7be 7fb0 5fbc c25c bf3d
00000330: d2da 6739 2081 cc38 3761 ca39 0fe5 ad38
00000340: e0ae 46bd 53e0 b0ba be05 b6bd e4a4 25be
00000350: 81d6 80b9 80d8 69ba 8516 113b aa8c 4bb9
00000360: 6d15 3f3e 6e36 30bd c3f0 5ebe 3759 5e3e
00000370: 92f1 fcb9 8e8f 61b9 b552 e2ba 4db7 b4ba
00000380: d046 213e b22a 0f3e cbec acbe c75a a8bd
00000390: cc50 e0b9 d697 b4b9 1fbd a1ba e83d 24ba
000003a0: cc51 80bd 3ed6 7f3e 2360 723e 0fb0 b8be
000003b0: 012b 4ebd 6bec 413e 163d da3d 826f 7c3c
000003c0: 838d 09bd 0a5c 05be acda 2dbd db4f 043e
000003d0: b337 533a 0c89 03b9 64f1 cc3a 34f1 183a
000003e0: 236a 54bd bc85 7cbe 45c2 b23e 4343 a3be
000003f0: b870 b438 0046 e434 2de9 993a 80e3 0a3a
3.2015243e-05 0.00015660624 0.0002890701 0.00017336024 -0.37431017 0.14899155 -0.013362928 0.09392877
0.68455833 -0.47721037 0.002558582 0.07811775 -0.06952251 -0.048432127 0.013333073 -0.068265095
6.6660665e-05 0.00016052507 -0.0014388748 -0.00041665748 0.15905939 0.018073946 0.16959715 0.45210826
0.0010226972 -0.00028271822 0.004290775 0.0017067215 0.112460405 -0.023234816 -0.20587948 -0.045274336
-0.43222597 -0.2842874 -0.33664587 -0.0660557 -0.098623194 -0.18771943 -0.20195672 -0.123502
0.25783986 -0.040102255 0.0264045 0.38016573 -0.00022730026 0.0004121883 -0.00067763467 0.00016718033
0.19470382 0.03850592 -0.26933554 -0.07449571 -0.000105553234 0.0006727909 -0.004233707 -0.0012107914
0.00027864656 -0.00014185626 0.0003885042 0.00022182448 -0.00031973326 0.00034625438 -0.00067981554 -3.6216712e-05
-0.00026172015 0.0005264192 -0.001084221 -0.00011358516 -0.03438088 -0.08921255 -0.13366215 0.047265474
9.210601e-05 -0.0003571927 0.0026219795 0.0006938783 0.00048188557 0.00037152827 -0.0010885595 0.00021031676
-0.0010265651 -0.00014169712 -0.0012834284 -0.0006874573 -0.001016052 -0.00016936442 -0.0009568291 -0.0007221503
0.47481164 0.2915779 -0.015595007 0.06909789 0.10415056 -0.020653892 -0.054053675 0.48373175
-5.7673937e-05 -0.00019287309 0.0008842149 0.00017693796 0.03629523 -0.039804503 0.08178327 -0.19899294
0.0007474524 0.00031218847 0.0010826212 0.0006909506 -0.08041092 -0.01553986 0.13667126 0.16953409
-5.6405683e-05 -0.00027437447 0.00037127043 -0.00015058252 -0.00027811903 -0.00019132638 0.00031595002 -8.368297e-05
-0.25301868 0.047672004 0.07113452 0.2527257 0.0013273479 -0.00044178404 0.004302846 0.001841928
-0.0008002956 -0.00025585882 -0.00015503676 -0.0007584007 -0.00023816286 0.00027377257 -0.001963297 -0.0005880222
-0.0014481687 -0.00011470498 -0.0021311443 -0.0017332927 -0.06388585 -0.12512657 -0.14375104 -0.31483838
-0.49933463 0.32421753 -0.19356298 0.06682409 0.00011063777 0.00029620237 0.000625411 0.0010223091
-0.72353256 -0.4430937 0.05348989 0.005448833 -0.00021040013 -0.00036831782 0.0013190865 7.0747985e-05
0.33175948 -0.11305108 -0.0903152 0.021843586 0.00059064216 0.00016041905 0.0019273637 0.0008161571
-0.0011658759 0.00079273176 -0.0018507608 -0.0005935986 0.00021496584 -0.0005799732 0.001425279 0.00032259294
-0.022528805 -0.12481389 0.066504605 0.20746955 -0.5573769 0.31712127 0.2018905 0.13527869
-0.2608465 0.27809027 0.007728029 0.0492871 0.04909151 0.0228891 -0.24492401 0.122026
0.00038415476 0.00055151765 -0.0020534585 -0.00031653265 0.0013849502 0.0012131144 -0.00093810714 0.0002506485
-0.037739895 -0.3899002 -0.01365292 0.09343864 0.00022111394 9.7515294e-05 0.00038600873 8.291948e-05
-0.048506618 -0.0013494588 -0.08887814 -0.16176182 -0.0002457388 -0.00089205056 0.0022138667 -0.0001941199
0.18660517 -0.04302066 -0.21771531 0.2171372 -0.0004824517 -0.0002151115 -0.001726708 -0.0013787538
0.15749669 0.1398113 -0.3377441 -0.082204394 -0.00042784808 -0.00034445402 -0.0012339688 -0.0006265328
-0.062656015 0.2498407 0.23669486 -0.36071822 -0.05033398 0.18937843 0.106561825 0.015407445
-0.03358222 -0.13023391 -0.04244487 0.12921087 0.0008057311 -0.00012544187 0.0015635905 0.0005834282
-0.051859032 -0.2466039 0.3491384 -0.31887254 8.604064e-05 4.251924e-07 0.0011742465 0.00052981824

bias f4 [100]
00000000: 1d07 0740 8f47 073f 0117 84bc 44d9 2c3f
00000010: c13a 0140 d82e 2bbf 78d7 f73f 9da5 35bf
00000020: dbee afbe 495b 143f 0b25 293f c8b5 ffbf
00000030: dfbf 0d3f beb6 9dbf 42e9 b8bf 8368 e83f
00000040: 7525 0040 5436 0e3f 93b9 03c0 3c21 df3f
00000050: 12d8 03c0 03e2 00c0 a490 983e 7cf7 1f3f
00000060: 6328 00c0 7d08 2b3f c28a fc3f 006b 353f
00000070: 684c f3bf 7d94 fb3f dce7 1d3f a097 c0bf
00000080: 52aa e63f 968f 0040 8547 f4bf 48dd 143f
00000090: fb11 543e d44c f83f 6dcf d23a 720b e9bf
000000a0: 7a86 ffbe e7a9 fa3f f70d 01c0 3717 f43f
000000b0: 58f2 20bf dd22 5f3e 4541 163f a91e 31bf
000000c0: bfbb 0ac0 df98 0dc0 c6b1 3ebf 4e86 08c0
000000d0: 95aa 323f 07d4 e3bf d538 1bbf 06e4 9dbf
000000e0: e11a 27bf 83de e83f bcf2 08bf 2fed 0ebf
000000f0: 49bc 343f 3e56 ffbf 3282 143f e8f1 d4bf
00000100: 5f50 243f fdb2 8abe dc59 203f c338 f4bf
00000110: 629e 283f 0c33 fe3f 6b04 1a3f 3a32 14bf
00000120: 8025 e23e 1eac e8bf f9e0 0040 733c 4d3f
00000130: 045b 22bf f57a 293f a78c b23f 9f90 0bbf
00000140: c610 fa3f 7a71 adbf 846e f73f 088d 28bf
00000150: 0bf1 04c0 5af8 d63f 94b7 0a40 69ab ecbf
00000160: 4d04 973f 17c3 0040 16e9 d93e 3686 edbe
00000170: d755 0abd d573 ec3f 0ee0 383f 04b0 f4bf
00000180: 1214 193f f288 1cbf 05c9 25bf f980 72bf
2.1098092 0.52843565 -0.01612425 0.6751902 2.019211 -0.6686835 1.9362631 -0.7095583
-0.3436192 0.5795179 0.6607215 -1.997735 0.553709 -1.2321393 -1.4446185 1.8156894
2.0022862 0.5555165 -2.0582016 1.7432017 -2.060063 -2.0137947 0.29797852 0.62487006
-2.002465 0.6680983 1.9729846 0.70866394 -1.9007692 1.965469 0.61681914 -1.5046272
1.8020728 2.0087638 -1.9084326 0.5815015 0.20709984 1.9398446 0.0016083546 -1.8206618
-0.49907285 1.95831 -2.0164773 1.9069585 -0.6286979 0.21790643 0.58693343 -0.6918741
-2.167709 -2.2124555 -0.7449001 -2.1331973 0.6979154 -1.7799081 -0.60633594 -1.2335212
-0.6527539 1.8192905 -0.53495383 -0.55830663 0.705998 -1.9948194 0.5801116 -1.6636324
0.64185137 -0.27089682 0.62637115 -1.9079822 0.65866673 1.9859328 0.6016299 -0.5788914
0.44169235 -1.8177526 2.0137312 0.80170363 -0.6342013 0.6620324 1.3949174 -0.5451755
1.9536369 -1.3550255 1.9330602 -0.65840197 -2.077212 1.6794541 2.1674547 -1.848981
1.1798187 2.0119073 0.42560643 -0.46391457 -0.03377327 1.8472849 0.7221688 -1.9116216
0.5979625 -0.6114646 -0.64759856 -0.94728047

weight f4 [100, 100]
00000000: 37a6 d93d 468e 983d 3afa bebd 0d9f b13d
00000010: 5d0b 5ebd 68f0 25be 0e8a eb3d 85d0 38bd
00000020: 5465 85bc 6b4a 30bd 54bb 3dbd 398f 563d
00000030: c05d 17be 950f 34bd 14bd b13b 58bb 323e
00000040: 8e58 cb3d 867f df3d d1d2 b13c 7114 dcbd
00000050: a7a4 f3bc 14fa 8d3c 96d5 583e 7f94 ec3d
00000060: 5131 28be 0e07 02bd f032 d5bd f653 323e
00000070: d48f a5bd ce6f 8a3d 336a b43c a9a6 ef3d
00000080: 89d0 20be 381e d03d a2ba babd 84d4 bdbd
00000090: 27c5 373c cbb0 5a3e ef07 3dbe 4243 c739
000000a0: 1f51 9cbd f3ec 243e 2aa0 04be 8da8 213e
000000b0: af24 87bd 48e4 2dbc 3832 bdbc a37d d6bd
000000c0: d268 bc3d 38e7 9cbd a85a ce3d 6a0e f0bd
000000d0: 2a8c 5d3d d842 57bd edfe 22bc f7d9 9dbd
000000e0: 8e28 d23c 28cb 383e 6747 ce3d 054a 86bc
000000f0: b94e b83d f078 2dbe 9bd5 a0bd d54d e8bd
00000100: 4094 e13c 2db4 95bd b213 4b3d 1800 92b9
00000110: 81e0 fbbc 5f0b 383d 2ede 173e 5ec3 38bd
00000120: 1399 6abe 748e 163b 77e9 8abd e8ac f9bc
00000130: 91c7 263e e5da f13d 0a2c 57be e9af 1cbd
00000140: 4560 b33b 953d bf3c 252a 4ebd f06c de3d
00000150: b533 193e f458 3f3a f76b 15be 2712 6fbd
00000160: 9245 433c 38ab 1d3d 3f3d b3bd f8e0 f2bc
00000170: fa07 b3bd 9df5 9e3d 0b14 09bd 4396 a6bd
00000180: 09b1 093e 3bff 46bd 7369 a93d 2043 573d
00000190: 0db9 3d3e 5225 0b3e a9b1 2fbd 6863 85bd
000001a0: aefc fa3d da70 fbbc d00c 8a3e d8da 04bd
000001b0: 7074 c13c 7ba3 72be ca7f 323e 6dc1 203c
000001c0: a422 40bc b7dc cdbd 6b88 763d 57ab 44bc
000001d0: 38ba a43d 7d59 fabd 5543 b83d 42d2 0abd
000001e0: 31e4 b2bc b596 7bbd d111 023d 62d1 a1bd
000001f0: 03a8 f73d 75f8 0bbe 433c bebd 919b 383b
00000200: 90c8 4c3e b167 a0bc 3515 34bd b257 983d
00000210: 9e05 a8bd 5354 83bd dd25 12be fa5a 72be
00000220: ed70 23bc 748b 103d ce7f adbd 52b4 8f3d
00000230: 05cc f53c 69da 23be e720 a73d 20ba ee3b
00000240: 709e 0f3d 3621 56be 7040 a53d 547f 1ebc
00000250: f0c1 ef3c 09ca 093e 03d0 91bc f76d 9d3c
00000260: 2991 a5bd fc57 49be ab63 c63d 9683 26bd
00000270: 230c d5bc c404 86bd 1618 5abe 5936 183d
00000280: c3e8 433d fe80 9a3b bd7f 8ebe d437 513d
00000290: 2197 aabd 715d f43d 44ae 5bbd b88b de3d
000002a0: 64ad 123c 9710 84bd 8c5f b23d c9ce e0bd
000002b0: 2793 79bd 963a d4bc d73e 443e 62eb f9bc
000002c0: bad9 9abd 36c9 8bbd 3400 9bbd 6791 0dbd
000002d0: dcda 693d d6f9 f6bd e0c0 cbbb 3dce bf3d
000002e0: 4dbe 1a3d 9603 88bd fc43 bf3c a859 913c
000002f0: 8d68 b0bd bab4 6dbe f084 893d ce63 6abe
00000300: e1b9 2b3d 9b51 5cbe d083 953d 83f5 343e
00000310: 4043 af3d 09be 53bd 3cb6 b2bc ff71 c8bd
00000320: 7661 0cbd 3720 7fbd 91a8 19bd d04f 533c
00000330: f93d 04bd 8863 03bc 45ed 3dbd 75f4 6abd
00000340: 0324 82bc ab2e 02be 6e4d b8bd 5932 43bc
00000350: a399 cd3d 861f 01be b62e 833e f0ca 8abb
00000360: e965 cf3c 5865 223c 1e96 a4bd ac90 0abd
00000370: feea 493c 8978 30bd d315 e43c f66c c9bc
00000380: e92f b8bc 367f a5bd e697 163e 22e3 1c3e
00000390: ffa3 3ebe bbcd 81bc 3f52 fcbd 5258 0dbe
000003a0: 74e7 3dbd c88c c23d d605 00be f3ce fdbd
000003b0: 51a2 863d 6626 78bd b4d2 653d f5d1 ecbc
000003c0: 2548 9cbd c7d1 1139 4eda ebb8 361d babd
000003d0: 10bd 833c 44d3 28be 5ec1 a33d 22e0 7f3d
000003e0: c993 8fbd 7154 ddbc d70d 41bd 9f39 a2bd
000003f0: 4a67 3bbe ed96 02bd 39b5 b4bd 3758 133e
0.10627406 0.074490115 -0.09325071 0.08672915 -0.054210056 -0.16204989 0.11500941 -0.045120735
-0.016283669 -0.04303972 -0.04632123 0.05238268 -0.14781857 -0.043960173 0.005424151 0.17454278
0.09929 0.10912995 0.02170697 -0.107460864 -0.029741598 0.01733116 0.21175227 0.11551761
-0.16425063 -0.03174501 -0.10410106 0.17414841 -0.08084074 0.06759606 0.022023296 0.1170171
-0.1570455 0.10162014 -0.09117629 -0.0926905 0.011216438 0.21356504 -0.18460058 0.0003800635
-0.0763266 0.16106014 -0.12951723 0.15786953 -0.06598794 -0.0106135085 -0.023095235 -0.10473182
0.091996804 -0.07661289 0.10075885 -0.11721499 0.05408875 -0.05255398 -0.009948474 -0.07707589
0.025654104 0.18046248 0.10072213 -0.016392717 0.0899939 -0.16940665 -0.07853242 -0.1134297
0.027536511 -0.073097564 0.04957933 -0.0002784736 -0.0307467 0.04493272 0.14830849 -0.04510819
-0.22909956 0.0022973092 -0.06782811 -0.030477956 0.16287066 0.11809329 -0.21012893 -0.0382537
0.0054741227 0.023344794 -0.05033316 0.10860622 0.14961131 0.0007299327 -0.14591967 -0.05836692
0.011918442 0.038493365 -0.08751916 -0.02964829 -0.08741756 0.07761691 -0.03346638 -0.08134129
0.1344644 -0.04858325 0.08272066 0.05255425 0.18527623 0.13588455 -0.04289404 -0.06513101
0.12255226 -0.03069346 0.269629 -0.03243527 0.023615092 -0.23695175 0.1743156 0.009811741
-0.011727009 -0.10051864 0.060188692 -0.012003741 0.08043331 -0.122241 0.089972176 -0.033891924
-0.021837326 -0.061423022 0.031755272 -0.07901265 0.120925926 -0.13668998 -0.09288838 0.0028168897
0.19998384 -0.019580694 -0.043965537 0.074386016 -0.082041964 -0.06412568 -0.14272256 -0.23667517
-0.009975654 0.035289243 -0.084716424 0.07016815 0.03000451 -0.16001286 0.081605725 0.0072853714
0.035063207 -0.20911106 0.08068931 -0.009673912 0.029267281 0.13455977 -0.017799383 0.019217474
-0.08084328 -0.1966247 0.09686979 -0.040652834 -0.026006764 -0.06543878 -0.2129825 0.037161205
0.0478294 0.004715084 -0.27831832 0.051078632 -0.08329607 0.11931885 -0.05363299 0.10866493
0.008952472 -0.06448477 0.0870963 -0.10976941 -0.06093135 -0.025906842 0.19164596 -0.030507747
-0.07561059 -0.06825487 -0.07568398 -0.034562495 0.057093486 -0.12059371 -0.006218061 0.09365509
0.03777914 -0.06641309 0.023347847 0.017742947 -0.086136915 -0.23213473 0.06714809 -0.22889635
0.041925315 -0.21515505 0.07300532 0.1767178 0.08557749 -0.051694904 -0.021815412 -0.09787368
-0.034272633 -0.06228658 -0.037514273 0.012897447 -0.032285664 -0.008019336 -0.046368856 -0.05736204
-0.015886312 -0.12713115 -0.089991435 -0.011913859 0.100390695 -0.12609681 0.25621575 -0.004235618
0.02531715 0.009911858 -0.08036445 -0.033829376 0.012324093 -0.0430837 0.027842438 -0.02458809
-0.022483783 -0.08080904 0.14706382 0.1532102 -0.18617247 -0.01584517 -0.12320375 -0.13803223
-0.04636331 0.09499508 -0.12502226 -0.12392988 0.06573928 -0.060583495 0.056109145 -0.028908709
-0.07630948 0.00013906426 -0.000112463356 -0.09087603 0.016081363 -0.16486841 0.07995866 0.06246961
-0.0701061 -0.027017804 -0.04713234 -0.079211466 -0.1830112 -0.031882215 -0.08823628 0.1438912

bias f4 [100]
00000000: 50f9 283d f0d4 5ebd d7b7 56bd f568 ab3d
00000010: dae2 c8bc 6dd5 91bc 7ded c5bd ddc8 3cbd
00000020: 303d c03d b3c0 5c3d 33a8 6abc 80bf 933b
00000030: 47ca 903d 2054 c1bd f21c 93bd 0743 aa3d
00000040: c0a5 24bd 15b7 913d 1d12 42bd 1366 8abd
00000050: b737 2abd 804a f4bb 2ae5 6fbd 6d82 de3c
00000060: 6f5b ca3d c72a 9f3c 8dfe d83c c74f cdbc
00000070: 5301 313d c2ec aebd 8700 fcbc 25af c43d
00000080: ea35 22bd b379 aebc 0066 823a 33d3 cc3a
00000090: 4797 943d a7cd 21bc b27a c3bd 501c 31bd
000000a0: 6df6 b2bd 9a5f b6bc b715 8e3d ad32 d33c
000000b0: c0aa 7b3c 8aaf 30bd 9d76 42bd 1ade 1c3c
000000c0: c03d 6c3d 9acb 09bc 8d57 eabc 7b74 a2bd
000000d0: c07e 3fbd 3f0d acbd 333f 8e3c f79f 533d
000000e0: 80ad 6abc a72c c7bd f3a5 3ebc 0dc6 a43d
000000f0: 4dc2 c0bd fad8 cabd dd27 aebd 7d67 b33d
00000100: e264 ad3d c282 913d a7f7 7e3d 738d 79bc
00000110: 73be 3bbd ad22 923d 8a25 393d 70e7 40bd
00000120: 2088 5f3d 20df cabd 27c3 00bd f27f 8fbd
00000130: 4802 adbd aa64 04bd aaba 65bd c7a4 afbc
00000140: fa1b 10bd 5b6a c1bd fa8f 533d 6aaa bcbd
00000150: 9a85 7cbb 9a25 953b c5f0 a4bd 7b73 afbd
00000160: 13e1 bbbc b7d7 79bd c763 46bd 9a87 89bb
00000170: 0ac8 2a3d 27ff 843d d787 6c3d 5a21 423d
00000180: f757 833d 3316 343d 0389 bf3d 8009 7dbd
0.041253388 -0.05440229 -0.052421417 0.08369628 -0.024522234 -0.017801965 -0.09664438 -0.046089996
0.093866706 0.05389471 -0.014322328 0.0045089126 0.07069831 -0.09439874 -0.07183255 0.08313566
-0.040197134 0.07114998 -0.047380555 -0.0675775 -0.04155704 -0.00745517 -0.058568157 0.027161801
0.09880721 0.019429578 0.026488567 -0.025062455 0.043214153 -0.08541252 -0.03076197 0.09603719
-0.039602198 -0.021298265 0.0009948611 0.0015626907 0.07255416 -0.0098756915 -0.09544887 -0.04323989
-0.08738408 -0.022262383 0.069377355 0.025781 0.015360534 -0.043136157 -0.0474764 0.0095744375
0.057676077 -0.008410359 -0.0286062 -0.07932373 -0.046751738 -0.08400964 0.01736412 0.051666226
-0.014323592 -0.09725314 -0.011636245 0.08045588 -0.0941206 -0.09904666 -0.08503697 0.08759973
0.084665075 0.07105018 0.0622479 -0.015231478 -0.045835923 0.0713552 0.045201816 -0.047095716
0.05457318 -0.09905839 -0.03143611 -0.070068255 -0.08447701 -0.032322563 -0.05608622 -0.021440877
-0.03518293 -0.09444114 0.05165098 -0.092121914 -0.0038531781 0.0045516016 -0.08053736 -0.08566948
-0.022934472 -0.060996737 -0.048435 -0.004197073 0.04169468 0.06493979 0.057746734 0.047395088
0.06413262 0.043966483 0.09352305 -0.061776638

weight f4 [1, 100]
00000000: f22a 603a c6c4 103e 1b64 263a 098a 453b
00000010: ab45 53bc e11b 7bba e5bd 86bd 69c4 21be
00000020: 83fe 23ba d265 ddbe 323f 363d 1696 ccbe
00000030: 1160 3d3c 8aa5 38be 2a01 483a 29f4 593d
00000040: 8cc5 5bbc 3d81 1d3c a041 12bd 52f9 523e
00000050: 4f22 81bd 5a81 d93d e24f b239 6b01 013b
00000060: 095d 973b 22b3 e2b9 5376 393e b131 35bc
00000070: 7204 e739 efab 5d3d 7beb bf3d 3827 8dbb
00000080: 89a5 81be 425a 0abd 9ada a23d 9f62 8fba
00000090: 0d1a e2ba 6ef0 9cbd 7515 0c3e e0f0 11be
000000a0: 9a05 c83d 84be aa3d 68c9 0abd 5edd a93d
000000b0: 9b74 8bbe 3552 78be 558e abbd 2db3 0b3e
000000c0: 4f9f e93d fc12 46bf e837 42be 72e1 83bd
000000d0: 4ce6 d4bd 4d7a 74be efaa d13d 35cf 32be
000000e0: 0f6f b73d f5e8 78bd a36e 623e 913e a6bd
000000f0: 0fd3 dcbe a460 433e c69d aebc 3b67 f5bd
00000100: 36a6 fbbe d2d0 d23d 554c 8a39 0522 b93d
00000110: cca2 8a3c efcd 083d 311e cabd bea3 1cbe
00000120: 93a6 523d 3889 303c aa9c 323e 65fd 49bd
00000130: ad8c 8f3c 4595 8ebd d96b 11bf ae24 b1bd
00000140: a6d1 45be 0a67 9f3c b43d a53d 8981 16bf
00000150: 6ae6 6dbb 6324 c3ba 28b7 9339 f181 ebbc
00000160: 6111 1dbe a661 d4ba c4c1 bb3c c6f8 8dba
00000170: e20e 093a 87ba 9b3d 4639 02bf 6a1d af3d
00000180: 97af d2be 100a 1c38 961b ec3b d0c3 53bc
0.0008551321 0.14137563 0.00063473143 0.003014209 -0.012895028 -0.00095790444 -0.06579188 -0.15797581
-0.0006255882 -0.43241745 0.04449386 -0.39958256 0.011558549 -0.18031898 0.0007629568 0.053211365
-0.013413798 0.009613332 -0.035707116 0.2060292 -0.06305372 0.10620375 0.00034010323 0.0019684683
0.004619245 -0.00043239543 0.18111543 -0.011059211 0.00044063065 0.054119047 0.09371086 -0.0043076538
-0.25321606 -0.033777483 0.07951851 -0.0010939426 -0.0017250195 -0.07663046 0.1368006 -0.14252043
0.097666934 0.08337119 -0.033883482 0.082941756 -0.272374 -0.2425011 -0.08376757 0.13642569
0.11407339 -0.7737272 -0.18966639 -0.06439485 -0.10395488 -0.23874779 0.10237681 -0.17461856
0.089567296 -0.06076904 0.22112517 -0.08117402 -0.43129775 0.19079834 -0.021315467 -0.1198258
-0.49150246 0.102937356 0.00026378283 0.09039692 0.01692333 0.03339952 -0.0986904 -0.15296838
0.05142839 0.010774903 0.17442575 -0.04931392 0.017523134 -0.06962065 -0.5680519 -0.08649574
-0.19318256 0.019458313 0.080684096 -0.58791405 -0.0036300668 -0.0014888163 0.00028174487 -0.028748484
-0.15338661 -0.0016203418 0.022919543 -0.0010831587 0.0005228353 0.07603937 -0.5086864 0.08550532
-0.4114959 3.720267e-05 0.007205437 -0.012925103

S f4 [4, 4]
00000000: 0000 0000 0000 0000 0000 803f 0000 0000
00000010: 0000 0000 0000 0000 0000 0000 0000 803f
00000020: 0000 80bf 0000 0000 0000 0000 0000 0000
00000030: 0000 0000 0000 80bf 0000 0000 0000 0000
0.0 0.0 1.0 0.0 0.0 0.0 0.0 1.0
-1.0 0.0 0.0 0.0 0.0 -1.0 0.0 0.0
