Models/HenonHeiles/HenonHeiles_midpoint_50epoch_PAU()_Softplus(beta=1.0, threshold=20.0)_batchsize_64_shape_torch.Size([175000, 4]).pt (torch, 53009 bytes, 8 tensors)

numerator f4 [6]
00000000: 3e1d e2b8 c498 92bb cc6d b33d 2f7b a73f
00000010: b81c 763d f288 e63e
-0.000107819666 -0.0044737775 0.087611765 1.3084468 0.060085982 0.45026356

denominator f4 [4]
00000000: 4df1 61bf 1919 4e3f 7eed 02bf a074 e4bd
-0.8825882 0.80507046 -0.51143634 -0.11155057

weight f4 [100, 4]
00000000: 505e 633e 8dbf 1cbd 9a07 11bd 00a5 b2be
00000010: e394 643e 9f40 053c 1bc6 b1be e966 be3e
00000020: b8da b9bc 9c3b 223e b3ad 423e 69bc 4f3e
00000030: 775a 843e 4948 4f3e 9419 453c 1d7c f9be
00000040: 6359 7bbe aff5 203e 765e 39be a477 38be
00000050: 47d6 49be 099a 043e ee9d 423e 747f 6c3d
00000060: a3d5 6e3d 00b2 b83c 9eed d0bd e398 703e
00000070: 3d94 6aba 346e 2bba 5dcb 1639 7f41 6a3a
00000080: 1470 7dbd 0993 a63d 7437 713e a77e dbbe
00000090: 1280 52bc 9aea 683e 65ad 753e 2de8 17be
000000a0: 058b c33d ed2d 26bd cb4f aebd 933b 9a3d
000000b0: 694f e739 da74 363b 3225 453a 7411 b8ba
000000c0: cdc7 963c bfd8 68bd de45 64bb 8ac6 143d
000000d0: f629 473c ce80 043f 9f19 6a3d 0219 59bb
000000e0: 9f32 cf3c 8f8a 39bf d6d6 87bd 7ba2 1bbe
000000f0: f5dd 8c3e 3443 2fbe ad32 b03e 1da9 f2bd
00000100: 5cf5 00bc 7245 9f3e ac2e a73c e719 c9bd
00000110: cb29 903e ecaf 383e c505 173e 36ef 0cbd
00000120: 5a0a 163c d518 11bf 4a7c b5bd 9652 3ebd
00000130: 9b30 e23b d21f 09bf 668e f2bd 8bb7 863d
00000140: b24e e9b9 1cf6 163a 980c afba 732c d339
00000150: 1a71 2f3f f042 d43e 7ee7 e43b 7e90 ac3d
00000160: 9ae7 e93b e47b 34bd ce14 9dbd 3a43 0c3e
00000170: ecaf debe 1ba7 77be e27c 423d f4f5 163d
00000180: 967b bebc 1adb 9b3d 9de1 27be a382 693e
00000190: 2c4f c8bb c4c7 773c 2874 063f 2314 1c3e
000001a0: 144e 133d 44f1 f43c f9ad ee3d fa70 213d
000001b0: 7ba3 6abe 573a 373e 6183 19be 25c5 27bd
000001c0: 080b f03e efc6 82be 59c2 5dbd 27e1 b7bc
000001d0: 80d9 00b9 b39d ba39 1f4e bf3a 88cc c53a
000001e0: 38ec 6e3b 98fb 8d3e e2e3 053d 4f03 9f3d
000001f0: e15d a9bd 0ae1 d83d fe33 d0be 98fd 523e
00000200: c0e7 30bf 8d26 dd3e 54d1 e33c b99d 53bc
00000210: 0fcd 81bc 15a7 bdbd fc65 833d 5989 3d3e
00000220: e757 7f3e 8d31 e1bd 0dab ce3d 5643 013e
00000230: 4684 7fbc da7c ebbd 4ebf 0a3e c38e 013f
00000240: a8e8 43bd e523 053d 83f5 81bd e605 103d
00000250: 79ea a4bc 84dd a6ba a726 11be 9ef2 8cbe
00000260: fbf9 4d3d 677b 183d c276 28bd 0adc 113e
00000270: 52c8 af3d 86fd 92bd f025 debc 2a33 223c
00000280: 30bc fdbb bbd9 bebe 30ec 40be 5def b43e
00000290: f0b9 933e c37f 443e 3a76 cb3d 21fe 413e
000002a0: 9d17 8cbb 9ac7 00bf 8386 3f3e 4b27 1c3e
000002b0: 86d4 eebd dd80 f13d 3186 223d 9acb 8c3e
000002c0: eebe 39bd d6a5 1ebe b8af 9d3d a3a0 b53e
000002d0: 45df 043f ff3f 9b3e a3af 053b 7933 c43d
000002e0: 0064 ac3e c89e dbbd 4cb0 db3d 9931 963e
000002f0: e4e4 e9bc 227a a5be 508a 7ebd aa28 a03e
00000300: ee9c bf3d d436 b13d 21a0 0c3e fe7d bf3c
00000310: abaa 36be e30b 5ebe 2ef1 c73e f84c e83b
00000320: e4f8 143d b60b 403e d4f1 b8bd 6235 83be
00000330: b41c 07be 43af d1bd 4f0d e8bd c2bc cbbd
00000340: 909c 973b 06ed 2c3f 097c 88bd 91e2 b3bd
00000350: 62b9 27bc 7ed2 013e 9af0 0fbf 4a2c 62be
00000360: b3da 5cbe 458d 69be fc4f 36be 712d 9abe
00000370: fc04 81be 2253 3c3e 5b75 01be bfd4 ad3e
00000380: c452 71b9 477d 01ba cf82 3ab9 af4b 20b9
00000390: 331c 8c3e 8361 3dbd 982f 8fbe 6608 a03e
000003a0: 2a6f fd3d c7f3 bc3d e275 ca3d 22e6 6239
000003b0: 08ab 74be ff7d 023e c9eb 023e 5638 83be
000003c0: a215 b2bd 2611 203d 7355 e53d 9221 7cbd
000003d0: 64fb 94be 9d77 6abe b5c5 89be 140e b93d
000003e0: befe 893e d9c7 253e 0264 de3d 982e 7bbd
000003f0: 05aa 4dbd 2c95 133d 4ac4 a2bd 1a25 c9be
0.22203946 -0.038268615 -0.03540764 -0.3489151 0.22322421 0.008133083 -0.34721455 0.3718789
-0.022687301 0.15843052 0.19011573 0.20286717 0.2585027 0.20242418 0.012030024 -0.48727503
-0.24545817 0.15718721 -0.1810244 -0.1801439 -0.19710647 0.12949385 0.19005558 0.057738736
0.05830921 0.022545815 -0.10201572 0.23495822 -0.0008948481 -0.0006539554 0.00014380873 0.0008936151
-0.061874464 0.081335135 0.2355631 -0.42870066 -0.012847917 0.22745743 0.23991926 -0.14834662
0.09548 -0.040571142 -0.08511313 0.07530894 0.0004411892 0.0027840645 0.0007520496 -0.0014043287
0.01840582 -0.05684733 -0.0034831683 0.036322154 0.012156 0.5175904 0.05715334 -0.0033126478
0.025292693 -0.7247705 -0.066327736 -0.151987 0.2751309 -0.1711548 0.34413663 -0.11848662
-0.007870998 0.3110767 0.020407997 -0.098193936 0.28156886 0.18035859 0.14748295 -0.034407817
0.009157741 -0.56678516 -0.08861597 -0.04646548 0.006902767 -0.5356418 -0.118435666 0.06577977
-0.00044499856 0.0005758719 -0.0013355194 0.00040278173 0.68531954 0.4145732 0.006985604 0.08425997
0.0071382048 -0.044063464 -0.07669984 0.1369752 -0.43493593 -0.2418484 0.04748238 0.036855653
-0.02325229 0.0761015 -0.16394658 0.2280374 -0.0061129536 0.015123311 0.5252099 0.15242057
0.035963133 0.0299002 0.116542764 0.039414383 -0.22913925 0.17893349 -0.14991523 -0.040959496
0.46883416 -0.255424 -0.054140422 -0.022446228 -0.00012288056 0.0003559418 0.0014595425 0.0015090862
0.0036456715 0.27731013 0.03268803 0.07764303 -0.08269859 0.10589798 -0.40664667 0.20604551
-0.6910362 0.43193474 0.027809776 -0.012916022 -0.01584485 -0.09260384 0.06415936 0.18509425
0.24935876 -0.10995779 0.10091219 0.12623343 -0.015595501 -0.11498423 0.1354954 0.5060846
-0.0478293 0.032504935 -0.06345656 0.035161875 -0.020131337 -0.0012730812 -0.14174901 -0.27528852
0.050287228 0.03722706 -0.04112888 0.14244094 0.0858313 -0.07177262 -0.0271177 0.009899894
-0.007743381 -0.3727549 -0.18840098 0.3533887 0.28852797 0.19189362 0.09934659 0.18944599
-0.004275276 -0.5030457 0.18703656 0.15249364 -0.116616294 0.11792157 0.039678756 0.27499086
-0.0453481 -0.15492949 0.07699531 0.3547412 0.5190318 0.30322263 0.0020398877 0.0958013
0.33670044 -0.107236445 0.10726985 0.29334715 -0.028551526 -0.32319742 -0.062143624 0.31281024
0.09356104 0.08653036 0.1373296 0.023375507 -0.17838542 -0.21684222 0.39051193 0.0070892535
0.036370173 0.18754467 -0.090305 -0.25626665 -0.13194543 -0.10238507 -0.113306634 -0.09948112
0.004626818 0.6754917 -0.06664283 -0.087834485 -0.01023707 0.12677953 -0.56226504 -0.22087207
-0.21567802 -0.22807796 -0.17803949 -0.30112794 -0.25199115 0.18391088 -0.12642424 0.33951375
-0.00023014384 -0.0004939627 -0.00017787072 -0.00015286983 0.27365264 -0.046235573 -0.27966 0.31256407
0.123747185 0.09226184 0.098857656 0.0002163877 -0.23893368 0.12743376 0.12785257 -0.25628918
-0.086955324 0.039078854 0.11197939 -0.061555453 -0.29098046 -0.22897191 -0.2690865 0.09035888
0.26952165 0.16189517 0.10858919 -0.061323732 -0.05021097 0.036030933 -0.079475954 -0.3928612

bias f4 [100]
00000000: 5c89 e0bd f2aa fd3e 4723 313d 146e ca3e
00000010: 58e6 b33d b035 3a3c 026a f3bc f0b8 4ebe
00000020: 0836 313e a8a7 30bd e05f 63bd 0fb1 1dbe
00000030: ecbe 3f3b a9d2 17bc d263 7b3e 9a1c 00be
00000040: 344b d1bc 7a82 d9bc 3dfc 843d dd01 1f3e
00000050: 20fa 84be 008d 843e 827f febe eff1 09bd
00000060: 33d2 843d 1ccf 96bd 2457 41bc 99a6 373d
00000070: f715 d8bd 36c0 afbe f5b8 eebc a3cc 0d3e
00000080: 54c1 8c3e dac2 9fbb 71cc ecbc ddd1 313e
00000090: 3243 49bd 751e 9cbd d729 0d3c e8d5 7cbd
000000a0: 5ae8 143e ce13 f3bb eec8 0f3e 7261 1f3d
000000b0: e878 b23c b3c7 7b3d 8150 cdbd ece8 0c3c
000000c0: 08ea f6bb 688c cebd 5ab3 67bd dce4 34bd
000000d0: 94a9 f63d 7233 603e 0fec 253f ebaa 98bb
000000e0: a50f 5abe 9bfe b9bd deb6 58bc 9a8c 1fbc
000000f0: ed26 79bb 93c7 dbbd bcd8 87bc 2d70 d73d
00000100: 71ea cc3e 2f6a 85bd e8ca 49bd 1f31 153e
00000110: a0c9 dc3d a4f2 dc3c a76b 023e b7ea 34bd
00000120: ce6a d23a 7a40 1dbf 7f30 ae3c d9fb dc3d
00000130: f0a5 383d 70f5 38bd 1fd8 5cbe c0cc aa3c
00000140: 2c86 babd 616d 83bc 717e 043c afb8 2abb
00000150: bb40 03bc b21d 1cbd 0635 a6bd aefa 77bd
00000160: 368d 073d 65ce 8bbc 6b89 43be c0bd 1dbc
00000170: c585 05be ba57 8b3d 83cb 653e 9909 0ebf
00000180: 6119 96bd dc5e 1bbd e835 913b f756 27bd
-0.10963699 0.49544483 0.043246534 0.39537108 0.08784169 0.011365339 -0.029713634 -0.20187736
0.17305768 -0.04312864 -0.055511355 -0.15399574 0.0029258085 -0.009266534 0.24549797 -0.1251091
-0.025548555 -0.026551474 0.06493423 0.15528055 -0.2597208 0.25888824 -0.49706656 -0.03367799
0.06485405 -0.07363722 -0.011800561 0.044836614 -0.105510645 -0.34326333 -0.029140929 0.13847594
0.27491248 -0.004875523 -0.028906079 0.17365213 -0.049136348 -0.07622997 0.008615932 -0.061727434
0.1454176 -0.0074181324 0.14041492 0.03891129 0.021786168 0.061469745 -0.100251205 0.008600455
-0.007535223 -0.10085374 -0.056567527 -0.04416357 0.12044063 0.21894625 0.6481332 -0.004659047
-0.2129503 -0.09081765 -0.013227193 -0.009738112 -0.0038017586 -0.10731425 -0.01658284 0.10519443
0.40022615 -0.065143935 -0.049265772 0.1456952 0.107806444 0.026971169 0.12736379 -0.044169154
0.0016053559 -0.6142651 0.02126336 0.10790224 0.045080125 -0.045155942 -0.21566819 0.020849586
-0.091076225 -0.016043367 0.008086787 -0.0026050021 -0.008011038 -0.038114257 -0.08115582 -0.0605418
0.033093654 -0.01706619 -0.1909539 -0.009627759 -0.1303931 0.06803842 0.22440915 -0.55483395
-0.073290594 -0.03793226 0.004431475 -0.04085442

weight f4 [100, 100]
00000000: 0f43 3f3d d96a b9bc b60e 4fbe a55d 69bc
00000010: fb6f 4a3b f3b4 9bbc 9a6e e5bc 8866 aabd
00000020: 2393 c53d e23d 85bd d2cd 653e a355 cf3d
00000030: dfe8 52be c5a7 263e 5387 08bc d995 6b3e
00000040: 7790 35bd 9819 1ebd fcf4 cabc 9d9c 1c3e
00000050: b70e f03b 9873 fa3c f4ca bfbd f742 b0bd
00000060: b350 833d c3f9 913d e559 97bc 541b 5bbc
00000070: fd3c 913d 6e67 bd3d 5294 253e 5af0 0b3e
00000080: 1029 3cba 3a9f 753d d5b6 343e 5eb6 633d
00000090: 9515 afbc 0620 fe3d a3dd bcbd 931a b4bc
000000a0: 4d18 f4bd 4f32 1ebd 9791 603c 2b08 273e
000000b0: fb12 8c3d 5a0b 8cbd fe74 cc3d 6f64 48bd
000000c0: dfd9 95bd 2715 6a3d 5e73 0a3e c104 df3d
000000d0: 7b25 60bd 6d91 493d 3260 28bc e361 a83d
000000e0: 289e 303d a8f6 833e b3e5 6c3d 84e1 823e
000000f0: 8a03 633b 8fd8 b63c 4bf4 293d f69b 073d
00000100: f24f 52bc f3d3 cb3d 1820 95bd a5f1 60bd
00000110: 3824 80bd 1aca 0c3e b6ba c8bc 5be6 033e
00000120: 11cd 813d 260b cabc c28f 3a3d f387 10bc
00000130: 499d 973d 85ef cabd ec3b ed3d adb6 703d
00000140: f4cf 473d 0db9 6d3d 79de 973b 3076 d03d
00000150: a74c ef3d 3135 2f3e 8047 b9bd ca53 173e
00000160: 038c 763e a35d 3b3d a7fc 603a 7df5 183d
00000170: a227 06bd 6a26 95bc 41bb 2abc 6e52 a0bb
00000180: d48e 2f3e 6f1a f2bc db44 803d be99 b2bd
00000190: fbe7 f0bc ce89 52bc 1790 fb3d bf91 39bd
000001a0: 892f 2dbd 10c5 cfbd 9ad5 8d3d 5f50 12bd
000001b0: d406 a3bc e73a 80be 09b1 d9bc c0cf 223e
000001c0: 8f71 de3c 8899 7cbe 3c3f 233d 70f5 d3bd
000001d0: d22a 24be dc09 89bd 0cbb 45be bacd 22bd
000001e0: 3847 773d bac3 543b 0657 ab3d d17e dabb
000001f0: 1d44 6d3d 4cdc 2c3d 65a9 49bd 863a d5bd
00000200: 9484 283d a9e8 cd3d 9a90 81bd 9223 373d
00000210: 98df 773c f92c 553d e5fd a3be f392 a03d
00000220: 25d8 30be 6f86 353b 9508 383d cd55 b13b
00000230: 133a f03d 9cc2 90bd 14bc d7bd a342 903d
00000240: 8d02 a53c 5c42 5f3c c226 b9bc 1da6 27be
00000250: 12b8 503d 7fa0 23bd 060e a13c f9fe aa3c
00000260: fb57 6c3d 1d26 b43c bd09 9dbc 47e2 793d
00000270: 318b 5dbc 9769 013c d4c9 fb3c c383 c33d
00000280: 7ded 9dbd 4fe1 40bc 9a77 e73d f3cb e23d
00000290: 2132 a0bc 7578 253d 2dc9 8a3c f00f 5db9
000002a0: 69e8 483d ee64 38bd 0896 25bd 33e0 463d
000002b0: b2ae 663e 9148 633d cd4e 433c 83db e8bc
000002c0: c56c eebb 4f77 dd3d 77b8 1dbc acdd 1ebd
000002d0: bf16 06be eeb2 b6ba 1fca 4d3e 3e43 6ebb
000002e0: 50e6 c43d 236e 1abe b73b 743c c121 0dbe
000002f0: 9c35 8a3c 4ab3 cbbd 34c8 24be 695c ec3b
00000300: b8cb 5bbe 9141 e3bd 0598 93bc 95b9 303e
00000310: 83c6 9cbc 61d5 54be 262a e5bd 37da 873d
00000320: 33f1 cebd 3ea4 abbd 1988 5c3d e8ef 52bd
00000330: 58d7 31bd e7c2 35be e053 a63d 6103 88bc
00000340: 0a12 4abd 87e3 d53d bae1 21be 99e0 90be
00000350: 2b5e c53c abf0 f43d e0b4 8abd 441a ff3d
00000360: 9f46 28be deb4 45be 8ad5 8bbe 897c 35be
00000370: f2a9 9d3d 3940 27be 2a76 173d 25cb c8bd
00000380: 9657 7f3d f42c 583d f462 dbbd 2b3b 25be
00000390: 3763 383e 2cec 99bd c2ea 2a3e c07c 1fbe
000003a0: 4fa4 87be 706d 48be 7dfc 4c3d 3310 75be
000003b0: 5238 edbd d7f7 3e3d c49e 8fbd 601f c4bd
000003c0: 24b8 9ebe e7c5 853c 6fa8 04bd 0689 4e3d
000003d0: 7c27 a6be b2da 3abe 7145 c73d e80e 3cbe
000003e0: c541 c63b d6ca 253e faf5 c43c 7d87 073e
000003f0: c5e4 c63d 35f3 5bbe a2bd 64be 024a b63d
0.04669481 -0.022633957 -0.20220456 -0.014243518 0.00308895 -0.019007182 -0.02800684 -0.083203375
0.09647205 -0.06505944 0.22441795 0.10123756 -0.20596646 0.16274936 -0.008333045 0.23006381
-0.044327226 -0.038598627 -0.02477502 0.15294118 0.007325973 0.030572698 -0.09364882 -0.086065225
0.064118765 0.071277164 -0.018475482 -0.013373215 0.07091711 0.09248243 0.16169861 0.13665906
-0.00071777496 0.059966303 0.1764787 0.05559384 -0.021372596 0.12408452 -0.09221961 -0.021985328
-0.119186975 -0.038622197 0.013706586 0.1631171 0.06839558 -0.06838103 0.09983252 -0.048923906
-0.07316946 0.05714908 0.13520572 0.108895786 -0.054723244 0.049210954 -0.010276841 0.082217954
0.04311958 0.2577412 0.057836246 0.2556268 0.003463956 0.02232006 0.04149274 0.03310772
-0.012836443 0.099525355 -0.07281512 -0.05491795 -0.06256908 0.1374897 -0.024503093 0.12880842
0.063379414 -0.02466352 0.045547254 -0.008821475 0.07403047 -0.09908966 0.11583695 0.058767963
0.048782304 0.058037806 0.004634675 0.101787925 0.11684542 0.17110135 -0.09046841 0.14778057
0.24076848 0.045743596 0.000858257 0.03734349 -0.03275264 -0.018206794 -0.010420621 -0.004892639
0.17144328 -0.02955362 0.06263133 -0.0872073 -0.029407492 -0.012850238 0.12283342 -0.04530501
-0.04228166 -0.101450086 0.06925507 -0.03572118 -0.019900717 -0.2504494 -0.026573675 0.15899563
0.027153758 -0.24667943 0.039855227 -0.10349548 -0.1603196 -0.06691334 -0.19309634 -0.039746977
0.060370654 0.0032465295 0.08366208 -0.0066679497 0.057926286 0.04220228 -0.049233813 -0.10411553
0.04114206 0.10054142 -0.06326409 0.044711657 0.0151289925 0.052044842 -0.32029644 0.07840528
-0.17269953 0.0027698537 0.04493006 0.0054118396 0.11729827 -0.07068369 -0.1053392 0.0704396
0.020142818 0.013626661 -0.022601489 -0.16371961 0.050956793 -0.039947983 0.019660007 0.020873534
0.057701092 0.02199083 -0.019169683 0.06100681 -0.013521955 0.00789871 0.030735888 0.09546616
-0.07711313 -0.011772468 0.11302109 0.110740565 -0.019555153 0.04039808 0.016941631 -0.0002108214
0.04904977 -0.04501813 -0.040426284 0.048553657 0.22527578 0.055489127 0.011920643 -0.028424984
-0.00727615 0.10813772 -0.009626499 -0.03878562 -0.13094614 -0.0013938823 0.20096634 -0.0036355997
0.09614241 -0.15081076 0.014906815 -0.13782407 0.016871266 -0.09946306 -0.16091996 0.0072131646
-0.21464431 -0.1109649 -0.018016824 0.17258294 -0.019137627 -0.20784523 -0.1118968 0.06633418
-0.10104599 -0.08380936 0.05384073 -0.051498324 -0.04341826 -0.1775013 0.08121467 -0.016603174
-0.04933361 0.10443788 -0.15808764 -0.28296354 0.024092754 0.11959966 -0.067727804 0.12456182
-0.1643319 -0.19307277 -0.27311355 -0.17723288 0.0769843 -0.16333093 0.036977924 -0.09804372
0.062339388 0.052777246 -0.10712233 -0.16135852 0.18006597 -0.07515749 0.16691115 -0.15574932
-0.26492545 -0.19572997 0.05004548 -0.23931961 -0.11583008 0.046623077 -0.07012704 -0.09576297
-0.30999863 0.016329719 -0.032387193 0.050423644 -0.32452 -0.18247488 0.09730042 -0.18365061
0.006050321 0.16190657 0.024043072 0.13235278 0.09711603 -0.21479495 -0.22337964 0.089008346

bias f4 [100]
00000000: fb6f b3be 6e5e c5be b691 17be 64c0 c3be
00000010: 6bad 33be 690c 8ebe dcb4 a7be 337c c6be
00000020: 5241 f0bd a3c8 b5be 43d6 35be a5ba 05be
00000030: 8029 e03d 24c5 c53d ba39 2bbf e20b 19be
00000040: 7147 cdbe 08dd 52be 4f54 9cbe 1420 c5be
00000050: 6885 91be bc38 abbe 84b6 dabe 897f e5be
00000060: cd64 c6be f2d7 92be 8ee8 16be 7859 66bd
00000070: c1a0 92be f989 febd 0252 75be 1837 d7be
00000080: e889 9f3c 0262 d8bd ebfe b9bd a439 6fbe
00000090: 2e4f c0be cf3b 87be f1b8 81be 2a0e 95be
000000a0: e017 aebe 6bef a5be 7d81 45be 556e dcbe
000000b0: ef8a 98be 1181 74be 71db c8be 0019 843e
000000c0: 119a c9be 6cc0 4ebe 66e6 d5be c14f a83e
000000d0: d40e a6be cc87 a8be 4f75 25bf 419e b5be
000000e0: bfea 33be 3380 71be eb62 93be fd3e 72be
000000f0: 5266 b5be 083d c03c e98d 83be c430 783d
00000100: 3a5f b2be 5366 bebe 6baf abbe 7be8 66be
00000110: bf90 cebe 12fa 93be 13fc a2be 3e2c e7bd
00000120: 0f4d bc3d ec06 d4bd 55ae 92be eb73 aebe
00000130: cabd d6be a605 09be 21b5 75be f48b f0be
00000140: b5a7 a8be f66d 52be 9c15 acbe 5c4e d83c
00000150: fd83 c6be 4d77 5fbd 7bb9 e5be ca31 0ebf
00000160: 3caf 94be c42a 4ebe 9f54 0bbf ae6e 91bd
00000170: c6a7 b8be a07a d6bd c01d 09bf 2388 88be
00000180: 6be9 133e f20f c2be dceb 05bf 0aab ce3b
-0.35046372 -0.38548607 -0.14801678 -0.3823272 -0.17546622 -0.27743843 -0.32755172 -0.3876663
-0.11731209 -0.35504636 -0.17757516 -0.1305948 0.109454155 0.09656742 -0.6688496 -0.14945939
-0.40093568 -0.20592129 -0.30533072 -0.38501036 -0.28422093 -0.33441722 -0.42717373 -0.44823864
-0.3874878 -0.28680378 -0.1473715 -0.056237668 -0.2863827 -0.1242866 -0.23957065 -0.4203422
0.019474939 -0.105655685 -0.09081825 -0.23361832 -0.3756041 -0.26412818 -0.25336412 -0.2911237
-0.3400259 -0.32409224 -0.19287677 -0.43052927 -0.29793498 -0.2387736 -0.3922992 0.25800323
-0.39375356 -0.2019059 -0.41777343 0.32873347 -0.32433188 -0.32916105 -0.64632124 -0.354723
-0.17570017 -0.2358406 -0.28786406 -0.2365684 -0.35429627 0.023466602 -0.25694206 0.06059338
-0.34838277 -0.37187442 -0.3353227 -0.22549622 -0.40344808 -0.28901726 -0.31832942 -0.112877354
0.09194385 -0.10352883 -0.2864863 -0.34072813 -0.41941673 -0.13381061 -0.23994876 -0.46981776
-0.3294045 -0.2054976 -0.33610237 0.026404552 -0.38772574 -0.054557133 -0.44868073 -0.5554472
-0.29039943 -0.20133501 -0.54425997 -0.071011886 -0.360655 -0.104726076 -0.5356102 -0.26666364
0.1444451 -0.3790279 -0.5231302 0.0063070105

weight f4 [1, 100]
00000000: e094 3f3a 5924 9c3a 6704 02be d288 f9ba
00000010: f946 593d 0a62 6039 687b b939 52a0 dbb9
00000020: 174a 62bd f19e d03a a1a0 073e 34e5 88bd
00000030: 99e6 9e3d b9d1 1a3e 303c a73a e7a0 85ba
00000040: bc49 17b9 5c04 9539 5a7b 1b39 e422 8cba
00000050: 9674 793a 960d 25bc f494 263b 02e1 6c3a
00000060: 6627 4aba 0b40 1db9 891e 5d3c 05ee 9ebd
00000070: 9bc7 023b f928 32be a20a c6b9 138a 4c39
00000080: c433 02be ca0a 653e 9964 33be 08b6 0fb9
00000090: 0a80 dd39 79c3 7aba 4dc1 0c3b fc62 11b9
000000a0: 45eb d3b9 c09a 2d37 49ba bd3d 4d36 bc3a
000000b0: 5538 9f39 e2ab 7d3c d3ec 02ba dbc3 4b3e
000000c0: 77bd 9dba 4c82 fd3c 46e7 143a 0797 983e
000000d0: 6a49 5fba 5acc 14bc 5a7e a639 9735 793a
000000e0: ee96 fd3d 7d1e 7abc 26de 30ba bf92 eabc
000000f0: 3860 5fb9 4cf5 f93d bbf8 f5b8 b3fd da3d
00000100: 5e76 d13a ff46 613a 6f7d 97ba 1c0c 9d3a
00000110: dcf8 58b8 dafb e438 4ee4 a2ba 9996 a4bd
00000120: 90b0 98bd 40dc 463c be5c 08b9 b443 a8ba
00000130: 0f13 323a cb74 82bd 94b1 9e3a 9ec4 38b9
00000140: d7a6 f3b9 cf65 ac3d 02d8 07b8 e7aa 2b3e
00000150: 226f b9b8 7eb7 a83d 893c 7cba f4ac 7139
00000160: 8af6 a6ba 9e98 40ba 37fb 0038 751f bb3c
00000170: 9a28 c6bb 2d62 853d 1f32 003a 9fdf a7bc
00000180: 552d 87be ad1d 983a 0ea2 3739 dd42 953d
0.0007308256 0.0011912688 -0.12696992 -0.0019037968 0.0530462 0.00021398827 0.00035377895 -0.00041890383
-0.05524644 0.0015916509 0.13244869 -0.06684342 0.07758827 0.15119065 0.0012759026 -0.0010195047
-0.0001442795 0.00028422743 0.00014827904 -0.001069155 0.0009515969 -0.01007404 0.0025418373 0.00090362143
-0.00077115593 -0.00014996545 0.01349605 -0.077602424 0.00199554 -0.17398442 -0.00037773425 0.00019506393
-0.1271506 0.22367397 -0.17518844 -0.00013705355 0.000422478 -0.0009565871 0.002147752 -0.00013865152
-0.00040420346 1.0347634e-05 0.09264047 0.0014359445 0.00030368814 0.015482875 -0.0004994396 0.19898932
-0.0012034614 0.03094592 0.00056802144 0.29802725 -0.00085177145 -0.009081924 0.00031756127 0.00095065817
0.12382303 -0.015266058 -0.000674697 -0.028634427 -0.00021302782 0.1220499 -0.0001172884 0.106929205
0.0015980711 0.0008593648 -0.0011557768 0.0011981758 -5.173018e-05 0.00010918798 -0.0012427659 -0.08036537
-0.074555516 0.012137473 -0.0001300452 -0.001283756 0.0006793001 -0.06369933 0.0012107366 -0.00017620853
-0.00046472877 0.08417856 -3.238768e-05 0.16764413 -8.8421875e-05 0.08238123 -0.00096220576 0.00023047981
-0.0012738269 -0.00073469605 3.075154e-05 0.022842148 -0.0060473206 0.06512866 0.0004890281 -0.020492373
-0.26401773 0.0011605524 0.0001751261 0.07288144

S f4 [4, 4]
00000000: 0000 0000 0000 0000 0000 803f 0000 0000
00000010: 0000 0000 0000 0000 0000 0000 0000 803f
00000020: 0000 80bf 0000 0000 0000 0000 0000 0000
00000030: 0000 0000 0000 80bf 0000 0000 0000 0000
0.0 0.0 1.0 0.0 0.0 0.0 0.0 1.0
-1.0 0.0 0.0 0.0 0.0 -1.0 0.0 0.0
