Models/HenonHeiles/HenonHeiles_symplectic euler_50epoch_Sin()_Softplus(beta=1.0, threshold=20.0)_batchsize_64_shape_torch.Size([175000, 4]).pt (torch, 52319 bytes, 6 tensors)

weight f4 [100, 4]
000000 7e cf 5a bd b0 67 86 bc ef 16 a3 3e 6f 9a e9 bd
       -0.053420536 -0.016406864 0.31853434 -0.11406409
000010 e2 5d 0d 3e ab 52 02 3e 2e 29 4e 3e de d5 ad 3e
       0.13805345 0.12726848 0.20132896 0.3395223
000020 7c 69 4a bd 1f 5f 80 bd d2 0c 70 bd cf ce b6 3e
       -0.049417004 -0.06268143 -0.058605976 0.35704657
000030 00 8e e7 3d 21 c0 54 3c bc bc 58 be 66 b3 6e 3c
       0.11306381 0.01298526 -0.21165746 0.014569139
000040 94 c1 8b 3d 0e 43 42 bc d7 7f ba 3e f3 e7 9f be
       0.068240315 -0.011856807 0.3642566 -0.3123165
000050 b8 e5 23 3f cf b7 b2 3e ea 2d d8 3d e0 fc 0e be
       0.640224 0.3490586 0.105556324 -0.13963652
000060 07 46 8d be c2 a7 b5 3d 00 5b 82 3e af b0 70 3e
       -0.2759249 0.08869888 0.25460052 0.235049
000070 70 26 a3 3d 57 ee c6 bc 33 1b 5e bc 84 2f 52 3e
       0.07966316 -0.024283571 -0.0135562895 0.20525938
000080 c7 56 62 3d 4a 2d 9f bc 29 b4 30 3e ac fa 9f 3e
       0.05525854 -0.019430775 0.17256226 0.31245935
000090 99 b5 63 3d e0 40 8a be af e8 9e bd 0a 30 80 be
       0.055593107 -0.2700262 -0.077592246 -0.2503665
0000a0 c3 2d bf 3c 26 44 b2 bc 5c 6d 7c bc c3 16 35 3e
       0.02333725 -0.021761011 -0.015406933 0.17684464
0000b0 28 60 ab 3d 42 49 9b 3d cf 0f 4b be f6 df ad 3d
       0.0836795 0.07582332 -0.19830249 0.08489983
0000c0 d0 2b 2f be 71 b6 1e 3d 87 b7 67 be e7 9b f2 bd
       -0.17106557 0.03874821 -0.22628604 -0.11846142
0000d0 74 49 84 bd f5 e2 49 bf f3 06 da 3d 16 78 c7 bd
       -0.064593226 -0.78861934 0.10645857 -0.097397014
0000e0 07 89 e0 3d 6c 25 07 bd 9d 85 64 3e 0c 05 22 be
       0.10963636 -0.032994673 0.22316594 -0.15822238
0000f0 24 b1 f5 bd 30 8f 3c 3e ab 97 db 3e aa 75 75 3c
       -0.119966775 0.18413997 0.4288915 0.014981667
000100 86 2c 73 bf 92 f4 01 bf 84 6d 94 3d b2 86 ed 3d
       -0.9498981 -0.5076381 0.07247451 0.11597957
000110 ac e1 14 3c f6 05 32 3c 5e d8 a7 bb aa e8 db 3c
       0.0090870075 0.010865679 -0.0051222285 0.026844341
000120 fa 33 c3 3b 5a b1 19 bc d2 26 50 3c 93 3f e3 bc
       0.005957124 -0.009380663 0.012704568 -0.027740275
000130 95 51 39 be 7c e2 a7 3a dc 35 0a bd cf a3 86 3c
       -0.18097527 0.0012808586 -0.03374277 0.016435532
000140 83 7d 8d bd c9 3c 16 3c 7e cf b4 bb 67 63 f9 3d
       -0.06908705 0.009169766 -0.005517899 0.121771626
000150 da c2 4d be 45 6a fb bd 8f bb cc be 35 06 50 3d
       -0.20093861 -0.12276129 -0.39986846 0.05078717
000160 54 0d d8 bd 07 c0 fb 3c fb 9b 51 3d f8 97 49 3e
       -0.10549417 0.030731214 0.051174145 0.19686878
000170 46 36 64 3d c5 c8 93 3b 57 4d c9 bc 0f 70 0f 3d
       0.05571582 0.0045100176 -0.024573011 0.035018977
000180 36 41 50 3d 2a 09 a7 bc 69 2d 40 3c 55 72 0a 3b
       0.05084344 -0.020390112 0.011729577 0.0021125276
000190 79 62 6a 3d 81 66 c2 bc 68 9f 97 3d cc cb 88 3d
       0.057222817 -0.023730518 0.07403451 0.06679496
0001a0 3c cc c4 bd f0 c6 d9 bc 0f b1 73 be 94 43 fe 3e
       -0.09609267 -0.026584119 -0.23798011 0.49660933
0001b0 88 a5 45 bf 0c fd c4 3e da 9f 23 3c a0 49 c2 bc
       -0.77205706 0.3847431 0.009986842 -0.023716748
0001c0 1e 86 38 3d 8a ae 77 bc b1 77 44 bc 78 28 7c 3b
       0.04504978 -0.015117297 -0.011991427 0.003847627
0001d0 4f 71 9d 3f 6e 66 2e bf 29 7e 45 3d bb d3 1d 3d
       1.2300204 -0.68125045 0.04821602 0.038532
0001e0 48 f5 93 3d e8 d4 52 bc 2e 49 c3 3e 94 fb 54 be
       0.07224518 -0.012868144 0.3814177 -0.20799094
0001f0 8e 13 8f 3d 77 be 93 bc 7b aa 7a 3e c4 78 10 be
       0.06986152 -0.018035157 0.24479096 -0.14108568
000200 4c b9 84 3b de 9f 4f 3c e2 85 82 3c 5f a8 0c 3d
       0.0040504094 0.012672393 0.01593298 0.03434026
000210 5c 07 8c 3a a9 0e 41 ba 9e ba 9c 3a de 03 89 39
       0.0010683346 -0.000736455 0.0011957472 0.00026133558
000220 b3 37 b7 3d aa 34 36 3a e3 29 06 3f 6c de 26 3e
       0.08946171 0.00069505966 0.52407664 0.16295785
000230 df 1f 4d 3d 72 c7 0e bf e9 37 fd 3c ef 63 89 3e
       0.050079223 -0.5577308 0.03091045 0.26834056
000240 1a 83 bf be 8c 96 80 be c3 bf b6 3d b4 fa 7d bd
       -0.3740471 -0.25114858 0.089232944 -0.062006667
000250 5d 9c 17 bd b1 30 88 3c e0 10 19 3e a0 33 18 be
       -0.037014354 0.01662478 0.14947844 -0.14863443
000260 c7 00 fe 3c c4 a3 89 bc c8 eb c4 3b ea e1 23 3d
       0.03100623 -0.016801722 0.0060095526 0.04001037
000270 99 04 d3 3d de 36 e0 bb ed 52 e1 be f7 fb 81 bd
       0.10303611 -0.006842478 -0.4400858 -0.063468866
000280 4e 1d 1f 3d b8 5e 64 bb ec 71 2b 3e 95 1a 75 be
       0.038846307 -0.0034846496 0.16742676 -0.23935921
000290 67 ab d0 3d c7 5d 29 3d 13 30 87 bb 9e d1 82 3e
       0.101889424 0.0413492 -0.004125604 0.2555055
0002a0 52 ac ae 3d f3 56 98 bd 8d ca 1b 3e a6 a5 8e 3e
       0.08528961 -0.07438459 0.15213986 0.27860755
0002b0 51 ae 61 ba 8c 98 fa 3d 5c bd 54 be 05 11 bd be
       -0.0008609044 0.12236127 -0.2077536 -0.36927047
0002c0 ce 16 4b be 97 53 a6 3d fa 2d 03 bf 43 da 85 be
       -0.19832918 0.08121412 -0.5124203 -0.26143083
0002d0 7e 48 f1 bd e0 06 c2 bd 97 28 5e 3e 78 e6 08 be
       -0.11781405 -0.094739676 0.21695171 -0.13369167
0002e0 a4 09 09 3c f2 56 cd bc 26 6a 28 bd 82 a8 3b 3c
       0.008364115 -0.025065873 -0.041116856 0.01145375
0002f0 f3 d6 b1 3c 2f 57 e6 bc 3d 76 bc bd 09 9b dd 3c
       0.021708941 -0.028117744 -0.0920224 0.027051466
000300 2d 26 11 bd 33 9a ad bd 9c 8c e8 bd 77 a4 cb 3d
       -0.035436798 -0.08476677 -0.11354944 0.099434786
000310 5f ab 37 bf 67 58 cd be 5c 20 68 bd b4 66 c5 bd
       -0.71745867 -0.40106508 -0.056671485 -0.0963873
000320 b8 9a 09 be 62 bf 2e 3e 06 aa 03 3e 71 5e f4 be
       -0.13437927 0.17065194 0.12857828 -0.47728303
000330 97 26 a3 3d 65 8a a2 3b b7 63 64 bd 84 df 9f 3d
       0.07966345 0.0049603456 -0.055759158 0.07806304
000340 1b 2b 49 bc 87 c1 cc bc 1d 47 da bc 4c c1 b0 bd
       -0.012278344 -0.024994625 -0.026645238 -0.086306185
000350 91 9c ac bd b4 39 2b 3b 48 1c ca 3d d1 59 88 be
       -0.084283 0.0026126923 0.098686755 -0.26631024
000360 81 f3 17 3c 24 d4 ec 3c 7f 9f 9e 3d c4 8d a5 3d
       0.009274364 0.02890975 0.07745265 0.0808368
000370 fe 8d de 3d a3 33 5e 3d 99 7e 61 3e ff f9 7d 3e
       0.108669266 0.054248463 0.2202095 0.24802397
000380 12 f3 51 be 93 dc ba 3d 64 a1 37 3d 79 e6 5f be
       -0.2050288 0.091241024 0.04483165 -0.21865262
000390 63 9e 91 3d b8 10 d5 bc 21 7f 99 bd 0f 8b 02 bd
       0.07110288 -0.026008949 -0.07494951 -0.031870898
0003a0 bd ba 00 be 67 a8 6a 3d c3 06 67 be 59 71 45 bd
       -0.12571235 0.057289507 -0.22561173 -0.0482038
0003b0 29 83 42 3e 13 c9 75 be 86 98 e8 be 46 ad 3b bd
       0.18995346 -0.24002485 -0.45428866 -0.045819543
0003c0 c1 0a a6 3d a5 bd 1b 3a fb 08 98 bb 9d b0 92 3e
       0.0810752 0.000594104 -0.0046397424 0.2865037
0003d0 a1 5c c0 3d f0 f4 83 bd d5 49 b9 3e f0 d5 83 3d
       0.093926676 -0.064432025 0.36189142 0.0643729
0003e0 a0 6f 8b bc ef 6b dc 3c c4 01 84 be 33 59 e9 3c
       -0.017021 0.026906935 -0.25782597 0.028484916
0003f0 6c 46 84 3d bb 89 c5 3e e5 8e a2 be 7b 2c c0 bb
       0.064587444 0.38581643 -0.31749645 -0.0058646775

bias f4 [100]
000000 fe 6f 6d 3e a1 71 01 bf 07 c8 b8 3e 25 14 27 be
       0.23187253 -0.5056401 0.3609011 -0.16316278
000010 f4 e9 a2 be 7c b1 3b be e2 32 40 be 60 39 64 3e
       -0.31819117 -0.18329424 -0.1876941 0.22287512
000020 80 d5 10 bb 92 e5 87 bc 5a 4a 41 be f5 85 b5 3e
       -0.0022099912 -0.01658896 -0.18876019 0.35453764
000030 ac f7 ad be 4b e0 9b be 60 13 a7 be 5f 3a 11 3f
       -0.3397802 -0.3044456 -0.3263197 0.5672969
000040 8c 3c e7 3e 41 a3 40 3d 0d dc 5f 3c 02 02 94 3d
       0.4516338 0.04703069 0.013663304 0.072269455
000050 9f 13 a0 3e 84 63 07 be f1 83 c3 3e fe 76 f3 bd
       0.3126497 -0.13221556 0.381866 -0.1188793
000060 43 ba 8d be 80 17 b7 be 81 b9 91 3e 21 a1 fe be
       -0.2768117 -0.35760117 0.2846184 -0.49732307
000070 54 7e 3f be 2f ea e3 3e 20 24 d0 3e 2a ea 6b 3e
       -0.18700534 0.44514605 0.4065256 0.23038545
000080 c8 3c 4b 3d 21 50 b2 bc 5f 81 01 bf 71 49 92 be
       0.049618512 -0.021766724 -0.5058803 -0.28571656
000090 8b 87 ba 3e 03 cd 94 3e 54 9d c8 bd 36 49 7a be
       0.36431536 0.29062662 -0.09795633 -0.2444199
0000a0 13 25 62 3e a8 50 f5 be 29 67 fa 3e f3 93 bf 3e
       0.22084455 -0.47913098 0.4890683 0.37417564
0000b0 b5 df c9 3e b7 42 26 3e ec fc d0 3d 5d 8b 60 be
       0.39428487 0.16236387 0.10204491 -0.21928163
0000c0 ac bc c8 be b1 e9 ec 3e ed 90 ea be 89 55 1e be
       -0.39206445 0.46272042 -0.45813695 -0.15462317
0000d0 4e 50 79 bd 88 2e 81 3e f3 ee 91 3e 7f 5f bf be
       -0.0608676 0.25230813 0.28502616 -0.37377545
0000e0 f8 a7 2f be 39 25 c0 bd a3 db fa be cf 88 d2 3d
       -0.17153919 -0.093821 -0.48995695 0.102800004
0000f0 45 d6 0f be 60 12 2f 3e 13 8e f8 3d 96 14 47 3e
       -0.14046581 0.17096853 0.121364735 0.19441447
000100 da 8f 81 3e c0 c8 0f bd 1b 98 ac 3e 4f 84 d3 3e
       0.25305063 -0.03510356 0.33709797 0.4131188
000110 11 18 b0 bd 6c 97 0d bf c5 68 ef be 94 78 bf be
       -0.0859834 -0.55309176 -0.4675962 -0.3739668
000120 fb f5 e8 3e ea c6 12 3e 22 8c ac be 7b 4f 8d be
       0.45500168 0.14333692 -0.33700663 -0.275997
000130 de fb fb 3e 4e 01 8a bb 8a cf a3 be f4 e7 79 bc
       0.49215597 -0.0042115813 -0.31994277 -0.015253056
000140 c5 7e b3 3e 79 79 90 bd 87 c4 0b be b2 a7 0e bf
       0.35057655 -0.07054419 -0.13649188 -0.5572463
000150 b5 a5 da 3e ad 89 0d bf bb 51 18 3e 22 df fa 3e
       0.4270455 -0.552882 0.14874928 0.48998362
000160 7b 1e 25 bf 52 25 29 bd 01 20 9d 3d ad fa df 3e
       -0.64499635 -0.041295357 0.0767212 0.43745938
000170 cc 57 0b bf bd 09 b3 3e 5a a6 f8 3e 63 ba 3f 3e
       -0.5443084 0.34968367 0.48564416 0.18723445
000180 18 bc 10 bd 53 fe 11 be 00 9c da 3e 12 c2 a6 be
       -0.03533563 -0.14257173 0.42697144 -0.3256994

weight f4 [100, 100]
000000 62 c4 88 bc 36 e5 c1 3d 55 d0 80 be c1 f2 bb 3b
       -0.016695205 0.09467547 -0.25158945 0.0057357256
000010 5d f4 36 3d 9f 2e 87 3d 06 f7 66 3d 6a c5 d3 3d
       0.044666637 0.06600689 0.056387924 0.10340388
000020 1b 95 29 be b7 f8 c5 3d fd 8e 1d 3e 58 13 88 be
       -0.16560785 0.09666579 0.15386577 -0.26577258
000030 63 c1 ce 3d a9 2c ca bd 11 9c 13 3d f9 3a e1 bc
       0.10095479 -0.098717995 0.03603751 -0.02749394
000040 86 44 92 3d 98 c7 c3 be d9 92 86 3d 88 46 86 3d
       0.07141976 -0.38238215 0.06570978 0.065564215
000050 37 7d 81 be 33 85 5c 3d 41 be 7e be 02 db 1f 3d
       -0.25290844 0.053837966 -0.24877264 0.03902722
000060 c0 d3 2e 3e 78 1f 27 3e e8 21 f1 bc 67 ec 69 3e
       0.17072964 0.16320598 -0.029435113 0.22844087
000070 b7 87 7e 3e 69 25 35 bd ee 19 53 bc ec 2f 6d be
       0.24856459 -0.04422513 -0.0128846 -0.23162812
000080 45 28 be bd 57 f1 d1 bb 41 d2 9b bc 33 bd 88 3c
       -0.092850246 -0.006406944 -0.019021155 0.01669178
000090 54 87 17 3d 8a 4d 32 bb 10 a6 d9 3d 2e 79 56 3e
       0.036994293 -0.0027206861 0.10627377 0.20944664
0000a0 6d 8e 03 be c7 22 33 3e 91 7a fc bd bc 61 ef bd
       -0.128473 0.17493735 -0.12328065 -0.11688563
0000b0 62 3f b4 bd 50 be 33 bd e9 cd d4 bd 3e b9 44 3e
       -0.08801152 -0.043882668 -0.10390837 0.1921129
0000c0 6c a9 86 3e 28 6a fd bd 7a 96 6e 3d c4 7d 12 3e
       0.26301134 -0.12373763 0.058248974 0.14305788
0000d0 ea ab c1 3d 15 f8 80 be f1 09 89 3c e3 8f 12 3e
       0.09456618 -0.25189272 0.016728373 0.14312701
0000e0 c7 c3 8c 3d 06 d3 2c bd 5b d1 6d 3e 55 fb cd 3c
       0.06873279 -0.042193435 0.23224394 0.025144259
0000f0 5d 1c cd bd 74 ea 8b bd 2a c0 0c be 22 49 82 bd
       -0.100151755 -0.06831828 -0.1374518 -0.06361605
000100 6b 80 05 be 9f f8 70 be f3 eb 88 be 6a 89 a6 be
       -0.13037269 -0.23532341 -0.26742515 -0.32526714
000110 52 36 c8 3d 86 f6 1b 3c 80 90 16 3e cf 05 c4 3c
       0.09775986 0.009519225 0.1470356 0.023928551
000120 dd c7 0c be a9 04 23 ba 3a 70 24 3e fd 3e a1 bc
       -0.13748117 -0.0006218651 0.16058436 -0.019683355
000130 ae 34 cb 3d cb 79 22 3d 69 c2 2d bd cd ba c3 bb
       0.09922157 0.039666932 -0.042421732 -0.005973196
000140 36 3a 94 bc 75 b3 69 bd 06 c9 87 bd fc 36 8e 3e
       -0.018094163 -0.05705591 -0.06630139 0.27776325
000150 ec 8f 72 bd 06 e4 1f bb 86 b7 23 be e4 9a ad bd
       -0.059219286 -0.0024397387 -0.15987977 -0.08476809
000160 41 19 80 3e c4 63 a0 3d ca 95 28 be 9d e9 98 be
       0.25019267 0.07831529 -0.1646339 -0.29865733
000170 98 95 54 bd d5 33 ce bd e3 93 06 be da c2 af 3c
       -0.051900476 -0.1006848 -0.13142352 0.021455217
000180 a1 89 38 3d c3 93 62 3c b3 b8 13 be af 49 3d bc
       0.04505313 0.013829174 -0.14425926 -0.011553212
000190 12 9f 82 3b c2 3d 1e bd 8b 89 c7 bd e7 11 1e 3c
       0.003986248 -0.038633116 -0.09743031 0.009647823
0001a0 43 82 ad 3d 68 00 86 bc e5 df c0 3d c0 8f f2 bd
       0.08472111 -0.016357616 0.094177045 -0.118438244
0001b0 eb ba 93 bc 23 41 6a bc e8 a3 4e 3e d5 90 f2 bd
       -0.018033465 -0.014297756 0.20179713 -0.11844031
0001c0 4e c1 1d 3e 59 2f 8a 3d d2 33 53 3e b7 e3 c0 bc
       0.15405771 0.06747312 0.20625237 -0.023546083
0001d0 35 94 03 3e 1e 3c e1 3c bb 7f 68 be 4a a3 d0 3d
       0.12849505 0.027494486 -0.22704975 0.10187395
0001e0 b3 99 89 be 0c 64 cd bd b6 60 9c bd 0a 76 70 bd
       -0.26875076 -0.10028848 -0.07635634 -0.05870632
0001f0 64 fc df 3d 55 ea 06 3e 71 5a ab 3d 2f 34 92 3d
       0.109368116 0.13175328 0.0836686 0.071388595
000200 1b fc d1 3d e3 e7 12 3d 1b 21 23 3c 1f 3c c1 3d
       0.102531634 0.035865676 0.009956623 0.09435295
000210 ba a4 fa 3d 6a 4a b0 3d bc c5 6e bd 6c ee f0 3d
       0.1223845 0.08607943 -0.058294043 0.11764225
000220 36 dc d6 bc f8 b5 fc bd 92 71 25 bd 4f d2 82 3d
       -0.026228052 -0.12339395 -0.040391512 0.063877694
000230 d2 f6 99 bd 57 1b 09 3e d8 73 ad bd ba 7f 9a 3c
       -0.0751778 0.13389336 -0.08469361 0.018859733
000240 6f 97 85 bd 7c 13 56 be 51 66 13 be 53 0c b3 3d
       -0.06523024 -0.2090587 -0.143945 0.08742585
000250 93 19 63 3e 2e 97 18 be 50 2d 4c 3e 27 6b 64 bd
       0.22177725 -0.1490142 0.1993916 -0.05576625
000260 92 4d 29 3e 22 9c 92 bd bf 70 8c be 18 b6 3a bb
       0.16533497 -0.07158686 -0.27429768 -0.0028489884
000270 68 9f d9 3c a2 af 09 be 5d ce 1a 3e b2 cd 59 bb
       0.026565269 -0.13445905 0.15117784 -0.0033234176
000280 19 a4 a0 3d 28 d2 81 be 77 a5 0a 3c 2d d6 b7 bd
       0.07843799 -0.2535565 0.008462301 -0.08976398
000290 4c 0e 5a be ef cf 8a be 6f ee 00 3d d2 89 1a 3d
       -0.21294516 -0.27111766 0.031477388 0.037729092
0002a0 21 6a 9a 3d 17 aa e9 3d fa ff 13 3e 5a 46 69 3d
       0.07539774 0.11409395 0.14453116 0.056951858
0002b0 c3 1f 73 bc 98 b4 0f bd d7 ae a7 bc 88 2a b9 3d
       -0.014839116 -0.035084337 -0.020469112 0.09041315
0002c0 0c 25 d2 3d 74 d8 00 bd 53 62 29 bd 42 69 12 be
       0.102609724 -0.031456426 -0.041353535 -0.14297965
0002d0 f2 96 ec bd 66 09 b9 bd 61 5c 27 3e 79 3f b6 3d
       -0.11552228 -0.09034996 0.16343834 0.08898825
0002e0 6e fc 8d be 98 25 23 bd a2 ad 8d bd 29 4c f3 bd
       -0.2773165 -0.039830774 -0.069178835 -0.11879761
0002f0 13 56 d5 bc b3 6c 4a 3d 61 19 d4 bd 46 27 1e be
       -0.02604202 0.04942007 -0.10356403 -0.15444669
000300 d9 0d 45 3e 15 6a 95 bd 3d 5f 6f bd f4 00 e3 3c
       0.19243564 -0.07295624 -0.058440436 0.027710415
000310 da cf 28 bd a7 8f 19 3d 13 da 9f bd 7e f7 fd bd
       -0.041213848 0.037490513 -0.07805266 -0.12400721
000320 97 98 31 be 7b ad 11 3d cc c2 6c bd 4a 32 93 bd
       -0.17343365 0.035565834 -0.05780296 -0.07187326
000330 f0 33 07 3d a9 87 a8 bc 22 21 9f 3e b2 bf 93 3c
       0.033008516 -0.0205725 0.31079966 0.018035743
000340 41 d8 97 3d 9b 60 83 bd 2c 1d 0a bd 05 11 80 bd
       0.07414294 -0.064149104 -0.033719227 -0.06253246
000350 25 e7 2e 3e 60 04 a3 3d 21 c9 e2 3a 55 e2 0c 3c
       0.17080362 0.07959819 0.0017302373 0.008598884
000360 a5 28 b8 bc 41 19 9b bd 1d a1 1f bd a2 3c 3c be
       -0.022480318 -0.07573176 -0.03897201 -0.18382505
000370 b0 52 da bd d9 6e 48 bc 4d 30 33 3d 86 f4 6c bd
       -0.10660303 -0.012233459 0.043747235 -0.057850383
000380 a2 e5 14 3d d9 ba 8e 3e a1 fb 3a be c1 fe 08 3e
       0.036351807 0.27876928 -0.18260051 0.13378431
000390 c2 40 56 3e 5d 45 9c 3d 47 a2 c3 3d 94 63 de bc
       0.2092314 0.076304175 0.09552436 -0.027147092
0003a0 27 3c 84 bd f4 9f fc 3c 14 a1 ab bd 88 0f e7 3c
       -0.06456786 0.03083799 -0.083803326 0.028205648
0003b0 bb 14 7d 3d b1 3a 89 bd 0a 01 3f 3c e4 e3 d7 39
       0.06178735 -0.067006476 0.011657963 0.00041177787
0003c0 13 c0 57 bd ca 7b b8 3d 7f 3b 86 bd eb 31 f5 bc
       -0.05267341 0.09007986 -0.06554317 -0.02993103
0003d0 7c 4a 73 bd 41 56 86 bd 39 84 fb 3d 4f 9c f6 3d
       -0.059397206 -0.065594204 0.12281079 0.12041532
0003e0 41 90 91 3d ec 57 ae 3d 2e 4a 1a 3c 7a b8 7b 3d
       0.071075924 0.085128635 0.0094171 0.061455227
0003f0 f3 c7 1c be cf 03 1a be 9a 28 b2 bd de b3 e1 bd
       -0.1531065 -0.15040515 -0.086991504 -0.11020635

bias f4 [100]
000000 2d 68 33 bf 5c 4b 47 bf ea 08 66 bf a7 7e 7f bf
       -0.70080835 -0.77849364 -0.8985735 -0.9980263
000010 94 c1 6b be be 07 34 bf 8b 93 7e bd 4e 46 ab bd
       -0.23023063 -0.70324314 -0.062152427 -0.08363019
000020 99 2b 53 bf 24 75 57 be ae 6a 10 be 9b 0d 5b be
       -0.824884 -0.2104078 -0.14103195 -0.21391909
000030 8e f6 86 be 61 13 71 bf 4c a3 59 bf 55 c0 23 bf
       -0.2635998 -0.94170195 -0.85014796 -0.6396535
000040 1e 2f fb be 4d ef 0e bf ff 4c 13 bd 02 46 c4 3d
       -0.49059385 -0.55833894 -0.0359621 0.095836654
000050 f6 fb 47 bf 5b 5d 1c bf 70 b3 82 bd e4 8f 59 bd
       -0.78118837 -0.6107995 -0.06381881 -0.05311574
000060 94 4e bd bc f4 97 4c bf 3e 16 2f bf ee b0 38 bf
       -0.023108758 -0.7991936 -0.68393314 -0.72144973
000070 6a 5c ab be b1 17 2c bf 1f 31 24 3d aa 41 5d bf
       -0.33468944 -0.6722365 0.040085908 -0.8642832
000080 68 63 30 bf f1 bf 05 bf f1 99 96 bd 70 49 b5 bd
       -0.6890168 -0.52246004 -0.07353581 -0.08851898
000090 45 83 3f be 68 b8 57 bf 93 06 fc bc 8c 49 83 bd
       -0.18702419 -0.84265757 -0.030764854 -0.06410512
0000a0 cd b8 e8 bd a5 a9 3a bf 3a a0 03 bf 8d 0c 0d bf
       -0.11363373 -0.72915107 -0.5141636 -0.55097276
0000b0 bb 8d 01 bf 35 f5 8b be e4 36 57 bd bf d7 21 bf
       -0.5060689 -0.27335516 -0.052542582 -0.6321983
0000c0 50 c8 85 be c5 2d 66 3c ce 63 ca bd a0 5f 58 bd
       -0.2612939 0.014048998 -0.098823175 -0.05282557
0000d0 05 a9 23 3c 86 1c ae be 4c 54 c2 be 45 30 40 bc
       0.009989028 -0.34006137 -0.37954938 -0.011730258
0000e0 56 4c 40 bf 39 94 af bd 23 07 14 be f6 5e 1c bf
       -0.7511648 -0.08573193 -0.14455847 -0.610824
0000f0 59 8d cd bd 67 b0 c4 be 03 e1 90 bc bf a1 0a bf
       -0.100367256 -0.38415834 -0.017685419 -0.54153055
000100 cb 9e 8c bc 61 b6 97 be ab 8a d0 be 77 ad a0 be
       -0.017165562 -0.29631332 -0.40730795 -0.31382343
000110 de 64 3e bf 27 c2 1a bf 59 da 9c be f8 0f 46 bf
       -0.7437266 -0.604525 -0.30635336 -0.77368116
000120 64 b9 82 bd d5 52 cf bd ea ce 21 bf a0 cd 08 bf
       -0.06383017 -0.10123221 -0.6320635 -0.5343876
000130 eb 84 28 bf 2f 65 c5 be ad 34 76 bd ca ee f3 be
       -0.65827817 -0.3855376 -0.06010883 -0.4764312
000140 62 96 0f be 25 7f 82 bd d3 6f 6a be 4e 0a c9 be
       -0.1402221 -0.06371907 -0.2289422 -0.39265674
000150 7d 22 12 bf 03 1f 81 3d 4c ba f1 bd 1d 83 60 be
       -0.57083875 0.06304743 -0.118031114 -0.21925016
000160 76 28 fa bd de fb 39 bf 61 e0 2d bf 5b 28 2f bf
       -0.122147486 -0.72649944 -0.679205 -0.6842095
000170 f3 f7 34 bf 82 e3 32 3f cf 32 b8 3c cc d3 6e bf
       -0.7069084 0.698784 0.022485165 -0.93291926
000180 51 a1 ed be 88 d0 c3 bd ab 5a 09 bf 63 89 82 be
       -0.46412137 -0.095612586 -0.53653973 -0.25495443

weight f4 [1, 100]
000000 34 11 c7 ba ac 60 e2 39 e0 3b fa b8 9a 3b eb b9
       -0.0015187622 0.00043178105 -0.000119320815 -0.000448671
000010 36 5f a2 bc 1c 9e 1d 3a 06 67 ab 3e 5d 9b d8 3d
       -0.01982079 0.0006012635 0.33477038 0.10576508
000020 ce cc 23 3a 0e e8 0c bd 33 60 e6 3c 9b ff a1 bc
       0.0006248475 -0.034400992 0.028122043 -0.019775202
000030 61 a3 04 bc b7 d8 14 ba 20 97 4e 39 95 57 89 39
       -0.008095593 -0.0005678045 0.0001970199 0.0002619593
000040 90 ef 4a 38 38 85 3c b9 d6 07 1b 3e cc 1a 07 be
       4.8383663e-05 -0.00017978705 0.15139708 -0.13193816
000050 14 dd 3a b9 bf b2 0c ba 20 f1 1e bd ff 64 50 3e
       -0.000178207 -0.00053672114 -0.038804173 0.20351027
000060 eb e6 30 3e e1 b2 93 39 42 13 56 b9 7c c5 7b 39
       0.17275588 0.000281713 -0.00020415804 0.00024010794
000070 a4 4d 8d b9 6e e2 ec 39 ac b0 e6 3d 4d 58 4c b9
       -0.00026951462 0.0004518213 0.11264166 -0.0001948785
000080 60 48 a4 37 81 0a 72 3a b2 1b e3 3d a3 41 07 be
       1.9584026e-05 0.00092331326 0.11089267 -0.13208632
000090 4d aa dc 3c 95 00 18 3a 55 79 2d 3e 08 65 0b 3e
       0.026936674 0.00057984266 0.16940816 0.13612759
0000a0 af a8 e3 3d 3f 62 d6 bb e8 97 ca 38 38 f5 5b 38
       0.11116158 -0.0065424736 9.660405e-05 5.2442047e-05
0000b0 2a 0a c4 b9 12 4d ef 3c 64 3c 16 3e 70 28 1b ba
       -0.00037391606 0.029211555 0.14671475 -0.00059188064
0000c0 54 c9 33 bb 43 92 c0 3e 17 25 71 3e f2 a4 fd 3e
       -0.0027433233 0.3761159 0.23549305 0.49539906
0000d0 be 91 ed bd f0 a6 2a bd e2 b8 bc b9 6a 84 04 3e
       -0.11600064 -0.04166311 -0.00035995903 0.12941137
0000e0 c8 f6 eb b9 87 05 7e 3d db 5e 05 3c ca fd 17 b9
       -0.0004500656 0.06201699 0.008140291 -0.00014495026
0000f0 bb 68 97 bd 7c 4c a2 b8 54 ca 20 3d f0 71 2d b9
       -0.073930226 -7.739008e-05 0.039255455 -0.0001654101
000100 f2 3c 2a 3e 5c 8a 0d bd 5e 71 68 39 e1 a0 c4 ba
       0.16624811 -0.034555778 0.00022167477 -0.0015001559
000110 99 e8 30 ba 5f 2e 16 bb c2 7c c3 ba 45 16 81 b9
       -0.0006748527 -0.0022915823 -0.00149145 -0.0002462139
000120 c1 23 30 3e 17 53 6a 3e e0 26 54 3a 62 d4 ae b9
       0.17201139 0.22883259 0.0008092951 -0.00033346104
000130 c0 9f d3 b7 70 19 17 bd ce 8c 5a 3e a4 83 e3 ba
       -2.522755e-05 -0.036889493 0.21342775 -0.0017357958
000140 0f fb 27 3d 1f 53 de 3d 96 59 9d 39 00 eb 96 36
       0.041010913 0.10855698 0.0003001212 4.497706e-06
000150 78 19 27 39 d2 e6 47 3e e7 7b 09 bd 21 32 a7 bc
       0.00015935849 0.19521645 -0.033565428 -0.020409646
000160 28 5a 4c ba 2e c1 07 39 d5 96 3e ba 83 c8 80 b9
       -0.0007795417 0.00012946568 -0.00072704005 -0.00024563455
000170 a5 e2 4e ba 56 ec 87 3e 86 44 b8 3d 88 b9 f7 39
       -0.0007892049 0.26547498 0.08997445 0.00047249743
000180 4a 18 e9 b9 86 b4 c4 3d 18 8b 02 bb 42 f7 81 bd
       -0.0004445932 0.096047446 -0.0019919332 -0.06345989

S f4 [4, 4]
000000 00 00 00 00 00 00 00 00 00 00 80 3f 00 00 00 00
       0.0 0.0 1.0 0.0
000010 00 00 00 00 00 00 00 00 00 00 00 00 00 00 80 3f
       0.0 0.0 0.0 1.0
000020 00 00 80 bf 00 00 00 00 00 00 00 00 00 00 00 00
       -1.0 0.0 0.0 0.0
000030 00 00 00 00 00 00 80 bf 00 00 00 00 00 00 00 00
       0.0 -1.0 0.0 0.0
